model_save/params_20240805_190215.pth (torch, 68211 bytes, 18 tensors)

fc1.weight f4 [300, 9]
0	0xbd02acab	-0.03190295
1	0x3f79e7d6	0.9761938
2	0x3df79c9d	0.120904185
3	0xbf3b7092	-0.73218644
4	0x3ec70893	0.3887373
5	0x3e5a8342	0.21339133
6	0x3e117c77	0.14207636
7	0x400f780d	2.2417023
8	0xbf8e6ad9	-1.1126357
9	0xbf840e1d	-1.0316807
10	0xbda7e868	-0.08198625
11	0xbe78e46b	-0.24305885
12	0xbe2574fc	-0.16157907
13	0x3f06f014	0.5271008
14	0x3ed5fd36	0.41794747
15	0xbf12245a	-0.5708672
16	0x3faed1e7	1.3657807
17	0xbe980e47	-0.29698393
18	0xbe42bcde	-0.1901736
19	0x3e2e2fd4	0.17010432
20	0x3e5000d3	0.20312814
21	0xbf50916d	-0.814719
22	0xbfe86746	-1.8156517
23	0xbfaae588	-1.3351297
24	0xbfe4396a	-1.7830021
25	0xbe84db0a	-0.25948364
26	0xbf73888c	-0.9513023
27	0xbead281b	-0.3381966
28	0x3e00704a	0.12542835
29	0x3e608487	0.21925555
30	0xbe9c231e	-0.30495542
31	0xbd3c8be6	-0.046031855
32	0x3dc0d969	0.09416468
33	0xbd41695e	-0.047219627
34	0x3e879298	0.2647903
35	0x3e1db942	0.15402701
36	0xbf73c904	-0.952286
37	0x3da98598	0.08277434
38	0xbe79dfdb	-0.244018
39	0xbe58ae60	-0.21160269
40	0xbf3e17b5	-0.74254924
41	0xbfa3284b	-1.2746671
42	0xbf6994d4	-0.9124272
43	0xbd5b8860	-0.053596854
44	0x3e4fbc2b	0.20286624
45	0x3db71070	0.08938682
46	0xbf401b19	-0.7504135
47	0x3f04657c	0.5171735
48	0xc0116961	-2.2720568
49	0x3f5fe666	0.87460935
50	0xbf5dc5d8	-0.8663001
51	0x3ea06d9f	0.31333634
52	0xbe8a12da	-0.26967508
53	0xbf8a93b8	-1.082633
54	0xbefecb61	-0.4976454
55	0xbf108a9c	-0.564615
56	0xbf7de15d	-0.99172
57	0xbf3304de	-0.699293
58	0xbf7aa1fd	-0.97903425
59	0x3f4a1ec7	0.7895321
60	0xbee8156b	-0.4532884
61	0x3ed4a621	0.41532996
62	0x3ef60fc0	0.4805889
63	0xbe920cb2	-0.2852531
64	0xbf3401ad	-0.7031506
65	0x3d952158	0.072817504
66	0xbdf088c2	-0.117448345
67	0x3ea5cffa	0.32385236
68	0xbc06aa3d	-0.008219299
69	0x3e5ae0ec	0.21374863
70	0xbe1e21b2	-0.15442541
71	0x3e0c0b3c	0.1367616
72	0xbddfce7a	-0.10928054
73	0x3ce986fc	0.028506748
74	0xbdfe195d	-0.124071814
75	0xbdb3c018	-0.08776873
76	0xbea6e7b9	-0.32598665
77	0x3cbf2b8e	0.023336198
78	0xbf175050	-0.5910692
79	0x3e7fd971	0.24985291
80	0x3e41e876	0.18936333
81	0xbd9ef02d	-0.07760654
82	0xbea91e10	-0.33030748
83	0xbf203f58	-0.62596655
84	0x3f33e59e	0.70272243
85	0xbf320634	-0.69540715
86	0xbe2d76a9	-0.16939797
87	0x3f861cbe	1.0477521
88	0xc012a022	-2.2910237
89	0xbfa4bac6	-1.2869499
90	0xbd9b215a	-0.07574721
91	0x3eb9417b	0.3618277
92	0xbe82e5ec	-0.2556604
93	0x3e215b2e	0.15757439
94	0xbea3d595	-0.31998888
95	0xbe288f37	-0.16460882
96	0xbe8f4950	-0.2798562
97	0x3e241e69	0.16027226
98	0xbefcddad	-0.49387875
99	0xbd8d7cac	-0.06908545
100	0xbf21c2ab	-0.63187665
101	0x3da73dfe	0.08166121
102	0xbfa09af8	-1.2547293
103	0xbf10ad42	-0.5651437
104	0xbfa56fe4	-1.2924771
105	0xbf99dc48	-1.202035
106	0xbf5f9342	-0.8733407
107	0xbf626458	-0.8843436
108	0x3e61c110	0.22046304
109	0x3ee3c8e7	0.44489214
110	0xbf86688b	-1.0500654
111	0xbec721cb	-0.3889297
112	0xbfa1a930	-1.2629757
113	0x3f94cef8	1.1625662
114	0x3f57f1c6	0.8435329
115	0x4068435c	3.6291113
116	0xbec15876	-0.37762803
117	0xbc86ab70	-0.01643917
118	0xbd8e84dc	-0.06958935
119	0xbdd4b7e0	-0.10386634
120	0xbea041ec	-0.31300294
121	0xbe8d5ba8	-0.2760899
122	0x3e1fb92a	0.15597978
123	0x3e36b8f2	0.17843989
124	0xbe351c23	-0.17686515
125	0xbe0e4d46	-0.13896665
126	0xbdad6e36	-0.08468287
127	0xbe872dea	-0.26402217
128	0x3d59ed88	0.053205043
129	0xbe986ee0	-0.2977209
130	0x3c5d5580	0.013509154
131	0x3e25e362	0.16200021
132	0x3e034502	0.12819293
133	0xbde56490	-0.112008214
134	0xbd7a3f20	-0.061095357
135	0xbeb5aea2	-0.35484797
136	0xbe604446	-0.21901044
137	0xbf6138ea	-0.8797747
138	0xbd41bae6	-0.04729738
139	0x3e2d523f	0.16925906
140	0x3eb78a55	0.35847726
141	0x3ecf265e	0.4045896
142	0x3b901915	0.0043975213
143	0xbe23f16a	-0.16010061
144	0xbd117cd5	-0.03551944
145	0xbd95307e	-0.0728464
146	0xbebe400b	-0.37158236
147	0xbf359316	-0.7092756
148	0x3eae5a12	0.34053093
149	0x3e9d4fb3	0.30724868
150	0x3e0a68ad	0.13516493
151	0x3eff75ad	0.49894467
152	0x3e0531e1	0.13007309
153	0xbea265ca	-0.31718284
154	0xbf9bade0	-1.2162437
155	0xbd3266be	-0.043555014
156	0xbf83a93d	-1.0286022
157	0x3f6fae2d	0.93625146
158	0x3db861fe	0.090030655
159	0x3fa0f5dc	1.257503
160	0x3ef2d8ae	0.47430938
161	0xbf621d7c	-0.8832624
162	0xbd5c3dc9	-0.05376986
163	0x3e703443	0.23457436
164	0xbd5d4c9b	-0.054028135
165	0xbf0786be	-0.52939975
166	0x3d8668bf	0.065629475
167	0x3e92a5c7	0.28642103
168	0xbe6950c9	-0.22784723
169	0x3ea4e24f	0.3220391
170	0x3e0f3c26	0.13987789
171	0xbf472cff	-0.77803034
172	0xbe5a16a6	-0.21297702
173	0xbd84cd72	-0.06484498
174	0xbe2c1fa4	-0.16808945
175	0xbd9d48c4	-0.076798946
176	0xbec69975	-0.38788953
177	0xbf643b9b	-0.8915345
178	0xbe9b3315	-0.3031241
179	0x3c8fad2a	0.017538626
180	0x3c68659c	0.014184382
181	0xbce2814e	-0.027649548
182	0xbf305b87	-0.6888966
183	0xbed9012f	-0.42383716
184	0x3de52c61	0.11190105
185	0xbd9303be	-0.07178448
186	0x3f6404b7	0.89069694
187	0x3e4d9237	0.20075308
188	0xbde31e28	-0.11089736
189	0x3bebd384	0.0071968455
190	0x3f82be97	1.0214413
191	0xbe52d386	-0.20588502
192	0xbcbd5a41	-0.023114325
193	0xbf79c899	-0.9757171
194	0xbf261570	-0.6487646
195	0xbfa5534b	-1.2916044
196	0x3f7b25d8	0.9810462
197	0xbfd29d8f	-1.6454333
198	0xbf96db18	-1.1785612
199	0xbee23edf	-0.44188592
200	0x3e6e8e1a	0.23296395
201	0xbee8d7a1	-0.45477012
202	0x3ee56336	0.44802254
203	0x3f83996c	1.0281196
204	0xbfa04d87	-1.252366
205	0x3f754dbb	0.9582173
206	0xbe820468	-0.25393987
207	0x3e0da88d	0.13833828
208	0xbec05525	-0.3756496
209	0x3f3617ee	0.71130264
210	0xbec6d6d7	-0.38835785
211	0x3f43ef5a	0.76537097
212	0x3eb1431b	0.3462151
213	0x3f069ae4	0.52580094
214	0x3f3edbb8	0.74554014
215	0xbf7e22b2	-0.9927169
216	0xbe7a30f1	-0.24432732
217	0x3ec58d2c	0.38584268
218	0xbf02ab27	-0.5104241
219	0xbe5b9b11	-0.21445872
220	0xbf678bfb	-0.9044797
221	0x3dc6f5bc	0.09714839
222	0xbf851b14	-1.0398889
223	0x3f25ccb8	0.647655
224	0x3df67a8f	0.12035095
225	0x3e0627a0	0.13101053
226	0xbef5d728	-0.48015714
227	0x3e180647	0.14846145
228	0xbd52e079	-0.051483605
229	0x3f9c7b6d	1.2225167
230	0x3fbb2117	1.4619473
231	0xbe5d0840	-0.21585178
232	0x40054e3a	2.0828996
233	0xbf5b32c6	-0.8562435
234	0x3e580075	0.21093924
235	0xbeaa7280	-0.33290482
236	0x3f04aa65	0.518225
237	0x3dcd1955	0.10014597
238	0x3fcaca34	1.5842957
239	0xbe4555b7	-0.19270979
240	0x3ff8d222	1.9439127
241	0xbfc839b0	-1.5642605
242	0xbfb86de4	-1.4408536
243	0x3cf49763	0.029857343
244	0xbf18e7aa	-0.5972849
245	0x3e783ffc	0.24243158
246	0xbf24c319	-0.64360195
247	0x3f9a580d	1.2058121
248	0xbf354f0c	-0.7082374
249	0xbf06c055	-0.52637225
250	0xbfa3a5bb	-1.2784952
251	0xbf20bf83	-0.62792224
252	0x3e6dc5da	0.23220006
253	0xbea5f9df	-0.324172
254	0xbe548b63	-0.20756297
255	0xbdd43c06	-0.10363011

fc1.bias f4 [300]
0	0x3ef1f8e6	0.47260207
1	0xbf3679f2	-0.71279824
2	0x3d6db8e2	0.058037646
3	0xbeaf0b2f	-0.3418822
4	0xbf286175	-0.6577371
5	0xbd46be36	-0.048521243
6	0x3e5663cc	0.20936507
7	0x3e1144ba	0.14186373
8	0xbf083b9b	-0.5321595
9	0xbe334b5e	-0.17509219
10	0xbf4fe8ee	-0.812148
11	0xbe3af710	-0.1825831
12	0x3e2b6dc7	0.16741095
13	0xbe3e9c7b	-0.1861438
14	0xbe8bfa3e	-0.27339357
15	0xbe07d445	-0.13264568
16	0xbf0a7002	-0.5407716
17	0xbf0e73a7	-0.5564522
18	0xbf0dd061	-0.55396086
19	0x3d2967c1	0.041358713
20	0xbf155763	-0.58336467
21	0xbdff7693	-0.12473788
22	0xbeba46b7	-0.36382076
23	0xbed059d3	-0.4069353
24	0xbf0264c8	-0.5093503
25	0x3f195b7d	0.59905225
26	0xbf49c83e	-0.7882117
27	0xbf24c2f6	-0.64359987
28	0xbe3f891b	-0.18704645
29	0x3e926c15	0.28598085
30	0xbe065174	-0.1311701
31	0xbeddb0d9	-0.43298987
32	0xbeddc27c	-0.43312442
33	0xbf3ab1d5	-0.729276
34	0xbeeda1af	-0.46412417
35	0xbe18c98f	-0.14920639
36	0x3e80876f	0.25103328
37	0x3e177f39	0.14794625
38	0xbf7ef9fb	-0.9960019
39	0x3ecd740a	0.40127593
40	0xbe73ca00	-0.23807526
41	0x3e247804	0.16061407
42	0xbe5fe35f	-0.21864079
43	0xbf176e94	-0.59153104
44	0xbf9d82ac	-1.2305503
45	0xbc8ca5fb	-0.01716899
46	0xbe50fa14	-0.20407897
47	0x3ebbe292	0.36696297
48	0xbee30e95	-0.44347063
49	0x3d8fa98d	0.07014761
50	0xbf356c01	-0.70867926
51	0xbe55dafb	-0.20884316
52	0xbe73f65a	-0.23824444
53	0xbe3590d5	-0.1773103
54	0xbf65b20c	-0.897248
55	0x3e23232d	0.15931387
56	0xbe0e96fc	-0.13924783
57	0xbde8b176	-0.11361973
58	0xbf822e78	-1.0170431
59	0xbe887806	-0.2665407
60	0xbf10538c	-0.5637748
61	0xbe5f2943	-0.21793084
62	0xbf089b51	-0.53361994
63	0xbea78df4	-0.3272549
64	0xbe73c5b3	-0.23805885
65	0xbe116bdd	-0.14201303
66	0xbe8651d3	-0.26234302
67	0xbd6c5d5c	-0.057706222
68	0xbf741549	-0.9534498
69	0xbf3311d0	-0.69949055
70	0x3f23e97e	0.64028156
71	0x3f03b0db	0.51441735
72	0xbdf31747	-0.11869674
73	0xbef169b6	-0.47150964
74	0x3ef53dc5	0.4789869
75	0x3f5d935f	0.86552995
76	0xbe48830a	-0.19581237
77	0xbe1d0a00	-0.15335846
78	0xbe2806e1	-0.16408874
79	0x3e8497b0	0.25896978
80	0x3ee5cec5	0.44884315
81	0xbee59016	-0.4483649
82	0xbed1b536	-0.40958565
83	0xbe91d4a7	-0.28482553
84	0x3e2b1585	0.16707428
85	0xbc588333	-0.013214874
86	0xbe0a43a3	-0.13502364
87	0x3d74605c	0.059662208
88	0xbf107e3f	-0.56442636
89	0xbf13051a	-0.5742966
90	0xbe956ac2	-0.29183012
91	0xbee11d27	-0.43967554
92	0xbe98cf88	-0.29845834
93	0xbeaff9fd	-0.34370413
94	0xbf235555	-0.6380208
95	0xbebf94b3	-0.37418136
96	0xbef9c554	-0.48783362
97	0x3e83c852	0.2573877
98	0x3df8692b	0.12129434
99	0xbeb2b904	-0.3490678
100	0xbd95cfb8	-0.0731501
101	0x3e9fdf9f	0.31225297
102	0x3ef66c2c	0.48129404
103	0x3e610d33	0.21977691
104	0xbee8e2d8	-0.45485568
105	0xbe4b1dfb	-0.19835655
106	0xbe0f62df	-0.1400256
107	0xbe4f87f8	-0.20266712
108	0xbf50267f	-0.8130874
109	0x3e00187a	0.12509337
110	0xbee27e4c	-0.44236982
111	0xbf34dbf2	-0.7064811
112	0xbf2e2405	-0.6802371
113	0xbf412c5e	-0.75458324
114	0xbefe3313	-0.49648342
115	0xbf67dd09	-0.9057165
116	0xbc58d6a5	-0.013234769
117	0x3f582c31	0.8444243
118	0xbf43ca7b	-0.76480836
119	0xbf580a97	-0.8439116
120	0x3e8c8318	0.27443767
121	0xbc29ca28	-0.010363139
122	0xbf1b2d99	-0.6061645
123	0xbe752ac1	-0.2394209
124	0xbee20718	-0.44146037
125	0x3d5d5b5c	0.054042205
126	0xbf22a4f3	-0.6353294
127	0xbec21265	-0.3790466
128	0xbe82f7bb	-0.25579628
129	0x3ed7e4f5	0.42166868
130	0xbe6c3d4b	-0.23070256
131	0x3ed56112	0.4167562
132	0xbe774672	-0.24147967
133	0xbf222fbe	-0.633541
134	0xbe7b6d9d	-0.24553533
135	0xbec58d31	-0.38584283
136	0xbc302f85	-0.010753517
137	0xbf28aa24	-0.65884614
138	0x3f14e326	0.581591
139	0xbe8063cc	-0.2507614
140	0xbe8958f6	-0.26825684
141	0xbf2fe9b9	-0.6871601
142	0xbdc0ba17	-0.09410494
143	0x3e9558d2	0.29169327
144	0xbe8ae4b9	-0.27127627
145	0xbece8337	-0.40334484
146	0x3f0358fb	0.5130765
147	0xbdcb32a2	-0.09921767
148	0xbdeec59c	-0.11658785
149	0x3f1d3c4e	0.6142014
150	0xbf37585c	-0.716192
151	0xbef20b18	-0.4727409
152	0xbebbbfdb	-0.36669812
153	0x3ecf2035	0.4045426
154	0xbe39f7be	-0.18160912
155	0x3c193a1e	0.009352235
156	0xbdf6ff17	-0.12060373
157	0xbfa8456c	-1.3146186
158	0xbebe6616	-0.3718726
159	0x3da71cd8	0.081597984
160	0xbdeac19a	-0.11462708
161	0x3e9cad00	0.3060074
162	0xbe439013	-0.19097929
163	0xbea8906b	-0.32922682
164	0x3c4e6778	0.012597911
165	0xbf4927fb	-0.7857663
166	0x3c8abcfa	0.016935814
167	0xbeb19135	-0.34681097
168	0xbf411c28	-0.7543359
169	0xbd8e94f6	-0.06962006
170	0xbe0763af	-0.1322162
171	0xbe4fa908	-0.20279324
172	0xbf040026	-0.51562726
173	0xbf51e09f	-0.8198337
174	0xbe2dfc7b	-0.16990845
175	0x3f008e40	0.50217056
176	0x3e245b6d	0.16050501
177	0xbe3cf776	-0.18453774
178	0xbea14032	-0.3149429
179	0xbe9beb2a	-0.30452853
180	0xbce55568	-0.027994826
181	0xbeee40b4	-0.4653374
182	0xbe812fc7	-0.25231764
183	0x3ea773ef	0.32705638
184	0x3f1ee100	0.6206207
185	0x3f6e0182	0.9297105
186	0xbf5337e0	-0.82507133
187	0xbe6e18ad	-0.232516
188	0xbf3163e0	-0.6929302
189	0xbf4f8951	-0.81068903
190	0xbda83ea9	-0.082150765
191	0xbe94a9d3	-0.29035816
192	0xbf4e3f34	-0.8056519
193	0xbe780d32	-0.24223784
194	0xbea4721d	-0.32118312
195	0xbf5c9f39	-0.86180454
196	0xbf2386ef	-0.6387777
197	0xbe2ee3a8	-0.17079031
198	0xbe62d867	-0.22152863
199	0xbe6c102b	-0.23053043
200	0xbe893db7	-0.26804897
201	0xbf1428d3	-0.5787479
202	0xbe82fbb3	-0.25582656
203	0xbd73075e	-0.059333198
204	0x3ed7aff3	0.42126426
205	0x3f169502	0.5882112
206	0x3f06319e	0.5241946
207	0xbf580b49	-0.8439222
208	0xbe4d43a1	-0.2004533
209	0xbe4d619e	-0.20056769
210	0x3d939006	0.07205205
211	0xbe1bb2a6	-0.15204868
212	0x3d9376cb	0.07200392
213	0x3e7fadd0	0.24968648
214	0xbf090e31	-0.5353728
215	0xbe99b0a6	-0.30017585
216	0xbe90b09e	-0.28259748
217	0x3e440de5	0.19145925
218	0xbf710865	-0.94153434
219	0xbf0faea2	-0.56125844
220	0xbecb9ff3	-0.3977047
221	0x3dd5601c	0.10418722
222	0xbf386425	-0.7202781
223	0xbe573cca	-0.21019283
224	0xbf1fd61f	-0.624361
225	0xbe849b3e	-0.2589969
226	0x3f020e6c	0.50803256
227	0xbe264d25	-0.16240366
228	0xbcbdc6e5	-0.02316613
229	0xbca72370	-0.02040264
230	0xbe941135	-0.28919378
231	0xbd29232f	-0.04129332
232	0x3c346649	0.011010715
233	0xbeab9b4b	-0.33516917
234	0xbd9602c4	-0.07324746
235	0xbd223962	-0.039605506
236	0xbe51cd4f	-0.20488475
237	0x3f03c6f9	0.51475483
238	0xbdd09f12	-0.1018659
239	0x3bd45de9	0.0064809215
240	0xbdbcbb57	-0.0921542
241	0x3d412135	0.04715081
242	0x3ed4e517	0.41581032
243	0x3e4f6244	0.20252329
244	0xbc1137a7	-0.008863366
245	0xbf2dd88b	-0.67908543
246	0x3dac121a	0.0840189
247	0xbe3fb550	-0.18721509
248	0xbf037331	-0.51347643
249	0xbeb8b428	-0.36074948
250	0xbe8ef5be	-0.2792186
251	0xbd54d120	-0.05195725
252	0x3e4dd549	0.20100893
253	0xbda20192	-0.07910456
254	0x3ee8b543	0.45450792
255	0xbf4c3028	-0.7976098

fc2.weight f4 [2, 300]
0	0x3ef493fa	0.47769147
1	0xbebb81fe	-0.36622614
2	0xc02bd2bb	-2.684737
3	0xbce9ff65	-0.028564164
4	0x3fae879b	1.3635134
5	0x3fc8b666	1.5680664
6	0xbfcfe5c3	-1.6241993
7	0x3d482017	0.04885873
8	0xbe184269	-0.14869083
9	0xc0032b83	-2.0495307
10	0x3ebaaa5e	0.36458105
11	0xbfa5fbd8	-1.2967482
12	0xc0131264	-2.2979975
13	0xbcb296e8	-0.021800473
14	0xbd1e9590	-0.038716853
15	0x3ef13c1b	0.4711617
16	0x3f96dff8	1.17871
17	0x4018301c	2.3779364
18	0x3f0b89ac	0.54506946
19	0x3f0b1765	0.5433257
20	0x3ffe7158	1.987834
21	0x3dd67ed8	0.10473412
22	0xc00ae829	-2.17042
23	0xbf8b47fa	-1.088134
24	0x3fae410e	1.3613603
25	0x3f786b14	0.9703839
26	0xc028b195	-2.6358387
27	0xbfff1d9a	-1.9930909
28	0xbd279fdc	-0.04092394
29	0xc02958a0	-2.6460342
30	0x3e82f52e	0.25577682
31	0x3e6276c8	0.22115624
32	0xbfe3f617	-1.7809476
33	0x3fc9a081	1.5752107
34	0x3ed14866	0.40875548
35	0x3eef2f3d	0.46715727
36	0x3e0457c8	0.12924111
37	0x3c1a794f	0.009428336
38	0x3f41e133	0.7573425
39	0x3f3c62fb	0.7358853
40	0x4003a307	2.0568254
41	0xbfcd0375	-1.601668
42	0x3d059b95	0.032619078
43	0x3f55b8f2	0.8348533
44	0xc09afad8	-4.8431206
45	0xbe173591	-0.14766528
46	0xbe26f6f1	-0.16305138
47	0x40172f04	2.3622446
48	0x3dae4992	0.08510126
49	0xbcc841aa	-0.024445374
50	0xbf408fd0	-0.7521944
51	0x3f8c91b1	1.0981961
52	0x3bdf25f9	0.0068099466
53	0xbe15474e	-0.14577982
54	0x400b3075	2.1748326
55	0xbec0b92d	-0.37641278
56	0x3c698913	0.014253872
57	0x3c5593b7	0.013035706
58	0xc001c1d0	-2.0274544
59	0x3eaa71a7	0.33289835
60	0xbdeaaf55	-0.11459223
61	0x3e2a7703	0.16646962
62	0x3ef39b8c	0.4757961
63	0x3c857378	0.016290411
64	0x4050a159	3.2598479
65	0xc001d5a5	-2.0286648
66	0xbcc561c4	-0.02409447
67	0xbcf409ed	-0.02978989
68	0x3fe5e871	1.796156
69	0x3fa42568	1.2823915
70	0x3f2a2faa	0.6647898
71	0xc03baea7	-2.932535
72	0xbf9e32e2	-1.2359278
73	0x3f8394de	1.0279806
74	0x405e9baf	3.4782522
75	0x4004efed	2.077144
76	0x3fa93cd7	1.3221692
77	0xbd39471b	-0.045233827
78	0xc013ebe3	-2.3112724
79	0xc03c5d1c	-2.943183
80	0xbf78777c	-0.9705732
81	0xbf0b15c6	-0.543301
82	0xbf7f30f9	-0.996841
83	0xc0190e63	-2.391503
84	0xbe85b532	-0.26114804
85	0xbffda270	-1.9815197
86	0x3c820f18	0.015876338
87	0x3ff9bb90	1.9510365
88	0x3eab2e91	0.33433965
89	0x3ff7470c	1.9318557
90	0x3c199f58	0.009376369
91	0xbe0a3b9c	-0.13499302
92	0x3c8412b0	0.016122192
93	0x3c6d5dbb	0.014487679
94	0x3d09e13a	0.03366206
95	0x3ebc72a0	0.36806202
96	0x3ea6e39a	0.3259552
97	0xc00724ef	-2.1116292
98	0xbfc17ebd	-1.5116802
99	0xbf572291	-0.8403712
100	0x3fae5ff1	1.3623029
101	0x3f4bfdf4	0.79684377
102	0xbee0202b	-0.43774542
103	0x40184ea8	2.3798008
104	0xbfde0f0c	-1.7348342
105	0xbcaed7c9	-0.021343129
106	0xc016aa3d	-2.3541405
107	0xbe056bef	-0.13029455
108	0x3fdbd7e2	1.7175257
109	0xbf82e421	-1.022587
110	0xbe4ff5d9	-0.20308627
111	0x3e7e95a4	0.24861771
112	0x3f811d7e	1.0087125
113	0x3f9407f9	1.1564933
114	0x3ff988de	1.9494894
115	0xc01eb84c	-2.4799986
116	0xbfbb6711	-1.4640828
117	0xbfd16e0c	-1.6361709
118	0xc01d429a	-2.45719
119	0xc0900d65	-4.501635
120	0xc02a9367	-2.6652467
121	0xbe7d5580	-0.24739647
122	0xc04947e6	-3.1450133
123	0x403de739	2.9672377
124	0xbfa27a7e	-1.2693632
125	0xbe59845b	-0.21241896
126	0x3d935e3d	0.07195709
127	0xbec83479	-0.39102533
128	0xbd41d446	-0.04732158
129	0xbfb85180	-1.4399872
130	0xbcdb3556	-0.026758831
131	0xbfdcd86d	-1.7253548
132	0x3f55b66f	0.83481497
133	0x3d8e1faf	0.06939637
134	0xba03a059	-0.0005021147
135	0xbd15855a	-0.036504127
136	0x3f08bd43	0.5341379
137	0x406cda82	3.7008367
138	0x3ff67c56	1.9256694
139	0xb9bc9100	-0.00035966188
140	0xbeb8d8e3	-0.3610297
141	0xbf9b97b2	-1.2155669
142	0x401c2e49	2.440325
143	0xc0150e8c	-2.3290129
144	0xbd09d534	-0.033650592
145	0xbe8ae790	-0.27129793
146	0x3ff620c6	1.9228752
147	0x3d786147	0.060639646
148	0x4062b7b5	3.5424626
149	0xbf55988a	-0.8343588
150	0xbfcc2395	-1.5948359
151	0x3ff382a6	1.9024246
152	0xbdf6bcfe	-0.12047766
153	0x3fb361a1	1.4014169
154	0xbf92bcfa	-1.1463921
155	0xbf3b5875	-0.7318185
156	0x3fd3f127	1.6557969
157	0xc0296415	-2.6467335
158	0xbfc0ebe9	-1.5071994
159	0x3f6fb52c	0.9363582
160	0xbf4c8f32	-0.79906
161	0xbed6e5cd	-0.419722
162	0x403c5fd5	2.9433491
163	0xbe8fab1a	-0.28060228
164	0x3e0b13bb	0.13581745
165	0x3ad14a78	0.0015967628
166	0x3f999dfe	1.200134
167	0xbf45f6a4	-0.7732947
168	0x3fc2f6dc	1.5231586
169	0x3a9cdba5	0.0011967315
170	0xc02f45f0	-2.7386436
171	0x3b411cf4	0.002946672
172	0x3e9f2d87	0.31089422
173	0x401a715b	2.4131687
174	0xbc8aa1ff	-0.016922949
175	0xc01086ca	-2.2582269
176	0x40075cf5	2.1150486
177	0xbf3eea4b	-0.7457625
178	0x3ca0d348	0.019631997
179	0x3ca3e38f	0.02000597
180	0x4033d885	2.8100903
181	0xbfb791ad	-1.4341332
182	0x3f7ce59e	0.9878787
183	0xbeb5d1b3	-0.3551155
184	0xbf1478db	-0.5799691
185	0x3fef30da	1.8686783
186	0x3fb7f525	1.4371687
187	0x3fe0aca9	1.7552692
188	0x3f80995c	1.0046802
189	0x4049bf36	3.1522956
190	0x401e4a7e	2.4732966
191	0x4042d9d9	3.0445464
192	0xbf068948	-0.52553225
193	0x3cf39c20	0.029737532
194	0xbfc29f3b	-1.5204843
195	0xc0556c56	-3.3347373
196	0xbec75ec1	-0.3893948
197	0xbd108c78	-0.03529021
198	0xbf937fe2	-1.1523402
199	0x401e8546	2.4768844
200	0x3eeaea3b	0.4588183
201	0x3fea530d	1.8306595
202	0x3d3dc308	0.046328574
203	0xbf6474f6	-0.8924097
204	0x3fbd3c29	1.4783984
205	0xbe058fbf	-0.13043116
206	0x3f461821	0.7738057
207	0xc0138456	-2.3049521
208	0xbf435561	-0.7630215
209	0xbd252b3e	-0.040324442
210	0xbf5ffa8b	-0.87491673
211	0xbc91498e	-0.017735269
212	0xbf343a35	-0.70401317
213	0xbf9bd803	-1.2175297
214	0xbf55ded2	-0.8354312
215	0xbc0bef68	-0.008540966
216	0x3b85fdf0	0.0040891096
217	0x404994d3	3.1497085
218	0x3fcea1ff	1.6143187
219	0xbf1a3ad6	-0.60246027
220	0x3f478b67	0.77947086
221	0xbdde751a	-0.10862179
222	0xbf2fd32c	-0.686816
223	0x3f16ff33	0.58983153
224	0xc056a0ab	-3.3535564
225	0x3f81dfde	1.0146444
226	0xbfb24bf5	-1.392943
227	0x3f306af7	0.68913215
228	0xbfc6ccbd	-1.5531231
229	0x3d564f18	0.052321523
230	0x3fe16600	1.7609253
231	0x3ee5340c	0.4476627
232	0xbd961255	-0.07327715
233	0xbe2d5f5f	-0.16930912
234	0x3d33fef2	0.043944307
235	0x400a47ed	2.16064
236	0xbf24f107	-0.6443028
237	0x3f88a63e	1.0675733
238	0xbfc14ad7	-1.5100964
239	0xbbf1ade0	-0.007375464
240	0xbebfef4d	-0.3748726
241	0x3f8257fb	1.01831
242	0xbf2d22aa	-0.6763102
243	0x3fd53c67	1.6659058
244	0xbf95fa00	-1.1716919
245	0xbf4642e0	-0.77445793
246	0xc013cef8	-2.3095074
247	0xbaf65be0	-0.0018795691
248	0x3dfed073	0.12442102
249	0x3efcf8cd	0.4940857
250	0xbb483a50	-0.0030552335
251	0xbc6c9cc8	-0.014441676
252	0xbd4316ba	-0.047629096
253	0xbceabe3e	-0.028655168
254	0x3fb0ce4f	1.381296
255	0xbebd33b4	-0.3695351

fc2.bias f4 [2]
0	0xbeab8768	-0.33501744
1	0xbe803287	-0.2503855

fc1.weight f4 [300, 9]
0	0xbd04cbd9	-0.032420967
1	0x3f79cd0c	0.975785
2	0x3df10d93	0.11770167
3	0xbf3be1e4	-0.73391557
4	0x3ec35589	0.38151196
5	0x3e58726a	0.21137396
6	0x3e0e8eb0	0.13921618
7	0x400f82dd	2.2423623
8	0xbf8db155	-1.1069742
9	0xbf840e17	-1.03168
10	0xbda7e839	-0.0819859
11	0xbe78e446	-0.2430583
12	0xbe2574e1	-0.16157867
13	0x3f06f05e	0.5271052
14	0x3ed5fd7f	0.41794965
15	0xbf122458	-0.57086706
16	0x3faed224	1.365788
17	0xbe980e04	-0.29698193
18	0xbe42babf	-0.1901655
19	0x3e2d8540	0.16945362
20	0x3e517eec	0.20458573
21	0xbf513815	-0.817262
22	0xbfe8793b	-1.8161997
23	0xbfaaaad0	-1.3333378
24	0xbfe4b45a	-1.7867539
25	0xbe80a431	-0.25125268
26	0xbf738866	-0.9513
27	0xbead27f9	-0.3381956
28	0x3e007099	0.12542953
29	0x3e6084d0	0.21925664
30	0xbe9c22f0	-0.30495405
31	0xbd3c8c35	-0.04603215
32	0x3dc0d9c6	0.09416537
33	0xbd416986	-0.047219776
34	0x3e8792de	0.26479238
35	0x3e1db942	0.15402701
36	0xbf73c8da	-0.9522835
37	0x3da985e4	0.08277491
38	0xbe79dfd6	-0.24401793
39	0xbe58ae2c	-0.21160191
40	0xbf3e17e9	-0.74255234
41	0xbfa32898	-1.2746763
42	0xbf699520	-0.9124317
43	0xbd5b88a3	-0.053597104
44	0x3e4fbbef	0.20286535
45	0x3db88e9f	0.09011578
46	0xbf3fadb2	-0.74874413
47	0x3f0472d7	0.5173773
48	0xc01136d3	-2.2689712
49	0x3f5ffb19	0.8749252
50	0xbf5f64b1	-0.8726302
51	0x3ea213c5	0.31655708
52	0xbe91470c	-0.28374517
53	0xbf8a939f	-1.08263
54	0xbefecb99	-0.49764708
55	0xbf108af7	-0.56462044
56	0xbf7de19d	-0.99172384
57	0xbf330525	-0.69929725
58	0xbf7aa1fa	-0.97903407
59	0x3f4a1e70	0.78952694
60	0xbee81525	-0.45328632
61	0x3ed4a624	0.41533005
62	0x3ef6100d	0.4805912
63	0xbe920c84	-0.28525174
64	0xbf34017e	-0.70314777
65	0x3d952193	0.072817944
66	0xbdf0886e	-0.11744772
67	0x3ea5d048	0.32385468
68	0xbc06aa72	-0.008219348
69	0x3e5ae10f	0.21374916
70	0xbe1e21df	-0.15442608
71	0x3e0c0b66	0.13676223
72	0xbddfce64	-0.10928038
73	0x3ce98710	0.028506786
74	0xbdfe1916	-0.124071285
75	0xbdb3bfde	-0.0877683
76	0xbea6e7f8	-0.32598853
77	0x3cbf2bb1	0.023336263
78	0xbf17508f	-0.591073
79	0x3e7fd985	0.24985321
80	0x3e41e8de	0.18936488
81	0xbda4a09f	-0.080384485
82	0xbeaad603	-0.33366403
83	0xbf2026be	-0.62559116
84	0x3f3362c5	0.70072585
85	0xbf326a80	-0.69693756
86	0xbe288a7c	-0.16459078
87	0x3f84ccea	1.0375035
88	0xc0129d68	-2.2908573
89	0xbfa4ba8d	-1.2869431
90	0xbd9b2120	-0.075746775
91	0x3eb941a1	0.36182883
92	0xbe82e59b	-0.255658
93	0x3e215b44	0.15757471
94	0xbea3d5a4	-0.31998932
95	0xbe288f68	-0.16460955
96	0xbe8f497a	-0.27985746
97	0x3e241e4d	0.16027184
98	0xbefcdd76	-0.4938771
99	0xbd8d7cee	-0.06908594
100	0xbf21c2c8	-0.6318784
101	0x3da73de9	0.08166105
102	0xbfa09b14	-1.2547326
103	0xbf10acf4	-0.56513906
104	0xbfa56fcd	-1.2924744
105	0xbf99dc20	-1.2020302
106	0xbf5f9367	-0.87334293
107	0xbf626480	-0.884346
108	0x3e65d149	0.22443117
109	0x3ee648f8	0.44977546
110	0xbf8594f7	-1.0436085
111	0xbec4581b	-0.3834847
112	0xbfa209af	-1.2659205
113	0x3f955bdf	1.1668662
114	0x3f57518a	0.84108794
115	0x40688ab1	3.633465
116	0xbebf784d	-0.3739647
117	0xbc86ab70	-0.01643917
118	0xbd8e84dc	-0.06958935
119	0xbdd4b7e0	-0.10386634
120	0xbea041ec	-0.31300294
121	0xbe8d5ba8	-0.2760899
122	0x3e1fb92a	0.15597978
123	0x3e36b8f2	0.17843989
124	0xbe351c23	-0.17686515
125	0xbe0e4d46	-0.13896665
126	0xbdad6e36	-0.08468287
127	0xbe872dea	-0.26402217
128	0x3d59ed88	0.053205043
129	0xbe986ee4	-0.29772103
130	0x3c5d5580	0.013509154
131	0x3e25e362	0.16200021
132	0x3e034502	0.12819293
133	0xbde56490	-0.112008214
134	0xbd7a3f26	-0.06109538
135	0xbeb5ae66	-0.35484618
136	0xbe6043f9	-0.2190093
137	0xbf6138e5	-0.8797744
138	0xbd41bac7	-0.047297265
139	0x3e2d528c	0.1692602
140	0x3eb78a91	0.35847905
141	0x3ecf26b6	0.40459222
142	0x3b90194b	0.0043975464
143	0xbe23f161	-0.16010047
144	0xbd117cc4	-0.035519376
145	0xbd95306c	-0.07284626
146	0xbebe3fc2	-0.37158018
147	0xbf35930e	-0.7092751
148	0x3eae5a38	0.34053206
149	0x3e9d501b	0.30725178
150	0x3e0a690a	0.13516632
151	0x3eff75e9	0.49894646
152	0x3e0531e3	0.13007312
153	0xbea265ad	-0.31718197
154	0xbf9badc0	-1.2162399
155	0xbd32668e	-0.043554835
156	0xbf83a8eb	-1.0285925
157	0x3f6fae74	0.9362557
158	0x3db86231	0.090031035
159	0x3fa0f618	1.2575102
160	0x3ef2d901	0.47431186
161	0xbf621dcc	-0.88326716
162	0xbd5c3d80	-0.05376959
163	0x3e703471	0.23457505
164	0xbd5d4c98	-0.054028124
165	0xbf0786c3	-0.52940005
166	0x3d86686f	0.06562888
167	0x3e92a607	0.28642294
168	0xbe695128	-0.22784865
169	0x3ea4e264	0.32203972
170	0x3e0f3bcf	0.13987659
171	0xbf472ceb	-0.77802914
172	0xbe5a1654	-0.2129758
173	0xbd84cd1b	-0.06484433
174	0xbe2c1f85	-0.16808899
175	0xbd9d4913	-0.076799534
176	0xbec699a6	-0.387891
177	0xbf643bfc	-0.8915403
178	0xbe9b337b	-0.30312714
179	0x3c8fad7a	0.017538775
180	0x3c686600	0.014184475
181	0xbce28105	-0.027649412
182	0xbf305b82	-0.6888963
183	0xbed900fc	-0.42383564
184	0x3de52c9c	0.11190149
185	0xbd930364	-0.07178381
186	0x3f6404e8	0.89069986
187	0x3e4d926a	0.20075384
188	0xbde31e0d	-0.11089716
189	0x3b735234	0.0037127854
190	0x3f825f36	1.0185306
191	0xbe561456	-0.20906195
192	0xbcd85ba4	-0.026410885
193	0xbf79fc49	-0.9765058
194	0xbf25895c	-0.6466272
195	0xbfa5c2ea	-1.2950108
196	0x3f7c4256	0.9853872
197	0xbfd29d70	-1.6454296
198	0xbf95350a	-1.1656811
199	0xbedc2676	-0.42998093
200	0x3e7c90b9	0.24664582
201	0xbee0d10d	-0.43909493
202	0x3edd4155	0.43213907
203	0x3f854c12	1.041384
204	0xbfa2557f	-1.2682341
205	0x3f7843f7	0.96978706
206	0xbe82049a	-0.25394136
207	0x3e12518f	0.14288925
208	0xbebc88fb	-0.36823258
209	0x3f371a70	0.71524715
210	0xbec4ad95	-0.38413683
211	0x3f472162	0.77785313
212	0x3eae84f9	0.34085825
213	0x3f0a8041	0.5410195
214	0x3f3eb27d	0.744911
215	0xbf7e2276	-0.99271333
216	0xbe71e6ed	-0.23623247
217	0x3ec82458	0.39090228
218	0xbeff31f7	-0.49842808
219	0xbe53940e	-0.20661947
220	0xbf69cea0	-0.9133091
221	0x3de2254e	0.110422716
222	0xbf86c7b1	-1.0529691
223	0x3f28f7ad	0.66002923
224	0x3df67ab1	0.1203512
225	0x3e057498	0.13032758
226	0xbef6b45f	-0.48184487
227	0x3e170054	0.14746219
228	0xbd588e66	-0.052870177
229	0x3f9bd146	1.217324
230	0x3fbb234c	1.4620147
231	0xbe62cdc3	-0.22148804
232	0x40054d3a	2.0828385
233	0xbf5bd792	-0.8587581
234	0x3e549d09	0.20763029
235	0xbeabaa5d	-0.33528414
236	0x3f0430c9	0.5163694
237	0x3dc3e9f1	0.09566105
238	0x3fcad433	1.5846008
239	0xbe4a4632	-0.1975334
240	0x3ff82b9f	1.9388312
241	0xbfc7dfd5	-1.5615183
242	0xbfb86dea	-1.4408543
243	0x3cf4977d	0.029857391
244	0xbf18e798	-0.59728384
245	0x3e784035	0.24243243
246	0xbf24c2c1	-0.6435967
247	0x3f9a5857	1.2058209
248	0xbf354f79	-0.7082439
249	0xbf06c053	-0.52637213
250	0xbfa3a5fc	-1.278503
251	0xbf20bf69	-0.6279207
252	0x3e6dc5da	0.23220006
253	0xbea5f9df	-0.324172
254	0xbe548b63	-0.20756297
255	0xbdd43c06	-0.10363011

fc1.bias f4 [300]
0	0x3ef28d59	0.47373465
1	0xbf3679ea	-0.71279776
2	0x3d71e345	0.05905463
3	0xbeaf0b2d	-0.34188214
4	0xbf286151	-0.65773493
5	0xbd49f0bb	-0.049301844
6	0x3e5663d8	0.20936525
7	0x3e1144e7	0.1418644
8	0xbf083b9f	-0.53215975
9	0xbe3603bf	-0.17774867
10	0xbf4fe8db	-0.81214684
11	0xbe3af721	-0.18258335
12	0x3e2e2933	0.17007904
13	0xbe3e9c7b	-0.1861438
14	0xbe8bfa3e	-0.27339357
15	0xbe07d41b	-0.13264506
16	0xbf0a6faf	-0.54076666
17	0xbf0e736b	-0.55644864
18	0xbf0dd023	-0.55395716
19	0x3d2967d0	0.04135877
20	0xbf155718	-0.5833602
21	0xbe0066c7	-0.12539206
22	0xbeb3780f	-0.35052535
23	0xbecccc16	-0.39999455
24	0xbeff8667	-0.49907228
25	0x3f1904c2	0.59772885
26	0xbf4ac23e	-0.7920264
27	0xbf24c2c1	-0.6435967
28	0xbe3f891b	-0.18704645
29	0x3e927954	0.2860819
30	0xbe065163	-0.13116984
31	0xbeddb098	-0.43298793
32	0xbedd4f2a	-0.4322446
33	0xbf3aba6c	-0.7294071
34	0xbeeda175	-0.46412244
35	0xbe18c984	-0.14920622
36	0x3e80d342	0.25161177
37	0x3e17533f	0.1477785
38	0xbf7fe9e3	-0.9996626
39	0x3ecd71a8	0.40125775
40	0xbe765fe3	-0.24060015
41	0x3e248b05	0.16068657
42	0xbe5fe318	-0.21863973
43	0xbf188f23	-0.5959341
44	0xbf9e0cfc	-1.2347713
45	0xbc8ca5b3	-0.017168855
46	0xbe50f9e8	-0.20407832
47	0x3ebaef4d	0.36510697
48	0xbee3f550	-0.44523096
49	0x3d907f6f	0.07055556
50	0xbf339ffa	-0.7016598
51	0xbe55dabc	-0.20884222
52	0xbe73f62a	-0.23824373
53	0xbe3590b6	-0.17730984
54	0xbf66c105	-0.90138274
55	0x3e232384	0.15931517
56	0xbe0e96f7	-0.13924776
57	0xbde8b165	-0.1136196
58	0xbf8106c8	-1.0080194
59	0xbe8877c7	-0.26653883
60	0xbf105380	-0.5637741
61	0xbe5f2928	-0.21793044
62	0xbf089b53	-0.53362006
63	0xbea78dfd	-0.32725516
64	0xbe6daf35	-0.23211367
65	0xbe1015e8	-0.14070857
66	0xbe8651d3	-0.26234302
67	0xbd6c5d3d	-0.057706106
68	0xbf72b755	-0.9481099
69	0xbf343efa	-0.70408595
70	0x3f235213	0.6379711
71	0x3f040937	0.5157656
72	0xbdf3171e	-0.11869644
73	0xbef1696e	-0.4715075
74	0x3ef5189e	0.47870344
75	0x3f5d7059	0.86499554
76	0xbe4896d6	-0.1958879
77	0xbe1d09cc	-0.15335768
78	0xbe254eb0	-0.16143298
79	0x3e872365	0.2639419
80	0x3ee587f3	0.44830284
81	0xbee3aa71	-0.44465974
82	0xbed1b504	-0.40958416
83	0xbe924222	-0.2856608
84	0x3e2b15e4	0.1670757
85	0xbc59704c	-0.013271403
86	0xbe0a43a3	-0.13502364
87	0x3d728198	0.05920562
88	0xbf107e14	-0.5644238
89	0xbf1304f4	-0.5742943
90	0xbe956ac2	-0.29183012
91	0xbee2802d	-0.44238415
92	0xbe98cf88	-0.29845834
93	0xbeaff9d9	-0.34370306
94	0xbf24d7c1	-0.64391714
95	0xbec0dcea	-0.37668544
96	0xbef9c546	-0.4878332
97	0x3e83f614	0.2577368
98	0x3df8699c	0.121295184
99	0xbeb2b8fa	-0.3490675
100	0xbd95cf68	-0.0731495
101	0x3ea14ee6	0.31505507
102	0x3ef66b19	0.48128584
103	0x3e61aa19	0.22037543
104	0xbee81245	-0.4532644
105	0xbe4b1de7	-0.19835626
106	0xbe10259e	-0.1407685
107	0xbe4f87fb	-0.20266716
108	0xbf52d7c3	-0.82360476
109	0x3dfac35d	0.12244294
110	0xbee27e49	-0.44236973
111	0xbf34dbda	-0.70647967
112	0xbf2e23ed	-0.6802357
113	0xbf412c33	-0.7545807
114	0xbefdfec5	-0.49608436
115	0xbf66d47f	-0.90167993
116	0xbc63136f	-0.013859614
117	0x3f57df7a	0.84325373
118	0xbf4491d4	-0.76785016
119	0xbf580a80	-0.8439102
120	0x3e8d33a3	0.27578458
121	0xbc29c9dd	-0.010363069
122	0xbf1b2ada	-0.6061226
123	0xbe7610ab	-0.24029796
124	0xbee20fcf	-0.44152686
125	0x3d705206	0.058671974
126	0xbf2199c5	-0.6312526
127	0xbec21247	-0.3790457
128	0xbe82f7bb	-0.25579628
129	0x3ed7e563	0.42167196
130	0xbe70f898	-0.23532331
131	0x3ed83dfe	0.42234796
132	0xbe774636	-0.24147877
133	0xbf22527c	-0.6340711
134	0xbe7b6d7e	-0.24553487
135	0xbec58ce7	-0.38584062
136	0xbc302fc1	-0.010753573
137	0xbf2817f5	-0.65661556
138	0x3f14be64	0.58103013
139	0xbe8063cc	-0.2507614
140	0xbe880634	-0.26567233
141	0xbf2fe971	-0.6871558
142	0xbdc95b6f	-0.09831893
143	0x3e93cfc3	0.28869447
144	0xbe8ae47b	-0.27127442
145	0xbece830b	-0.40334353
146	0x3f0348de	0.5128306
147	0xbdcb329b	-0.099217616
148	0xbdf551dc	-0.11978504
149	0x3f1cf36f	0.6130895
150	0xbf37582e	-0.71618927
151	0xbef20f0b	-0.47277102
152	0xbeba696e	-0.3640856
153	0x3ecdc258	0.40187335
154	0xbe392969	-0.18082203
155	0x3c38ec6e	0.011286838
156	0xbdf6ff1e	-0.120603785
157	0xbfa84531	-1.3146116
158	0xbebb81e4	-0.36622536
159	0x3da157bf	0.07878064
160	0xbdea1a49	-0.11430795
161	0x3e9c34dc	0.30509079
162	0xbe438fdf	-0.19097851
163	0xbea89031	-0.3292251
164	0x3c4e67b2	0.012597965
165	0xbf480b53	-0.7814228
166	0x3c8af448	0.016962186
167	0xbeb190e2	-0.3468085
168	0xbf40fd03	-0.75386065
169	0xbd8e949f	-0.06961941
170	0xbe078266	-0.13233337
171	0xbe4fa8cb	-0.20279233
172	0xbf040007	-0.5156254
173	0xbf519ada	-0.8187691
174	0xbe2dfc79	-0.16990842
175	0x3f00d216	0.50320566
176	0x3e21b0c9	0.15790094
177	0xbe3cf73e	-0.1845369
178	0xbea14032	-0.3149429
179	0xbe9beb14	-0.30452788
180	0xbce5553d	-0.027994746
181	0xbeeea222	-0.46608073
182	0xbe812f9e	-0.25231642
183	0x3ea597d7	0.32342407
184	0x3f1f6904	0.62269616
185	0x3f6e7628	0.9314904
186	0xbf5337bc	-0.8250692
187	0xbe710334	-0.23536378
188	0xbf3177ce	-0.6932343
189	0xbf4f8927	-0.8106865
190	0xbda495ed	-0.080364086
191	0xbe9323be	-0.28738207
192	0xbf4d023c	-0.80081534
193	0xbe780d0a	-0.24223724
194	0xbea369ed	-0.31916752
195	0xbf5bf7fe	-0.8592528
196	0xbf24d385	-0.64385253
197	0xbe2ee3a8	-0.17079031
198	0xbe62d821	-0.22152759
199	0xbe68557e	-0.22688863
200	0xbe893d6f	-0.26804683
201	0xbf12bac7	-0.5731625
202	0xbe82fbb3	-0.25582656
203	0xbd73071a	-0.059332944
204	0x3ed7588a	0.42059737
205	0x3f161476	0.5862497
206	0x3f05fae3	0.5233595
207	0xbf58c830	-0.8468046
208	0xbe4cba01	-0.1999283
209	0xbe4d619e	-0.20056769
210	0x3d920a9d	0.071309306
211	0xbe1bb2a6	-0.15204868
212	0x3d92d576	0.07169621
213	0x3e7fae29	0.2496878
214	0xbf07a702	-0.5298921
215	0xbe99b0a6	-0.30017585
216	0xbe90b09e	-0.28259748
217	0x3e451159	0.19244899
218	0xbf6edb2c	-0.9330318
219	0xbf0faea7	-0.56125873
220	0xbecad187	-0.39612982
221	0x3dd56077	0.1041879
222	0xbf386489	-0.72028404
223	0xbe58bf58	-0.21166742
224	0xbf205df1	-0.62643343
225	0xbe849b1b	-0.25899586
226	0x3f01a1d3	0.5063755
227	0xbe29e1e0	-0.1659007
228	0xbcabd361	-0.020974817
229	0xbca72370	-0.02040264
230	0xbe9410ec	-0.2891916
231	0xbd292311	-0.041293208
232	0x3c3466a9	0.011010804
233	0xbeab9b19	-0.33516768
234	0xbd9602c4	-0.07324746
235	0xbd2a91fb	-0.041643124
236	0xbe4f2b6d	-0.2023141
237	0x3f049257	0.51785797
238	0xbdd09ee4	-0.10186556
239	0x3bd45e43	0.0064809634
240	0xbdb0fce9	-0.08641989
241	0x3d548a5e	0.05188977
242	0x3ed4e148	0.41578126
243	0x3e50c453	0.20387392
244	0xbc1137a0	-0.00886336
245	0xbf2d56a0	-0.67710304
246	0x3db979e0	0.09056449
247	0xbe3fb550	-0.18721509
248	0xbf037303	-0.5134737
249	0xbeb4bb71	-0.35299256
250	0xbe8ef5be	-0.2792186
251	0xbd54d120	-0.05195725
252	0x3e4dd59a	0.20101014
253	0xbda20149	-0.079104014
254	0x3ee7e892	0.45294625
255	0xbf4c301f	-0.79760927

fc2.weight f4 [2, 300]
0	0x3ef32041	0.47485545
1	0xbebb8231	-0.36622766
2	0xc02bf683	-2.686921
3	0xbce9ff61	-0.028564157
4	0x3fae8789	1.3635112
5	0x3fc787eb	1.5588354
6	0xbfcfe541	-1.6241838
7	0x3d481fe3	0.048858535
8	0xbe18425c	-0.14869064
9	0xc0031167	-2.0479372
10	0x3ebaaa2e	0.36457962
11	0xbfa5fba5	-1.2967421
12	0xc01326b4	-2.2992373
13	0xbcb296e8	-0.021800473
14	0xbd1e9590	-0.038716853
15	0x3ef13c81	0.47116473
16	0x3f96e00f	1.1787127
17	0x40183000	2.3779297
18	0x3f0b89b6	0.54507005
19	0x3f0b17a6	0.5433296
20	0x3ffe71c1	1.9878465
21	0x3dd30df8	0.10305399
22	0xc00ae7c5	-2.170396
23	0xbf8c2d8d	-1.0951401
24	0x3faeb1aa	1.3647969
25	0x3f780df2	0.9689628
26	0xc028cd35	-2.6375248
27	0xbfff1da2	-1.9930918
28	0xbd279fdc	-0.04092394
29	0xc0293f11	-2.6444743
30	0x3e82f53a	0.25577718
31	0x3e627679	0.22115506
32	0xbfe42be2	-1.7825892
33	0x3fc92720	1.5715065
34	0x3ed1486c	0.40875566
35	0x3eef2f34	0.467157
36	0x3e071ef6	0.13195404
37	0x3c12945b	0.0089465035
38	0x3f41a63a	0.75644267
39	0x3f3bf4b8	0.73420286
40	0x40037867	2.0542238
41	0xbfcd04ed	-1.6017128
42	0x3d059b5b	0.03261886
43	0x3f554a32	0.8331634
44	0xc09af251	-4.8420796
45	0xbe17359b	-0.14766543
46	0xbe26f734	-0.16305238
47	0x401712a8	2.3605137
48	0x3da70b29	0.081564255
49	0xbcd635a5	-0.026148627
50	0xbf3f64bf	-0.747631
51	0x3f8c9163	1.0981869
52	0x3bdf25a4	0.006809907
53	0xbe154777	-0.14578043
54	0x400b48bf	2.176315
55	0xbec0b8f7	-0.37641117
56	0x3c698968	0.014253952
57	0x3c5593a4	0.013035689
58	0xc0020bdc	-2.0319738
59	0x3eaa7171	0.33289674
60	0xbdeaaf8c	-0.11459264
61	0x3e2a76e9	0.16646923
62	0x3ef39bed	0.475799
63	0x3c857382	0.01629043
64	0x405090f8	3.2588482
65	0xc001d732	-2.0287595
66	0xbcc561c4	-0.02409447
67	0xbcf40a15	-0.029789964
68	0x3fe614c2	1.7975085
69	0x3fa368f2	1.2766402
70	0x3f2a59c5	0.6654323
71	0xc03baac9	-2.932299
72	0xbf9e32ac	-1.2359214
73	0x3f8394fe	1.0279844
74	0x405e15b3	3.4700744
75	0x40051536	2.0794196
76	0x3fa8bea4	1.3183179
77	0xbd39477d	-0.045234192
78	0xc012fb43	-2.2965858
79	0xc03c895e	-2.9458842
80	0xbf7808de	-0.9688853
81	0xbf0acafa	-0.5421597
82	0xbf7f3129	-0.9968439
83	0xc018f86a	-2.390162
84	0xbe85b586	-0.26115054
85	0xbffd7ee9	-1.9804355
86	0x3c820f18	0.015876338
87	0x3ff98936	1.9494998
88	0x3eab2e81	0.33433917
89	0x3ff74761	1.9318658
90	0x3c199f58	0.009376369
91	0xbe10546e	-0.14094707
92	0x3c8412b0	0.016122192
93	0x3c6d5de0	0.014487714
94	0x3cebc8ed	0.028782332
95	0x3ebaa094	0.36450636
96	0x3ea6e349	0.3259528
97	0xc006f3bd	-2.1086266
98	0xbfc17f02	-1.5116885
99	0xbf5722db	-0.8403756
100	0x3fae5fb1	1.3622953
101	0x3f4b7aef	0.79484457
102	0xbee32081	-0.44360736
103	0x40188d03	2.3836067
104	0xbfdecdf8	-1.7406607
105	0xbcaed800	-0.021343231
106	0xc016bf5c	-2.3554296
107	0xbe056c16	-0.13029513
108	0x3fdb8fa0	1.7153206
109	0xbf823789	-1.0173198
110	0xbe4ff622	-0.20308736
111	0x3e7e9615	0.24861939
112	0x3f811d42	1.0087054
113	0x3f940853	1.156504
114	0x3ff91bbf	1.9461592
115	0xc01e9733	-2.4779785
116	0xbfbc0247	-1.4688195
117	0xbfd1a58f	-1.637865
118	0xc01db38a	-2.4640832
119	0xc0900d93	-4.501657
120	0xc02aff6f	-2.6718404
121	0xbe7d5562	-0.24739602
122	0xc048d8d9	-3.1382353
123	0x403df1a5	2.9678738
124	0xbfa25c28	-1.2684374
125	0xbe61d6e4	-0.2205463
126	0x3d8e583c	0.06950423
127	0xbec83496	-0.3910262
128	0xbd41d446	-0.04732158
129	0xbfb85166	-1.4399841
130	0xbcd27632	-0.025691126
131	0xbfdc25fc	-1.7199092
132	0x3f55b668	0.83481455
133	0x3d8bb1a3	0.06820991
134	0xba03a053	-0.00050211436
135	0xbd158530	-0.03650397
136	0x3f08bd4e	0.53413856
137	0x406d1c57	3.7048547
138	0x3ff69dad	1.9266869
139	0xb9bc9100	-0.00035966188
140	0xbebefe42	-0.37303358
141	0xbf9b97df	-1.2155722
142	0x401c3ab8	2.441084
143	0xc015482b	-2.3325298
144	0xbd09d562	-0.033650763
145	0xbe8ae79a	-0.27129823
146	0x3ff620ab	1.922872
147	0x3d786169	0.060639773
148	0x4062bf5d	3.54293
149	0xbf55eed2	-0.83567536
150	0xbfcc2402	-1.5948489
151	0x3ff240e5	1.8926054
152	0xbdfa134f	-0.12210714
153	0x3fb2d95c	1.3972583
154	0xbf92bbf7	-1.1463612
155	0xbf3b3285	-0.7312396
156	0x3fd3f0e4	1.6557889
157	0xc029644c	-2.6467466
158	0xbfc0f661	-1.5075189
159	0x3f6f019c	0.9336183
160	0xbf4d6ed6	-0.8024725
161	0xbed7ba8e	-0.42134517
162	0x403c5fae	2.9433398
163	0xbe8fab86	-0.2806055
164	0x3e0b13bf	0.13581751
165	0xbb153fd3	-0.0022773638
166	0x3f9a0d89	1.2035381
167	0xbf45f6c2	-0.7732965
168	0x3fc2f52c	1.523107
169	0x3a9cdb50	0.0011967216
170	0xc02f2e3c	-2.737197
171	0x3b411cf7	0.0029466727
172	0x3e9f2dd7	0.3108966
173	0x401a3d94	2.4100084
174	0xbc8aa212	-0.016922984
175	0xc01102ae	-2.2657886
176	0x40073167	2.1123903
177	0xbf3eea75	-0.74576503
178	0x3ca0d348	0.019631997
179	0x3ca3e351	0.020005854
180	0x4033d8dd	2.8101113
181	0xbfb75279	-1.4322044
182	0x3f7ce5aa	0.9878794
183	0xbeb622c8	-0.3557341
184	0xbf140b42	-0.5782968
185	0x3fef273f	1.8683852
186	0x3fb7f4d2	1.4371588
187	0x3fdffde3	1.7499355
188	0x3f809e2d	1.0048271
189	0x4049bf1f	3.15229
190	0x401e3897	2.472204
191	0x40427225	3.0382168
192	0xbf0521d4	-0.5200474
193	0x3cf39c51	0.029737623
194	0xbfc2f579	-1.5231162
195	0xc0557ec9	-3.3358634
196	0xbec75cb0	-0.38937902
197	0xbd108c78	-0.03529021
198	0xbf937fff	-1.1523436
199	0x401e8e00	2.477417
200	0x3eeaea88	0.45882058
201	0x3fe87dbe	1.8163373
202	0x3d3dc308	0.046328574
203	0xbf647568	-0.8924165
204	0x3fbd10c3	1.477074
205	0xbe058191	-0.13037707
206	0x3f45c6bd	0.77256376
207	0xc013a9f9	-2.3072493
208	0xbf43944f	-0.76398176
209	0xbd252b3e	-0.040324442
210	0xbf6023bc	-0.87554526
211	0xbc91498e	-0.017735269
212	0xbf36828c	-0.7129295
213	0xbf9bd853	-1.2175392
214	0xbf5612ff	-0.83622736
215	0xbc0bef68	-0.008540966
216	0x3b85fdf0	0.0040891096
217	0x40499d3d	3.150222
218	0x3fcf1f23	1.6181377
219	0xbf1a3aa8	-0.6024575
220	0x3f47fddb	0.7812173
221	0xbdde7577	-0.108622484
222	0xbf2fd390	-0.68682194
223	0x3f164b97	0.5870909
224	0xc0569eef	-3.3534505
225	0x3f81e046	1.0146568
226	0xbfb251e5	-1.3931242
227	0x3f2faa3c	0.6861913
228	0xbfc6b083	-1.5522617
229	0x3d564f24	0.052321568
230	0x3fe165d1	1.7609197
231	0x3ee5346c	0.44766557
232	0xbd961234	-0.07327691
233	0xbe2d5f70	-0.16930938
234	0x3d33fef2	0.043944307
235	0x4009e0c0	2.1543427
236	0xbf24ac56	-0.64325464
237	0x3f88e8de	1.0696065
238	0xbfc14b0e	-1.510103
239	0xbbf1ae2d	-0.0073754997
240	0xbec006e9	-0.37505272
241	0x3f8258d7	1.0183362
242	0xbf2c9c80	-0.674263
243	0x3fd5d936	1.6706913
244	0xbf95fa5f	-1.1717032
245	0xbf463fa1	-0.7744084
246	0xc01401eb	-2.312617
247	0xbaf65be0	-0.0018795691
248	0x3dfed04a	0.12442072
249	0x3efa1eb9	0.48851565
250	0xbb483a50	-0.0030552335
251	0xbc6c9cc8	-0.014441676
252	0xbd4316d2	-0.047629185
253	0xbceabe64	-0.028655238
254	0x3fb05d94	1.3778558
255	0xbebd33c9	-0.3695357

fc2.bias f4 [2]
0	0xbeaba324	-0.33522904
1	0xbe7cd6d4	-0.24691325

fc1.weight f4 [300, 9]
0	0x3ed295ee	0.41130012
1	0xbeb75c96	-0.35812825
2	0x3f03e23c	0.5151708
3	0xbf4349f9	-0.7628475
4	0x3f4b117d	0.7932356
5	0xbf9066fd	-1.128143
6	0x3e9ce0de	0.3064031
7	0xbdaa55a1	-0.08317114
8	0x3e98c9df	0.29841515
9	0xbe207336	-0.1566895
10	0x3cb82a00	0.022480965
11	0xbdb87dec	-0.09008393
12	0xbe7858d8	-0.24252641
13	0xbe6df00b	-0.232361
14	0x3c85bf90	0.016326696
15	0xbd6b4708	-0.057440788
16	0xbdd35f6c	-0.10320935
17	0x3dafb67c	0.08579728
18	0x3e32ae70	0.17449355
19	0x3ebc8a9d	0.36824504
20	0xbe741ef5	-0.23839934
21	0xbeab6913	-0.33478603
22	0x3f19b403	0.600403
23	0x3ee9fcc9	0.45700672
24	0x3f78e21f	0.97220033
25	0x4051719e	3.2725596
26	0x3d1a15e5	0.037618537
27	0x3e39f69c	0.1816048
28	0xbf5576f7	-0.8338465
29	0xbf1fd789	-0.62438256
30	0xbd680a7e	-0.05665063
31	0xbfb97c5f	-1.449108
32	0x3f0332c7	0.51249355
33	0xbf531ac1	-0.824627
34	0xbfb5b9a9	-1.4197284
35	0xbb3ce268	-0.0028821472
36	0xbd0aaf5d	-0.033858646
37	0x3e80a126	0.25122947
38	0x3dea125f	0.11429285
39	0x3c845849	0.016155379
40	0xbf175445	-0.5911296
41	0xbfaf878e	-1.3713243
42	0xbf8e5e4f	-1.1122531
43	0xbf8f6040	-1.1201248
44	0xbf84d87c	-1.0378566
45	0xbee8b285	-0.454487
46	0xbdfd0040	-0.12353563
47	0xbe34141a	-0.17585793
48	0x3e15666d	0.14589854
49	0x3f8ae7de	1.085201
50	0x3c295f76	0.010337701
51	0xbda35a21	-0.07976175
52	0xbfdfa876	-1.7473285
53	0x3f384bbd	0.7199057
54	0xbea639d8	-0.32466006
55	0x3df7734c	0.12082538
56	0xbe8d24eb	-0.2756723
57	0xbea57380	-0.32314682
58	0x3e8ba79f	0.27276322
59	0xbb381a00	-0.002809167
60	0xbe2f9fc6	-0.17150792
61	0x3e7370c2	0.23773482
62	0x3e9dac4d	0.30795518
63	0x3b6b5c74	0.003591326
64	0xbecf014b	-0.40430674
65	0x3e229431	0.15876843
66	0xbecc1403	-0.39859018
67	0x3ebecc05	0.3726503
68	0x3f804486	1.0020912
69	0xbfaf6690	-1.3703175
70	0x3faf6e61	1.370556
71	0x3f2f98ef	0.68592733
72	0x3e2b8bad	0.16752501
73	0xbee2b579	-0.44279078
74	0xbe4db6ce	-0.20089266
75	0x3c80da0b	0.015728971
76	0x3f45f4b5	0.7732652
77	0xbeb2b436	-0.34903115
78	0x3fcfb690	1.6227589
79	0x3e126b40	0.14298725
80	0xbe53a570	-0.20668578
81	0xbf01b714	-0.5066998
82	0xbd7a2eb7	-0.061079707
83	0xbf031d34	-0.51216435
84	0xbea8e030	-0.3298354
85	0xbf1d5080	-0.6145096
86	0x3f313d4a	0.69234145
87	0xbe14f80a	-0.14547744
88	0x3f650743	0.89464206
89	0x3f41cdff	0.7570495
90	0x3f23529e	0.6379794
91	0xbe77f297	-0.24213634
92	0x3e325e95	0.17418893
93	0xbf463d1b	-0.7743699
94	0xbfb28187	-1.3945779
95	0xbed3ccfe	-0.41367334
96	0xbf0ca806	-0.54943883
97	0xbf84bb7c	-1.0369716
98	0xbe36dc15	-0.17857392
99	0xbe90ee59	-0.28306845
100	0x3e9c4624	0.30522263
101	0xbea578cf	-0.32318732
102	0xbf0ed86d	-0.5579899
103	0xbdfca097	-0.123353176
104	0xbf8897bf	-1.0671309
105	0xbfc30cb4	-1.5238252
106	0x3f844a63	1.0335201
107	0x3e4a9e4a	0.19786945
108	0x3e03aca6	0.12858829
109	0xbe3eaeb0	-0.18621325
110	0xbe96a8bf	-0.29425618
111	0xbea6c786	-0.325741
112	0xbe933918	-0.28754497
113	0xbe4622a8	-0.19349158
114	0x3d544420	0.05182278
115	0xbd761058	-0.06007418
116	0xbdcd8390	-0.10034859
117	0xbe0cdca1	-0.13756038
118	0xbe867f06	-0.26268786
119	0xbf585044	-0.84497476
120	0xbf850fa4	-1.0395398
121	0xbfac4776	-1.3459308
122	0xbf367fb7	-0.7128863
123	0xbfa9b541	-1.3258439
124	0xbedf3511	-0.43595174
125	0xbec76608	-0.3894503
126	0x3ca31442	0.01990712
127	0x3cb15e87	0.02165152
128	0x3d4035df	0.046926375
129	0x3c61f09e	0.013790278
130	0x39e365ed	0.00043372755
131	0x3ebcf2f2	0.36904103
132	0x3e0813df	0.1328883
133	0x3f71ed01	0.94502264
134	0xbde37c52	-0.111076966
135	0x3c57f714	0.013181467
136	0xbe59e9c0	-0.21280575
137	0xbe9dea52	-0.30842835
138	0x3e53cb4b	0.20683019
139	0x3db99202	0.09061052
140	0xbf8386c9	-1.0275508
141	0x3f856151	1.0420324
142	0xc056cf51	-3.3564036
143	0x3bedde4e	0.007259167
144	0xbed36500	-0.41287994
145	0xbe0eab48	-0.13932526
146	0x3f09dcb4	0.5385239
147	0x3d8974d1	0.06711734
148	0xbf80f76c	-1.0075507
149	0x3eb52685	0.3538095
150	0xc02c5fa9	-2.6933386
151	0x3fb37c07	1.4022225
152	0xbd280eaf	-0.04102963
153	0xbe9f5e1e	-0.31126493
154	0xbe589e87	-0.21154223
155	0x3eb69603	0.35661325
156	0x3eefbd36	0.46824044
157	0xbf8a8f0b	-1.0824903
158	0xbf032438	-0.5122714
159	0xc02b31be	-2.674911
160	0xbffdaddf	-1.9818686
161	0x3db42d0d	0.08797655
162	0x3e85d508	0.26139092
163	0x3d4e975a	0.05043731
164	0x3e1ebb3c	0.15501112
165	0xbc21e750	-0.009881809
166	0x3d9c49a2	0.07631232
167	0x3ed82592	0.42216164
168	0x3f54ddd4	0.8315098
169	0x3f8f64e6	1.1202667
170	0xbc1aa3fb	-0.00943851
171	0xbe21b52c	-0.15791768
172	0xbf82e3a2	-1.0225718
173	0xbea5357f	-0.32267377
174	0xbf2312bf	-0.6370048
175	0xbf68b1b5	-0.9089616
176	0x3f31d570	0.69466305
177	0xbf01af8f	-0.50658506
178	0x3ee0f40a	0.43936187
179	0x3eb0fedf	0.3456945
180	0xbeb4dde2	-0.35325533
181	0xbd642f75	-0.05570932
182	0x3d59150e	0.052998595
183	0xbe791cb7	-0.2432736
184	0xbe2027e1	-0.15640213
185	0x3d83f1ce	0.06442605
186	0x3c56fd19	0.013121867
187	0x3ea80342	0.32814986
188	0x3e1986f5	0.14992888
189	0xbe638d85	-0.22221954
190	0xbe76967e	-0.24080846
191	0x3ea47de4	0.32127297
192	0xbf238b2e	-0.63884246
193	0xbd844670	-0.064587474
194	0xbee05109	-0.43811825
195	0xbfa45676	-1.2838886
196	0xbf57cc36	-0.84295976
197	0x3f097e80	0.5370865
198	0x3e564f81	0.20928766
199	0xbcb5dc6a	-0.022199828
200	0x3e9ffa14	0.31245482
201	0xbf6b4306	-0.91899145
202	0xbf18fae9	-0.5975786
203	0xbfb417d5	-1.4069773
204	0x3c5e2ce9	0.013560512
205	0xbf30a070	-0.6899481
206	0x3e653cb4	0.22386438
207	0x3cbfba89	0.023404377
208	0xbeeb3557	-0.45939133
209	0x3e8b204b	0.27173075
210	0xbee03e01	-0.43797305
211	0x3f89252b	1.0714468
212	0xbec3b894	-0.3822676
213	0x3f4a1b26	0.78947675
214	0xbf5c4c3a	-0.8605381
215	0xbb822be2	-0.0039725164
216	0x3ead9d94	0.33909285
217	0x3ea8a483	0.32938012
218	0x3e65bfaf	0.22436403
219	0x3f2d6c57	0.6774344
220	0x3f898b77	1.0745686
221	0x3e58e00a	0.21179214
222	0x3ed7eb83	0.4217187
223	0xbfbc1e20	-1.4696693
224	0xbe4d3d9c	-0.20043033
225	0xbe0c43c1	-0.13697721
226	0x3ebb9d2c	0.3664335
227	0xbf2b65e9	-0.6695238
228	0xbe8a2ebe	-0.26988786
229	0xbf686577	-0.90779823
230	0x3e8124e9	0.25223473
231	0xbf5e65f2	-0.86874306
232	0x401bc104	2.4336557
233	0xbe18fd1e	-0.14940307
234	0xbe2b31cb	-0.16718213
235	0xbe59af48	-0.2125827
236	0xbd35fe16	-0.04443177
237	0x3e1db231	0.15400006
238	0x3b4c1365	0.003113949
239	0xbe9332b6	-0.28749627
240	0x3dcde771	0.100539096
241	0x3e742402	0.23841861
242	0xbea66396	-0.32497853
243	0xbe620fb0	-0.22076297
244	0xbea99f47	-0.3312933
245	0x3eacfd7d	0.33787146
246	0xbe88929a	-0.26674348
247	0x3f11020a	0.56643736
248	0x3f65329f	0.89530367
249	0xbf0b2518	-0.54353476
250	0x3ea1d201	0.31605533
251	0x3ebe728c	0.37196767
252	0xbd87ec8d	-0.06636915
253	0xbed88095	-0.422856
254	0xbddcdc2e	-0.107841834
255	0x3f1a5ca0	0.60297585
