model_save/params_20240808_094051.pth (torch, 68403 bytes, 18 tensors)

fc1.weight f4 [300, 9]
00000000: 8bc6 40bd 431b 42be a319 48be eb3c d43c
00000010: eba0 a2be e677 8abd b6ab d43d 43e6 4ebe
00000020: fe86 89be 4927 b3be 47b5 e63d 80f3 14be
00000030: 88af 063e 35ab 77be aaef 473d f95f dbbd
00000040: 4cb4 ef3d f615 7cbc 2bc1 a6be 16f0 3bbd
00000050: 5878 a9be b07e 413e f781 a23e 000b a03d
00000060: a257 a63e 23eb 273e c365 1bbe 8080 bcbd
00000070: 364f 233d 4440 a6be 2889 40be 2fc7 9d3e
00000080: 0ef0 4bbe 40a8 733e 2f2a a3be 4aec 963e
00000090: 07aa 9f3d f683 d0be 9026 7a3c 5b83 1d3e
000000a0: ad0d bc3e 0719 8ebe 5f93 533e f09c 35bf
000000b0: 1ea0 efbe 9716 cebe 4cf6 a7be c49a 8cbf
000000c0: 0f4b 563f bf0c 4bc0 d4e1 c03f b51a 15be
000000d0: 8162 b4c0 3a13 91bf d09c eebd ebb9 98be
000000e0: 605c 31bd bb13 1a3e e073 b5bd bbee b7bd
000000f0: ff9b 833e 8bac a0bd d324 16be 7089 583e
00000100: 9647 55bd 2b63 cdbd d6fe 67be ab72 21bc
00000110: 1b53 e73d 167b e5bd 00ab 2a3d 5656 9d3d
00000120: 1d7b a8be f79e 39be 3675 3f3e e622 563d
00000130: 6c22 91be 610a 953e cec3 e7be 77e5 523e
00000140: e83a 29be 9e3a 58be 8666 60be 1095 83be
00000150: 080e 013e 009c 4dbb f279 8d3e e08f a6bd
00000160: b344 85be b6c8 05bd d6a5 c9be 18df 0cbf
00000170: 8009 273c 2702 b7bd af0b 813d ab14 dcbe
00000180: 2508 b8be 98e5 fbbf a358 70be 46ad 89bc
00000190: e3ab df3d b836 59be 09d2 3ebd e758 5cbd
000001a0: 41a3 95be 1694 613e 76c3 41bf 2561 cf3d
000001b0: e6ec fd3d 26ef 653e fcfc a1be b32c 6dbe
000001c0: 5eba 6ebe 73b1 63be 2687 293e 6bcd 4a3d
000001d0: c088 373d a309 26be 424e 9abe 631a 9cbe
000001e0: d6a2 12bd c692 aebd 0f82 8dbe abaa 52ba
000001f0: eac0 92be b654 00bd b85e 0fbf 030f 13bf
00000200: 6819 c7be 4fd2 5f3d 8f0b a8bf 2d57 bcbf
00000210: 2b53 8dbf fb31 3ec0 abab 2b3e 0a95 3cbe
00000220: 2d69 dfbb 112b f83b 7dfa 07be 4027 643d
00000230: 88e8 4cbd 530c aebe bbdf 6e3e 9275 cf3b
00000240: dcb6 4abd 5961 d3be 1ded ec3d 9074 053d
00000250: 1ef6 55be b2a5 173d 5946 efbe 5059 d0be
00000260: 5673 fabc 7b61 c0be 0b43 783d bf61 27be
00000270: 9c5f 09bd ae9e 7abe 9e27 66be bf63 06bd
00000280: 98e8 83bf 1f96 4fbe 9939 9a3d 5d91 87be
00000290: eb89 45be ad4b dfbc e6b9 08be ccf5 46bb
000002a0: 59e8 513e ab6a d13e 413f fa3c 5e7e 3bbe
000002b0: 4493 82be 53f1 48be 2e46 443e 9c67 a63e
000002c0: b816 223e c809 123e fbf6 963d 70b3 a7bd
000002d0: b0c1 223e 6473 023e 7166 c5be 3d1d c33c
000002e0: 4b6d 213e d3ca 87be d7c4 5fbe e1ac 0bbf
000002f0: 19b2 babe 714b 923d cdbf b6bc a603 0abe
00000300: efe5 053d b88a 21be 2d7f ee3c 236b 17bc
00000310: 4f3f b73d d1ef 07be 12e5 c4bd 404c e6be
00000320: e03f 193e ad0f 2cbe 0b1c ea3c 18c4 1fbf
00000330: 133e 4c3e 6f9d debe 76ed a7be 4e33 a9be
00000340: fbd1 1cbe 211d e1bd 1367 8bbe 89de 5c3d
00000350: 8887 89bf 588e 79be edb4 fbbf cd76 b3be
00000360: ab64 4cbd 64f5 963d 1777 9abd 093f 9fbd
00000370: da51 3abc b530 973e fa46 13be 609d 8abe
00000380: ee71 ec3c 74d4 213c 4ad5 933c 751e d53c
00000390: 68bf a9be 0a00 4cbe 4700 963e 6517 91be
000003a0: 9e6a 9b3e 9cb0 de3b 6f6f ae3e de03 833e
000003b0: f8a3 a6bc a47f 023f 4365 4d40 2a10 763e
000003c0: 393c 1740 1ede aac0 078f f8bf d763 99be
000003d0: f3eb ab3d 65b2 a93d ea39 4e3c 788f cd3c
000003e0: 59d4 20bf 2473 eb3d b296 5cbf 39a9 e6bd
000003f0: 7b42 9dbd 1b67 5bbe b060 abbd eec0 313e
-0.047064345 -0.18955712 -0.1954103 0.025907954 -0.31763396 -0.0676115 0.10384314 -0.20205025
-0.26860803 -0.3499091 0.11265045 -0.14546013 0.13152897 -0.24186404 0.048812546 -0.10711665
0.11704311 -0.015386095 -0.3256925 -0.04588326 -0.33099627 0.18895984 0.3173978 0.07814598
0.32488734 0.16398291 -0.15175538 -0.09204197 0.039870463 -0.32470906 -0.18802321 0.30816028
-0.19915792 0.23794651 -0.3186812 0.2947715 0.07796102 -0.40725678 0.015267983 0.1538214
0.36729184 -0.2775347 0.20661686 -0.7094259 -0.46801847 -0.4025161 -0.32805097 -1.0984731
0.8370828 -3.172653 1.5068917 -0.14560969 -5.6370244 -1.1333992 -0.11651003 -0.29829344
-0.043300986 0.15046589 -0.08859992 -0.08981081 0.25704953 -0.0784541 -0.14662485 0.21146178
-0.052070223 -0.100286804 -0.22655806 -0.009853999 0.11295148 -0.112051174 0.041666985 0.07682483
-0.32906428 -0.18127047 0.18697056 0.052279375 -0.28346574 0.2910948 -0.45266575 0.20595346
-0.16526377 -0.2111611 -0.2191411 -0.25699663 0.12603009 -0.00313735 0.276321 -0.08132911
-0.26028976 -0.032662116 -0.39384335 -0.55027914 0.010195136 -0.089359574 0.063010566 -0.42984518
-0.35943714 -1.9679441 -0.23471312 -0.016806256 0.10921457 -0.2121228 -0.046587024 -0.05379572
-0.29226115 0.22029147 -0.75688875 0.10125951 0.123987004 0.22454509 -0.31638324 -0.23161583
-0.23313281 -0.2223566 0.16555461 0.049512308 0.04480815 -0.16214614 -0.3013783 -0.3048888
-0.035799824 -0.085240886 -0.2763829 -0.0008036296 -0.28662807 -0.031330787 -0.56003904 -0.5744478
-0.3888657 0.054643925 -1.3128527 -1.4714104 -1.1041006 -2.9718006 0.16764705 -0.18416229
-0.006817958 0.0075734933 -0.13279147 0.055701494 -0.050026447 -0.33993778 0.23327534 0.006331154
-0.049490795 -0.41285208 0.11568663 0.032581866 -0.20894668 0.037023254 -0.46733359 -0.4069314
-0.030572575 -0.37574372 0.060610812 -0.16345881 -0.033538446 -0.24474594 -0.2247605 -0.03280997
-1.0305357 -0.2027211 0.07530517 -0.2647809 -0.19290893 -0.027257765 -0.13352165 -0.0030358909
0.2049879 0.40901694 0.03054774 -0.18309924 -0.2550298 -0.19623308 0.19167396 0.32500923
0.15828979 0.14261544 0.073713265 -0.08188522 0.15894198 0.1273933 -0.3855472 0.023817653
0.15764348 -0.2652193 -0.21852432 -0.5456067 -0.36464003 0.071432956 -0.022308255 -0.13477954
0.032689985 -0.15775573 0.029113377 -0.009241852 0.08947622 -0.13275076 -0.09614004 -0.4498005
0.14965773 -0.16802855 0.028577825 -0.6240859 0.19945554 -0.43479487 -0.32798356 -0.33046955
-0.15314476 -0.10991884 -0.27227077 0.053923164 -1.0744486 -0.24370706 -1.9664589 -0.35051575
-0.049900692 0.07371023 -0.07542246 -0.07775695 -0.011372054 0.29529348 -0.14382544 -0.27073193
0.02886292 0.009877313 0.01804604 0.0260155 -0.33153844 -0.1992189 0.29297087 -0.2833816
0.3035478 0.006795956 0.34069392 0.25588888 -0.020341858 0.50976014 3.2093055 0.24029604
2.3630507 -5.339614 -1.9418648 -0.29958984 0.08394613 0.08285979 0.01258705 0.025092825
-0.62824017 0.11496571 -0.8616744 -0.112627454 -0.07678696 -0.2142605 -0.08368051 0.17358753

fc1.bias f4 [300]
00000000: eb60 45be befc 27bd 8b38 18bd ca7a 94be
00000010: 0899 b2be a595 333f bf50 a2be a897 1fbe
00000020: bcee a0bd 508a f2bd ec72 7c3e 4edf c0be
00000030: 70b1 a1be 4780 a5be 125f 53be 565d eb3d
00000040: b510 45bc 11f2 adbd f7dc e63d b081 cebd
00000050: 41d7 dbbe e623 aebd efa7 323e 593f dbbd
00000060: c38a 413d b53e f8bd 75d7 c2be 09f0 07bf
00000070: af30 92be 50c3 8e3d 1f06 993d 30e8 0cbf
00000080: 9ae5 d6be 30ec 80bd 8e62 70be 4e87 7dbe
00000090: e68a 7e3d 3c8a c0bb c281 c83d 0f0b bdbe
000000a0: 3861 cfbe e07c efbd f9e7 5abe 1dd3 003e
000000b0: 7431 e2bd e95c 833e 16c7 6bbd 0b97 f3bd
000000c0: d587 a9be 4f0f 9bbe e02d a1bd 134e 66be
000000d0: 4324 00be 74db 183e b015 75be 1889 f6bd
000000e0: f7bd 24be 1b50 3fbe 6ba7 883d a454 5e3f
000000f0: f259 36be 8a96 0fbd b86a e53e 86a9 42bd
00000100: fa17 003e e43f 13bf 2b9f 5cbc 6e9c ccbe
00000110: 87a0 39bd a6ea 5dbe 9e88 763f 68a1 85be
00000120: 1852 b1bd 2b5e 34bf bd29 9ebe af57 05bd
00000130: a326 a4be 93b8 3d3e fd1a f2be 3f57 a9be
00000140: 4a3a ec3d 8ebf b9be fc95 07be f0c7 11be
00000150: 558b 923e eae9 86be b8eb 82be bf48 853d
00000160: eec3 39bd 08c1 f6be 7c25 9dbe 3666 63bd
00000170: 4475 c4be 16ca 9abe c29e 41be 7a84 0bbf
00000180: c872 74be b219 6f3e ad6e 02be b4ce e03c
00000190: 5a94 2d3e 3ade 56be 386a 153e 633c 3a3e
000001a0: 0a3a a8bd 00aa 2bbd 085f 87be 1223 333e
000001b0: 2a62 a7be c0cc 663d 5630 e6bb 27e0 54be
000001c0: 960e d93d 5f60 82be fd12 b6bd e045 1abe
000001d0: d778 8a3f 60a4 e63d 98f4 f13e bf6e ae3d
000001e0: 3c6c c03d 490f 413e 5025 1fbe 8627 36be
000001f0: fc86 9a3d d887 5abe b38f 8cbe 501a 3a3f
00000200: 8417 d13c d618 6abe 6608 873d 1532 003e
00000210: e8ba e7be 0ec9 a23d 6828 04be 6933 9fbe
00000220: 8d7b efbc 4b31 233e f7f3 c4bc 787a 07be
00000230: 902c 1e3e 6737 f03d 130e 80be 5749 9cbe
00000240: 2b70 2bbd 95e3 6c3d ef73 353f 9cf0 e1bd
00000250: c902 a9be be96 2e3e d20b a0be 83fc 05bf
00000260: 9b17 60be 4f67 01bf 4c4b 0c3c e4b3 51bd
00000270: a6c9 72be 60ad a8be ae45 99be 0ea0 a4be
00000280: aee7 9cbd 9f45 8fbd c53a 88bd ec92 3fbf
00000290: 76a5 bcbd ab9a 0cbe 5a63 a2be 1611 173f
000002a0: e4cc d1be 7737 1abf 0c69 3fbe cd1e e5bd
000002b0: 40ea 90bc 8279 bbbd ab59 fcbe ed16 8d3d
000002c0: bf04 a5be b278 e93e 0f78 0b3f e2c5 e23a
000002d0: 6aa1 12bf 1aae 86be db81 6cbe 6fc5 cabe
000002e0: 0210 11bf 763d 743e 52ed 24bf 9e94 303f
000002f0: a245 a43c b506 973d 0e24 933e fb0a 4bbe
00000300: 629b 96bd 3ea1 20be 39c9 073e 2dd1 9b3c
00000310: eecd 7ebe 801b fcbc 5da8 853e ea11 edbd
00000320: 06c8 c7bd c6e1 eb3d edb0 8d3e 0e91 17be
00000330: 8dae 88be 5635 f83a c99d 0a3e a1ee 563c
00000340: c0b8 f53c 71b7 60be 423b 85be ef43 ebbd
00000350: 3bb6 d83d 9875 1e3e 126a 31bd a55c 6abe
00000360: cd31 293e aaf9 30be c6dc 51be 6b58 d23c
00000370: 1de4 bdbe 0881 e0be 356c 9abe 8ff5 283e
00000380: d207 86bf a0b2 b8bd 8ffd 9bbe fe71 1e3e
00000390: 99e1 323e eae0 9dbe d6b1 f73e 7ff7 26bf
000003a0: 336b 17be fb16 35be e227 223f 2323 493e
000003b0: 0d4d 1e3e d56e e83a a523 9dbe 2035 63be
000003c0: 7310 4cbe e0b1 6c3e 9b15 94be 6ef7 6ebe
000003d0: 220a 07be c3f4 14be a03c 75be b44d 70be
000003e0: 36e2 873d 8207 4d3d 41f7 9f3d 9141 263c
000003f0: e764 bf3d d93f 723c 0fc2 82be f9b9 02bf
-0.19275253 -0.041012518 -0.0371633 -0.2899993 -0.3488238 0.70150214 -0.3170223 -0.15585196
-0.07858035 -0.11842787 0.24653214 -0.37670368 -0.31580687 -0.3232443 -0.20641735 0.11492412
-0.012027909 -0.08493436 0.112726144 -0.1008333 -0.42937663 -0.08502941 0.17446874 -0.10705442
0.047251474 -0.121213354 -0.38055006 -0.5310064 -0.28552768 0.06970847 0.07471871 -0.5504179
-0.41972047 -0.06295049 -0.23475096 -0.24758646 0.062144183 -0.005875854 0.09790374 -0.369225
-0.4050386 -0.1169374 -0.21377553 0.12580533 -0.11044589 0.25656822 -0.05756291 -0.118940435
-0.33111444 -0.30285117 -0.07870078 -0.2249072 -0.12513833 0.14927465 -0.23934054 -0.12037867
-0.16088091 -0.18682902 0.066725574 0.868479 -0.17807749 -0.035055675 0.44807982 -0.04752495
0.12509146 -0.57519364 -0.013465683 -0.39963096 -0.045319106 -0.21671543 0.9630221 -0.26099706
-0.08658236 -0.7045619 -0.3089122 -0.032554325 -0.32060727 0.1852744 -0.47286215 -0.33074376
0.11534555 -0.36278957 -0.13240808 -0.14236426 0.28621927 -0.26350337 -0.25570464 0.06508016
-0.04535287 -0.48194146 -0.3069266 -0.055517398 -0.38370717 -0.30232304 -0.18908218 -0.5449902
-0.2387191 0.23349646 -0.12737532 0.027442314 0.16951123 -0.2098321 0.145913 0.18187098
-0.08214195 -0.04191017 -0.2643969 0.17493847 -0.3269208 0.05634761 -0.007024805 -0.20788632
0.10598485 -0.2546415 -0.088903405 -0.15065718 1.0818127 0.11261821 0.47256923 0.08517217
0.09395644 0.18853487 -0.15541577 -0.17788514 0.075452775 -0.21340883 -0.27453384 0.726964
0.025523908 -0.22861037 0.06593399 0.12519105 -0.45259786 0.079485044 -0.12906039 -0.3109391
-0.029233718 0.15936773 -0.024042113 -0.13230312 0.15446687 0.11729317 -0.25010738 -0.30524704
-0.04185502 0.057834227 0.70880026 -0.11032221 -0.33009937 0.17049691 -0.31259018 -0.5233843
-0.21884005 -0.5054826 0.008562874 -0.051196948 -0.23709735 -0.32944775 -0.29935974 -0.32153362
-0.07661377 -0.06995701 -0.066518344 -0.7483356 -0.09211247 -0.13730876 -0.31716424 0.59010446
-0.40976632 -0.6024088 -0.18692416 -0.111875154 -0.017689824 -0.09154035 -0.4928716 0.06889138
-0.32230183 0.45599896 0.5448007 0.0017301405 -0.5727755 -0.26304704 -0.23096411 -0.39603755
-0.5666505 0.2385157 -0.6442462 0.6897677 0.020052735 0.07374326 0.28738445 -0.19828407
-0.07353856 -0.15686509 0.13260354 0.019020641 -0.24883243 -0.030774832 0.26105013 -0.115756825
-0.09754948 0.11517672 0.27674046 -0.14801428 -0.26695672 0.0018936794 0.13536753 0.013118417
0.029995322 -0.21944977 -0.26021773 -0.11487567 0.10581633 0.15474546 -0.043314047 -0.22886904
0.16522904 -0.1728274 -0.20494375 0.025676927 -0.370881 -0.43848443 -0.3016068 0.16499923
-1.0471137 -0.09018445 -0.30466887 0.15473172 0.17468871 -0.30835658 0.48377866 -0.652214
-0.14786987 -0.17684548 0.63342106 0.1964231 0.1545908 0.0017733226 -0.30691257 -0.22188234
-0.1992815 0.23114729 -0.28922734 -0.23336574 -0.13187459 -0.14546494 -0.23948908 -0.23467141
0.06634943 0.050055988 0.07810832 0.010147468 0.093454175 0.01478573 -0.2553868 -0.5106502

fc2.weight f4 [2, 300]
00000000: f431 b4bc 527a 88bb 9f75 913c 3662 033d
00000010: 9e94 d93d 2143 c940 6b7f 1ebd 2a81 eb3c
00000020: 95b0 01ba 44c3 0cbd 6010 113f b60a b3bc
00000030: dd9c aabc e909 51bd 4c2c 52bf eae8 9dbc
00000040: 39ac 80bd bf5c ee3c 25a1 35bc e855 17bd
00000050: 20d2 6a3d 12c4 c6bc d137 84bd 58f5 38bf
00000060: 18d8 783c 5d21 aa3d 0b60 6dbf b0f1 c83d
00000070: 24ab eabc 361b d9be c070 d2bb a4c4 babf
00000080: a80a d03d 081b 883b 91db b63c 3956 063d
00000090: 63ac 0f3c fd69 76bc c3bf 8e3c bfc5 f1bb
000000a0: c522 833d 54f6 1f3c 16d6 93bd 7bf5 bd3a
000000b0: 4054 c1bd c7fb 443c 3b71 c3bb 089f 29bc
000000c0: e34e 62be edfe 053c 4875 b6bc b66c 023f
000000d0: 8cf1 01bf 20db 3c3c 46b6 55bd 5452 943c
000000e0: 5a97 2ec0 97d8 0c3c 2592 853c debe ad40
000000f0: bbdb d43d a466 b2bd 1f87 5fc0 211a 30bf
00000100: e316 933f 20ac 2a3f 6b59 3d3d 4795 9d3c
00000110: 9407 fe3d 5789 dc3b f24d b8c0 1e55 ea3e
00000120: ee64 c6bc 3597 3840 5b9b c2bb 1b46 b2bb
00000130: 15fc b73c 43e6 9ebd 87dc 96be d42e 46bc
00000140: 8aed 37bd a5fb 0d3d 5228 3e3b 4fb7 db3a
00000150: 6aeb ff3c 0a6b 3a3f 651c 053d 9344 0540
00000160: 456e 86bd e0e8 d33e ada8 bd3c 7d4e 2f3d
00000170: d33e 543d 6897 a93d 94f0 5d3d 45d8 7dbf
00000180: 8af9 44bd be66 5b3d 823a 0b3e 4484 9abe
00000190: 01ad 0cc0 0fc9 a63b b4b0 3ebc 360d 58bd
000001a0: fab6 0ebf fdc4 713b 2e75 f73a a6ef 88bd
000001b0: 427e c03c 4c9d 20bd 0b90 3a3d 3784 093d
000001c0: fa96 513c 50c9 683c 8dda 99bf 48d1 11bd
000001d0: 31f4 d040 5f38 2cbc 9be2 32c0 5927 2cba
000001e0: 9b3d 25bd 740d 01bd faec 2b3d c0c5 bc3c
000001f0: 1744 aebe d518 273c d217 f73b 6f74 d6bd
00000200: cd28 1bbd 23a4 8c3d 7e39 3dbd e0df 8abd
00000210: 9e40 ccbd 4696 663c 7b00 4bbd 8e0b 5c3d
00000220: d463 21bd 142d 47bd b04e f8bc 2869 40bd
00000230: 5abf 383d 4531 2b40 19ef 873f 3fe7 9e3c
00000240: c8c0 523d 41a3 d43c b41d e6c0 f7b1 28be
00000250: 2270 09bb 938b f9bb 0950 07bd 51f2 82c0
00000260: f0fa a73c 18c5 27be ba50 693d 3d6a 283f
00000270: efad 52bd d49f 893d e3eb abbe 60bd df3c
00000280: ac55 873e 1adf 0fbc 991f 16c0 9955 9340
00000290: 43fd acbc f19e 7e3d 03be 3aba fbf7 abc0
000002a0: 80e8 09bf e678 a63e 4424 b8be d5f4 d9bc
000002b0: 68bc 30bd 12af 21bc 3538 043e 8e73 f83c
000002c0: 7eb8 e63c f70b 923f 2708 e43e d702 a63f
000002d0: 6d98 9e3e 8210 0d3c e2c8 bf3c 9b39 6cbf
000002e0: c2ee 243e 2271 95bb b91a 3340 bd0a 8bc0
000002f0: 8af2 0b3d eef8 b63c df03 94bc 141b 02bd
00000300: 747e 70bd 2572 e8bc 6a71 3b3c 4596 28bf
00000310: 5cda d43c d32c 40bc 2114 ae3c 7d31 343c
00000320: 59b2 203d 0e12 54bc f6b3 41be 3dfd 9bbc
00000330: 41ee 89bc 805e e0b9 a981 84bd c0af 1ebd
00000340: 8bd9 873c b583 02be 5dee 99bc d321 ed3f
00000350: 7aaa 18bd 8c5e e63b be87 6fbd c979 39bd
00000360: 48cd 9cbc 1ebe 66bc 616d 01bc 8719 21bd
00000370: ab93 2a3d c5dd 4abd 96fb 2c40 5671 77bd
00000380: d7c7 a7c0 b068 403d 3a26 2dbd df85 413d
00000390: 1dc1 1bbc 6f13 593c 6db1 b3bf 778f 7b3d
000003a0: 10e2 443d 872d 0abd 59e5 8ac0 a1ae 62bd
000003b0: 02bb aebd e281 97bd ed65 a43e 6117 153d
000003c0: 69d9 3bbc e018 40bd 4a48 123c 2eb1 2f3d
000003d0: 62c9 2abd f7de ca3c ee4b 04bd 638d fd3d
000003e0: a255 b4bc af39 313d e402 22bd fd0d 84bd
000003f0: a817 5cbc 474f 66be d6f7 2bbd 39a3 2abf
-0.021996476 -0.0041649723 0.017756281 0.032076083 0.106240496 6.2894444 -0.038695734 0.028748114
-0.0004947272 -0.034365907 0.5666561 -0.021855693 -0.020826751 -0.05103484 -0.8209884 -0.019276101
-0.06282849 0.02909696 -0.011085783 -0.03694716 0.057329297 -0.024263415 -0.06455959 -0.72249365
0.0151882395 0.08307145 -0.92724675 0.09811723 -0.02864606 -0.42403573 -0.0064221323 -1.459126
0.101582825 0.004153613 0.022321494 0.032797072 0.008769128 -0.015039918 0.017425423 -0.0073783095
0.06403116 0.009763319 -0.07218568 0.0014492715 -0.094398975 0.012022919 -0.005964426 -0.010352857
-0.22100405 0.008178455 -0.022272721 0.5094713 -0.50759196 0.011526853 -0.052175783 0.018105663
-2.7279878 0.008596561 0.016305039 5.429549 0.10393473 -0.087109834 -3.4926221 -0.6878987
1.149136 0.6666889 0.046227854 0.01923622 0.12403789 0.0067302394 -5.759515 0.45768064
-0.024218049 2.884229 -0.00593893 -0.005440486 0.02245907 -0.07758763 -0.29465124 -0.012096126
-0.04490427 0.034663815 0.0029015732 0.0016763004 0.031240184 0.7281958 0.032497782 2.0823104
-0.06564001 0.41388607 0.02315172 0.04279946 0.051817726 0.082808316 0.05418451 -0.99158126
-0.04808954 0.05356478 0.13596538 -0.30179036 -2.1980593 0.005089886 -0.011638809 -0.052746974
-0.5574795 0.0036891096 0.0018879527 -0.06686334 0.023497704 -0.03921251 0.045547526 0.033573356
0.012792343 0.014208153 -1.2019821 -0.035599977 6.5298085 -0.010511487 -2.795081 -0.00065671426
-0.040341955 -0.03150697 0.041974045 0.023043513 -0.34036323 0.0101987915 0.0075406814 -0.10471427
-0.037880708 0.06867244 -0.046197407 -0.06780982 -0.09973262 0.014073914 -0.049561005 0.053721957
-0.039401844 -0.048626974 -0.030310959 -0.046975285 0.045104362 2.6748822 1.0619842 0.019397376
0.05145338 0.025956752 -7.191126 -0.16474138 -0.0020971377 -0.0076155155 -0.03303531 -4.0920796
0.020505399 -0.16383779 0.056961752 0.65787107 -0.051435407 0.06719938 -0.33578405 0.02731198
0.2643255 -0.008781219 -2.3456786 4.604199 -0.021116858 0.062163297 -0.0007123651 -5.374021
-0.5387039 0.32514113 -0.35965168 -0.026606003 -0.04314843 -0.0098684 0.12912066 0.030328538
0.028164145 1.1409901 0.4453747 1.2969617 0.30975667 0.008609893 0.023411218 -0.922754
0.16106704 -0.0045606056 2.798506 -4.345061 0.03416685 0.022335496 -0.018068252 -0.031764105
-0.058714345 -0.02837474 0.011440614 -0.65854293 0.025983028 -0.011729437 0.021249833 0.010998127
0.039232586 -0.012943758 -0.18916306 -0.019041652 -0.016837241 -0.00042795017 -0.06470043 -0.038741827
0.016583225 -0.12745555 -0.018790418 1.8525947 -0.037271954 0.007030314 -0.058479063 -0.04528216
-0.019140854 -0.014083413 -0.007899613 -0.039330985 0.041644733 -0.049527902 2.7028556 -0.06041082
-5.2431445 0.046974838 -0.042272784 0.04724681 -0.009506491 0.013249262 -1.4038521 0.061416116
0.048067153 -0.033734825 -4.3404965 -0.05534232 -0.08531763 -0.0739782 0.32109013 0.03639925
-0.011465409 -0.046898723 0.008928368 0.04289358 -0.04169596 0.024764521 -0.032298975 0.12380483
-0.02201349 0.043267902 -0.039553538 -0.064479806 -0.013433374 -0.2249118 -0.0419844 -0.6665531

fc2.bias f4 [2]
00000000: 7f44 e23d f595 43be
0.11048221 -0.19100173

fc1.weight f4 [300, 9]
00000000: 8bc6 40bd 431b 42be a319 48be eb3c d43c
00000010: eba0 a2be e677 8abd b6ab d43d 43e6 4ebe
00000020: fe86 89be 2227 b3be 94b5 e63d 7cf3 14be
00000030: eaaf 063e 61ab 77be d6ef 473d 0460 dbbd
00000040: 51b4 ef3d da15 7cbc 2bc1 a6be 16f0 3bbd
00000050: 5878 a9be b07e 413e f781 a23e 000b a03d
00000060: a257 a63e 23eb 273e c365 1bbe 8080 bcbd
00000070: 364f 233d 4440 a6be 2889 40be 2fc7 9d3e
00000080: 0ff0 4bbe 40a8 733e 2f2a a3be 4aec 963e
00000090: 73aa 9f3d f083 d0be ed26 7a3c ab83 1d3e
000000a0: a60d bc3e 2e19 8ebe 2493 533e 359d 35bf
000000b0: 01a0 efbe 5cbd d2be 5a1c acbe e0de 8dbf
000000c0: f01a 543f c3b8 4ac0 373a c13f 77c8 0ebe
000000d0: c627 b4c0 e812 91bf d09c eebd ebb9 98be
000000e0: 605c 31bd bb13 1a3e e073 b5bd bbee b7bd
000000f0: 079c 833e 8bac a0bd d324 16be 7489 583e
00000100: 9647 55bd 2b63 cdbd e1fe 67be b572 21bc
00000110: 1b53 e73d 217b e5bd 00ab 2a3d 5c56 9d3d
00000120: 197b a8be fe9e 39be 8575 3f3e ff22 563d
00000130: 8722 91be 870a 953e e4c3 e7be b3e5 523e
00000140: e53a 29be 9e3a 58be 8666 60be 1095 83be
00000150: 080e 013e 009c 4dbb f279 8d3e e08f a6bd
00000160: b344 85be b6c8 05bd bba5 c9be 1fdf 0cbf
00000170: 9009 273c da01 b7bd 7c0b 813d df14 dcbe
00000180: 5908 b8be cde5 fbbf 6258 70be 27ad 89bc
00000190: 03ac df3d 8036 59be dad1 3ebd d858 5cbd
000001a0: a7a3 95be 4c94 613e c2c3 41bf 4e61 cf3d
000001b0: f2ec fd3d 26ef 653e fdfc a1be b32c 6dbe
000001c0: 5eba 6ebe 73b1 63be 2687 293e 6fcd 4a3d
000001d0: c088 373d a309 26be 424e 9abe 631a 9cbe
000001e0: d6a2 12bd c692 aebd 0f82 8dbe acaa 52ba
000001f0: eac0 92be b654 00bd 935e 0fbf b80e 13bf
00000200: 6319 c7be afd2 5f3d c40b a8bf 7957 bcbf
00000210: 8653 8dbf 1532 3ec0 e4ab 2b3e ce94 3cbe
00000220: 3869 dfbb 812b f83b 63fa 07be 4927 643d
00000230: 7fe8 4cbd 7c0c aebe d0df 6e3e 0276 cf3b
00000240: c7b6 4abd 2461 d3be 60ed ec3d ae74 053d
00000250: 77f6 55be b8a5 173d 8c46 efbe bf59 d0be
00000260: 1a73 fabc 7761 c0be 5543 783d 7561 27be
00000270: 6b5f 09bd 769e 7abe c827 66be bf63 06bd
00000280: fae8 83bf 0b96 4fbe df39 9a3d 4f91 87be
00000290: c789 45be 884b dfbc 2eba 08be d7f5 46bb
000002a0: 30e8 513e cb6a d13e 893f fa3c 5e7e 3bbe
000002b0: 4493 82be 53f1 48be 2e46 443e 9c67 a63e
000002c0: b816 223e c809 123e fbf6 963d 70b3 a7bd
000002d0: dcc1 223e 8a73 023e 3b66 c5be 761d c33c
000002e0: a06d 213e 1ecb 87be a0c4 5fbe 42ad 0bbf
000002f0: feb1 babe cb4b 923d d6bf b6bc 7b03 0abe
00000300: 5ae6 053d 898a 21be f17e ee3c 206b 17bc
00000310: 2e3f b73d d7ef 07be efe4 c4bd 1d4c e6be
00000320: 4340 193e 810f 2cbe 481c ea3c 3bc4 1fbf
00000330: 2e3e 4c3e b39d debe 4ded a7be 1533 a9be
00000340: f0d1 1cbe 291d e1bd f366 8bbe d3de 5c3d
00000350: a687 89bf 328e 79be 5db5 fbbf d276 b3be
00000360: 7764 4cbd 8bf5 963d d076 9abd 083f 9fbd
00000370: 4852 3abc eb30 973e 5b47 13be 639d 8abe
00000380: 5472 ec3c c0d4 213c 8bd5 933c d71e d53c
00000390: 51bf a9be 1300 4cbe 9f00 963e 3417 91be
000003a0: f36a 9b3e d7b0 de3b e1c4 ac3e d8a0 813e
000003b0: 451b bbbc 70ff 013f 60a5 4d40 b7fd 763e
000003c0: 275a 1740 a20a abc0 ba8e f8bf d063 99be
000003d0: 58ec ab3d d0b2 a93d fe39 4e3c ae8f cd3c
000003e0: 80d4 20bf 4073 eb3d f396 5cbf 15a9 e6bd
000003f0: 7b42 9dbd 1b67 5bbe b060 abbd eec0 313e
-0.047064345 -0.18955712 -0.1954103 0.025907954 -0.31763396 -0.0676115 0.10384314 -0.20205025
-0.26860803 -0.34990793 0.11265102 -0.14546007 0.13153043 -0.2418647 0.04881271 -0.10711673
0.117043145 -0.015386069 -0.3256925 -0.04588326 -0.33099627 0.18895984 0.3173978 0.07814598
0.32488734 0.16398291 -0.15175538 -0.09204197 0.039870463 -0.32470906 -0.18802321 0.30816028
-0.19915794 0.23794651 -0.3186812 0.2947715 0.077961825 -0.4072566 0.01526807 0.15382259
0.36729163 -0.27753586 0.20661598 -0.70943004 -0.4680176 -0.41160095 -0.3361538 -1.1083641
0.82853603 -3.167527 1.5095891 -0.13943659 -5.629855 -1.1333895 -0.11651003 -0.29829344
-0.043300986 0.15046589 -0.08859992 -0.08981081 0.25704977 -0.0784541 -0.14662485 0.21146184
-0.052070223 -0.100286804 -0.22655822 -0.009854008 0.11295148 -0.112051256 0.041666985 0.07682487
-0.32906416 -0.18127057 0.18697174 0.05227947 -0.28346655 0.29109594 -0.4526664 0.20595436
-0.16526373 -0.2111611 -0.2191411 -0.25699663 0.12603009 -0.00313735 0.276321 -0.08132911
-0.26028976 -0.032662116 -0.39384255 -0.55027956 0.010195151 -0.089359 0.063010186 -0.42984673
-0.3594387 -1.9679505 -0.23471215 -0.016806198 0.109214805 -0.21212196 -0.04658685 -0.053795666
-0.2922642 0.22029227 -0.7568933 0.10125981 0.12398709 0.22454509 -0.31638327 -0.23161583
-0.23313281 -0.2223566 0.16555461 0.049512323 0.04480815 -0.16214614 -0.3013783 -0.3048888
-0.035799824 -0.085240886 -0.2763829 -0.00080362963 -0.28662807 -0.031330787 -0.56003684 -0.57444334
-0.38886556 0.054644283 -1.312859 -1.4714195 -1.1041114 -2.9718068 0.1676479 -0.1841614
-0.006817963 0.0075735454 -0.13279109 0.055701528 -0.050026413 -0.339939 0.23327565 0.0063312063
-0.049490716 -0.4128505 0.11568713 0.032581978 -0.208948 0.037023276 -0.4673351 -0.4069347
-0.030572463 -0.3757436 0.060611088 -0.1634577 -0.033538263 -0.2447451 -0.22476113 -0.03280997
-1.0305474 -0.2027208 0.07530569 -0.2647805 -0.19290839 -0.027257696 -0.13352272 -0.0030358934
0.20498729 0.4090179 0.030547874 -0.18309924 -0.2550298 -0.19623308 0.19167396 0.32500923
0.15828979 0.14261544 0.073713265 -0.08188522 0.15894264 0.12739387 -0.38554558 0.023817759
0.15764475 -0.26522154 -0.2185235 -0.54561245 -0.36463922 0.071433626 -0.022308271 -0.1347789
0.032690383 -0.15775503 0.029113265 -0.009241849 0.089475974 -0.13275085 -0.09613978 -0.44979945
0.1496592 -0.1680279 0.028577939 -0.624088 0.19945595 -0.4347969 -0.32798234 -0.33046785
-0.1531446 -0.1099189 -0.27226982 0.05392344 -1.0744522 -0.2437065 -1.9664723 -0.3505159
-0.0499005 0.07371052 -0.07542193 -0.07775694 -0.011372156 0.2952951 -0.14382689 -0.27073202
0.02886311 0.009877384 0.018046161 0.026015682 -0.33153775 -0.19921903 0.2929735 -0.28338015
0.30355033 0.0067959833 0.33743957 0.25318027 -0.022840152 0.5078039 3.2132187 0.24120222
2.3648775 -5.345048 -1.9418557 -0.29958963 0.08394688 0.08286059 0.012587069 0.025092926
-0.6282425 0.114965916 -0.8616783 -0.112627186 -0.07678696 -0.2142605 -0.08368051 0.17358753

fc1.bias f4 [300]
00000000: eb60 45be 89fc 27bd 8b38 18bd ca7a 94be
00000010: f298 b2be 348f 313f bf50 a2be a897 1fbe
00000020: adee a0bd 508a f2bd 3573 7c3e 3fdf c0be
00000030: 70b1 a1be 4780 a5be cc5e 53be c45d eb3d
00000040: af10 45bc edf1 adbd 08dd e63d b081 cebd
00000050: 28d7 dbbe ed23 aebd 2da8 323e 343f dbbd
00000060: 1e8b 413d a63e f8bd 2991 c3be d7ef 07bf
00000070: af30 92be 7ec3 8e3d 7306 993d 1be8 0cbf
00000080: 88e5 d6be 30ec 80bd 8a62 70be fe86 7dbe
00000090: 258b 7e3d 178a c0bb ee81 c83d c60a bdbe
000000a0: eb60 cfbe e07c efbd b4e7 5abe 6dd3 003e
000000b0: 5531 e2bd 225d 833e 16c7 6bbd 0b97 f3bd
000000c0: d987 a9be 280f 9bbe e02d a1bd 114e 66be
000000d0: 0a24 00be dfdb 183e b015 75be 2689 f6bd
000000e0: af5b 24be 1b50 3fbe 6fa7 883d b888 5e3f
000000f0: e259 36be 6f96 0fbd af87 e33e 73a9 42bd
00000100: 1f18 003e 8c3f 13bf 2b9f 5cbc 539c ccbe
00000110: 8ea0 39bd 68ea 5dbe 9384 753f 37a1 85be
00000120: fe51 b1bd c77d 34bf b029 9ebe 6357 05bd
00000130: 8126 a4be fdb8 3d3e c61a f2be 3f57 a9be
00000140: 783a ec3d 6abf b9be ff95 07be f0c7 11be
00000150: 778b 923e bbe9 86be b8eb 82be ee48 853d
00000160: b6c3 39bd 02c1 f6be 7c25 9dbe 3666 63bd
00000170: 3775 c4be 04ca 9abe a79e 41be 3f84 0bbf
00000180: c872 74be 041a 6f3e 776e 02be 08cf e03c
00000190: 9094 2d3e 1cde 56be 9f6a 153e 6a3c 3a3e
000001a0: 2c45 abbd 00aa 2bbd 085f 87be 3923 333e
000001b0: 2a62 a7be c0cc 663d 6130 e6bb f4df 54be
000001c0: 960e d93d 6760 82be ca12 b6bd e045 1abe
000001d0: dc3a 8a3f 65a4 e63d e1f4 f13e ec6e ae3d
000001e0: 666c c03d ae0f 413e 5025 1fbe 7e27 36be
000001f0: 3787 9a3d d887 5abe b38f 8cbe 3939 3a3f
00000200: 9717 d13c c518 6abe 6608 873d 4b32 003e
00000210: d243 ebbe 48c9 a23d 4328 04be 5033 9fbe
00000220: 497b efbc 4b31 233e c7f3 c4bc 787a 07be
00000230: 902c 1e3e 9137 f03d f80d 80be 5749 9cbe
00000240: 2b70 2bbd 00e4 6c3d f6e1 333f 7df0 e1bd
00000250: a502 a9be c596 2e3e d20b a0be b156 06bf
00000260: 9b17 60be 2f67 01bf 764b 0c3c d8b3 51bd
00000270: a6c9 72be 19ad a8be 5845 99be 0ea0 a4be
00000280: 6ce7 9cbd 9345 8fbd 733a 88bd b4c3 3fbf
00000290: 76a5 bcbd 5f9a 0cbe 5563 a2be 0842 153f
000002a0: d8cc d1be 2437 1abf 0669 3fbe 8d1e e5bd
000002b0: 48ea 90bc 3679 bbbd 6e59 fcbe fa16 8d3d
000002c0: c504 a5be dbfe e83e e428 0b3f efb2 b13b
000002d0: 58a1 12bf 1aae 86be db81 6cbe 3bc5 cabe
000002e0: c80f 11bf 763d 743e 55ed 24bf 63d0 303f
000002f0: c045 a43c 1f07 973d 0e24 933e c30a 4bbe
00000300: 509b 96bd f1a0 20be 2bc9 073e 4bd1 9b3c
00000310: f2cd 7ebe 801b fcbc a2a8 853e b511 edbd
00000320: 06c8 c7bd 30e2 eb3d 46b1 8d3e 0491 17be
00000330: 77ae 88be 5635 f83a 2a9e 0a3e e7ee 563c
00000340: c0b8 f53c 35b7 60be 433b 85be 9a43 ebbd
00000350: 3bb6 d83d db75 1e3e d269 31bd 595c 6abe
00000360: e831 293e 52f9 30be c6dc 51be 6b58 d23c
00000370: f6e3 bdbe e980 e0be 0c87 9abe c0f5 283e
00000380: e81e 86bf aab2 b8bd 70fd 9bbe fe71 1e3e
00000390: fde1 323e a4e0 9dbe 2a3f f63e 35f7 26bf
000003a0: 336b 17be fb16 35be def5 203f 2323 493e
000003b0: 3b4d 1e3e fc6e e83a 9423 9dbe 2035 63be
000003c0: 7b10 4cbe e0b1 6c3e 9c15 94be 6ef7 6ebe
000003d0: 270a 07be a8f4 14be a03c 75be 724d 70be
000003e0: 36e2 873d be07 4d3d 67f7 9f3d f441 263c
000003f0: 1d65 bf3d 4540 723c 0fc2 82be dbb9 02bf
-0.19275253 -0.04101232 -0.0371633 -0.2899993 -0.34882313 0.69359136 -0.3170223 -0.15585196
-0.07858024 -0.11842787 0.24653323 -0.37670323 -0.31580687 -0.3232443 -0.20641631 0.11492494
-0.012027903 -0.08493409 0.11272627 -0.1008333 -0.4293759 -0.08502946 0.17446966 -0.107054144
0.047251813 -0.12121324 -0.38196686 -0.5310034 -0.28552768 0.06970881 0.07471933 -0.55041665
-0.41971993 -0.06295049 -0.2347509 -0.24758527 0.062144417 -0.0058758366 0.09790407 -0.36922282
-0.4050363 -0.1169374 -0.2137745 0.12580653 -0.110445656 0.25656992 -0.05756291 -0.118940435
-0.33111456 -0.30285 -0.07870078 -0.22490717 -0.12513748 0.14927624 -0.23934054 -0.12037878
-0.160506 -0.18682902 0.066725604 0.86927366 -0.17807725 -0.035055574 0.44439456 -0.04752488
0.12509201 -0.5751884 -0.013465683 -0.39963016 -0.045319133 -0.2167145 0.9590542 -0.2609956
-0.08658217 -0.7050442 -0.3089118 -0.03255404 -0.32060626 0.18527599 -0.47286052 -0.33074376
0.115345895 -0.3627885 -0.13240813 -0.14236426 0.28622028 -0.26350197 -0.25570464 0.06508051
-0.04535266 -0.48194128 -0.3069266 -0.055517398 -0.38370678 -0.3023225 -0.18908177 -0.54498667
-0.2387191 0.23349768 -0.12737451 0.02744247 0.16951203 -0.20983166 0.14591454 0.18187109
-0.08362803 -0.04191017 -0.2643969 0.17493905 -0.3269208 0.05634761 -0.00702481 -0.20788556
0.10598485 -0.25464174 -0.088903025 -0.15065718 1.0799212 0.112618245 0.4725714 0.085172504
0.09395675 0.18853638 -0.15541577 -0.17788503 0.075453214 -0.21340883 -0.27453384 0.72743565
0.025523944 -0.22861011 0.06593399 0.12519185 -0.4595018 0.079485476 -0.12905984 -0.31093836
-0.029233592 0.15936773 -0.024042023 -0.13230312 0.15446687 0.117293485 -0.25010657 -0.30524704
-0.04185502 0.057834625 0.70266664 -0.110321976 -0.3300983 0.17049702 -0.31259018 -0.5247603
-0.21884005 -0.5054807 0.008562913 -0.051196903 -0.23709735 -0.32944563 -0.29935718 -0.32153362
-0.07661328 -0.06995692 -0.06651773 -0.74907994 -0.09211247 -0.13730763 -0.3171641 0.5830388
-0.40976596 -0.6024039 -0.18692407 -0.11187468 -0.017689839 -0.091539785 -0.4928698 0.06889148
-0.322302 0.4550694 0.5435927 0.005422942 -0.5727744 -0.26304704 -0.23096411 -0.396036
-0.56664705 0.2385157 -0.6442464 0.6906797 0.02005279 0.07374405 0.28738445 -0.19828324
-0.07353842 -0.15686394 0.13260333 0.019020697 -0.2488325 -0.030774832 0.2610522 -0.11575643
-0.09754948 0.11517751 0.2767431 -0.14801413 -0.26695606 0.0018936794 0.13536897 0.013118482
0.029995322 -0.21944888 -0.26021776 -0.11487503 0.10581633 0.15474646 -0.04331381 -0.2288679
0.16522944 -0.17282608 -0.20494375 0.025676927 -0.37087983 -0.4384835 -0.30181158 0.16499996
-1.0478182 -0.090184525 -0.30466795 0.15473172 0.1746902 -0.3083545 0.48095065 -0.6522096
-0.14786987 -0.17684548 0.62875164 0.1964231 0.15459149 0.0017733271 -0.30691206 -0.22188234
-0.19928162 0.23114729 -0.28922737 -0.23336574 -0.13187467 -0.14546454 -0.23948908 -0.23467043
0.06634943 0.05005621 0.0781086 0.01014756 0.09345458 0.014785831 -0.2553868 -0.5106484

fc2.weight f4 [2, 300]
00000000: f431 b4bc 827a 88bb 9f75 913c 3762 033d
00000010: a494 d93d c987 c940 6b7f 1ebd 2a81 eb3c
00000020: 9eb0 01ba 44c3 0cbd 2c10 113f 9e0a b3bc
00000030: dd9c aabc ec09 51bd 8b2c 52bf 3be9 9dbc
00000040: 5dac 80bd f45c ee3c 81a1 35bc e855 17bd
00000050: 50d2 6a3d 3ac4 c6bc e237 84bd 75f5 38bf
00000060: 29d8 783c c021 aa3d 03a7 6dbf 0af2 c83d
00000070: 24ab eabc 8b1b d9be 8470 d2bb bdc4 babf
00000080: d70a d03d 081b 883b f5db b63c 1356 063d
00000090: b2ac 0f3c e669 76bc fabf 8e3c 9ec5 f1bb
000000a0: 8b22 833d 54f6 1f3c 53d6 93bd 89f5 bd3a
000000b0: 6e54 c1bd 97fb 443c 3b71 c3bb 089f 29bc
000000c0: 044f 62be f6fe 053c 4875 b6bc e66c 023f
000000d0: daf1 01bf 1edb 3c3c 46b6 55bd 2852 943c
000000e0: e57c 2ec0 97d8 0c3c 2592 853c c8c5 ad40
000000f0: 0bdc d43d f166 b2bd d557 5fc0 451a 30bf
00000100: 4f17 933f 6cac 2a3f 6b59 3d3d a395 9d3c
00000110: 8207 fe3d ab89 dc3b db0b b8c0 5055 ea3e
00000120: 4e65 c6bc 96bf 3840 639b c2bb 8546 b2bb
00000130: dafb b73c 5be6 9ebd efdc 96be d42e 46bc
00000140: c9ed 37bd 7ffb 0d3d 5228 3e3b 4fb7 db3a
00000150: 1aeb ff3c e66a 3a3f 671c 053d a244 0540
00000160: ae6e 86bd 13e9 d33e ada8 bd3c 7d4e 2f3d
00000170: 033f 543d 1597 a93d a7f0 5d3d a1d8 7dbf
00000180: 8af9 44bd 0b67 5b3d 6b3a 0b3e 7b84 9abe
00000190: 1ead 0cc0 1cc9 a63b 09b1 3ebc 3c0d 58bd
000001a0: 7281 0fbf fdc4 713b 2e75 f73a b2ef 88bd
000001b0: 427e c03c 4c9d 20bd 0b90 3a3d 2384 093d
000001c0: fa96 513c 50c9 683c 90da 99bf 48d1 11bd
000001d0: 28a5 d040 5f38 2cbc 62e2 32c0 b827 2cba
000001e0: 693d 25bd a10d 01bd faec 2b3d 05c6 bc3c
000001f0: 5844 aebe d518 273c d217 f73b 0bff dcbd
00000200: ef28 1bbd 23a4 8c3d 7e39 3dbd 2ee0 8abd
00000210: f682 d5bd b896 663c 3700 4bbd 800b 5c3d
00000220: dd63 21bd 142d 47bd 0d4f f8bc 2869 40bd
00000230: 5abf 383d a031 2b40 72ef 873f 3fe7 9e3c
00000240: c8c0 523d 67a3 d43c 111f e6c0 2cb2 28be
00000250: 3670 09bb 938b f9bb 0950 07bd 0fd7 82c0
00000260: f9fa a73c 74c5 27be c550 693d 4c6a 283f
00000270: efad 52bd de9f 893d f4eb abbe 60bd df3c
00000280: ee55 873e 7adf 0fbc df1f 16c0 a060 9340
00000290: 43fd acbc ae9e 7e3d 19be 3aba 40a7 abc0
000002a0: eae8 09bf a578 a63e 7924 b8be 1ff5 d9bc
000002b0: 68bc 30bd 40af 21bc e337 043e 6273 f83c
000002c0: 7eb8 e63c 8c16 923f 82f5 e53e 5862 a63f
000002d0: 9f98 9e3e 8210 0d3c e2c8 bf3c 4d39 6cbf
000002e0: e4ee 243e 2271 95bb 051b 3340 05cb 8ac0
000002f0: 67f2 0b3d def8 b63c df03 94bc 421b 02bd
00000300: 467e 70bd 8072 e8bc c971 3b3c 0d96 28bf
00000310: 5cda d43c d32c 40bc 4c14 ae3c 8931 343c
00000320: 59b2 203d 1812 54bc 22b4 41be 6ffd 9bbc
00000330: 62ee 89bc 895e e0b9 5381 84bd 0fb0 1ebd
00000340: 93d9 873c 8f83 02be 5dee 99bc 1c22 ed3f
00000350: 7aaa 18bd 795e e63b 2c88 6fbd e179 39bd
00000360: 40cd 9cbc 90be 66bc 616d 01bc 8719 21bd
00000370: d093 2a3d d6dd 4abd 4926 2d40 2e71 77bd
00000380: 1fc6 a7c0 b068 403d 6826 2dbd df85 413d
00000390: 47c1 1bbc bb13 593c 3a7c b3bf 7a8f 7b3d
000003a0: 10e2 443d 872d 0abd 21a6 8ac0 a1ae 62bd
000003b0: b5ba aebd 2b82 97bd 2c66 a43e 6117 153d
000003c0: 69d9 3bbc e018 40bd 4848 123c 31b1 2f3d
000003d0: b8c9 2abd a0de ca3c ee4b 04bd a18d fd3d
000003e0: a255 b4bc c539 313d 3c03 22bd 160e 84bd
000003f0: 9c17 5cbc a04f 66be d6f7 2bbd 70a3 2abf
-0.021996476 -0.0041649947 0.017756281 0.032076087 0.10624054 6.2978253 -0.038695734 0.028748114
-0.00049472775 -0.034365907 0.566653 -0.021855649 -0.020826751 -0.051034853 -0.8209922 -0.019276252
-0.06282876 0.029097058 -0.011085869 -0.03694716 0.057329476 -0.02426349 -0.06455971 -0.7224954
0.015188255 0.083072186 -0.92832965 0.0981179 -0.02864606 -0.42403826 -0.0064221043 -1.459129
0.101583175 0.004153613 0.02232168 0.03279693 0.008769201 -0.015039897 0.017425526 -0.007378294
0.06403073 0.009763319 -0.072186135 0.0014492731 -0.09439932 0.012022874 -0.005964426 -0.010352857
-0.22100455 0.008178463 -0.022272721 0.50947416 -0.5075966 0.011526851 -0.052175783 0.018105581
-2.726373 0.008596561 0.016305039 5.430393 0.10393532 -0.08711041 -3.4897358 -0.68790084
1.1491488 0.66669345 0.046227854 0.019236391 0.12403776 0.0067302785 -5.751447 0.45768213
-0.024218228 2.8866935 -0.0059389337 -0.0054405355 0.02245896 -0.077587806 -0.29465434 -0.012096126
-0.044904504 0.034663673 0.0029015732 0.0016763004 0.031240035 0.72819364 0.03249779 2.082314
-0.06564079 0.4138876 0.02315172 0.04279946 0.051817905 0.0828077 0.054184582 -0.99158674
-0.04808954 0.053565066 0.13596503 -0.301792 -2.1980662 0.005089892 -0.011638888 -0.052746996
-0.5605689 0.0036891096 0.0018879527 -0.06686343 0.023497704 -0.03921251 0.045547526 0.03357328
0.012792343 0.014208153 -1.2019825 -0.035599977 6.5201607 -0.010511487 -2.7950673 -0.0006567198
-0.04034177 -0.03150714 0.041974045 0.023043642 -0.34036517 0.0101987915 0.0075406814 -0.10790833
-0.037880834 0.06867244 -0.046197407 -0.0678104 -0.104253694 0.01407402 -0.04956075 0.053721905
-0.039401878 -0.048626974 -0.030311132 -0.046975285 0.045104362 2.6749039 1.0619948 0.019397376
0.05145338 0.025956823 -7.1912923 -0.16474217 -0.0020971424 -0.0076155155 -0.03303531 -4.0887523
0.020505415 -0.16383916 0.056961793 0.65787196 -0.051435407 0.06719945 -0.33578455 0.02731198
0.26432747 -0.008781308 -2.3456953 4.605545 -0.021116858 0.062163047 -0.00071236637 -5.3641663
-0.53871024 0.3251392 -0.35965326 -0.02660614 -0.04314843 -0.009868443 0.12911944 0.030328456
0.028164145 1.1413131 0.4491387 1.2998762 0.30975816 0.008609893 0.023411218 -0.92274934
0.16106755 -0.0045606056 2.7985241 -4.3372827 0.03416672 0.022335466 -0.018068252 -0.031764276
-0.058714174 -0.02837491 0.011440703 -0.6585396 0.025983028 -0.011729437 0.021249913 0.010998138
0.039232586 -0.012943767 -0.18916371 -0.019041745 -0.016837303 -0.00042795044 -0.06469979 -0.03874212
0.01658324 -0.12745498 -0.018790418 1.8526034 -0.037271954 0.007030305 -0.058479473 -0.04528225
-0.01914084 -0.01408352 -0.007899613 -0.039330985 0.04164487 -0.049527965 2.7054617 -0.06041067
-5.2429347 0.046974838 -0.042272955 0.04724681 -0.00950653 0.013249333 -1.4022286 0.061416127
0.048067153 -0.033734825 -4.3327794 -0.05534232 -0.08531705 -0.073978744 0.321092 0.03639925
-0.011465409 -0.046898723 0.008928366 0.042893592 -0.04169628 0.024764359 -0.032298975 0.12380529
-0.02201349 0.043267984 -0.039553866 -0.06447999 -0.013433363 -0.22491312 -0.0419844 -0.66655636

fc2.bias f4 [2]
00000000: 66cc de3d c818 4dbe
0.1087883 -0.20028985

fc1.weight f4 [300, 9]
00000000: a7e3 283e 0f26 463d 2e27 b7be 4318 5dbe
00000010: 5aed 87be 64da 4d3e 929b d73b ce96 6dbc
00000020: ae31 3c3e f8f5 2e3e b066 5bbe e828 bcbe
00000030: 53ea 4bbe 7ad7 413f afee d3be 1df6 6a40
00000040: 8371 c8be b6aa 18bf 4d51 2c3e e33e 73ba
00000050: eb38 cfba 5651 59bd 58bb b23e d638 463e
00000060: 229c 0040 0142 af40 133b 483e 9c3e f9be
00000070: 33e1 473e b6bf 5fbc e2b0 993e 1eac 963f
00000080: 37ed 19bf 8e2f 783f fd9e dc3d 4b0c 3bbf
00000090: 43b3 81be 09a0 e03d e64f 54be 475e eebe
000000a0: 6ff2 9f3e 6754 c7bd 50f5 aa3e b537 8d3f
000000b0: 071c 29bc 6bc5 b5be 7f92 93bd 1e3e 9bbe
000000c0: 3c8e e23d 9123 753e cf4c 763e efd3 003d
000000d0: 48aa 0bbc f56f 2fbe c7c4 a63e a0ca b53e
000000e0: 43ec 333e a1d4 85bf e34b 3f3f a717 bd3d
000000f0: 3076 773f 4729 9d40 ffac af3e 261c b13e
00000100: 2fdb 7abe 91e4 0abf b1bd 153e 3564 883d
00000110: a163 41be 1827 7b40 53f3 47c0 7be9 473e
00000120: d6ad 593c fa7c a6be 962c 95bd 3853 aabe
00000130: e818 1e3e 9033 65be 8bdf 91be 5004 f93d
00000140: 0e96 8ebe ba03 8fbd 2b2f 3e3d 7b8a 92be
00000150: 1311 3dbe acbe 0dc0 5e87 6b40 56a7 38c0
00000160: 1ab2 0540 2841 943e 2ddd 2cbe 93a4 a93e
00000170: c13d 5cbe 7f08 c5be e4f1 a8bd 1120 4e3f
00000180: 79b3 f33f a662 6540 83d3 213d c0d6 643e
00000190: ad7d bbbe 1492 7abe 418d 063e feee 24c0
000001a0: 3d9e cd3e ead8 c5bf e4ec 5cc0 c2a3 4f3e
000001b0: 37b4 91be cef4 ba3d 4480 aabe 1b08 d7bd
000001c0: b50b ddbe 909d 0140 7fa2 0c3f e603 ec3f
000001d0: 1da9 463f 26a8 26bf f08f 10bc 91d7 dbbe
000001e0: bb97 42bf 1a44 cabf 95fa 2e3e 0e6f c1bf
000001f0: bae0 bd3f 53e4 dabe 99c2 08bf 6add cabe
00000200: a077 863d 3f30 4d3d c8d7 01be 0e78 a2bf
00000210: 5d19 d2be 33e6 e1be 83da f5bd fa27 b2be
00000220: c59e 8fbe 010b 47be c548 853d 0fb4 303f
00000230: 2aae 1ebf e8c6 2f3f b394 21be 6d36 12be
00000240: c690 fabe fce9 be3c f52b 63be 8a23 87bd
00000250: 0ef5 4ebe 6751 0b3e b506 09be 8114 15bf
00000260: 80d0 493e cf4c 55be 9ba2 86bd 9d70 473d
00000270: 51bc 39be e3de c13e b18b 87be 33ff 633e
00000280: 73f3 69bf 321e c93c bdfa 163d 11e9 4ebd
00000290: ba90 5abd e3a6 343e ee0c a9bf 6852 19c0
000002a0: c2f0 0540 2f91 15c0 4fe5 123d 5bac fcbd
000002b0: e349 71be 7685 673d a39f 483e 6ba9 963d
000002c0: 2822 00be f08a 2c3e 1023 53be 5740 a83e
000002d0: 6ed5 b43e 59e8 51be 21df 62be 8bd5 c53e
000002e0: c88f 5c3d 166f 52bf dee2 073f 2ea6 85bf
000002f0: b965 533c 0e12 62be 16ee dd3d c89b f8bc
00000300: 7e85 303e f8c4 43be 6278 9c3e 7167 67be
00000310: 96ee 5dbf 7f17 d43d 0746 3ebe 88b5 a1be
00000320: f501 923e ed93 093e 8c51 6f3f c343 c0be
00000330: 4f0e e23f 90d2 7ec0 b256 38be 15ae f6bd
00000340: aa2a 0bbe 822b 793e 08ae 9a3e c52d c43f
00000350: d724 b13f 6ce1 c53f c11b a2bf c5a2 5d3c
00000360: 1b0f d3bd c971 d8be c338 ba3d d2d2 7c3e
00000370: 67bf fabd 2977 35be 2cb8 dd3d 3c6d e6bd
00000380: f6fb 37be 5cc3 9dbe 6ea1 783c f832 2bbf
00000390: 8af3 fabe b185 dbbf a1e7 aabf e16e aabf
000003a0: 4abc 7440 ad22 0f3f 8995 bb3e f6fc 81bd
000003b0: 4a20 033f 9041 593c 2a8a e63d 63d7 8f3d
000003c0: 9695 62bf 8276 d4be 6919 f43e b2e7 bbbe
000003d0: deff a73e bcd0 923d eb3c 77be 9f75 3b3e
000003e0: 2265 cbbf c947 9d3f 9638 4a3e c0e7 dfbe
000003f0: cbd1 48be 2762 c0be 0b79 19be d42e 4b3f
0.16493092 0.04837614 -0.3577208 -0.21591286 -0.26548272 0.2010284 0.0065798247 -0.014501287
0.18378326 0.17086017 -0.21425891 -0.3674996 -0.19913606 0.75719416 -0.4139304 3.6712716
-0.39149103 -0.59635484 0.16827889 -0.0009279085 -0.001580981 -0.053056084 0.34908557 0.19357619
2.0095296 5.476807 0.19553785 -0.4868058 0.195195 -0.013656547 0.30017763 1.1771276
-0.60127586 0.9694756 0.10772512 -0.7306563 -0.25332078 0.10968024 -0.20733604 -0.46556303
0.3123965 -0.09732895 0.33390284 1.1032625 -0.010321624 -0.3550218 -0.07205676 -0.3032083
0.11062285 0.23939349 0.24052738 0.031452116 -0.008524485 -0.17132552 0.32572004 0.35506153
0.17570595 -1.0455514 0.7472517 0.09233027 0.96664715 4.9112887 0.34311673 0.34591788
-0.24497674 -0.54255015 0.14623143 0.06659738 -0.18885662 3.924261 -3.1242263 0.1952266
0.013286075 -0.32517225 -0.07283895 -0.33266616 0.15439188 -0.22382951 -0.28490862 0.12159026
-0.27848858 -0.06983133 0.0464317 -0.28621277 -0.18463545 -2.2147627 3.6801372 -2.8852134
2.0889955 0.2895596 -0.16881247 0.33133373 -0.21507932 -0.38483045 -0.08249262 0.8051768
1.9039146 3.584146 0.039508354 0.22347546 -0.3661932 -0.24469787 0.13139822 -2.577087
0.4015979 -1.5456822 -3.4519587 0.20277312 -0.28457806 0.09128724 -0.33300984 -0.10499593
-0.43172994 2.0252419 0.5493545 1.843869 0.77601796 -0.65100324 -0.00882338 -0.42937902
-0.7601277 -1.5802033 0.17087777 -1.5112016 1.4834206 -0.42752323 -0.5342193 -0.3962205
0.065657854 0.05009484 -0.1267997 -1.2692888 -0.41034976 -0.4412094 -0.120045684 -0.34796125
-0.2805082 -0.19437791 0.0650802 0.6902475 -0.61984503 0.6866288 -0.1577938 -0.14278574
-0.48938578 0.023304932 -0.22184737 -0.065985754 -0.20210668 0.13605271 -0.13381465 -0.5823441
0.19708443 -0.20830081 -0.06573983 0.04869138 -0.18138243 0.37865362 -0.26473764 0.2226532
-0.913871 0.024550531 0.036860216 -0.05051524 -0.05336068 0.17641787 -1.3207071 -2.3956547
2.0928197 -2.3369863 0.035863217 -0.12337562 -0.23563342 0.056523763 0.19592147 0.07356533
-0.1251303 0.16849875 -0.20618844 0.32861587 0.35319084 -0.2049879 -0.2215543 0.38639483
0.053848058 -0.82200754 0.53080547 -1.0441339 0.012902671 -0.220772 0.10836427 -0.03034772
0.17238423 -0.19118106 0.30560595 -0.22598054 -0.8669218 0.10356044 -0.18581401 -0.3158381
0.28517118 0.13435335 0.93483806 -0.37551698 1.7660617 -3.9816017 -0.18001822 -0.12044922
-0.13590494 0.24333003 0.302109 1.5326468 1.3839368 1.5459418 -1.266472 0.013527577
-0.103056155 -0.4227431 0.09092858 0.24689797 -0.12243538 -0.17721237 0.108261436 -0.112513036
-0.17967209 -0.3081311 0.015175207 -0.6687465 -0.4901393 -1.7150174 -1.3351938 -1.3315088
3.8239923 0.55912286 0.36637524 -0.063470766 0.51221144 0.01326026 0.112568215 0.07023504
-0.885095 -0.41496664 0.47675636 -0.36700207 0.328124 0.07168719 -0.24144332 0.18306588
-1.5890238 1.2287532 0.19748148 -0.437315 -0.1961128 -0.37574884 -0.1498758 0.7936833

fc1.bias f4 [300]
00000000: 6a06 84be 3baa 18be ed66 d4be e4c1 8dbe
00000010: 7631 b9be 24bd 94be 7fb3 1abe 0c4e 8d3d
00000020: 8b54 4bbd cbb0 58be 8671 1b3e 85d7 f43d
00000030: d5a9 64bd bf94 bdbe 8c65 cebe 89a7 93be
00000040: 4b01 35be 5264 abbd 6927 87be 275b 91be
00000050: 76e7 94bd a8d9 2dbe 970a a8be 3211 afbe
00000060: b1e5 723d 34fa 06bc 263a 2b3e baeb d5be
00000070: 82ec af3d 3250 1bbf 959f 00bf 43ca 753e
00000080: 4985 2e3e 1a1f d1be 539a b33e cbcf 96be
00000090: b256 f7bd 67ab 36be 8828 fdbe 154b 84be
000000a0: 7b8c 87be d277 85be df45 d43d 8de3 ecbe
000000b0: 210b d8be 03a4 5abe 194b 28bf fe9c b23e
000000c0: 11ae d13d 49d1 82bd 8938 f03d faab a9be
000000d0: 0645 433e e713 a3be 473a 033f 22cb 58be
000000e0: a449 ddbd 12d1 56be 734d d33d 1035 fdbc
000000f0: 8558 91bd 0fde b33d aac5 dabd b083 bdbe
00000100: 8c11 f2bc 47fd 323d 4265 b73d 30fd 143e
00000110: f30c e7be 8d3c f3be 2f9a 623e 0a6b 40be
00000120: a155 e0be f381 88ba 3cf3 49bd db1d 15bd
00000130: 2cfa f9bd e1e4 a4bd 159e 1ebf dce8 16bf
00000140: 8183 14bd d214 dcbe add1 3abf 0b5b 423d
00000150: 3ea0 d23d e950 373e 93dd 7dbd c693 a8be
00000160: 4739 c2be 1341 5fbe 8328 84be d408 03bf
00000170: 1006 d2be d143 46be bd08 e73e f363 48be
00000180: b327 4f3e 2485 5d3d 1d8c 82be d425 42bf
00000190: d837 6ebe e51c 2d3d 0dac 7fbe c6c4 4abe
000001a0: 4717 c5be d4de 22bd 4eca 37bf 5e5a 233d
000001b0: cc81 72be 597c 903d e85b b4be 3053 c9be
000001c0: 5417 bebd 9de4 23bf c52f 86be d6e9 e43c
000001d0: 9ef6 b2be 321b 7cbe 9ca8 1cbe 9776 a73e
000001e0: 7369 2fbe 54a2 1d3e 30ce 5dbc 9e91 f8be
000001f0: bda0 46be 7953 a4be aeca f13c 7567 b4bd
00000200: d646 70bc 5be3 3c3d c1b1 3a3e 1ad5 1ebe
00000210: 7f77 66be c037 cb3c 4050 91bd 07fc 71be
00000220: a0e2 093e 012f c1be f8d1 58be 2148 5abc
00000230: f35c 2c3e bda6 03be 5834 5c3e c4c3 bfbe
00000240: d0a5 533e 88f7 483e 64c1 9dbd f22e d4be
00000250: 771e c9be d014 3a3d 0b80 f8bd 04fc 993e
00000260: a9d9 5c3e 6d94 2c3e e900 3cbd d2c0 8bbe
00000270: d8c1 203e 862a e73d ab16 8d3d d8d8 d5be
00000280: 09f2 163f 8b88 043c 8663 5dbe d4fd 8cbe
00000290: 5644 a93c 3259 1fbe ae35 d53b e98c 023e
000002a0: 37b2 d6be 6f36 ca3d 4de5 b2be e4fe 9cbe
000002b0: 6f4f 33be 5add 8ebd 3a1e 993e 139e c6be
000002c0: e417 6bbe f298 2dbe 8af5 87be 9e2b a9be
000002d0: b976 8c3d a04d 783e 36a7 b1be f414 1fbe
000002e0: 12f5 453e 301e dabc e4a8 803e c351 823e
000002f0: da79 23bf c0ad 8bbe 22f6 8dbc 91da a93e
00000300: cb0f 4b3e 1a36 bdbe fcb6 363d 6bd9 1b3e
00000310: 6695 8dbe 1fdd 983e ef47 8f3b 8ce3 e4bd
00000320: a0db 903d 1506 35bf e775 01bf 3da1 53be
00000330: 2149 b2be 8bb7 21bf a893 0f3f bded 213e
00000340: 0a7c 713d c9aa c5be 18ea 0abf d5d2 be3d
00000350: 2466 0e3d ff59 c93d ff71 14bf e7dd 57bd
00000360: 91fc 0fbe fdb4 26bc 6e0f 58bc 5df3 013d
00000370: 2b8b 593d a632 b0be fa43 0bbf 26bd 86be
00000380: df2f cdbe 31ac 11bf 542d 7cbe 1385 473e
00000390: b667 753d 0efe 2f3e 716f 91be 6cba 37bf
000003a0: eb8d 373e 8d41 94be 822e c93e 9033 b93c
000003b0: 4785 e53d 9e7a ffbe d4bb 4a3e f5cf 2abe
000003c0: cbc2 3e3d 5052 c23e c579 f53d da73 023e
000003d0: ae84 183e bb28 d3be 1eed 06be 1a9a e33d
000003e0: 4fa4 0abe d3ba a6be bbe7 7ebb 1870 623e
000003f0: 0e13 ee3e 02a9 c83e ba28 cbbe 517d 21be
-0.25786144 -0.14908688 -0.41484776 -0.2768699 -0.36170548 -0.29050553 -0.15107535 0.06899652
-0.049641173 -0.21161191 0.15180025 0.119551696 -0.055826027 -0.37027547 -0.4031185 -0.28838757
-0.17676274 -0.08368744 -0.26397255 -0.28389856 -0.0727071 -0.1697756 -0.3282058 -0.34192806
0.059301082 -0.008238364 0.167214 -0.41781408 0.08590032 -0.60669243 -0.502435 0.24002938
0.17043032 -0.4084404 0.35078678 -0.29455408 -0.12077083 -0.17838822 -0.49444985 -0.25838533
-0.26474366 -0.26067978 0.10364889 -0.46267357 -0.4219599 -0.21351628 -0.6573959 0.348854
0.10238279 -0.06387574 0.11729533 -0.3313902 0.19069299 -0.31851122 0.512608 -0.21171239
-0.108050615 -0.20978191 0.10317507 -0.030909091 -0.07096962 0.08782589 -0.10682233 -0.37014532
-0.029549383 0.043698575 0.0895486 0.14549708 -0.45127067 -0.47507134 0.22129129 -0.18790832
-0.4381533 -0.0010414704 -0.049304232 -0.036405426 -0.122059196 -0.08051468 -0.61959964 -0.58949065
-0.036258224 -0.42984635 -0.7297619 0.047450107 0.1028447 0.17901959 -0.061978888 -0.32925242
-0.37934324 -0.21802168 -0.25812158 -0.51185346 -0.4102025 -0.19361807 0.45123854 -0.19569378
0.20229988 0.05408205 -0.25497523 -0.7583897 -0.2326349 0.042263884 -0.24967976 -0.19801626
-0.38494322 -0.039763287 -0.7179307 0.039881103 -0.23682326 0.070549674 -0.3522637 -0.3932128
-0.09281793 -0.6402071 -0.2620832 0.027943533 -0.3495378 -0.24619749 -0.15298694 0.32707664
-0.1713007 0.15393955 -0.013537928 -0.48548597 -0.19397254 -0.32094935 0.02951559 -0.08808795
-0.014665326 0.04611526 0.1823187 -0.1551098 -0.22506522 0.024806857 -0.070953846 -0.23631297
0.13465357 -0.37731174 -0.21173847 -0.013322861 0.16832332 -0.12856574 0.21504343 -0.37454045
0.20668721 0.19625676 -0.07702902 -0.41442066 -0.39281055 0.045430005 -0.12133797 0.30075085
0.21567406 0.16853495 -0.045899305 -0.27295548 0.15698946 0.112874076 0.06889089 -0.41767
0.58963066 0.008089195 -0.21619996 -0.27537405 0.020662468 -0.15561369 0.0065066433 0.12749065
-0.41932842 0.09873664 -0.34940568 -0.30663216 -0.1751077 -0.06975813 0.29905874 -0.38792476
-0.22958332 -0.16952875 -0.2655452 -0.3304109 0.06858582 0.24248362 -0.34697884 -0.15535337
0.19331768 -0.026625723 0.25128853 0.25453004 -0.63857806 -0.27280998 -0.01732928 0.33174565
0.19830243 -0.3695534 0.0446081 0.15219657 -0.27653044 0.29856202 0.004372589 -0.111762136
0.0707314 -0.70712405 -0.5057053 -0.20666976 -0.34821418 -0.6317069 0.5608468 0.15813346
0.058956183 -0.3860686 -0.5426345 0.09317557 0.034765378 0.098316185 -0.57986444 -0.052701857
-0.1406119 -0.010174987 -0.0131872725 0.03172623 0.053111237 -0.34413642 -0.544006 -0.26316184
-0.40075585 -0.5690337 -0.24626666 0.19484358 0.05991336 0.17186758 -0.28405336 -0.7176883
0.17925231 -0.2895626 0.39293295 0.022607595 0.11207061 -0.49898237 0.19798213 -0.16680892
0.046572488 0.37953424 0.11986116 0.12739506 0.14894363 -0.41242012 -0.1317639 0.11113377
-0.13539241 -0.3256441 -0.0038895446 0.22113073 0.46498913 0.39191443 -0.3967951 -0.1577046
