model_save/params_20240807_190240.pth (torch, 68211 bytes, 18 tensors)

fc1.weight f4 [300, 9]
0	0xbd0f1d68	-0.034940153
1	0x3e66df42	0.22546104
2	0xbd39ff28	-0.04540935
3	0xbe468a26	-0.19388637
4	0xbd8fe690	-0.07026398
5	0x3e339dea	0.17540708
6	0xbe519800	-0.2046814
7	0x3e99fafd	0.300743
8	0xbe73625b	-0.23767988
9	0xbe55d323	-0.20881324
10	0x3e314faa	0.17315546
11	0xbe687b58	-0.22703302
12	0xbdf02f5c	-0.11727783
13	0x3e94f985	0.29096618
14	0xbd2eeb78	-0.04270503
15	0xbea164ac	-0.3152212
16	0xbe74af06	-0.23894891
17	0x3de74890	0.11293137
18	0xbd9ff82c	-0.07811007
19	0xbdc1185c	-0.09428474
20	0x3df8fd3c	0.121576756
21	0x3e400ef2	0.18755701
22	0x3e3f1622	0.18660787
23	0x3a8e9000	0.0010876656
24	0xbda1b5a4	-0.07895973
25	0xbe89c77b	-0.26910004
26	0xbc80a4b0	-0.01570353
27	0xbea4bb7a	-0.32174283
28	0x3e87bb3d	0.2651004
29	0xbd82e0f4	-0.06390563
30	0x3e9d7d09	0.30759457
31	0xbd872d04	-0.06600383
32	0xbd64aad8	-0.05582699
33	0xbe2c3193	-0.16815786
34	0xbe8fb77b	-0.28069672
35	0x3e293028	0.16522276
36	0x3de315a4	0.11088112
37	0xbe6f89f0	-0.23392463
38	0x3d9e8140	0.07739496
39	0xbe24ce6b	-0.16094367
40	0x3e937acd	0.28804627
41	0x3e97f655	0.29680124
42	0x3defb9b4	0.11705342
43	0xbe1c8fe8	-0.15289271
44	0x3e782c2a	0.24235597
45	0xbb854d40	-0.004068047
46	0x3e8ab6c9	0.2709258
47	0xbdd0c420	-0.10193658
48	0x3d7f34e0	0.062306285
49	0xbe916eaa	-0.28404742
50	0xbdbaa430	-0.091133475
51	0xbe2d1bb8	-0.16905105
52	0xbe5b5b48	-0.2142154
53	0x3e9f494d	0.31110612
54	0x3de52744	0.1118913
55	0x3c8e3000	0.017356873
56	0xbe825582	-0.25455862
57	0xbe3eabf3	-0.18620281
58	0xbd162a08	-0.036661178
59	0xbe4ade70	-0.19811416
60	0x3e6b556a	0.22981802
61	0xbdae71a6	-0.085177705
62	0x3d84c404	0.064826995
63	0x3e8f6d97	0.28013298
64	0x3e5d39f2	0.21604136
65	0x3e4a0b02	0.19730762
66	0x3e7920de	0.24328944
67	0xbdc43db6	-0.09582083
68	0x3c45f780	0.012082934
69	0xbe7c1830	-0.24618602
70	0xbdf0414c	-0.117312044
71	0xbeaa9e1b	-0.3332375
72	0x3e80cb91	0.2515531
73	0x3e715ade	0.2356982
74	0x3e6f67c6	0.2337943
75	0xbe87b6f8	-0.26506782
76	0x3b9b9d00	0.0047489405
77	0x3e148336	0.14503178
78	0x3e9bdbb5	0.3044106
79	0xbcd86b90	-0.026418477
80	0xbc40d260	-0.011768907
81	0x3dc2179c	0.094771594
82	0xbcd43400	-0.025903702
83	0xbdcb0520	-0.09913087
84	0x3e55ac1e	0.20866439
85	0x3ea7bdf9	0.32762125
86	0x3e368636	0.17824635
87	0x3d49a898	0.04923305
88	0x3dea1014	0.11428848
89	0x3d286588	0.041112453
90	0x3e2f95ba	0.1714696
91	0xbea0becb	-0.31395563
92	0x3d199e28	0.037504345
93	0xbd9d7700	-0.07688713
94	0x3d5f4560	0.05450952
95	0x3e71c6de	0.23611018
96	0xbd15df68	-0.03659001
97	0x3df4b30c	0.11948213
98	0xbe24133b	-0.16022961
99	0xbe9cf100	-0.30652618
100	0xbe892fa2	-0.26794153
101	0x3e46cab2	0.1941326
102	0xbdf677a6	-0.1203454
103	0x3e6d9d0a	0.23204437
104	0x3daca1a4	0.08429268
105	0xbcab1290	-0.020882875
106	0x3e8aea75	0.27132002
107	0xbd3de088	-0.046356708
108	0x3e7d194a	0.24716678
109	0x3d888f24	0.06667927
110	0xbddf4996	-0.10902707
111	0xbe5d4093	-0.21606664
112	0x3c2db180	0.010601401
113	0xbe8d3d1f	-0.27585694
114	0x3e7b5bba	0.2454671
115	0x3e8984c5	0.26859108
116	0xbce42d00	-0.027853489
117	0x3c21f860	0.009885877
118	0xbc9558f0	-0.018230885
119	0x3b55fc00	0.0032651424
120	0xbb463380	-0.0030243099
121	0xbddf4a7c	-0.10902879
122	0x3e41b62a	0.18917146
123	0xbcc752f0	-0.02433154
124	0x3e26d0b6	0.16290554
125	0xbd6e5ce8	-0.05819407
126	0x3e31100a	0.17291275
127	0xbe160b43	-0.14652734
128	0xbe0d870e	-0.1382105
129	0xbdc92020	-0.098205805
130	0x3e03e202	0.12879184
131	0x3d3f0c98	0.04664287
132	0xbd890f84	-0.066924125
133	0x3e5d19da	0.21591893
134	0xbe1567cb	-0.14590375
135	0xbdd946e6	-0.10609226
136	0xbe28e9a6	-0.1649538
137	0xbd9a0810	-0.07521069
138	0xbe4d5718	-0.20052755
139	0xbd8a9ba4	-0.06767967
140	0x3d8e0074	0.0693368
141	0xbe14a4fe	-0.14516065
142	0x3e967b09	0.29390743
143	0x3ea667bb	0.32501015
144	0x3da2afc0	0.07943678
145	0xbc08c1e0	-0.008347005
146	0xbe671898	-0.22567976
147	0xbdecedd6	-0.11568801
148	0xbdd9be86	-0.106320426
149	0xbe9f13bb	-0.3106974
150	0xbe78d913	-0.24301557
151	0xbd42cda8	-0.04755941
152	0xbea25490	-0.3170514
153	0xbe1c59d6	-0.15268645
154	0x3e7e18ca	0.24814144
155	0xbe6ca9d3	-0.23111658
156	0xbea13b16	-0.31490391
157	0xbe74a2f3	-0.23890285
158	0x3e4b4ae2	0.19852784
159	0xbcb601d0	-0.022217661
160	0xbc533260	-0.012890428
161	0x3e17ca2e	0.14823219
162	0xbd81bf3c	-0.06335303
163	0xbdaeda10	-0.08537686
164	0x3e1abd9a	0.1511139
165	0xbe09a226	-0.13440761
166	0x3e45f756	0.19332632
167	0xbe6164ab	-0.22011058
168	0x3de514a0	0.111855745
169	0x3de69a84	0.1125994
170	0x3d9815fc	0.07426068
171	0xbda1c620	-0.078991175
172	0x3bb18900	0.005417943
173	0xbd74dd48	-0.059781343
174	0x3e943e53	0.289538
175	0x3e93d6e3	0.28874883
176	0x3db9c9b0	0.09071672
177	0x3e74c32a	0.23902574
178	0xbe9cacf4	-0.30600703
179	0x3ea835b3	0.3285347
180	0xbe4369ae	-0.19083282
181	0xbe45145e	-0.1924605
182	0x3dc05884	0.09391883
183	0x3e1ffb62	0.15623239
184	0xbc6ecb00	-0.014574766
185	0x3dbadb54	0.09123865
186	0xbd504500	-0.050847054
187	0xbdac8b56	-0.08425014
188	0x3d6c4928	0.057686955
189	0xbdc7f460	-0.09763408
190	0x3d5c0538	0.053715914
191	0x3e59cc72	0.21269396
192	0xbe60fb30	-0.2197082
193	0x3ea5bef7	0.32372257
194	0x3e7b767a	0.24556914
195	0xbea9a19c	-0.3313111
196	0x3dcc0364	0.09961584
197	0x3c801570	0.015635222
198	0x3ea1250d	0.3147358
199	0x3ea5eff9	0.32409647
200	0x3e47da42	0.19516852
201	0xbea26450	-0.31717157
202	0x3e9040c9	0.28174427
203	0xbd78eb18	-0.060771078
204	0x3e2772e8	0.16352427
205	0x3e6b8cb6	0.23002896
206	0xbd0f7b60	-0.03502977
207	0xbe46ee33	-0.19426803
208	0x3e7acaaa	0.24491373
209	0xbe4168b3	-0.18887596
210	0x3d08d228	0.033403546
211	0x3e8e49b3	0.27790603
212	0x3d5e24a0	0.054234147
213	0x3c84e940	0.016224504
214	0xbdb7fa90	-0.08983338
215	0x3e2ef9f2	0.17087534
216	0xbdefc8dc	-0.11708233
217	0xbc817b00	-0.015805721
218	0xbe47ec53	-0.19523744
219	0xbe8f63a8	-0.2800572
220	0xbdc2fb36	-0.09520571
221	0xbca45770	-0.020061225
222	0xbe20f6f0	-0.15719199
223	0x3e82f047	0.25573942
224	0x3cf2b650	0.029627949
225	0xbe109c00	-0.1412201
226	0x3e723982	0.2365475
227	0x3d909d70	0.07061279
228	0xbdf73890	-0.12071335
229	0xbe82d7b8	-0.25555205
230	0x3dc67f8c	0.096922964
231	0xbe42c3ae	-0.19019958
232	0x3d812384	0.06305602
233	0x3ea237cd	0.31683198
234	0xbda72e54	-0.08163133
235	0x3e77687e	0.24160954
236	0x3e2e45ee	0.17018864
237	0x3e29e4aa	0.16591135
238	0x3d569538	0.0523884
239	0x3e57cfd2	0.21075371
240	0xbd2081e0	-0.03918636
241	0x3e87f68d	0.2655529
242	0xbdcd1a06	-0.10014729
243	0xbe1257a3	-0.14291243
244	0x3e2d5df6	0.16930375
245	0x3e2b9e1a	0.1675953
246	0x3e587b6e	0.21140835
247	0x3e75affa	0.23992911
248	0x3d85264c	0.06501445
249	0xbe9dceb7	-0.30821773
250	0xbe3d2006	-0.18469247
251	0x3cd40700	0.025882244
252	0xbea24d43	-0.3169957
253	0xbe9de194	-0.30836165
254	0xbe2c0d68	-0.16801989
255	0x3dcf0904	0.101091415

fc1.bias f4 [300]
0	0xbe2ef9fb	-0.17087547
1	0x3eaa53ad	0.33266965
2	0x3e08f4fe	0.13374707
3	0x3e97094f	0.2949929
4	0xbe05351e	-0.13008544
5	0xbe7c3b5e	-0.24632022
6	0xbe2125c6	-0.15737066
7	0xbe701353	-0.23444872
8	0xbe598d60	-0.21245337
9	0x3e47442a	0.19459596
10	0xbe3aa426	-0.1822668
11	0x3ddd2510	0.10798085
12	0x3e83480b	0.25640902
13	0x3dc7a84c	0.09748897
14	0xbea0a05e	-0.3137235
15	0x3e134d2e	0.1438491
16	0x3ea5dae5	0.32393566
17	0x3e71d912	0.23617962
18	0x3e494d7e	0.19658467
19	0xbdc6c1a0	-0.097049
20	0x3e60ad82	0.21941188
21	0x3d8d4330	0.068975806
22	0x3e9a0891	0.3008466
23	0xbe481bf8	-0.19541919
24	0x3e05c2f8	0.13062656
25	0x3e8f8c31	0.28036645
26	0x3e923fa9	0.28564194
27	0x3da9b880	0.08287144
28	0xbe734f5e	-0.23760745
29	0x3d198218	0.037477583
30	0xbe021c33	-0.1270607
31	0xbd0dc3d8	-0.0346106
32	0x3e91943f	0.28433415
33	0x3d7e3ba0	0.06206858
34	0xbde388e6	-0.11110096
35	0xbd36b078	-0.044601887
36	0x3daeb17c	0.08529946
37	0x3c3502e0	0.011048049
38	0x3e480c6e	0.19535992
39	0xbe46de0b	-0.1942064
40	0xbe9330c7	-0.28748152
41	0x3d5f02c0	0.054445982
42	0xbb772b80	-0.0037715137
43	0xbd1ae958	-0.03782019
44	0xbe098aa0	-0.13431787
45	0x3d0d6ee8	0.034529597
46	0xbeaa0e2c	-0.33213937
47	0x3e91e97f	0.28498456
48	0x3dd35b34	0.1032013
49	0x3e944133	0.28955993
50	0xbe8179ae	-0.25288147
51	0xbdf1ec06	-0.11812596
52	0x3e4b2e52	0.19841889
53	0x3d61d198	0.055131525
54	0xbd94c4bc	-0.072640866
55	0xbd56be18	-0.05242738
56	0xbd94e5d4	-0.07270399
57	0x3d8c35b0	0.068461776
58	0xbde99610	-0.11405575
59	0x3dd8d6d4	0.1058785
60	0xbe533fa0	-0.2062974
61	0xbe8798d3	-0.26483783
62	0x3e1f69ba	0.15567675
63	0xbd9697b0	-0.07353151
64	0xbea22e9a	-0.3167618
65	0x3d0e3a88	0.03472379
66	0xbe9d3c8e	-0.30710262
67	0x3dc1d21c	0.09463903
68	0xbeaa1aa2	-0.33223444
69	0x3d317808	0.04332736
70	0xbcb2bd00	-0.021818638
71	0x3e3ea0fa	0.18616095
72	0x3e91e0dd	0.2849187
73	0xbdda89c0	-0.10670805
74	0x3e6f60aa	0.23376718
75	0xbe86acaf	-0.26303622
76	0x3e9ccfbf	0.30627248
77	0x3d61db78	0.055140942
78	0x3d355c60	0.04427755
79	0x3e9a4451	0.30130246
80	0xbcb6d930	-0.02232036
81	0xbe1f2630	-0.15541911
82	0xbe4b0dc0	-0.19829464
83	0xbe3cd4a6	-0.18440494
84	0xbe969db0	-0.2941718
85	0xbe92eb78	-0.28695273
86	0xbe823cef	-0.25437114
87	0x3e4a0052	0.19726685
88	0xbe37a16e	-0.17932674
89	0xbd45fe98	-0.048338503
90	0x3e9594f3	0.29215202
91	0x3e7f5072	0.24933031
92	0x3e69f3c2	0.22846892
93	0x3dddcea4	0.10830429
94	0xbdbaaab0	-0.09114587
95	0x3d1f68a0	0.038918138
96	0x3db5bc60	0.0887382
97	0x3e686cba	0.22697726
98	0xbe96751a	-0.29386216
99	0x3dcd6cd4	0.10030523
100	0xbe3c1018	-0.18365514
101	0x3e5739d2	0.2101815
102	0x3e813081	0.25232318
103	0x3d6715c0	0.056417227
104	0x3e89e555	0.2693278
105	0xbe15f058	-0.14642465
106	0xbe80220c	-0.25025976
107	0xbd95610c	-0.07293901
108	0xbe98545f	-0.2975187
109	0x3d4c3728	0.04985729
110	0xbe1a3e88	-0.15062916
111	0x3cfa7ec0	0.030578017
112	0x3d951530	0.07279432
113	0xbdfc8cec	-0.12331566
114	0xbe52bdd6	-0.20580229
115	0xbe0d1a93	-0.13779669
116	0x3df89d44	0.12139371
117	0x3e935c55	0.2878138
118	0x3e1b44b8	0.15162933
119	0xbe1a6843	-0.15078835
120	0x3dca60b0	0.09881723
121	0x3e144020	0.14477587
122	0x3ea7cb75	0.32772413
123	0x3cab3380	0.02089858
124	0x3d6934e0	0.05693519
125	0xbe832d18	-0.2562034
126	0x3e8b69a5	0.27229038
127	0xbe022660	-0.12709951
128	0xbda0d00c	-0.07852182
129	0x3ddcdcb4	0.10784283
130	0x3dc7c7f0	0.09754932
131	0xbe52104b	-0.20514028
132	0xbe8dbbd0	-0.27682352
133	0xbd288978	-0.041146725
134	0x3c38c2a0	0.011276871
135	0x3e763256	0.24042639
136	0xbe44a57b	-0.19203751
137	0x3e632f52	0.2218602
138	0xbea3952e	-0.31949753
139	0xbe0c05f6	-0.13674149
140	0x3be7edc0	0.0070779026
141	0x3deef574	0.1166791
142	0xbde98fd6	-0.11404388
143	0x3e9ab3ed	0.30215397
144	0x3df8b63c	0.121441334
145	0x3e0255d6	0.12728056
146	0xbe026a4b	-0.1273586
147	0x3e6c9756	0.23104605
148	0xbcb060b0	-0.02153048
149	0x3dbada4c	0.09123668
150	0xbd9f336c	-0.0777348
151	0x3e9781d5	0.2959124
152	0x3e288f7e	0.16460988
153	0xbe211e38	-0.15734184
154	0x3e6636be	0.2248182
155	0xbe5366a6	-0.20644626
156	0x3e823e73	0.2543827
157	0x3c4c7e60	0.012481302
158	0x3d71b0c0	0.059006453
159	0x3da077c4	0.078353435
160	0xbd2fa5a0	-0.04288256
161	0xbe9a98e0	-0.3019476
162	0xbc9be340	-0.01902926
163	0x3e89df59	0.26928213
164	0x3d898f8c	0.067168325
165	0x3ea5a991	0.3235593
166	0x3d58bcd8	0.05291447
167	0xbe4a83b3	-0.19776802
168	0x3e835493	0.25650463
169	0xbd3f3440	-0.04668069
170	0x3d035a60	0.03206861
171	0x3d62ffb8	0.055419654
172	0x3e345bb2	0.17613104
173	0xbd96ba24	-0.07359722
174	0xbe917ca4	-0.28415406
175	0x3ce2e970	0.027699202
176	0x3ea7c30d	0.32766
177	0x3e7112a2	0.23542264
178	0xbe6b4ad6	-0.22977766
179	0x3e818be3	0.25302038
180	0x3e9d6cd1	0.30747083
181	0x3e7fd88a	0.24984947
182	0xbce8bcb0	-0.028410286
183	0x3dd53070	0.10409629
184	0x3daef430	0.08542669
185	0x3e3d646e	0.18495342
186	0xbdcf4e3c	-0.10122344
187	0x3dbea330	0.09308469
188	0xbe508336	-0.20362553
189	0xbe53f598	-0.20699155
190	0xbe05707b	-0.13031189
191	0xbd928bc4	-0.071555644
192	0xbe24bcb6	-0.16087613
193	0xbd6c2088	-0.05764821
194	0xbe88322b	-0.26600775
195	0xbe12b518	-0.14326894
196	0x3d164e40	0.03669572
197	0xbe86d38c	-0.26333272
198	0x3e27e176	0.163946
199	0xbe70e08b	-0.23523156
200	0xbe4b8210	-0.19873834
201	0x3e9bcf99	0.30431822
202	0x3e6522da	0.22376576
203	0x3ea6e541	0.32596782
204	0xbdfb7a2c	-0.12279162
205	0x3d306ac0	0.043070555
206	0xbd81fe34	-0.063473135
207	0x3e21b9d8	0.1579355
208	0x3e84ab23	0.25911817
209	0x3e48a542	0.19594291
210	0x3e2267c2	0.15859893
211	0xbe96eda3	-0.29478177
212	0xbe39c700	-0.18142319
213	0xbe9c462f	-0.30522296
214	0xbe4be0a8	-0.19909918
215	0xbe404b86	-0.1877881
216	0x3ea184cf	0.31546637
217	0x3e7ea82a	0.24868837
218	0xbe97099a	-0.29499513
219	0xbcc7aad0	-0.024373442
220	0xbe17548e	-0.14778349
221	0xbd4848e8	-0.048897654
222	0x3ae96300	0.0017805994
223	0x3e36dc12	0.17857388
224	0x3cd5d9c0	0.026104808
225	0xbdab0876	-0.08351223
226	0xbda9e5e4	-0.08295801
227	0xbea5b70c	-0.32366216
228	0xbd2d5ca8	-0.042324692
229	0x3e6d04c2	0.23146346
230	0x3dbd3854	0.09239259
231	0xbd92c2f0	-0.071660876
232	0xbe8c3a80	-0.27388382
233	0xbc7639e0	-0.015028447
234	0x3d00c400	0.03143692
235	0xbea58e96	-0.32335347
236	0xbe9b2a1b	-0.3030556
237	0x3dfd2910	0.12361348
238	0xbc018020	-0.007904083
239	0xbd063120	-0.032761693
240	0xbadc8d00	-0.0016826689
241	0xbd142060	-0.036163688
242	0xbdd45d10	-0.10369313
243	0xbe8bb8de	-0.2728948
244	0x3e789d32	0.24278715
245	0xbd93a704	-0.0720959
246	0xbe6a71d0	-0.22894979
247	0xbea00de8	-0.3126061
248	0x3e8cfe3b	0.27537712
249	0xbe501803	-0.2032166
250	0x3d6fd7d8	0.058555454
251	0x3d9b7010	0.075897336
252	0x3e3ff2d2	0.18744972
253	0xbd6cc918	-0.057808965
254	0x3c7e8660	0.015534967
255	0x3e7c09fa	0.24613181

fc2.weight f4 [2, 300]
0	0xbc0cfc78	-0.008605115
1	0x3bc63e10	0.006049879
2	0xbaa06d40	-0.001223959
3	0xbd1e824a	-0.038698472
4	0xbca549ba	-0.020176757
5	0xbc1b8950	-0.009493187
6	0x3ccfea90	0.025380403
7	0xbd57c7af	-0.052680667
8	0x3d6a4810	0.05719763
9	0xbd0d0022	-0.034423955
10	0x3d30acd8	0.043133587
11	0x3d5725fa	0.05252645
12	0xbd3f3ee6	-0.046690844
13	0x3cf0f0f0	0.029411763
14	0x3d3eda2a	0.046594776
15	0x3d39c148	0.045350343
16	0x3d0028a0	0.031288743
17	0xba8a89e0	-0.0010569654
18	0x3bc17d70	0.005904846
19	0xbcf6638f	-0.03007677
20	0xbcce7f58	-0.025207207
21	0xbd0b2bba	-0.033977248
22	0xbd6846a3	-0.05670799
23	0x3d4654ba	0.048420645
24	0xbc3653cc	-0.011128377
25	0xbc7a1580	-0.015263915
26	0xbc58bbf8	-0.013228409
27	0x3ce453d0	0.027871996
28	0xbcc67568	-0.024225906
29	0x3d0b7d4e	0.034055047
30	0x3c062da8	0.008189596
31	0xbcb1ed2e	-0.021719541
32	0xbd02bd06	-0.031918548
33	0xbd2d1031	-0.04225177
34	0xbcc609e4	-0.024174638
35	0x3c1ef018	0.0097007975
36	0x3d64c9b8	0.055856436
37	0xbc3dfa14	-0.011595268
38	0xbc838958	-0.016056702
39	0xbc5ffa10	-0.013670459
40	0x3cb95e9c	0.022628121
41	0xbaf62d00	-0.0018781722
42	0x3d63f7d6	0.055656277
43	0xbc705908	-0.014669664
44	0xbd3da424	-0.046299115
45	0x3cbcfbe4	0.02306933
46	0xbd56d983	-0.05245353
47	0xbd2730b3	-0.040817928
48	0xbca80702	-0.020511154
49	0x3d01651e	0.031590573
50	0x3cc7c9c0	0.024388194
51	0xbd32935c	-0.043597564
52	0xbd523a00	-0.051324844
53	0xbd3e2551	-0.046422306
54	0xbcf2ada9	-0.029623823
55	0xbd50005a	-0.050781585
56	0x3c8733bc	0.016504161
57	0x3cad2e6c	0.0211403
58	0x3d26fe46	0.040769838
59	0xbc2415d0	-0.010014966
60	0x3b87cbb0	0.0041441545
61	0x3c41ef10	0.011836782
62	0xbcbb1148	-0.022835389
63	0xbca4eb0a	-0.020131607
64	0xbd18fea4	-0.03735222
65	0x3b606480	0.003423959
66	0x3cd27a00	0.02569294
67	0xbc93478a	-0.017978448
68	0xbb484e10	-0.0030564107
69	0xbcb6b934	-0.022305109
70	0xbbc437d8	-0.0059881024
71	0x3c3d8b00	0.011568785
72	0x3cfd0890	0.030887872
73	0xbcba8604	-0.022768982
74	0x3d36d11c	0.044633016
75	0x3b920fd0	0.0044574514
76	0xbcf7c1f0	-0.030243844
77	0xbd0d6f48	-0.034529954
78	0xbd01ced1	-0.031691376
79	0xbd500ea8	-0.050795227
80	0x3d2706bc	0.040777907
81	0x3d125348	0.035723954
82	0xbd3ef294	-0.04661806
83	0x3d34e80a	0.044166602
84	0x3cfb5b64	0.030683227
85	0x3d317c18	0.043331236
86	0x3b3420a0	0.0027485266
87	0xbd279eea	-0.040923037
88	0xbca1c7a8	-0.019748524
89	0x3ab71120	0.0013966896
90	0xbd2ba697	-0.04190692
91	0xbd2385ca	-0.039922513
92	0xbc948da4	-0.018133946
93	0x3cddbf5c	0.027068786
94	0x3b771060	0.003769897
95	0xbc665700	-0.014058828
96	0xbc913e10	-0.017729789
97	0x3aaa5c60	0.0012997501
98	0x3cb3c204	0.0219431
99	0x3d02b1b0	0.031907737
100	0xbbbbf440	-0.005735904
101	0xbd6a62e1	-0.057223205
102	0xbd2ef090	-0.042709887
103	0x3c9cef34	0.01915703
104	0xbd4a2e34	-0.04936047
105	0x3cdf37c8	0.027248278
106	0xbcc3af86	-0.023887407
107	0xbcc61d12	-0.024183784
108	0x3c9c5e3c	0.019087903
109	0xbd12a182	-0.035798557
110	0x3c34b960	0.011030525
111	0x3d41901c	0.047256574
112	0xbd6593c8	-0.05604914
113	0x3d225ad4	0.0396374
114	0x3d203ce8	0.039120585
115	0x3c197e80	0.009368539
116	0x3d3d18e2	0.04616631
117	0x3d5d8324	0.054080144
118	0xbc90bc28	-0.017667845
119	0xbd4a233f	-0.04935002
120	0x3c9b8bc8	0.018987551
121	0xbbcedfb8	-0.0063132904
122	0xbd36bb5c	-0.044612274
123	0xbbbcfd08	-0.0057674684
124	0x3d1a6b10	0.03769976
125	0xbafba440	-0.0019198731
126	0x3d337a7a	0.043817975
127	0x3ccd3928	0.025051668
128	0xbd44ce78	-0.048048466
129	0xbc7003a4	-0.0146493055
130	0x3c45e3f8	0.012078278
131	0x3d1fb144	0.038987413
132	0xbc5ee9a4	-0.013605509
133	0xbd3c5c24	-0.04598631
134	0xbd5de396	-0.05417212
135	0x3d2271b6	0.039659224
136	0xbc95e6d0	-0.018298537
137	0x3ba41a40	0.005008012
138	0x3d00f7d6	0.031486355
139	0xbbd17018	-0.0063915364
140	0xbcabe6ce	-0.02098408
141	0xbd02624d	-0.03183203
142	0xbd5243e5	-0.05133428
143	0xbb679660	-0.0035337433
144	0xbd260514	-0.040532187
145	0xbc96464e	-0.01834407
146	0xbd53715f	-0.05162179
147	0xbd0768f8	-0.03305909
148	0xbc66d8d4	-0.014089782
149	0xbd259a12	-0.040430136
150	0x3d4b6b8a	0.049663104
151	0x3cf88f4c	0.030341767
152	0xbd400182	-0.046876438
153	0x3c5e99f8	0.013586514
154	0xbd27eee8	-0.040999323
155	0x3d0c4906	0.034249328
156	0xbcef8b81	-0.029241325
157	0x3d5b797c	0.053582653
158	0xbc26ce9c	-0.010181095
159	0xbd2bc8ea	-0.041939653
160	0xbd46e695	-0.048559744
161	0x3ca590d0	0.020210654
162	0x3d5a01ec	0.05322449
163	0xbd071d88	-0.032987148
164	0xbd56be8a	-0.052427806
165	0xbcafffb2	-0.02148423
166	0x3cae6980	0.02129054
167	0x3d3ff0f0	0.046860635
168	0xbd5e95a8	-0.054341942
169	0x3c53f760	0.012937397
170	0x3d052da0	0.032514215
171	0x3c888948	0.016667023
172	0xbd528279	-0.05139396
173	0xbca39300	-0.019967556
174	0xbbbaf6c0	-0.0057056844
175	0x3d3c86da	0.046027042
176	0xbd07c7a0	-0.03314936
177	0xbc7f8160	-0.01559481
178	0x3d34a520	0.044102788
179	0x3ce109a8	0.027470425
180	0xbd067140	-0.032822847
181	0xbd041ffa	-0.032257058
182	0xbc935fca	-0.017990012
183	0x3cfd4ce0	0.030920446
184	0x3c8dd3d8	0.017312929
185	0xbd2059e8	-0.03914824
186	0x3b98ebd0	0.004666783
187	0xbbc1dc80	-0.005916178
188	0xbd214a74	-0.039377645
189	0x3cecacc8	0.028890982
190	0x3c6b7940	0.01437217
191	0x3cd05230	0.025429815
192	0xbd66bd0d	-0.056332637
193	0x3d59d284	0.05317928
194	0xbbf334b0	-0.0074220523
195	0x3cff9878	0.031200632
196	0xbc8a6d70	-0.016897887
197	0x3ce28fd0	0.027656466
198	0xbc2a0118	-0.010376237
199	0x3d203aae	0.03911846
200	0xbd68815b	-0.056763988
201	0x3ce451dc	0.027871065
202	0xbcae9272	-0.021310065
203	0x3c8a2a8c	0.016865991
204	0xbcf8b835	-0.030361274
205	0xbcfda890	-0.030964166
206	0xbd14aaaf	-0.03629559
207	0xbd0749b0	-0.03302926
208	0xbcd26124	-0.025681086
209	0xbc34c058	-0.011032186
210	0x3cd0344c	0.025415562
211	0xbd6b50b6	-0.05745002
212	0xbd0841a2	-0.033265717
213	0x3d24cf86	0.040236972
214	0xbd5734d0	-0.0525406
215	0x3d0d9cee	0.034573488
216	0xbcd8b678	-0.026454195
217	0x3c12d270	0.008961305
218	0x3d2f8f0c	0.04286103
219	0xbd14721a	-0.03624163
220	0x3d5ca582	0.053868778
221	0xbd0dcb10	-0.034617484
222	0x3cbd91bc	0.02314078
223	0xbb50f290	-0.003188286
224	0x3d118a3c	0.03553222
225	0xbc53fb74	-0.012938369
226	0xbc5b40ac	-0.013382118
227	0xbd181a43	-0.03713442
228	0xbcded3ae	-0.027200546
229	0xbd3000f1	-0.042969648
230	0xbd62e4d2	-0.055394
231	0x3ccc1fdc	0.024917535
232	0x3d10f068	0.03538552
233	0x3ba10e10	0.0049150065
234	0x3b649000	0.003487587
235	0x3a23c200	0.0006246865
236	0xbd4dee26	-0.050275944
237	0x3d649714	0.05580814
238	0x3c0da9d0	0.0086464435
239	0x3b9fdbe0	0.004878506
240	0x3d07277c	0.03299664
241	0x3d1511ea	0.036394037
242	0xbd57c15c	-0.052674636
243	0x3ceb62d8	0.028733656
244	0xbc4dc6e8	-0.01255963
245	0x3ca5243c	0.02015888
246	0xbacc07c0	-0.0015566275
247	0x3cf29810	0.029613525
248	0xbcbfda5e	-0.023419555
249	0x3d674614	0.056463316
250	0x3d0b5336	0.034014903
251	0x3b413880	0.002948314
252	0x3d50884a	0.050911225
253	0x3bae3c80	0.0053172708
254	0x3d445248	0.047930032
255	0x3b862b50	0.0040945187

fc2.bias f4 [2]
0	0xbd06d6fc	-0.03291987
1	0xbcf27467	-0.02959652

fc1.weight f4 [300, 9]
0	0xbd0f1d68	-0.034940153
1	0x3e66df42	0.22546104
2	0xbd39ff28	-0.04540935
3	0xbe468a26	-0.19388637
4	0xbd8fe690	-0.07026398
5	0x3e339dea	0.17540708
6	0xbe519800	-0.2046814
7	0x3e99fafd	0.300743
8	0xbe73625b	-0.23767988
9	0xbe55d323	-0.20881324
10	0x3e314faa	0.17315546
11	0xbe687b58	-0.22703302
12	0xbdf02f5c	-0.11727783
13	0x3e94f985	0.29096618
14	0xbd2eeb78	-0.04270503
15	0xbea164ac	-0.3152212
16	0xbe74af06	-0.23894891
17	0x3de74890	0.11293137
18	0xbd9ff82c	-0.07811007
19	0xbdc1185c	-0.09428474
20	0x3df8fd3c	0.121576756
21	0x3e400ef2	0.18755701
22	0x3e3f1622	0.18660787
23	0x3a8e9000	0.0010876656
24	0xbda1b5a4	-0.07895973
25	0xbe89c77b	-0.26910004
26	0xbc80a4b0	-0.01570353
27	0xbea4bb7a	-0.32174283
28	0x3e87bb3d	0.2651004
29	0xbd82e0f4	-0.06390563
30	0x3e9d7d09	0.30759457
31	0xbd872d04	-0.06600383
32	0xbd64aad8	-0.05582699
33	0xbe2c3193	-0.16815786
34	0xbe8fb77b	-0.28069672
35	0x3e293028	0.16522276
36	0x3de315a4	0.11088112
37	0xbe6f89f0	-0.23392463
38	0x3d9e8140	0.07739496
39	0xbe24ce6b	-0.16094367
40	0x3e937acd	0.28804627
41	0x3e97f655	0.29680124
42	0x3defb9b4	0.11705342
43	0xbe1c8fe8	-0.15289271
44	0x3e782c2a	0.24235597
45	0xbb854d40	-0.004068047
46	0x3e8ab6c9	0.2709258
47	0xbdd0c420	-0.10193658
48	0x3d7f34e0	0.062306285
49	0xbe916eaa	-0.28404742
50	0xbdbaa430	-0.091133475
51	0xbe2d1bb8	-0.16905105
52	0xbe5b5b48	-0.2142154
53	0x3e9f494d	0.31110612
54	0x3de52744	0.1118913
55	0x3c8e3000	0.017356873
56	0xbe825582	-0.25455862
57	0xbe3eabf3	-0.18620281
58	0xbd162a08	-0.036661178
59	0xbe4ade70	-0.19811416
60	0x3e6b556a	0.22981802
61	0xbdae71a6	-0.085177705
62	0x3d84c404	0.064826995
63	0x3e8f6d97	0.28013298
64	0x3e5d39f2	0.21604136
65	0x3e4a0b02	0.19730762
66	0x3e7920de	0.24328944
67	0xbdc43db6	-0.09582083
68	0x3c45f780	0.012082934
69	0xbe7c1830	-0.24618602
70	0xbdf0414c	-0.117312044
71	0xbeaa9e1b	-0.3332375
72	0x3e80cb91	0.2515531
73	0x3e715ade	0.2356982
74	0x3e6f67c6	0.2337943
75	0xbe87b6f8	-0.26506782
76	0x3b9b9d00	0.0047489405
77	0x3e148336	0.14503178
78	0x3e9bdbb5	0.3044106
79	0xbcd86b90	-0.026418477
80	0xbc40d260	-0.011768907
81	0x3dc2179c	0.094771594
82	0xbcd43400	-0.025903702
83	0xbdcb0520	-0.09913087
84	0x3e55ac1e	0.20866439
85	0x3ea7bdf9	0.32762125
86	0x3e368636	0.17824635
87	0x3d49a898	0.04923305
88	0x3dea1014	0.11428848
89	0x3d286588	0.041112453
90	0x3e2f95ba	0.1714696
91	0xbea0becb	-0.31395563
92	0x3d199e28	0.037504345
93	0xbd9d7700	-0.07688713
94	0x3d5f4560	0.05450952
95	0x3e71c6de	0.23611018
96	0xbd15df68	-0.03659001
97	0x3df4b30c	0.11948213
98	0xbe24133b	-0.16022961
99	0xbe9cf100	-0.30652618
100	0xbe892fa2	-0.26794153
101	0x3e46cab2	0.1941326
102	0xbdf677a6	-0.1203454
103	0x3e6d9d0a	0.23204437
104	0x3daca1a4	0.08429268
105	0xbcab1290	-0.020882875
106	0x3e8aea75	0.27132002
107	0xbd3de088	-0.046356708
108	0x3e7d194a	0.24716678
109	0x3d888f24	0.06667927
110	0xbddf4996	-0.10902707
111	0xbe5d4093	-0.21606664
112	0x3c2db180	0.010601401
113	0xbe8d3d1f	-0.27585694
114	0x3e7b5bba	0.2454671
115	0x3e8984c5	0.26859108
116	0xbce42d00	-0.027853489
117	0x3c21f860	0.009885877
118	0xbc9558f0	-0.018230885
119	0x3b55fc00	0.0032651424
120	0xbb463380	-0.0030243099
121	0xbddf4a7c	-0.10902879
122	0x3e41b62a	0.18917146
123	0xbcc752f0	-0.02433154
124	0x3e26d0b6	0.16290554
125	0xbd6e5ce8	-0.05819407
126	0x3e31100a	0.17291275
127	0xbe160b43	-0.14652734
128	0xbe0d870e	-0.1382105
129	0xbdc92020	-0.098205805
130	0x3e03e202	0.12879184
131	0x3d3f0c98	0.04664287
132	0xbd890f84	-0.066924125
133	0x3e5d19da	0.21591893
134	0xbe1567cb	-0.14590375
135	0xbdd946e6	-0.10609226
136	0xbe28e9a6	-0.1649538
137	0xbd9a0810	-0.07521069
138	0xbe4d5718	-0.20052755
139	0xbd8a9ba4	-0.06767967
140	0x3d8e0074	0.0693368
141	0xbe14a4fe	-0.14516065
142	0x3e967b09	0.29390743
143	0x3ea667bb	0.32501015
144	0x3da2afc0	0.07943678
145	0xbc08c1e0	-0.008347005
146	0xbe671898	-0.22567976
147	0xbdecedd6	-0.11568801
148	0xbdd9be86	-0.106320426
149	0xbe9f13bb	-0.3106974
150	0xbe78d913	-0.24301557
151	0xbd42cda8	-0.04755941
152	0xbea25490	-0.3170514
153	0xbe1c59d6	-0.15268645
154	0x3e7e18ca	0.24814144
155	0xbe6ca9d3	-0.23111658
156	0xbea13b16	-0.31490391
157	0xbe74a2f3	-0.23890285
158	0x3e4b4ae2	0.19852784
159	0xbcb601d0	-0.022217661
160	0xbc533260	-0.012890428
161	0x3e17ca2e	0.14823219
162	0xbd81bf3c	-0.06335303
163	0xbdaeda10	-0.08537686
164	0x3e1abd9a	0.1511139
165	0xbe09a226	-0.13440761
166	0x3e45f756	0.19332632
167	0xbe6164ab	-0.22011058
168	0x3de514a0	0.111855745
169	0x3de69a84	0.1125994
170	0x3d9815fc	0.07426068
171	0xbda1c620	-0.078991175
172	0x3bb18900	0.005417943
173	0xbd74dd48	-0.059781343
174	0x3e943e53	0.289538
175	0x3e93d6e3	0.28874883
176	0x3db9c9b0	0.09071672
177	0x3e74c32a	0.23902574
178	0xbe9cacf4	-0.30600703
179	0x3ea835b3	0.3285347
180	0xbe4369ae	-0.19083282
181	0xbe45145e	-0.1924605
182	0x3dc05884	0.09391883
183	0x3e1ffb62	0.15623239
184	0xbc6ecb00	-0.014574766
185	0x3dbadb54	0.09123865
186	0xbd504500	-0.050847054
187	0xbdac8b56	-0.08425014
188	0x3d6c4928	0.057686955
189	0xbdc7f460	-0.09763408
190	0x3d5c0538	0.053715914
191	0x3e59cc72	0.21269396
192	0xbe60fb30	-0.2197082
193	0x3ea5bef7	0.32372257
194	0x3e7b767a	0.24556914
195	0xbea9a19c	-0.3313111
196	0x3dcc0364	0.09961584
197	0x3c801570	0.015635222
198	0x3ea1250d	0.3147358
199	0x3ea5eff9	0.32409647
200	0x3e47da42	0.19516852
201	0xbea26450	-0.31717157
202	0x3e9040c9	0.28174427
203	0xbd78eb18	-0.060771078
204	0x3e2772e8	0.16352427
205	0x3e6b8cb6	0.23002896
206	0xbd0f7b60	-0.03502977
207	0xbe46ee33	-0.19426803
208	0x3e7acaaa	0.24491373
209	0xbe4168b3	-0.18887596
210	0x3d08d228	0.033403546
211	0x3e8e49b3	0.27790603
212	0x3d5e24a0	0.054234147
213	0x3c84e940	0.016224504
214	0xbdb7fa90	-0.08983338
215	0x3e2ef9f2	0.17087534
216	0xbdefc8dc	-0.11708233
217	0xbc817b00	-0.015805721
218	0xbe47ec53	-0.19523744
219	0xbe8f63a8	-0.2800572
220	0xbdc2fb36	-0.09520571
221	0xbca45770	-0.020061225
222	0xbe20f6f0	-0.15719199
223	0x3e82f047	0.25573942
224	0x3cf2b650	0.029627949
225	0xbe109c00	-0.1412201
226	0x3e723982	0.2365475
227	0x3d909d70	0.07061279
228	0xbdf73890	-0.12071335
229	0xbe82d7b8	-0.25555205
230	0x3dc67f8c	0.096922964
231	0xbe42c3ae	-0.19019958
232	0x3d812384	0.06305602
233	0x3ea237cd	0.31683198
234	0xbda72e54	-0.08163133
235	0x3e77687e	0.24160954
236	0x3e2e45ee	0.17018864
237	0x3e29e4aa	0.16591135
238	0x3d569538	0.0523884
239	0x3e57cfd2	0.21075371
240	0xbd2081e0	-0.03918636
241	0x3e87f68d	0.2655529
242	0xbdcd1a06	-0.10014729
243	0xbe1257a3	-0.14291243
244	0x3e2d5df6	0.16930375
245	0x3e2b9e1a	0.1675953
246	0x3e587b6e	0.21140835
247	0x3e75affa	0.23992911
248	0x3d85264c	0.06501445
249	0xbe9dceb7	-0.30821773
250	0xbe3d2006	-0.18469247
251	0x3cd40700	0.025882244
252	0xbea24d43	-0.3169957
253	0xbe9de194	-0.30836165
254	0xbe2c0d68	-0.16801989
255	0x3dcf0904	0.101091415

fc1.bias f4 [300]
0	0xbe2ef9fb	-0.17087547
1	0x3eaa53ad	0.33266965
2	0x3e08f4fe	0.13374707
3	0x3e97094f	0.2949929
4	0xbe05351e	-0.13008544
5	0xbe7c3b5e	-0.24632022
6	0xbe2125c6	-0.15737066
7	0xbe701353	-0.23444872
8	0xbe598d60	-0.21245337
9	0x3e47442a	0.19459596
10	0xbe3aa426	-0.1822668
11	0x3ddd2510	0.10798085
12	0x3e83480b	0.25640902
13	0x3dc7a84c	0.09748897
14	0xbea0a05e	-0.3137235
15	0x3e134d2e	0.1438491
16	0x3ea5dae5	0.32393566
17	0x3e71d912	0.23617962
18	0x3e494d7e	0.19658467
19	0xbdc6c1a0	-0.097049
20	0x3e60ad82	0.21941188
21	0x3d8d4330	0.068975806
22	0x3e9a0891	0.3008466
23	0xbe481bf8	-0.19541919
24	0x3e05c2f8	0.13062656
25	0x3e8f8c31	0.28036645
26	0x3e923fa9	0.28564194
27	0x3da9b880	0.08287144
28	0xbe734f5e	-0.23760745
29	0x3d198218	0.037477583
30	0xbe021c33	-0.1270607
31	0xbd0dc3d8	-0.0346106
32	0x3e91943f	0.28433415
33	0x3d7e3ba0	0.06206858
34	0xbde388e6	-0.11110096
35	0xbd36b078	-0.044601887
36	0x3daeb17c	0.08529946
37	0x3c3502e0	0.011048049
38	0x3e480c6e	0.19535992
39	0xbe46de0b	-0.1942064
40	0xbe9330c7	-0.28748152
41	0x3d5f02c0	0.054445982
42	0xbb772b80	-0.0037715137
43	0xbd1ae958	-0.03782019
44	0xbe098aa0	-0.13431787
45	0x3d0d6ee8	0.034529597
46	0xbeaa0e2c	-0.33213937
47	0x3e91e97f	0.28498456
48	0x3dd35b34	0.1032013
49	0x3e944133	0.28955993
50	0xbe8179ae	-0.25288147
51	0xbdf1ec06	-0.11812596
52	0x3e4b2e52	0.19841889
53	0x3d61d198	0.055131525
54	0xbd94c4bc	-0.072640866
55	0xbd56be18	-0.05242738
56	0xbd94e5d4	-0.07270399
57	0x3d8c35b0	0.068461776
58	0xbde99610	-0.11405575
59	0x3dd8d6d4	0.1058785
60	0xbe533fa0	-0.2062974
61	0xbe8798d3	-0.26483783
62	0x3e1f69ba	0.15567675
63	0xbd9697b0	-0.07353151
64	0xbea22e9a	-0.3167618
65	0x3d0e3a88	0.03472379
66	0xbe9d3c8e	-0.30710262
67	0x3dc1d21c	0.09463903
68	0xbeaa1aa2	-0.33223444
69	0x3d317808	0.04332736
70	0xbcb2bd00	-0.021818638
71	0x3e3ea0fa	0.18616095
72	0x3e91e0dd	0.2849187
73	0xbdda89c0	-0.10670805
74	0x3e6f60aa	0.23376718
75	0xbe86acaf	-0.26303622
76	0x3e9ccfbf	0.30627248
77	0x3d61db78	0.055140942
78	0x3d355c60	0.04427755
79	0x3e9a4451	0.30130246
80	0xbcb6d930	-0.02232036
81	0xbe1f2630	-0.15541911
82	0xbe4b0dc0	-0.19829464
83	0xbe3cd4a6	-0.18440494
84	0xbe969db0	-0.2941718
85	0xbe92eb78	-0.28695273
86	0xbe823cef	-0.25437114
87	0x3e4a0052	0.19726685
88	0xbe37a16e	-0.17932674
89	0xbd45fe98	-0.048338503
90	0x3e9594f3	0.29215202
91	0x3e7f5072	0.24933031
92	0x3e69f3c2	0.22846892
93	0x3dddcea4	0.10830429
94	0xbdbaaab0	-0.09114587
95	0x3d1f68a0	0.038918138
96	0x3db5bc60	0.0887382
97	0x3e686cba	0.22697726
98	0xbe96751a	-0.29386216
99	0x3dcd6cd4	0.10030523
100	0xbe3c1018	-0.18365514
101	0x3e5739d2	0.2101815
102	0x3e813081	0.25232318
103	0x3d6715c0	0.056417227
104	0x3e89e555	0.2693278
105	0xbe15f058	-0.14642465
106	0xbe80220c	-0.25025976
107	0xbd95610c	-0.07293901
108	0xbe98545f	-0.2975187
109	0x3d4c3728	0.04985729
110	0xbe1a3e88	-0.15062916
111	0x3cfa7ec0	0.030578017
112	0x3d951530	0.07279432
113	0xbdfc8cec	-0.12331566
114	0xbe52bdd6	-0.20580229
115	0xbe0d1a93	-0.13779669
116	0x3df89d44	0.12139371
117	0x3e935c55	0.2878138
118	0x3e1b44b8	0.15162933
119	0xbe1a6843	-0.15078835
120	0x3dca60b0	0.09881723
121	0x3e144020	0.14477587
122	0x3ea7cb75	0.32772413
123	0x3cab3380	0.02089858
124	0x3d6934e0	0.05693519
125	0xbe832d18	-0.2562034
126	0x3e8b69a5	0.27229038
127	0xbe022660	-0.12709951
128	0xbda0d00c	-0.07852182
129	0x3ddcdcb4	0.10784283
130	0x3dc7c7f0	0.09754932
131	0xbe52104b	-0.20514028
132	0xbe8dbbd0	-0.27682352
133	0xbd288978	-0.041146725
134	0x3c38c2a0	0.011276871
135	0x3e763256	0.24042639
136	0xbe44a57b	-0.19203751
137	0x3e632f52	0.2218602
138	0xbea3952e	-0.31949753
139	0xbe0c05f6	-0.13674149
140	0x3be7edc0	0.0070779026
141	0x3deef574	0.1166791
142	0xbde98fd6	-0.11404388
143	0x3e9ab3ed	0.30215397
144	0x3df8b63c	0.121441334
145	0x3e0255d6	0.12728056
146	0xbe026a4b	-0.1273586
147	0x3e6c9756	0.23104605
148	0xbcb060b0	-0.02153048
149	0x3dbada4c	0.09123668
150	0xbd9f336c	-0.0777348
151	0x3e9781d5	0.2959124
152	0x3e288f7e	0.16460988
153	0xbe211e38	-0.15734184
154	0x3e6636be	0.2248182
155	0xbe5366a6	-0.20644626
156	0x3e823e73	0.2543827
157	0x3c4c7e60	0.012481302
158	0x3d71b0c0	0.059006453
159	0x3da077c4	0.078353435
160	0xbd2fa5a0	-0.04288256
161	0xbe9a98e0	-0.3019476
162	0xbc9be340	-0.01902926
163	0x3e89df59	0.26928213
164	0x3d898f8c	0.067168325
165	0x3ea5a991	0.3235593
166	0x3d58bcd8	0.05291447
167	0xbe4a83b3	-0.19776802
168	0x3e835493	0.25650463
169	0xbd3f3440	-0.04668069
170	0x3d035a60	0.03206861
171	0x3d62ffb8	0.055419654
172	0x3e345bb2	0.17613104
173	0xbd96ba24	-0.07359722
174	0xbe917ca4	-0.28415406
175	0x3ce2e970	0.027699202
176	0x3ea7c30d	0.32766
177	0x3e7112a2	0.23542264
178	0xbe6b4ad6	-0.22977766
179	0x3e818be3	0.25302038
180	0x3e9d6cd1	0.30747083
181	0x3e7fd88a	0.24984947
182	0xbce8bcb0	-0.028410286
183	0x3dd53070	0.10409629
184	0x3daef430	0.08542669
185	0x3e3d646e	0.18495342
186	0xbdcf4e3c	-0.10122344
187	0x3dbea330	0.09308469
188	0xbe508336	-0.20362553
189	0xbe53f598	-0.20699155
190	0xbe05707b	-0.13031189
191	0xbd928bc4	-0.071555644
192	0xbe24bcb6	-0.16087613
193	0xbd6c2088	-0.05764821
194	0xbe88322b	-0.26600775
195	0xbe12b518	-0.14326894
196	0x3d164e40	0.03669572
197	0xbe86d38c	-0.26333272
198	0x3e27e176	0.163946
199	0xbe70e08b	-0.23523156
200	0xbe4b8210	-0.19873834
201	0x3e9bcf99	0.30431822
202	0x3e6522da	0.22376576
203	0x3ea6e541	0.32596782
204	0xbdfb7a2c	-0.12279162
205	0x3d306ac0	0.043070555
206	0xbd81fe34	-0.063473135
207	0x3e21b9d8	0.1579355
208	0x3e84ab23	0.25911817
209	0x3e48a542	0.19594291
210	0x3e2267c2	0.15859893
211	0xbe96eda3	-0.29478177
212	0xbe39c700	-0.18142319
213	0xbe9c462f	-0.30522296
214	0xbe4be0a8	-0.19909918
215	0xbe404b86	-0.1877881
216	0x3ea184cf	0.31546637
217	0x3e7ea82a	0.24868837
218	0xbe97099a	-0.29499513
219	0xbcc7aad0	-0.024373442
220	0xbe17548e	-0.14778349
221	0xbd4848e8	-0.048897654
222	0x3ae96300	0.0017805994
223	0x3e36dc12	0.17857388
224	0x3cd5d9c0	0.026104808
225	0xbdab0876	-0.08351223
226	0xbda9e5e4	-0.08295801
227	0xbea5b70c	-0.32366216
228	0xbd2d5ca8	-0.042324692
229	0x3e6d04c2	0.23146346
230	0x3dbd3854	0.09239259
231	0xbd92c2f0	-0.071660876
232	0xbe8c3a80	-0.27388382
233	0xbc7639e0	-0.015028447
234	0x3d00c400	0.03143692
235	0xbea58e96	-0.32335347
236	0xbe9b2a1b	-0.3030556
237	0x3dfd2910	0.12361348
238	0xbc018020	-0.007904083
239	0xbd063120	-0.032761693
240	0xbadc8d00	-0.0016826689
241	0xbd142060	-0.036163688
242	0xbdd45d10	-0.10369313
243	0xbe8bb8de	-0.2728948
244	0x3e789d32	0.24278715
245	0xbd93a704	-0.0720959
246	0xbe6a71d0	-0.22894979
247	0xbea00de8	-0.3126061
248	0x3e8cfe3b	0.27537712
249	0xbe501803	-0.2032166
250	0x3d6fd7d8	0.058555454
251	0x3d9b7010	0.075897336
252	0x3e3ff2d2	0.18744972
253	0xbd6cc918	-0.057808965
254	0x3c7e8660	0.015534967
255	0x3e7c09fa	0.24613181

fc2.weight f4 [2, 300]
0	0xbc0cfc78	-0.008605115
1	0x3bc63e10	0.006049879
2	0xbaa06d40	-0.001223959
3	0xbd1e824a	-0.038698472
4	0xbca549ba	-0.020176757
5	0xbc1b8950	-0.009493187
6	0x3ccfea90	0.025380403
7	0xbd57c7af	-0.052680667
8	0x3d6a4810	0.05719763
9	0xbd0d0022	-0.034423955
10	0x3d30acd8	0.043133587
11	0x3d5725fa	0.05252645
12	0xbd3f3ee6	-0.046690844
13	0x3cf0f0f0	0.029411763
14	0x3d3eda2a	0.046594776
15	0x3d39c148	0.045350343
16	0x3d0028a0	0.031288743
17	0xba8a89e0	-0.0010569654
18	0x3bc17d70	0.005904846
19	0xbcf6638f	-0.03007677
20	0xbcce7f58	-0.025207207
21	0xbd0b2bba	-0.033977248
22	0xbd6846a3	-0.05670799
23	0x3d4654ba	0.048420645
24	0xbc3653cc	-0.011128377
25	0xbc7a1580	-0.015263915
26	0xbc58bbf8	-0.013228409
27	0x3ce453d0	0.027871996
28	0xbcc67568	-0.024225906
29	0x3d0b7d4e	0.034055047
30	0x3c062da8	0.008189596
31	0xbcb1ed2e	-0.021719541
32	0xbd02bd06	-0.031918548
33	0xbd2d1031	-0.04225177
34	0xbcc609e4	-0.024174638
35	0x3c1ef018	0.0097007975
36	0x3d64c9b8	0.055856436
37	0xbc3dfa14	-0.011595268
38	0xbc838958	-0.016056702
39	0xbc5ffa10	-0.013670459
40	0x3cb95e9c	0.022628121
41	0xbaf62d00	-0.0018781722
42	0x3d63f7d6	0.055656277
43	0xbc705908	-0.014669664
44	0xbd3da424	-0.046299115
45	0x3cbcfbe4	0.02306933
46	0xbd56d983	-0.05245353
47	0xbd2730b3	-0.040817928
48	0xbca80702	-0.020511154
49	0x3d01651e	0.031590573
50	0x3cc7c9c0	0.024388194
51	0xbd32935c	-0.043597564
52	0xbd523a00	-0.051324844
53	0xbd3e2551	-0.046422306
54	0xbcf2ada9	-0.029623823
55	0xbd50005a	-0.050781585
56	0x3c8733bc	0.016504161
57	0x3cad2e6c	0.0211403
58	0x3d26fe46	0.040769838
59	0xbc2415d0	-0.010014966
60	0x3b87cbb0	0.0041441545
61	0x3c41ef10	0.011836782
62	0xbcbb1148	-0.022835389
63	0xbca4eb0a	-0.020131607
64	0xbd18fea4	-0.03735222
65	0x3b606480	0.003423959
66	0x3cd27a00	0.02569294
67	0xbc93478a	-0.017978448
68	0xbb484e10	-0.0030564107
69	0xbcb6b934	-0.022305109
70	0xbbc437d8	-0.0059881024
71	0x3c3d8b00	0.011568785
72	0x3cfd0890	0.030887872
73	0xbcba8604	-0.022768982
74	0x3d36d11c	0.044633016
75	0x3b920fd0	0.0044574514
76	0xbcf7c1f0	-0.030243844
77	0xbd0d6f48	-0.034529954
78	0xbd01ced1	-0.031691376
79	0xbd500ea8	-0.050795227
80	0x3d2706bc	0.040777907
81	0x3d125348	0.035723954
82	0xbd3ef294	-0.04661806
83	0x3d34e80a	0.044166602
84	0x3cfb5b64	0.030683227
85	0x3d317c18	0.043331236
86	0x3b3420a0	0.0027485266
87	0xbd279eea	-0.040923037
88	0xbca1c7a8	-0.019748524
89	0x3ab71120	0.0013966896
90	0xbd2ba697	-0.04190692
91	0xbd2385ca	-0.039922513
92	0xbc948da4	-0.018133946
93	0x3cddbf5c	0.027068786
94	0x3b771060	0.003769897
95	0xbc665700	-0.014058828
96	0xbc913e10	-0.017729789
97	0x3aaa5c60	0.0012997501
98	0x3cb3c204	0.0219431
99	0x3d02b1b0	0.031907737
100	0xbbbbf440	-0.005735904
101	0xbd6a62e1	-0.057223205
102	0xbd2ef090	-0.042709887
103	0x3c9cef34	0.01915703
104	0xbd4a2e34	-0.04936047
105	0x3cdf37c8	0.027248278
106	0xbcc3af86	-0.023887407
107	0xbcc61d12	-0.024183784
108	0x3c9c5e3c	0.019087903
109	0xbd12a182	-0.035798557
110	0x3c34b960	0.011030525
111	0x3d41901c	0.047256574
112	0xbd6593c8	-0.05604914
113	0x3d225ad4	0.0396374
114	0x3d203ce8	0.039120585
115	0x3c197e80	0.009368539
116	0x3d3d18e2	0.04616631
117	0x3d5d8324	0.054080144
118	0xbc90bc28	-0.017667845
119	0xbd4a233f	-0.04935002
120	0x3c9b8bc8	0.018987551
121	0xbbcedfb8	-0.0063132904
122	0xbd36bb5c	-0.044612274
123	0xbbbcfd08	-0.0057674684
124	0x3d1a6b10	0.03769976
125	0xbafba440	-0.0019198731
126	0x3d337a7a	0.043817975
127	0x3ccd3928	0.025051668
128	0xbd44ce78	-0.048048466
129	0xbc7003a4	-0.0146493055
130	0x3c45e3f8	0.012078278
131	0x3d1fb144	0.038987413
132	0xbc5ee9a4	-0.013605509
133	0xbd3c5c24	-0.04598631
134	0xbd5de396	-0.05417212
135	0x3d2271b6	0.039659224
136	0xbc95e6d0	-0.018298537
137	0x3ba41a40	0.005008012
138	0x3d00f7d6	0.031486355
139	0xbbd17018	-0.0063915364
140	0xbcabe6ce	-0.02098408
141	0xbd02624d	-0.03183203
142	0xbd5243e5	-0.05133428
143	0xbb679660	-0.0035337433
144	0xbd260514	-0.040532187
145	0xbc96464e	-0.01834407
146	0xbd53715f	-0.05162179
147	0xbd0768f8	-0.03305909
148	0xbc66d8d4	-0.014089782
149	0xbd259a12	-0.040430136
150	0x3d4b6b8a	0.049663104
151	0x3cf88f4c	0.030341767
152	0xbd400182	-0.046876438
153	0x3c5e99f8	0.013586514
154	0xbd27eee8	-0.040999323
155	0x3d0c4906	0.034249328
156	0xbcef8b81	-0.029241325
157	0x3d5b797c	0.053582653
158	0xbc26ce9c	-0.010181095
159	0xbd2bc8ea	-0.041939653
160	0xbd46e695	-0.048559744
161	0x3ca590d0	0.020210654
162	0x3d5a01ec	0.05322449
163	0xbd071d88	-0.032987148
164	0xbd56be8a	-0.052427806
165	0xbcafffb2	-0.02148423
166	0x3cae6980	0.02129054
167	0x3d3ff0f0	0.046860635
168	0xbd5e95a8	-0.054341942
169	0x3c53f760	0.012937397
170	0x3d052da0	0.032514215
171	0x3c888948	0.016667023
172	0xbd528279	-0.05139396
173	0xbca39300	-0.019967556
174	0xbbbaf6c0	-0.0057056844
175	0x3d3c86da	0.046027042
176	0xbd07c7a0	-0.03314936
177	0xbc7f8160	-0.01559481
178	0x3d34a520	0.044102788
179	0x3ce109a8	0.027470425
180	0xbd067140	-0.032822847
181	0xbd041ffa	-0.032257058
182	0xbc935fca	-0.017990012
183	0x3cfd4ce0	0.030920446
184	0x3c8dd3d8	0.017312929
185	0xbd2059e8	-0.03914824
186	0x3b98ebd0	0.004666783
187	0xbbc1dc80	-0.005916178
188	0xbd214a74	-0.039377645
189	0x3cecacc8	0.028890982
190	0x3c6b7940	0.01437217
191	0x3cd05230	0.025429815
192	0xbd66bd0d	-0.056332637
193	0x3d59d284	0.05317928
194	0xbbf334b0	-0.0074220523
195	0x3cff9878	0.031200632
196	0xbc8a6d70	-0.016897887
197	0x3ce28fd0	0.027656466
198	0xbc2a0118	-0.010376237
199	0x3d203aae	0.03911846
200	0xbd68815b	-0.056763988
201	0x3ce451dc	0.027871065
202	0xbcae9272	-0.021310065
203	0x3c8a2a8c	0.016865991
204	0xbcf8b835	-0.030361274
205	0xbcfda890	-0.030964166
206	0xbd14aaaf	-0.03629559
207	0xbd0749b0	-0.03302926
208	0xbcd26124	-0.025681086
209	0xbc34c058	-0.011032186
210	0x3cd0344c	0.025415562
211	0xbd6b50b6	-0.05745002
212	0xbd0841a2	-0.033265717
213	0x3d24cf86	0.040236972
214	0xbd5734d0	-0.0525406
215	0x3d0d9cee	0.034573488
216	0xbcd8b678	-0.026454195
217	0x3c12d270	0.008961305
218	0x3d2f8f0c	0.04286103
219	0xbd14721a	-0.03624163
220	0x3d5ca582	0.053868778
221	0xbd0dcb10	-0.034617484
222	0x3cbd91bc	0.02314078
223	0xbb50f290	-0.003188286
224	0x3d118a3c	0.03553222
225	0xbc53fb74	-0.012938369
226	0xbc5b40ac	-0.013382118
227	0xbd181a43	-0.03713442
228	0xbcded3ae	-0.027200546
229	0xbd3000f1	-0.042969648
230	0xbd62e4d2	-0.055394
231	0x3ccc1fdc	0.024917535
232	0x3d10f068	0.03538552
233	0x3ba10e10	0.0049150065
234	0x3b649000	0.003487587
235	0x3a23c200	0.0006246865
236	0xbd4dee26	-0.050275944
237	0x3d649714	0.05580814
238	0x3c0da9d0	0.0086464435
239	0x3b9fdbe0	0.004878506
240	0x3d07277c	0.03299664
241	0x3d1511ea	0.036394037
242	0xbd57c15c	-0.052674636
243	0x3ceb62d8	0.028733656
244	0xbc4dc6e8	-0.01255963
245	0x3ca5243c	0.02015888
246	0xbacc07c0	-0.0015566275
247	0x3cf29810	0.029613525
248	0xbcbfda5e	-0.023419555
249	0x3d674614	0.056463316
250	0x3d0b5336	0.034014903
251	0x3b413880	0.002948314
252	0x3d50884a	0.050911225
253	0x3bae3c80	0.0053172708
254	0x3d445248	0.047930032
255	0x3b862b50	0.0040945187

fc2.bias f4 [2]
0	0xbd06d6fc	-0.03291987
1	0xbcf27467	-0.02959652

fc1.weight f4 [300, 9]
0	0xbdb27f00	-0.087156296
1	0x3e846ded	0.25865117
2	0x3e80327d	0.2503852
3	0x3e0a2f20	0.1349454
4	0xbe0b8b7b	-0.13627426
5	0xbe80a524	-0.25125992
6	0x3e8a5881	0.27020648
7	0x3e912c05	0.28353897
8	0xbe893326	-0.26796836
9	0x3e92cdf1	0.28672746
10	0x3e422b5e	0.18961856
11	0x3d8a5a04	0.0675545
12	0x3e5eb40a	0.21748367
13	0xbd2adae0	-0.04171264
14	0x3d1e8da8	0.038709313
15	0x3ea355af	0.3190131
16	0x3d206f38	0.039168566
17	0x3e86354d	0.2621254
18	0xbe246418	-0.16053808
19	0x3e1b3af2	0.15159205
20	0x3c283860	0.010267347
21	0x3e88324d	0.26600876
22	0xbc44a080	-0.012001157
23	0xbdadb11c	-0.084810466
24	0x3e5093f2	0.20368937
25	0x3d9bd394	0.07608715
26	0x3d5c0440	0.05371499
27	0x3dfe4de4	0.124172
28	0xbbb58100	-0.0055390596
29	0xbd3fc648	-0.046819955
30	0x3d780fc0	0.060561895
31	0xbea896fe	-0.32927698
32	0xbe8f96a0	-0.28044605
33	0x3d3c5068	0.04597512
34	0x3da619b0	0.08110368
35	0xbd9695cc	-0.0735279
36	0xbe212776	-0.1573771
37	0x3c8ada80	0.016949892
38	0x3e5b07d2	0.21389702
39	0x3db93500	0.09043312
40	0x3db97244	0.090549976
41	0xbdb68750	-0.089125276
42	0xbc40bf00	-0.011764288
43	0xbe40a0b0	-0.18811297
44	0x3e91cd67	0.28477022
45	0xbe57cf96	-0.21075282
46	0x3d0591e8	0.03260985
47	0x3e94129d	0.2892045
48	0xbd47d858	-0.048790306
49	0xbe71e383	-0.23621945
50	0xbe331ffe	-0.17492673
51	0x3ea17e8b	0.31541857
52	0xbe51d1fe	-0.20490262
53	0x3e8de395	0.27712694
54	0xbe1cd0b0	-0.15313983
55	0x3e9c9f3f	0.30590245
56	0x3d3a4688	0.04547742
57	0x3d385778	0.04500529
58	0xbde88130	-0.113527656
59	0x3ea25609	0.31706265
60	0xbe83d846	-0.2575094
61	0x3e83e9d9	0.2576435
62	0x3e9a6721	0.30156806
63	0xbe3ebf9e	-0.18627784
64	0x3e7f5e42	0.249383
65	0x3e7fdfca	0.24987713
66	0x3e989039	0.29797533
67	0xbdf146d0	-0.117810845
68	0x3e9ddfa3	0.30834684
69	0xbe992d82	-0.29917532
70	0xbdb815cc	-0.089885324
71	0x3e943027	0.28942987
72	0xbe52e2f0	-0.20594382
73	0xbe559218	-0.20856512
74	0x3e60924a	0.21930805
75	0xbe89177e	-0.26775736
76	0xbda9efa4	-0.08297661
77	0x3e8d9b45	0.27657524
78	0x3d4aec40	0.04954171
79	0x3da15cec	0.078790516
80	0x3d778ef8	0.06043908
81	0x3db17f80	0.08666897
82	0x3e934355	0.28762308
83	0x3e2bfc12	0.16795376
84	0x3e9e1a79	0.30879572
85	0xbd1f0c88	-0.03883031
86	0xbc878a40	-0.016545415
87	0x3ea2c40d	0.317902
88	0x3da1bd24	0.07897404
89	0xbc099e60	-0.008399576
90	0x3e4ac032	0.19799879
91	0x3e429172	0.19000795
92	0xbe34b928	-0.17648757
93	0x3e957e4b	0.29197916
94	0xbea81b4c	-0.32833326
95	0x3ea09619	0.31364515
96	0xbbc61440	-0.0060448945
97	0xbca96b80	-0.020681143
98	0x3dc25f24	0.09490803
99	0x3e58e332	0.21180418
100	0x3d9fc7f4	0.0780181
101	0x3e0d7dba	0.13817492
102	0xbcca9e70	-0.024733752
103	0xbe9a1be2	-0.30099398
104	0xbde1b816	-0.1102144
105	0xba8b4300	-0.0010624826
106	0x3c911fd0	0.017715365
107	0xbe56a1a3	-0.20960097
108	0x3e71f462	0.23628381
109	0xbd4d9c80	-0.05019808
110	0xbd710f18	-0.058852285
111	0x3c407660	0.011746973
112	0xbd204f08	-0.03913787
113	0xbde289e6	-0.11061458
114	0x3bbaa700	0.0056961775
115	0x3ea367d7	0.3191516
116	0xbdb6db30	-0.089285254
117	0xbb145280	-0.0022632182
118	0x3d8464c4	0.06464532
119	0x3e85ab51	0.26107267
120	0x3e3a8196	0.18213496
121	0x3de7e434	0.11322823
122	0x3e7a4812	0.24441555
123	0x3e0b9408	0.13630688
124	0xbe5063b6	-0.20350537
125	0xbea38442	-0.31936842
126	0x3ea3ad4d	0.31968156
127	0x3ea540a1	0.3227587
128	0x3e9abe1f	0.30223176
129	0x3e897ae9	0.26851586
130	0xbe758e28	-0.2398001
131	0xbea8c10a	-0.32959777
132	0x3e404256	0.18775305
133	0xbd9eaf14	-0.07748237
134	0xbd452c68	-0.048138052
135	0xbe7ec60e	-0.2488024
136	0xbe489a2b	-0.1959006
137	0x3e8006e5	0.2500526
138	0xbe5b1103	-0.21393208
139	0xbe3c04b8	-0.18361175
140	0x3e831939	0.2560518
141	0x3d0b9cb8	0.034085006
142	0x3e5fe9fe	0.21866605
143	0x3e8e2a87	0.2776682
144	0xbe144bde	-0.14482066
145	0xbc425300	-0.011860609
146	0x3e53080e	0.20608541
147	0x3cf59650	0.029978901
148	0xbea6bace	-0.32564396
149	0xbe417620	-0.18892717
150	0xbe6e287b	-0.2325763
151	0x3e9e1c4b	0.3088096
152	0xbdd5e20c	-0.10443506
153	0xbda7f31c	-0.08200666
154	0xbe528f8b	-0.2056257
155	0x3d4b88b8	0.049690932
156	0x3e9fe315	0.31227937
157	0x3e37b91a	0.17941704
158	0x3e006d5e	0.1254172
159	0xbdcaede0	-0.09908652
160	0xbe20bebb	-0.15697758
161	0xbe8f0c4b	-0.27939066
162	0xbe3ca42b	-0.18422
163	0x3e9d8ee1	0.3077307
164	0xbe84995a	-0.25898248
165	0xbdd6db56	-0.10491054
166	0x3e695a6e	0.22788402
167	0xbb216880	-0.0024628937
168	0xbe154ad8	-0.14579332
169	0xbe2bd0fb	-0.16778938
170	0xbdbdb1b0	-0.09262407
171	0xbe3a3b9e	-0.18186805
172	0xbe8d7df2	-0.2763515
173	0xbe57f07b	-0.2108783
174	0xbd202198	-0.039094537
175	0xbd2e2140	-0.04251218
176	0xbe3d3998	-0.18479002
177	0xbe6c7fa6	-0.23095569
178	0x3d826904	0.063676864
179	0xbe7ebc2e	-0.24876472
180	0xbda48ebc	-0.08035037
181	0xbd259588	-0.040425807
182	0xbea40d38	-0.32041335
183	0xbdc71ee6	-0.0972269
184	0x3e3d93fa	0.1851348
185	0xbea7d314	-0.32778227
186	0x3be8f940	0.007109791
187	0xbe481540	-0.19539356
188	0x3e6cfeca	0.2314407
189	0x3d70f928	0.058831364
190	0xbdcb7b8c	-0.09935674
191	0xbe2f2278	-0.17102993
192	0xbe8146bf	-0.25249287
193	0x3d63fa88	0.055658847
194	0xbe91565c	-0.283862
195	0x3e8101ad	0.2519659
196	0xbe94695b	-0.2898663
197	0x3e16529a	0.14679947
198	0xbd9296f0	-0.07157695
199	0x3e5893aa	0.2115008
200	0xbdd2434c	-0.10266742
201	0xbd5c4588	-0.053777248
202	0x3de9147c	0.1138086
203	0xbda5c85c	-0.08094856
204	0xbe0b9818	-0.13632238
205	0x3dbe8e74	0.093045145
206	0x3e68d02a	0.22735658
207	0x3e74eb0e	0.23917791
208	0x3d490a88	0.04908231
209	0x3d5bd680	0.05367136
210	0x3e506a32	0.2035301
211	0xbea1ee66	-0.31627196
212	0x3e14132a	0.14460436
213	0xbd880a90	-0.0664264
214	0x3e4ad7b6	0.1980885
215	0x3d858c6c	0.06520924
216	0xbd0f8688	-0.03504041
217	0x3e6a24ba	0.22865573
218	0x3cd1f270	0.025628299
219	0xbe8ca13a	-0.27466756
220	0x3e9fcea5	0.31212345
221	0x3c42bb60	0.011885494
222	0xbe64f083	-0.22357373
223	0x3ea6565d	0.32487765
224	0xbcfb3dc0	-0.030669093
225	0x3e4759ea	0.19467893
226	0x3ca64840	0.020298123
227	0x3e978c75	0.29599348
228	0x3e630eda	0.22173634
229	0xbe5e1048	-0.21685898
230	0xbe8bd636	-0.27311867
231	0x3e4acf82	0.1980572
232	0x3ea93281	0.33046344
233	0x3d992d8c	0.074793905
234	0xbe6bfd4e	-0.23045847
235	0xbdb25f70	-0.087096095
236	0x3dc25cf4	0.09490386
237	0xbea53f0c	-0.32274663
238	0xbe2b9b18	-0.16758382
239	0xbdd4505c	-0.1036689
240	0x3e358ed2	0.17730263
241	0xbe52f643	-0.20601754
242	0xbe0fa63e	-0.1402826
243	0xbe4bae83	-0.1989079
244	0xbe04ae80	-0.12957191
245	0xbdaff760	-0.08592105
246	0x3e8156b9	0.25261477
247	0xbda30fb0	-0.079619765
248	0xbe519c00	-0.20469666
249	0x3e28e778	0.16494548
250	0xbd3d6b68	-0.04624501
251	0x3e380d0e	0.1797373
252	0x3e2ece82	0.17070964
253	0x3e9b2c35	0.30307165
254	0x3dc71ae4	0.09721926
255	0x3e9960d5	0.2995669
