model_save/params_20240807_194210.pth (torch, 68866 bytes, 18 tensors)

fc1.weight f4 [300, 9]
000000 6e a7 7b be 20 e1 3b bd d6 f7 4b 3c f4 62 94 3e
       -0.24575588 -0.045868993 0.012449225 0.28981745
000010 8b c5 8d be f7 bd a6 3e 62 ea 9c 3e de 59 5b be
       -0.27689776 0.32566807 0.3064757 -0.21421
000020 33 8d 0f be c9 03 0a 3f c7 73 dc 3e 72 68 cc be
       -0.14018707 0.53912026 0.4305708 -0.39923435
000030 4a 37 78 bd 26 8b 02 3f 93 f3 99 3f 0b a6 ed 3f
       -0.060599603 0.50993574 1.2027458 1.8566297
000040 a0 7b 71 40 37 37 df bf c3 48 68 3e fa 21 aa be
       3.7731705 -1.7438725 0.22684006 -0.33229047
000050 30 7f 1d 3d 44 cd a6 be 46 1c 0f 3e 5a 24 27 3e
       0.038451374 -0.3257848 0.13975629 0.16322461
000060 53 ad a3 bd 92 07 a3 3e 56 c5 b9 3a 7e a6 9d 3e
       -0.07992043 0.31841713 0.001417319 0.30791086
000070 90 57 6d be 74 f7 9b be 16 db 85 3d c6 c4 c2 bd
       -0.23177934 -0.3046223 0.06535928 -0.09510188
000080 fb 6e aa bd c8 26 4a 3e e8 4e 23 be 56 7f 80 be
       -0.08321949 0.19741356 -0.15948069 -0.2509715
000090 fa c7 f5 bd eb eb ab bd 69 64 20 be 13 e5 95 3e
       -0.12001033 -0.08394607 -0.15663303 0.29276332
0000a0 e9 9c 9b 3b 14 e9 96 3e 29 fa 0d 3d 46 62 e8 bd
       0.0047489298 0.294747 0.0346624 -0.11346869
0000b0 e0 0c ef bd 3f 19 c2 be 35 d8 5c 3d 49 30 0c be
       -0.116723776 -0.37909886 0.05391713 -0.13690294
0000c0 8d 02 c7 3d 55 0b 67 3e ca de 99 be 67 16 8b be
       0.097172834 0.22562917 -0.30052787 -0.2716553
0000d0 28 57 4f bf a6 5b 83 be 1c b7 a8 be 40 ab 78 3d
       -0.80992365 -0.2565586 -0.329522 0.06071019
0000e0 6b f0 e5 bd bf 5f 8f be 40 8d 2b 3e 00 ef 47 3c
       -0.11227497 -0.28002736 0.16753101 0.012202978
0000f0 23 c6 80 3e 10 8d 03 be d7 01 94 be 53 0d 0a 3d
       0.25151166 -0.1284678 -0.28907654 0.033704113
000100 78 3f 57 3d 76 5d 97 be 76 ad b9 3d 1b 87 87 3e
       0.052550763 -0.29563493 0.09066288 0.26470265
000110 1d 1f 82 be 62 29 b9 bd 0f e1 28 bf 11 1f ff bd
       -0.25414363 -0.09041096 -0.6596841 -0.12457097
000120 e9 e5 90 be bc 93 d9 3e eb 96 0a 3f 1f c3 3d be
       -0.28300408 0.42495525 0.5413653 -0.18531464
000130 fb 04 64 40 39 6a fa 3f f6 ba d7 bf 47 84 bc 40
       3.562804 1.9563667 -1.6853931 5.891147
000140 9c a4 a7 bf bf af 85 be 0e ba 10 be 5c d4 91 3d
       -1.309711 -0.26110646 -0.14133474 0.071205825
000150 4d 3c 10 3e d5 89 17 3e 8d 85 a0 3e 27 bb c3 be
       0.14085503 0.14798672 0.3135189 -0.38228723
000160 8f 5d 04 3f c2 4b 3f be d7 79 e7 be 6d e8 95 3e
       0.5170526 -0.18681243 -0.45210144 0.2927889
000170 f4 28 d2 bd b2 a2 95 be ad b2 d2 bd 06 28 3c 3e
       -0.102617174 -0.2922569 -0.10287986 0.18374643
000180 06 11 4c bf 3d f4 4e 3f d3 04 d7 bd ab 14 fc 3b
       -0.79713476 0.8084143 -0.10498967 0.0076928935
000190 56 17 65 bc 13 c5 96 be 0b 8f 63 be a8 9d 6b 3e
       -0.0139826145 -0.2944723 -0.22222535 0.2300936
0001a0 50 ab 6d be fb 97 6a be 58 ec 86 be 28 4d 9e 3e
       -0.23209882 -0.22909538 -0.2635219 0.3091824
0001b0 6e ee 99 be 8f fc 84 be e8 a5 41 3e 76 39 33 bd
       -0.3006472 -0.25973937 0.18910944 -0.04375597
0001c0 53 8a 42 3e 6e f6 89 3e 86 82 18 be be 06 0d be
       0.18998079 0.26945823 -0.1489354 -0.13772103
0001d0 1e 86 6b be 56 de a6 be 60 dc ec 3d 34 58 11 3e
       -0.2300038 -0.32591504 0.11565471 0.14193803
0001e0 9c a0 13 3e 78 76 12 3e e8 18 fc 3d f6 1b 9b be
       0.14416736 0.14303005 0.12309438 -0.3029477
0001f0 57 14 06 3f af 65 99 be 6b 93 97 3c ab 75 1c bc
       0.52374786 -0.2996039 0.018502912 -0.009549539
000200 ab e5 ec 3d cb b7 a2 bd 53 57 9d 3e 00 57 9d 3d
       0.11567243 -0.07945212 0.30730686 0.076826096
000210 c6 23 aa be 86 28 b6 3d 7e d8 6b be 20 fe 12 3f
       -0.33230418 0.08894448 -0.23031804 0.57419014
000220 64 a6 85 3e ff f8 37 3d f2 84 6c 3e 2c ef 6e bf
       0.26103508 0.044915196 0.2309759 -0.933337
000230 8c d3 1f c0 de 4a 8c 3f 3d f2 a6 c0 cc 8a b1 bf
       -2.4972868 1.0960348 -5.21707 -1.3870482
000240 2e 17 52 be 4c 6b a0 3e 7c a1 95 be b2 cc 9c be
       -0.20516655 0.3133186 -0.29224765 -0.3062492
000250 c8 f3 59 be cb 40 8b be eb 02 68 3d 53 55 66 3e
       -0.21284401 -0.2719787 0.056643408 0.22493486
000260 d0 c7 38 be d0 e6 e8 bd d6 0f c4 be f9 6e 28 bd
       -0.18044972 -0.11372149 -0.38293332 -0.041121457
000270 5e 92 99 bd 00 78 86 bc 66 02 84 3e 76 16 c8 bd
       -0.074986205 -0.016414642 0.2578308 -0.09769909
000280 59 a6 11 3f 87 d5 a3 be 6e fe b9 3e 1a 53 7b be
       0.5689445 -0.31998846 0.36326927 -0.2454342
000290 c6 27 9d 3d 75 d6 b0 be 4f a8 c8 3e ae 85 03 3f
       0.07673602 -0.34538618 0.3919091 0.51375854
0002a0 e6 0a 22 3f 9c 12 0a 40 68 b8 a9 be d2 74 bc 3d
       0.6329788 2.1573858 -0.33148503 0.09201969
0002b0 05 b6 7d be e0 d5 fe bd be 76 76 be cf 56 94 bd
       -0.24776466 -0.12443137 -0.24068734 -0.0724312
0002c0 e5 fb eb 3d c4 7a c2 bc c2 df 1d 3f c3 91 b7 be
       0.115226544 -0.02374018 0.6166955 -0.35853395
0002d0 19 77 24 be 4c d0 5d 3e 45 b4 02 3d 86 6c d7 be
       -0.16061057 0.2166149 0.0319102 -0.42074984
0002e0 04 fa da 3d e5 c0 08 3f c1 ab 7b be d4 d2 00 3e
       0.10692218 0.53419334 -0.24577238 0.12580425
0002f0 4a ef a0 be 5b f9 11 be c4 c9 a5 be 28 f0 4f be
       -0.31432563 -0.14255278 -0.32380497 -0.20306456
000300 0e f9 9b 3e 91 ae 10 be 47 08 49 bd 03 b6 ad 3a
       0.3046345 -0.14129092 -0.04908016 0.0013253096
000310 d8 7a f2 3d 32 4b 1f 3d 8d 63 28 3b 78 5b ee 3c
       0.11839837 0.03889007 0.0025694103 0.02909635
000320 0a 2a a2 3d be 0b 56 be c8 f0 13 3e 61 50 26 3e
       0.079181746 -0.20902917 0.1444732 0.162416
000330 07 cf 08 be eb 04 39 3e 56 04 f8 bb 2d ca 1c 3f
       -0.13360225 0.18068282 -0.0075688763 0.61245996
000340 13 af c1 be 7f e0 d7 be 57 9c 25 bf b1 02 42 3f
       -0.37828884 -0.42163464 -0.6469168 0.75785357
000350 b6 9f 29 c0 9c fd 90 40 47 12 d3 3e 92 f2 9b bf
       -2.650373 4.530958 0.41224882 -1.2183402
000360 cd 76 5d be 75 5f b3 be 6c 0e 82 3e bb f9 3f be
       -0.2162735 -0.35033765 0.25401628 -0.18747608
000370 b3 a5 de 3d 97 50 5c 3e 78 1f 07 3d 29 85 62 3f
       0.10871448 0.21515118 0.032988995 0.88484436
000380 fb 2f a3 3e ab df ca bd 25 12 8a bd f8 d8 2a be
       0.31872544 -0.099059425 -0.06741742 -0.1668433
000390 c9 58 ec be 74 f4 5c bf f1 2a 60 3f 4c 7b 93 bf
       -0.46161488 -0.86310506 0.87565523 -1.1522002
0003a0 fa 42 a9 3f 8d 5f fa be 61 96 ca be da 15 b3 bd
       1.3223565 -0.48901024 -0.39567855 -0.08744402
0003b0 63 fc 95 be cc d0 e9 3e db c1 76 be c7 c0 f8 3e
       -0.29294118 0.45667112 -0.24097387 0.48584577
0003c0 0d 8e e2 bf 1e ae 07 be 59 8a 92 be 80 c6 e3 3e
       -1.76996 -0.13250014 -0.28621176 0.4448738
0003d0 43 ad 32 3e fe c9 e1 3e e5 b8 23 bf a5 7c 2e 3f
       0.17448907 0.4409942 -0.63954 0.6815894
0003e0 d7 7e 70 3f 23 08 8e 3f 70 ef b7 40 63 ed 12 bd
       0.9394354 1.1096233 5.747978 -0.03587092
0003f0 1f 78 44 3e 7a a9 79 3e 1e c0 01 bd 7d b7 e8 bd
       0.19186448 0.24381056 -0.031677358 -0.113631226

fc1.bias f4 [300]
000000 9e 86 a0 be d8 71 b0 3e 33 c5 28 bc bf ae 8b be
       -0.31352705 0.34461856 -0.010300922 -0.27281758
000010 1d fd 87 be a3 9d 2e be 26 8a 56 be bf 11 98 be
       -0.26560298 -0.17052321 -0.20951137 -0.2970104
000020 bb 62 4f be e3 9d 6c be 49 45 5c 3a 56 09 59 be
       -0.20252506 -0.23107104 0.0008402658 -0.21194968
000030 fe ad 8d be 4e 55 df be 44 d5 a4 be fe d9 41 3e
       -0.27671808 -0.4361977 -0.3219396 0.18930814
000040 0b 4b ce 3d 73 d9 08 3e 04 fa ea 3d f5 47 c6 3d
       0.10072907 0.133642 0.11473468 0.096816935
000050 56 35 b5 bc e1 a7 32 3e ff 3e 4e be 48 83 66 3f
       -0.02212016 0.17446853 -0.20141219 0.9004407
000060 04 2c 18 be d3 7b be be bb 13 c3 be a2 03 ed be
       -0.1486054 -0.37203845 -0.3810099 -0.46291834
000070 56 c5 44 3e a4 35 08 3f 62 34 00 be d3 3a 93 3e
       0.19215903 0.5320685 -0.12519982 0.28755817
000080 b4 1e 1a bd 3c f0 cc be 79 88 ae be e7 f6 35 be
       -0.037626937 -0.40027034 -0.34088495 -0.17769967
000090 b8 66 13 be 50 da 40 be 27 b0 85 be 81 a8 9b be
       -0.14394653 -0.1883328 -0.26110956 -0.30401996
0000a0 e1 c0 81 be 25 d6 76 be c3 59 68 3f 39 6d 43 be
       -0.25342467 -0.24105127 0.90761966 -0.19084634
0000b0 0a ed 8e bc 64 04 93 be 00 10 48 be 29 2e a5 bd
       -0.017447013 -0.28714287 -0.19537354 -0.08065445
0000c0 63 ec 1c be d8 b5 f9 bd e9 cc 1b bf 72 22 8b be
       -0.1532455 -0.12192887 -0.60859543 -0.27174717
0000d0 4f 6c 09 be 12 56 98 3d a7 c1 34 3e ba 0a 6b 3d
       -0.13420223 0.074382916 0.17651998 0.057383277
0000e0 eb 3f c3 3e 44 4a 0c be 3b 1c fe 3d 2b 3b 01 be
       0.38134703 -0.13700205 0.12407728 -0.12620227
0000f0 4a 76 ca be 89 3e 37 3c 40 6c e1 3e 16 fe ac be
       -0.39543372 0.011184343 0.440279 -0.33787602
000100 05 6a bc bd eb 7d 98 bd 80 b8 c5 3d ab 05 57 bd
       -0.09199909 -0.07445892 0.09654331 -0.05249564
000110 38 cf 93 be ea af a6 be fe b9 2a 3f e9 02 b3 bd
       -0.28869033 -0.32556087 0.6669005 -0.087407894
000120 ce 77 95 be 7b 83 09 3e 9a 65 0d 3f 3a 58 27 be
       -0.29192966 0.13429062 0.55233157 -0.1634225
000130 e1 64 c1 bb 76 a6 1f bd d6 6e 36 3c 3e a2 1c 3d
       -0.0059019183 -0.03897711 0.011134824 0.038240664
000140 d8 b1 46 3d cc ba 23 be 4b d4 50 be a9 37 eb bd
       0.04850945 -0.15989226 -0.20393483 -0.11485226
000150 58 05 8f 3d 4e 45 4f be af aa 7a 3c 76 eb 75 be
       0.06983441 -0.20241281 0.015299483 -0.24015602
000160 69 f5 72 bf 22 c1 b2 bd 8d 28 0e 3e 76 e1 28 be
       -0.94905716 -0.087282434 0.13882656 -0.16492257
000170 41 af 81 be a1 96 ad be e4 1f 27 3e ec 38 2c be
       -0.2532902 -0.33903983 0.16320759 -0.16818589
000180 c2 7e bb be fb 65 2d 3f 67 72 95 be 60 97 f7 3d
       -0.36620146 0.67733735 -0.29188845 0.12089419
000190 6f 21 8a be 91 48 63 bf 56 7d 1b bc 76 a7 f7 3d
       -0.26978633 -0.887826 -0.009490332 0.120924875
0001a0 c0 fe 44 bd 2f e8 04 be f5 e4 b3 be 4a da a5 3d
       -0.04809451 -0.12979196 -0.35135618 0.08098276
0001b0 9b dd a8 bc 40 93 39 3d cb 3f 65 3e 76 2b e2 be
       -0.020613482 0.045306444 0.22387616 -0.44173783
0001c0 2f 4a 50 bf e4 df 22 3e 23 53 03 be db 6d 81 be
       -0.81363195 0.1590572 -0.12824683 -0.25279126
0001d0 b8 09 aa be 80 e7 b9 3c e1 7b 9d 3d c0 e8 72 bd
       -0.3321054 0.022693396 0.07689644 -0.059304
0001e0 af ac 8a 3d c8 2f 60 be ab bb 95 bb 35 2d e4 be
       0.06771218 -0.21893227 -0.004569491 -0.4456574
0001f0 ff 66 88 3e c9 d2 29 bd 6d ba 3d 3e 38 9e 89 be
       0.2664108 -0.041460786 0.18528147 -0.26878524
000200 a7 e4 32 3f 10 0e 0d bf fe 17 09 bf 7b 08 5b be
       0.69880146 -0.5509958 -0.53552234 -0.21389954
000210 d5 07 2c be db e7 d9 be 6f f1 db be 9b f6 7a be
       -0.16799863 -0.42559704 -0.42957637 -0.24508135
000220 8a 30 37 3c f8 7f b0 be c6 37 43 be ad 8a 1a bf
       0.011181006 -0.34472632 -0.19064245 -0.6036785
000230 44 13 98 be 36 23 38 be 77 91 d7 be a6 04 a1 be
       -0.29702199 -0.17982182 -0.42103168 -0.3144886
000240 fb 72 99 bd ce f4 ad be de 8e ba be 73 b8 f0 3d
       -0.07492634 -0.33975834 -0.36437124 0.11753931
000250 fb 7f c1 bd ed 9c 8f be 67 4e 71 3e 88 0d 6c be
       -0.094482385 -0.28049412 0.23565064 -0.23052037
000260 a5 bc c7 3b 03 a9 0a be 52 8e fa bc 83 d0 cf be
       0.006095486 -0.13541035 -0.030585442 -0.4058877
000270 48 2c aa 3e cf a6 0a be 2e db d7 3d 07 f8 2b bf
       0.3323691 -0.13540195 0.10539852 -0.67175335
000280 36 b9 83 be c8 8e 37 be cf 27 a9 be 93 2e 4c 3f
       -0.25727242 -0.1792556 -0.33038184 0.79758567
000290 8b 7f de bd 10 eb e2 be 9e 77 f6 3d 51 c1 4c 3e
       -0.10864171 -0.44319963 0.12034534 0.1999562
0002a0 ab 3c 86 3d 38 71 80 be 8e 18 c7 be fc be 20 bd
       0.0655454 -0.2508638 -0.3888592 -0.039244637
0002b0 e6 fc 67 be 45 d1 9a be 2e f3 50 be d5 06 48 bf
       -0.22655067 -0.30237785 -0.20405266 -0.78135425
0002c0 fc ac 88 be 03 af d5 bc 80 01 a9 3c e7 94 4d bd
       -0.26694477 -0.026084429 0.020630598 -0.050190832
0002d0 0b fc 8d bd 7c f5 81 be 96 6d 9e 3e 56 49 53 be
       -0.06932839 -0.25382602 0.30942982 -0.20633444
0002e0 1b a6 54 be 18 9e d4 bc 06 df 37 3f 36 bf 83 3e
       -0.20766489 -0.025954291 0.7182468 0.2573182
0002f0 ba 30 99 be f4 19 8f be ee a0 c9 bd 3b ce 2a bf
       -0.29919988 -0.27949488 -0.09845148 -0.6672093
000300 f4 c3 7c be 86 f7 ef 3d 6e 31 c6 be f1 80 96 be
       -0.24684125 0.11717133 -0.38709587 -0.2939525
000310 52 9d 8d be ec 97 f0 be e3 d3 5d 3e a8 92 97 be
       -0.27659088 -0.46990907 0.2166286 -0.29604077
000320 e3 96 83 be 7d 8b ad be 93 d0 29 bd b8 35 b1 3e
       -0.25701055 -0.33895484 -0.041458678 0.34611297
000330 5a 27 12 bf 23 ce 3d be d7 48 94 be 5d 86 8a bb
       -0.57091296 -0.18535666 -0.28961822 -0.004227443
000340 ab 4a c7 3c b3 c7 5d be 70 f6 3f 3b c9 36 8c be
       0.024327597 -0.2165821 0.0029291175 -0.27385548
000350 a8 4c 30 be 0a 0f b4 be 68 0d 45 be 92 63 64 be
       -0.17216742 -0.35167724 -0.19243395 -0.22303608
000360 d1 49 74 be a2 d8 5c be 00 e8 ea bd fb 34 0b 3e
       -0.23856284 -0.21567014 -0.11470032 0.13594429
000370 d7 81 b4 bc 71 88 ae bb 4b 78 1d 3e 93 a5 51 be
       -0.022034569 -0.0053263237 0.1537792 -0.20473318
000380 b0 0e 8e bd b4 ae 26 bf 7f 4c 71 3d 4c 83 a1 be
       -0.06936395 -0.65110326 0.058910843 -0.31545484
000390 50 02 9e bd f9 6d e9 be b3 1f 8b be 60 54 26 3f
       -0.07715285 -0.45591715 -0.27172622 0.64972496
0003a0 23 6d 84 be 53 8b 3c be b8 1f 27 be 55 7a a6 bd
       -0.25864515 -0.18412523 -0.16320693 -0.08128802
0003b0 f9 61 1d 3f 23 7b c3 be 96 ec 2d bd 90 e6 9d be
       0.6147762 -0.38179883 -0.042461954 -0.30839968
0003c0 88 28 71 be 45 25 11 be 31 bd 46 bd cd a2 a9 be
       -0.23550618 -0.14174373 -0.04852027 -0.3313202
0003d0 1f bc 0d be f6 22 5d 3e e0 fd 1a be c3 35 8d 3e
       -0.13841294 0.21595368 -0.15135908 0.2758008
0003e0 35 1e 0b 3e 18 4b 16 3e d8 ab 14 3e 62 a7 85 bc
       0.13585742 0.14677083 0.14518678 -0.016315166
0003f0 76 58 44 be 24 44 86 3d 4c 59 20 3f 28 73 ff 3d
       -0.1917437 0.065559655 0.62636256 0.12473136

fc2.weight f4 [2, 300]
000000 c5 e3 05 3d dc 10 8c bf 98 d5 4f 3d 2e c5 2e bd
       0.03268792 -1.0942645 0.05074081 -0.042668514
000010 57 af 38 bd 07 32 a5 3d c0 27 33 3c cb d8 b5 3d
       -0.045089092 0.080661826 0.01093477 0.088792406
000020 02 0a 05 40 ef 0c 0b 3d bc b3 f3 3d a6 f4 52 3c
       2.0787358 0.03394788 0.11899516 0.012875712
000030 d6 9d 0f bc 37 e4 6a 3e e2 52 4d 3d f5 73 00 bf
       -0.008765658 0.2293862 0.05012787 -0.50176936
000040 22 38 9a bc 6d 05 4b bd bc c4 d9 3f 67 af 9a bd
       -0.018825594 -0.04956572 1.7013164 -0.075529866
000050 0f d3 ba bd 79 c1 8f 3c b5 b9 98 3c fe 1e 3f 40
       -0.091222875 0.01754831 0.01864324 2.9862666
000060 55 70 04 3f 49 91 54 3f ca c6 08 3f a3 54 a1 3f
       0.51733905 0.8303419 0.5342833 1.2603954
000070 9d f8 a6 3f ce 20 90 3e 41 85 96 bb 96 d0 0e 3c
       1.3044621 0.28150028 -0.004593522 0.008716723
000080 c2 2f 18 3d 55 6a 38 3c 16 2f e4 3e 09 fd 69 bd
       0.03715492 0.01125582 0.44567174 -0.05712608
000090 50 0c cc bc 08 89 55 3b e5 3d ef 3b e3 60 95 3d
       -0.024908215 0.0032582898 0.0073010796 0.0729387
0000a0 9f b4 01 be f2 3c 20 bf 59 76 87 40 8a dc 7f bd
       -0.12666558 -0.62592995 4.2331967 -0.06246618
0000b0 b4 e1 d9 3d 03 c0 ed 3c ff a7 3c c0 2e 76 04 c0
       0.106387526 0.029022222 -2.9477537 -2.069713
0000c0 3d 5f 50 bb 6a 86 ce 3c a5 88 9d 3f eb db 3e 3d
       -0.0031795048 0.025210578 1.2307326 0.04659645
0000d0 6c 7b db 3c da fe e8 be 7b da 70 3d b2 61 69 3c
       0.02679225 -0.45506936 0.05880211 0.014244484
0000e0 aa 49 b2 3f 6a 6b a7 ba 68 68 3b 3d b4 38 9d bc
       1.392873 -0.0012773101 0.045753866 -0.019192077
0000f0 68 63 25 c0 e3 9a bf 3f 94 9e 1a c1 11 38 8c 3c
       -2.5841923 1.4969143 -9.663715 0.017116578
000100 03 02 99 bc 8a 64 d4 ba 64 f0 fb 3c 6c d5 07 3d
       -0.018677717 -0.0016204279 0.030754276 0.03316252
000110 59 f0 f6 3c 15 3b 0f 3c 86 2f e8 bf de 04 3a bf
       0.030143904 0.008742114 -1.8139503 -0.72663677
000120 63 a6 7b bc 4e c3 13 3d 79 03 95 c0 8e 11 1b bd
       -0.015359494 0.03607493 -4.656674 -0.03785854
000130 c7 54 24 bf c5 cc 07 3d e3 c1 96 3c bf 7b 3c 3d
       -0.6419186 0.033154268 0.018403 0.04601645
000140 3b 13 86 3d 83 89 b9 ba 94 7e 3b 3b 88 75 46 3d
       0.06546637 -0.0014155362 0.0028609382 0.04845193
000150 da d8 18 3d 9e 4c 05 3d 71 af 2a 3d dd ea f0 b9
       0.03731618 0.03254377 0.04167122 -0.00045951354
000160 76 03 b7 c0 b6 c6 63 3c 5a ba d5 3c 16 e3 7e bb
       -5.7191725 0.013902357 0.026089836 -0.0038892678
000170 4a f8 81 3c 76 bf 35 3c 8f 8f 76 bc 86 13 92 3d
       0.015865464 0.011093011 -0.0150488755 0.0713263
000180 a4 3f 47 bf d9 a3 94 40 94 39 c7 bc 55 5e 4f 3d
       -0.7783148 4.645001 -0.024319448 0.05062707
000190 a8 3c b1 3b 80 a9 ab 40 3d 6a a8 bc 6c cb c3 bc
       0.005408842 5.364441 -0.02055847 -0.02390071
0001a0 6b 16 5d 3d 42 78 17 c0 4c 55 86 ba c4 7e bb be
       0.053976458 -2.366715 -0.0010248809 -0.36620152
0001b0 3d 7c aa 3e eb a9 80 3c a9 8c 7e bd c0 db dd be
       0.3329791 0.015706023 -0.062145863 -0.43331718
0001c0 dd 2d 89 3f da 53 48 3c e0 60 a1 bc 8a 48 ab 3b
       1.0717121 0.012227023 -0.019699514 0.005227153
0001d0 c7 b1 b7 bd f8 a4 35 3c 40 3f 88 bc c9 46 6f bc
       -0.08969455 0.011086695 -0.016631722 -0.014604279
0001e0 60 22 6c bd a1 97 1f bd df e3 5f bc bb e5 d1 40
       -0.05764997 -0.038962964 -0.013665169 6.5592933
0001f0 68 98 09 3c bc 4b 62 bd c9 6b 27 40 eb 3c c0 bc
       0.008398153 -0.055248007 2.6159537 -0.023466548
000200 f1 02 e1 3f 32 3d cd bf 81 97 c9 c0 79 7e 1c 3d
       1.7579023 -1.60343 -6.299744 0.03820655
000210 c0 5a 3b bd 81 e1 15 40 b7 fd d2 bf 6e f2 9e bb
       -0.045740843 2.3418887 -1.6483678 -0.004850677
000220 70 f2 03 3e 8d 03 c5 3b f3 0c 30 3d 5f 13 53 c0
       0.12885451 0.006012386 0.0429811 -3.2980573
000230 5d 3d d1 3f 49 49 41 bd aa a0 00 be d4 18 58 bd
       1.6346852 -0.04718903 -0.12561288 -0.052758053
000240 fc dd a2 bb 0f 38 c5 3b cc 76 21 be d2 a4 be b9
       -0.0049703103 0.0060186456 -0.15767974 -0.00036362425
000250 4c a0 62 3d 75 8b d8 3d 8d 37 ba ba c6 b5 3f 3b
       0.055328652 0.10573474 -0.0014207229 0.0029252633
000260 01 a3 f2 39 83 95 49 bc db bd b6 bf 2a 0f a9 3e
       0.00046279284 -0.012303713 -1.4276689 0.33019382
000270 6f 5e 6f c0 55 b8 80 40 c8 1d e9 bf c3 67 18 c0
       -3.7401388 4.0225015 -1.8212214 -2.381333
000280 4b ed f3 bc 3c 30 a0 3c c1 ec 03 3d 98 f7 23 c1
       -0.029776236 0.01955425 0.032208208 -10.247948
000290 ac ef 36 bd ad 97 a3 bf 42 be be 3a 43 ea a6 3c
       -0.044662163 -1.2780663 0.0014552551 0.020375377
0002a0 77 12 fd 3c fa a0 5c bb e9 46 04 3e da e4 0e 3f
       0.030892594 -0.0033665285 0.12917675 0.5581795
0002b0 8e 1f 47 3c d5 85 14 bc c2 76 c4 3c 4a 24 cf 3f
       0.012153519 -0.009065111 0.02398241 1.618295
0002c0 d6 75 13 3d 4e ba 47 bf 24 4c 4e bd 6a a6 9b 3f
       0.03600105 -0.78018653 -0.050365582 1.216016
0002d0 68 14 53 3e 42 3c 99 3c 85 33 d5 3b 85 93 84 bb
       0.20613253 0.018705491 0.0065063857 -0.004045906
0002e0 0a 83 55 3d 19 7c 5e be f3 0a 19 40 ea 99 7b be
       0.05212692 -0.21727027 2.3912933 -0.24570432
0002f0 77 54 a8 3c 79 8b cd 3c a1 90 40 3d 67 60 3c c0
       0.020548088 0.02509092 0.04701293 -2.943384
000300 fb a0 dd 3b ab 66 aa be a9 89 0c be 26 d5 6a bc
       0.006763575 -0.33281454 -0.13724388 -0.014333045
000310 41 13 6a bc 7b 4a ca bf 6a fb 04 3d bb b6 5c bb
       -0.014286817 -1.580398 0.03246633 -0.0033678252
000320 87 79 30 bd aa 54 92 3c 28 d5 2d 3d 60 da d7 be
       -0.043084648 0.017862637 0.04243961 -0.42158794
000330 81 d4 1c 3e 2f 6c d0 3c f6 40 10 3d 5c 61 a4 3c
       0.15315439 0.025442211 0.0352182 0.020065956
000340 28 64 24 3d 22 9b 34 3c 37 e6 3a bc 46 e5 5a 3f
       0.04013458 0.011023315 -0.011407427 0.85506094
000350 5c 1c 16 3d e6 7e 60 3d aa 8b 01 bd 82 39 16 3c
       0.03664814 0.05480852 -0.031627335 0.009168984
000360 3d 1a ca bf 6a 2e ad 3c 4b 83 c6 3b 26 a0 22 bc
       -1.5789257 0.021140296 0.006058132 -0.009925878
000370 26 7f 12 bc a8 53 7c 3c 41 d0 69 3d ad 93 08 bd
       -0.008941447 0.015400805 0.057083372 -0.03334396
000380 96 5f 28 ba 4c 34 9d 3e 71 7b 82 3e a8 43 39 bd
       -0.0006422935 0.30703962 0.25484803 -0.045230538
000390 a2 09 a2 3c e5 2f 80 3f d0 b0 ff be 28 be 1d c0
       0.019779984 1.0014616 -0.49939585 -2.4647312
0003a0 f2 92 b3 3c e7 c8 4d bb 7e 93 b5 3c 57 c0 8d c0
       0.021920655 -0.0031400265 0.022165056 -4.429729
0003b0 af fc 1e 41 30 e0 1f bd 61 87 14 bd 3e 15 68 3d
       9.93669 -0.03903216 -0.03626192 0.056660883
0003c0 27 59 1a be 49 f6 3a bf c9 34 a8 bf 6d 76 90 bb
       -0.15073071 -0.7303205 -1.3141109 -0.0044086487
0003d0 62 65 ea be ae d3 88 3c aa 64 46 3d ed e9 cd 3a
       -0.45780474 0.0167025 0.048435844 0.0015709974
0003e0 b2 12 99 ba 7a 18 79 bf 2f e4 b0 bd 62 62 75 be
       -0.0011678545 -0.97302973 -0.086372726 -0.23963311
0003f0 ec 3c 3e bd 42 e2 03 bb ad 84 01 40 21 0a 5b 3d
       -0.04644482 -0.0020123874 2.023723 0.053476457

fc2.bias f4 [2]
000000 06 eb ae 3d 3f 99 af bd
       0.08540921 -0.08574151

fc1.weight f4 [300, 9]
000000 6e a7 7b be 20 e1 3b bd df f7 4b 3c f4 62 94 3e
       -0.24575588 -0.045868993 0.012449234 0.28981745
000010 8b c5 8d be f7 bd a6 3e 62 ea 9c 3e de 59 5b be
       -0.27689776 0.32566807 0.3064757 -0.21421
000020 33 8d 0f be 40 5e 09 3f 02 92 db 3e 12 2f ce be
       -0.14018707 0.5365944 0.42884833 -0.40270287
000030 ca 8b 81 bd 80 f8 00 3f 4b 79 99 3f 50 5b ed 3f
       -0.06325491 0.5037918 1.1990141 1.8543491
000040 81 99 71 40 38 37 df bf 18 49 68 3e c1 21 aa be
       3.7749941 -1.7438726 0.22684133 -0.33228877
000050 5f 7f 1d 3d 05 cd a6 be 2b 1c 0f 3e 84 24 27 3e
       0.03845155 -0.32578292 0.13975589 0.16322523
000060 05 ad a3 bd c8 07 a3 3e 56 c5 b9 3a 7e a6 9d 3e
       -0.07991985 0.31841874 0.001417319 0.30791086
000070 90 57 6d be 74 f7 9b be 16 db 85 3d cb c4 c2 bd
       -0.23177934 -0.3046223 0.06535928 -0.095101915
000080 fb 6e aa bd c8 26 4a 3e e8 4e 23 be 56 7f 80 be
       -0.08321949 0.19741356 -0.15948069 -0.2509715
000090 ca c7 f5 bd f5 eb ab bd 65 64 20 be 47 e5 95 3e
       -0.12000997 -0.083946146 -0.15663297 0.29276487
0000a0 f3 9c 9b 3b 6f e9 96 3e 52 fa 0d 3d 19 62 e8 bd
       0.0047489344 0.2947497 0.034662552 -0.11346836
0000b0 e0 0c ef bd eb 18 c2 be 93 d8 5c 3d 1f 30 0c be
       -0.116723776 -0.37909636 0.05391748 -0.13690232
0000c0 ba 02 c7 3d 21 0b 67 3e db de 99 be 7a 16 8b be
       0.09717317 0.22562839 -0.30052838 -0.27165586
0000d0 8a 57 4f bf 93 5b 83 be 1c b7 a8 be 40 ab 78 3d
       -0.8099295 -0.25655803 -0.329522 0.06071019
0000e0 6b f0 e5 bd bf 5f 8f be 40 8d 2b 3e 00 ef 47 3c
       -0.11227497 -0.28002736 0.16753101 0.012202978
0000f0 23 c6 80 3e 10 8d 03 be d7 01 94 be a2 0d 0a 3d
       0.25151166 -0.1284678 -0.28907654 0.033704408
000100 c3 3f 57 3d 74 5d 97 be d5 ad b9 3d 26 87 87 3e
       0.052551042 -0.29563487 0.09066359 0.26470298
000110 2a 1f 82 be 6a 29 b9 bd 70 e1 28 bf ce 1e ff bd
       -0.254144 -0.09041102 -0.6596899 -0.124570474
000120 49 c1 93 be ab 6f d6 3e 42 56 09 3f 4f 02 46 be
       -0.28858402 0.4188207 0.53647244 -0.19336818
000130 3d 38 64 40 0e a8 f8 3f 47 ad d7 bf a1 5a bc 40
       3.5659325 1.9426286 -1.6849755 5.886063
000140 a5 a4 a7 bf ab af 85 be d8 b9 10 be a7 d4 91 3d
       -1.309712 -0.26110587 -0.14133394 0.07120638
000150 73 3c 10 3e 98 89 17 3e 98 85 a0 3e 46 bb c3 be
       0.1408556 0.14798582 0.31351924 -0.38228816
000160 c6 5d 04 3f ba 4b 3f be ad 79 e7 be cb e8 95 3e
       0.51705587 -0.18681231 -0.4521002 0.2927917
000170 a4 28 d2 bd 7c a2 95 be eb b2 d2 bd 35 28 3c 3e
       -0.10261658 -0.29225528 -0.10288032 0.18374713
000180 42 11 4c bf 52 f4 4e 3f c8 04 d7 bd ae 14 fc 3b
       -0.79713833 0.80841553 -0.10498959 0.007692895
000190 56 17 65 bc 1c c5 96 be 0b 8f 63 be a8 9d 6b 3e
       -0.0139826145 -0.29447258 -0.22222535 0.2300936
0001a0 50 ab 6d be fb 97 6a be 58 ec 86 be 28 4d 9e 3e
       -0.23209882 -0.22909538 -0.2635219 0.3091824
0001b0 6e ee 99 be 8f fc 84 be e8 a5 41 3e 7e 39 33 bd
       -0.3006472 -0.25973937 0.18910944 -0.043756
0001c0 53 8a 42 3e 6e f6 89 3e 86 82 18 be be 06 0d be
       0.18998079 0.26945823 -0.1489354 -0.13772103
0001d0 1e 86 6b be 35 de a6 be 94 dc ec 3d 6f 58 11 3e
       -0.2300038 -0.32591406 0.115655094 0.14193891
0001e0 cf a0 13 3e c3 76 12 3e f9 18 fc 3d a8 1b 9b be
       0.14416812 0.14303117 0.12309451 -0.30294538
0001f0 72 14 06 3f 60 65 99 be 6b 93 97 3c ab 75 1c bc
       0.5237495 -0.29960155 0.018502912 -0.009549539
000200 ab e5 ec 3d cb b7 a2 bd 53 57 9d 3e 00 57 9d 3d
       0.11567243 -0.07945212 0.30730686 0.076826096
000210 c6 23 aa be 86 28 b6 3d 7e d8 6b be 35 0e 11 3f
       -0.33230418 0.08894448 -0.23031804 0.56662303
000220 8c 30 83 3e 36 73 17 3d 3d 7a 66 3e a5 53 6f bf
       0.25622976 0.036975108 0.22507568 -0.93487006
000230 3c 12 20 c0 ac d3 8b 3f 76 fe a6 c0 d4 4c b2 bf
       -2.501113 1.0923972 -5.218562 -1.3929696
000240 2e 17 52 be 4c 6b a0 3e 7c a1 95 be b2 cc 9c be
       -0.20516655 0.3133186 -0.29224765 -0.3062492
000250 c8 f3 59 be cb 40 8b be eb 02 68 3d 53 55 66 3e
       -0.21284401 -0.2719787 0.056643408 0.22493486
000260 d0 c7 38 be 85 e6 e8 bd a7 0f c4 be fd 6e 28 bd
       -0.18044972 -0.11372093 -0.38293192 -0.04112147
000270 4c 92 99 bd ab 77 86 bc c2 02 84 3e e6 16 c8 bd
       -0.07498607 -0.016414484 0.25783354 -0.097699925
000280 8f a6 11 3f 87 d5 a3 be f2 60 b9 3e ae c3 7c be
       0.56894773 -0.31998846 0.36206776 -0.24684021
000290 ce b9 9b 3d 83 f7 b1 be 91 24 c6 3e a9 f4 01 3f
       0.07603799 -0.3475915 0.38699773 0.50763947
0002a0 16 22 1f 3f 7c dd 09 40 ac b8 a9 be 29 75 bc 3d
       0.62161386 2.1541433 -0.33148706 0.09202034
0002b0 de b5 7d be c2 d5 fe bd ca 76 76 be d8 56 94 bd
       -0.24776408 -0.12443115 -0.24068752 -0.07243127
0002c0 f8 fb eb 3d 93 7a c2 bc db df 1d 3f 9a 91 b7 be
       0.115226686 -0.023740089 0.616697 -0.35853273
0002d0 f9 76 24 be 9f d0 5d 3e 62 b4 02 3d 4c 6c d7 be
       -0.1606101 0.21661614 0.031910308 -0.4207481
0002e0 10 fa da 3d 36 c1 08 3f fd ab 7b be 09 d3 00 3e
       0.10692227 0.53419816 -0.24577327 0.12580504
0002f0 11 ef a0 be 60 f9 11 be a5 c9 a5 be e3 ef 4f be
       -0.31432393 -0.14255285 -0.32380405 -0.20306353
000300 23 f9 9b 3e e7 ae 10 be 4f 08 49 bd c5 b5 ad 3a
       0.30463514 -0.1412922 -0.04908019 0.0013253024
000310 de 7a f2 3d 87 4b 1f 3d a8 63 28 3b c8 5b ee 3c
       0.11839841 0.038890388 0.0025694165 0.0290965
000320 4c 2a a2 3d 90 0b 56 be 80 f0 13 3e cc 50 26 3e
       0.07918224 -0.20902848 0.14447212 0.16241759
000330 46 cf 08 be 15 05 39 3e 56 04 f8 bb 55 60 1e 3f
       -0.13360319 0.18068345 -0.0075688763 0.6186574
000340 8d 31 be be 49 db d3 be 13 22 24 bf ef 1d 44 3f
       -0.3714718 -0.4137824 -0.64114493 0.76608175
000350 ef 0a 2a c0 99 e5 90 40 78 c2 d4 3e 80 f2 9b bf
       -2.6569173 4.528027 0.41554618 -1.218338
000360 c8 76 5d be 62 5f b3 be c2 0e 82 3e 8e f9 3f be
       -0.21627343 -0.3503371 0.25401884 -0.18747541
000370 e7 a5 de 3d 06 51 5c 3e a2 1f 07 3d 50 85 62 3f
       0.10871487 0.21515283 0.03298915 0.8848467
000380 68 30 a3 3e 67 df ca bd ef 11 8a bd f5 d8 2a be
       0.3187287 -0.09905892 -0.06741702 -0.16684325
000390 8d 58 ec be b3 f4 5c bf 5c 2b 60 3f b3 7b 93 bf
       -0.4616131 -0.8631088 0.8756616 -1.1522125
0003a0 18 43 a9 3f 92 5f fa be 5b 96 ca be 8e 15 b3 bd
       1.32236 -0.4890104 -0.39567837 -0.087443456
0003b0 54 fc 95 be e4 d0 e9 3e 2d c2 76 be ba c0 f8 3e
       -0.29294074 0.45667183 -0.2409751 0.4858454
0003c0 4c 8e e2 bf 36 ae 07 be af 8a 92 be 12 71 e5 3e
       -1.7699676 -0.1325005 -0.28621432 0.44812828
0003d0 d1 e8 32 3e 36 78 e3 3e f9 d7 23 bf 05 d6 2b 3f
       0.17471625 0.4442765 -0.64001423 0.6712344
0003e0 2d e5 6e 3f b7 92 8a 3f 41 bf b7 40 9f 12 06 bd
       0.93318444 1.0826024 5.7420964 -0.032732602
0003f0 6c f5 42 3e 4e 38 76 3e 1d fe 06 bd a4 a9 ec bd
       0.19038934 0.24044916 -0.032957185 -0.11555794

fc1.bias f4 [300]
000000 9e 86 a0 be 71 89 ae 3e ed c4 28 bc bf ae 8b be
       -0.31352705 0.34089234 -0.010300857 -0.27281758
000010 1f fd 87 be 69 9d 2e be 26 8a 56 be 88 11 98 be
       -0.26560304 -0.17052235 -0.20951137 -0.29700875
000020 3f 4b 54 be b1 9d 6c be b3 45 5c 3a 56 09 59 be
       -0.20731829 -0.2310703 0.000840272 -0.21194968
000030 fe ad 8d be 4c 55 df be 44 d5 a4 be 2b c3 3a 3e
       -0.27671808 -0.43619764 -0.3219396 0.18238513
000040 0b 4b ce 3d d2 d9 08 3e 2b 5e eb 3d 02 48 c6 3d
       0.10072907 0.13364342 0.114925705 0.09681703
000050 4e 35 b5 bc 2d a8 32 3e af 3e 4e be ea 38 68 3f
       -0.022120144 0.17446966 -0.201411 0.90711844
000060 b4 2b 18 be 86 7b be be b3 13 c3 be d8 a7 eb be
       -0.14860421 -0.37203616 -0.38100967 -0.46026492
000070 02 7c 43 3e 39 c0 08 3f 40 34 00 be 3f 3b 93 3e
       0.19090274 0.5341831 -0.12519932 0.2875614
000080 88 1e 1a bd eb ef cc be 51 88 ae be aa f6 35 be
       -0.037626773 -0.40026793 -0.34088376 -0.17769876
000090 b8 66 13 be 2b da 40 be 27 b0 85 be 48 a8 9b be
       -0.14394653 -0.18833224 -0.26110956 -0.30401826
0000a0 a3 c0 81 be 1a d6 76 be 42 fb 68 3f 27 6d 43 be
       -0.25342283 -0.24105111 0.9100839 -0.19084607
0000b0 e7 ec 8e bc 2c 04 93 be 55 22 4a be 2d 2e a5 bd
       -0.017446948 -0.2871412 -0.19739659 -0.08065448
0000c0 63 ec 1c be a6 b5 f9 bd 9c cc 1b bf 72 22 8b be
       -0.1532455 -0.1219285 -0.60859084 -0.27174717
0000d0 4f 6c 09 be 27 8d 93 3d 11 c2 34 3e f4 0a 6b 3d
       -0.13420223 0.07204657 0.17652155 0.057383493
0000e0 ff f2 c0 3e 4b 4a 0c be 3b 1c fe 3d 2b 3b 01 be
       0.3768539 -0.13700216 0.12407728 -0.12620227
0000f0 53 76 ca be c9 3e 37 3c bf a0 e3 3e c9 fd ac be
       -0.395434 0.011184403 0.44458577 -0.33787373
000100 d6 69 bc bd eb 7d 98 bd 80 b8 c5 3d ab 05 57 bd
       -0.09199874 -0.07445892 0.09654331 -0.05249564
000110 38 cf 93 be b9 af a6 be d5 a1 2a 3f 85 53 b9 bd
       -0.28869033 -0.3255594 0.66653186 -0.09049133
000120 ce 77 95 be be 83 09 3e 0d 3e 0d 3f 15 58 27 be
       -0.29192966 0.13429162 0.55172807 -0.16342194
000130 d7 64 c1 bb 76 a6 1f bd d6 6e 36 3c aa a2 1c 3d
       -0.0059019136 -0.03897711 0.011134824 0.038241066
000140 42 b2 46 3d b1 ba 23 be 04 d4 50 be 7d 37 eb bd
       0.048509844 -0.15989186 -0.20393378 -0.11485193
000150 82 05 8f 3d 4e 45 4f be f5 aa 7a 3c 76 eb 75 be
       0.069834724 -0.20241281 0.015299548 -0.24015602
000160 39 6b 72 bf ca c0 b2 bd ce 28 0e 3e 76 e1 28 be
       -0.9469486 -0.08728178 0.13882753 -0.16492257
000170 0f af 81 be 85 96 ad be 38 20 27 3e e9 38 2c be
       -0.25328872 -0.339039 0.16320884 -0.16818585
000180 ae 7e bb be bd 79 2d 3f 70 72 95 be 60 97 f7 3d
       -0.36620086 0.6776388 -0.2918887 0.12089419
000190 2b 21 8a be 2e 16 65 bf 56 7d 1b bc dd a7 f7 3d
       -0.2697843 -0.8948697 -0.009490332 0.12092564
0001a0 c0 fe 44 bd 8e 0e 01 be fa e4 b3 be 70 da a5 3d
       -0.04809451 -0.12603208 -0.35135633 0.08098304
0001b0 89 dd a8 bc 46 93 39 3d 24 40 65 3e 79 2b e2 be
       -0.020613449 0.045306467 0.22387749 -0.44173792
0001c0 9e 21 50 bf f0 df 22 3e 23 53 03 be db 6d 81 be
       -0.81301296 0.15905738 -0.12824683 -0.25279126
0001d0 89 09 aa be a5 e7 b9 3c 3f 7c 9d 3d c0 e8 72 bd
       -0.332104 0.022693465 0.07689714 -0.059304
0001e0 02 ad 8a 3d c8 2f 60 be ab bb 95 bb 5e fa e2 be
       0.0677128 -0.21893227 -0.004569491 -0.4433164
0001f0 5e 67 88 3e 75 d2 29 bd 6e c2 40 3e 38 9e 89 be
       0.26641363 -0.041460473 0.18824169 -0.26878524
000200 6f 14 33 3f ff 0d 0d bf 05 c8 09 bf 84 08 5b be
       0.69953054 -0.5509948 -0.5382083 -0.21389967
000210 b1 07 2c be 2b 4a da be 0c 3e dd be 5a f6 7a be
       -0.16799809 -0.4263471 -0.432114 -0.24508038
000220 b9 30 37 3c d6 7f b0 be c6 37 43 be 58 67 19 bf
       0.01118105 -0.3447253 -0.19064245 -0.59923315
000230 18 13 98 be 36 23 38 be 68 91 d7 be a6 04 a1 be
       -0.29702067 -0.17982182 -0.42103124 -0.3144886
000240 fb 72 99 bd a9 f4 ad be d6 8e ba be dd b8 f0 3d
       -0.07492634 -0.33975723 -0.364371 0.1175401
000250 fb 7f c1 bd af 9c 8f be 79 4e 71 3e 8d 0d 6c be
       -0.094482385 -0.28049228 0.23565091 -0.23052044
000260 0e bd c7 3b b7 a8 0a be 0e 8e fa bc d1 a1 d0 be
       0.006095535 -0.13540922 -0.030585315 -0.40748456
000270 b2 1c aa 3e 7f 5d 07 be 82 95 d7 3d 11 f8 2b bf
       0.33225018 -0.1321926 0.10526563 -0.67175394
000280 36 b9 83 be 7a 8e 37 be cf 27 a9 be d9 3b 4c 3f
       -0.25727242 -0.17925444 -0.33038184 0.7977882
000290 8b 7f de bd e1 ea e2 be f5 77 f6 3d 6e c1 4c 3e
       -0.10864171 -0.44319823 0.12034599 0.19995663
0002a0 7e a6 89 3d fe 70 80 be 38 18 c7 be 77 7b 25 bd
       0.06721209 -0.25086206 -0.38885665 -0.04040095
0002b0 ed fc 67 be 0c d1 9a be 2e f3 50 be 7f 06 48 bf
       -0.22655077 -0.30237615 -0.20405266 -0.7813491
0002c0 e7 ac 88 be fc ae d5 bc 80 01 a9 3c ed 0c 42 bd
       -0.26694414 -0.026084416 0.020630598 -0.04737561
0002d0 e3 fb 8d bd 5f f5 81 be 96 6d 9e 3e 50 49 53 be
       -0.06932809 -0.25382516 0.30942982 -0.20633435
0002e0 24 a6 54 be f0 9d d4 bc 7f 28 39 3f 96 73 83 3e
       -0.20766503 -0.025954217 0.7232742 0.25674123
0002f0 a4 30 99 be f4 19 8f be a7 a0 c9 bd 41 56 2b bf
       -0.29919922 -0.27949488 -0.09845095 -0.6692849
000300 ae c3 7c be cc da d9 3d 5b 31 c6 be c0 80 96 be
       -0.24684021 0.10637435 -0.3870953 -0.29395103
000310 f8 9c 8d be 80 04 f2 be e3 d3 5d 3e a8 92 97 be
       -0.2765882 -0.47269058 0.2166286 -0.29604077
000320 e3 96 83 be 31 8b ad be 81 d0 29 bd ee 34 b1 3e
       -0.25701055 -0.33895257 -0.04145861 0.34610695
000330 14 27 12 bf 23 ce 3d be d7 48 94 be 57 86 8a bb
       -0.5709088 -0.18535666 -0.28961822 -0.0042274403
000340 fe 4a c7 3c b3 c7 5d be d1 f6 3f 3b c3 36 8c be
       0.024327751 -0.2165821 0.00292914 -0.2738553
000350 aa 4c 30 be c6 0e b4 be 68 0d 45 be 71 63 64 be
       -0.17216745 -0.3516752 -0.19243395 -0.22303559
000360 8a fa 73 be 94 d8 5c be 00 e8 ea bd fb 34 0b 3e
       -0.23826042 -0.21566993 -0.11470032 0.13594429
000370 9e 81 b4 bc 0d ba 80 ba 4b 78 1d 3e 93 a5 51 be
       -0.022034463 -0.0009821072 0.1537792 -0.20473318
000380 b0 0e 8e bd 8d ae 26 bf e9 4c 71 3d 4c 83 a1 be
       -0.06936395 -0.65110093 0.058911238 -0.31545484
000390 50 02 9e bd ad 6d e9 be 77 1f 8b be 1c b8 26 3f
       -0.07715285 -0.45591488 -0.27172443 0.6512468
0003a0 03 6d 84 be 53 8b 3c be b8 1f 27 be 95 aa a8 bd
       -0.2586442 -0.18412523 -0.16320693 -0.08235661
0003b0 4d 6d 1d 3f d3 7a c3 be 96 ec 2d bd 80 e6 9d be
       0.61494905 -0.38179645 -0.042461954 -0.3083992
0003c0 96 28 71 be 44 25 11 be 33 bd 46 bd cd a2 a9 be
       -0.23550639 -0.14174372 -0.04852028 -0.3313202
0003d0 d3 bb 0d be f6 22 5d 3e f7 fd 1a be c3 35 8d 3e
       -0.1384118 0.21595368 -0.15135942 0.2758008
0003e0 4a 1e 0b 3e 3d 16 17 3e ff ab 14 3e 13 a7 85 bc
       0.13585773 0.14754577 0.14518736 -0.016315019
0003f0 76 58 44 be 7e 44 86 3d fb 4c 20 3f 91 73 ff 3d
       -0.1917437 0.065560326 0.6261746 0.124732144

fc2.weight f4 [2, 300]
000000 c5 e3 05 3d b6 2e 8c bf b6 d5 4f 3d 2e c5 2e bd
       0.03268792 -1.0951755 0.05074092 -0.042668514
000010 26 af 38 bd b1 31 a5 3d c0 27 33 3c f9 d8 b5 3d
       -0.04508891 0.080661185 0.01093477 0.08879275
000020 a8 9f 04 40 1a 0d 0b 3d 25 b4 f3 3d a6 f4 52 3c
       2.0722446 0.03394804 0.11899594 0.012875712
000030 db 9d 0f bc 48 e4 6a 3e e2 52 4d 3d a4 0d 01 bf
       -0.008765663 0.22938645 0.05012787 -0.5041144
000040 22 38 9a bc ae 05 4b bd d3 33 d9 3f 73 af 9a bd
       -0.018825594 -0.049565963 1.696894 -0.075529955
000050 31 d3 ba bd ca c1 8f 3c 80 b9 98 3c 51 6a 3f 40
       -0.09122313 0.01754846 0.01864314 2.990864
000060 86 70 04 3f 6f 91 54 3f 12 c7 08 3f 54 30 a1 3f
       0.517342 0.83034414 0.5342876 1.2592874
000070 37 48 a6 3f 24 5d 8d 3e 6f 85 96 bb c6 d0 0e 3c
       1.2990788 0.27610123 -0.0045935432 0.008716768
000080 ff 2f 18 3d 65 6a 38 3c 7c 2f e4 3e 6c fd 69 bd
       0.037155148 0.011255835 0.44567478 -0.057126448
000090 50 0c cc bc 17 89 55 3b e5 3d ef 3b 3f 61 95 3d
       -0.024908215 0.0032582933 0.0073010796 0.07293939
0000a0 ea b4 01 be 54 3d 20 bf 4f 68 87 40 a5 dc 7f bd
       -0.1266667 -0.6259358 4.231483 -0.062466282
0000b0 fb e1 d9 3d 50 c0 ed 3c 9f a3 3c c0 62 76 04 c0
       0.106388055 0.029022366 -2.9474866 -2.0697255
0000c0 3d 5f 50 bb 2b 86 ce 3c bf 88 9d 3f eb db 3e 3d
       -0.0031795048 0.02521046 1.2307357 0.04659645
0000d0 5c 7b db 3c 1a 8f ed be d9 da 70 3d 91 61 69 3c
       0.02679222 -0.4639824 0.05880246 0.014244453
0000e0 06 0f b1 3f 39 6b a7 ba 6a 68 3b 3d b4 38 9d bc
       1.383271 -0.0012773044 0.045753874 -0.019192077
0000f0 b0 63 25 c0 05 9b bf 3f cd c6 1a c1 52 38 8c 3c
       -2.5842094 1.4969183 -9.673535 0.0171167
000100 27 02 99 bc 8a 64 d4 ba 64 f0 fb 3c 6c d5 07 3d
       -0.018677784 -0.0016204279 0.030754276 0.03316252
000110 59 f0 f6 3c 6a 3b 0f 3c 66 fb e7 bf db 41 3b bf
       0.030143904 0.008742193 -1.8123596 -0.7314736
000120 63 a6 7b bc 30 c3 13 3d 20 ef 94 c0 e3 11 1b bd
       -0.015359494 0.036074817 -4.65419 -0.037858855
000130 fc 54 24 bf c5 cc 07 3d e3 c1 96 3c 6a 7b 3c 3d
       -0.64192176 0.033154268 0.018403 0.046016134
000140 46 13 86 3d e5 89 b9 ba ad 7e 3b 3b b6 75 46 3d
       0.06546645 -0.0014155476 0.002860944 0.0484521
000150 23 d9 18 3d 9e 4c 05 3d 8c af 2a 3d de ea f0 b9
       0.037316453 0.03254377 0.04167132 -0.00045951357
000160 10 63 b7 c0 cc c6 63 3c b3 ba d5 3c 16 e3 7e bb
       -5.7308426 0.013902377 0.026090002 -0.0038892678
000170 1b f8 81 3c 95 bf 35 3c c9 8f 76 bc 8c 13 92 3d
       0.015865376 0.01109304 -0.0150489295 0.071326345
000180 ab 3f 47 bf b2 6a 94 40 94 39 c7 bc 55 5e 4f 3d
       -0.77831525 4.6380243 -0.024319448 0.05062707
000190 e5 3c b1 3b 59 82 ab 40 3d 6a a8 bc 4b cb c3 bc
       0.0054088705 5.3596616 -0.02055847 -0.023900649
0001a0 6b 16 5d 3d 55 26 17 c0 ae 55 86 ba 11 7f bb be
       0.053976458 -2.3617146 -0.0010248923 -0.3662038
0001b0 60 7c aa 3e eb a9 80 3c 19 8d 7e bd f3 db dd be
       0.33298016 0.015706023 -0.06214628 -0.4333187
0001c0 3b ca 87 3f 3a 54 48 3c e0 60 a1 bc 8a 48 ab 3b
       1.0608591 0.012227112 -0.019699514 0.005227153
0001d0 a2 b1 b7 bd 05 a5 35 3c 86 3f 88 bc c9 46 6f bc
       -0.08969428 0.011086707 -0.016631853 -0.014604279
0001e0 a4 22 6c bd a1 97 1f bd e0 e3 5f bc ea 7e d1 40
       -0.057650223 -0.038962964 -0.0136651695 6.5467424
0001f0 72 98 09 3c 81 4b 62 bd d6 5d 27 40 eb 3c c0 bc
       0.008398162 -0.055247787 2.6151023 -0.023466548
000200 35 13 e1 3f 42 3d cd bf 7a d4 c9 c0 79 7e 1c 3d
       1.7583987 -1.6034319 -6.307187 0.03820655
000210 21 5b 3b bd 52 f8 15 40 cf ae d2 bf da f2 9e bb
       -0.045741204 2.3432813 -1.6459597 -0.0048507275
000220 be f2 03 3e 67 03 c5 3b fe 0c 30 3d 4c 4d 53 c0
       0.12885568 0.0060123685 0.04298114 -3.3015928
000230 7b 3d d1 3f 49 49 41 bd d7 a0 00 be d4 18 58 bd
       1.6346887 -0.04718903 -0.12561356 -0.052758053
000240 fd dd a2 bb 22 38 c5 3b 00 77 21 be ed a4 be b9
       -0.0049703107 0.0060186544 -0.15768051 -0.00036362503
000250 4c a0 62 3d cb 8b d8 3d 56 37 ba ba c6 b5 3f 3b
       0.055328652 0.105735384 -0.0014207165 0.0029252633
000260 19 a3 f2 39 53 95 49 bc 45 be b6 bf 5e c4 ab 3e
       0.00046279354 -0.012303668 -1.4276816 0.33548254
000270 84 9d 6f c0 ae c7 80 40 5f 3d e9 bf db 67 18 c0
       -3.743989 4.024375 -1.8221854 -2.3813388
000280 4b ed f3 bc 0d 30 a0 3c c1 ec 03 3d f2 f0 23 c1
       -0.029776236 0.019554162 0.032208208 -10.246325
000290 ac ef 36 bd ec 97 a3 bf 51 be be 3a 50 ea a6 3c
       -0.044662163 -1.2780738 0.0014552568 0.0203754
0002a0 9d 02 0d 3d b8 a0 5c bb 1e 47 04 3e c4 78 0e 3f
       0.03442632 -0.0033665132 0.12917754 0.55653024
0002b0 8e 1f 47 3c 1b 86 14 bc c7 76 c4 3c 5e 24 cf 3f
       0.012153519 -0.009065176 0.023982419 1.6182973
0002c0 3b 76 13 3d 53 ba 47 bf 24 4c 4e bd 85 05 9b 3f
       0.036001425 -0.78018683 -0.050365582 1.211106
0002d0 93 14 53 3e 5b 3c 99 3c 8c 33 d5 3b 4b 93 84 bb
       0.20613317 0.018705538 0.006506389 -0.004045879
0002e0 0a 83 55 3d 1c 7c 5e be 32 60 18 40 53 a2 75 be
       0.05212692 -0.21727031 2.3808713 -0.23987703
0002f0 d0 54 a8 3c 79 8b cd 3c ba 90 40 3d 37 59 3c c0
       0.020548254 0.02509092 0.047013022 -2.9429452
000300 5b a1 dd 3b 41 d8 a6 be f6 89 0c be 0d d5 6a bc
       0.00676362 -0.32586864 -0.13724503 -0.014333022
000310 4d 13 6a bc c1 43 cc bf 6a fb 04 3d bb b6 5c bb
       -0.014286828 -1.5958177 0.03246633 -0.0033678252
000320 87 79 30 bd c7 54 92 3c 05 d5 2d 3d 61 35 d8 be
       -0.043084648 0.01786269 0.04243948 -0.42228225
000330 ab d4 1c 3e 2f 6c d0 3c f6 40 10 3d 19 61 a4 3c
       0.15315501 0.025442211 0.0352182 0.020065831
000340 d5 63 24 3d 22 9b 34 3c f2 e5 3a bc 5b e5 5a 3f
       0.04013427 0.011023315 -0.011407362 0.8550622
000350 5c 1c 16 3d 92 7e 60 3d aa 8b 01 bd 44 39 16 3c
       0.03664814 0.054808207 -0.031627335 0.009168927
000360 6c 20 ca bf 9c 2e ad 3c 4b 83 c6 3b 26 a0 22 bc
       -1.5791144 0.02114039 0.006058132 -0.009925878
000370 f8 7e 12 bc 15 a5 9b 3c 41 d0 69 3d ad 93 08 bd
       -0.0089414045 0.018999616 0.057083372 -0.03334396
000380 96 5f 28 ba 5f 34 9d 3e be 7b 82 3e a8 43 39 bd
       -0.0006422935 0.30704018 0.25485033 -0.045230538
000390 a2 09 a2 3c 25 30 80 3f e5 b0 ff be f8 64 1d c0
       0.019779984 1.0014693 -0.49939647 -2.4592876
0003a0 f2 92 b3 3c e7 c8 4d bb 7e 93 b5 3c fc dd 8d c0
       0.021920655 -0.0031400265 0.022165056 -4.4333477
0003b0 1d d7 1e 41 f8 df 1f bd 61 87 14 bd 88 15 68 3d
       9.927518 -0.039031953 -0.03626192 0.05666116
0003c0 83 59 1a be 59 f6 3a bf 2c 35 a8 bf 44 76 90 bb
       -0.15073209 -0.73032147 -1.3141227 -0.0044086296
0003d0 55 65 ea be ae d3 88 3c 87 64 46 3d ed e9 cd 3a
       -0.45780435 0.0167025 0.048435714 0.0015709974
0003e0 90 12 99 ba 28 60 79 bf 3a e4 b0 bd 9d 62 75 be
       -0.0011678506 -0.9741235 -0.08637281 -0.23963399
0003f0 ec 3c 3e bd f3 e1 03 bb 89 5c 01 40 77 0a 5b 3d
       -0.04644482 -0.002012369 2.021273 0.053476777

fc2.bias f4 [2]
000000 a9 10 c2 3d ee 2c b7 bd
       0.09475834 -0.089441165

fc1.weight f4 [300, 9]
000000 27 82 03 be eb fd 03 bf 8a 27 1b be c0 34 0f be
       -0.12842618 -0.51559323 -0.15151802 -0.13984966
000010 8e 98 9e 3d 59 21 a4 bf 69 a8 0e c0 b6 c0 90 3d
       0.07743941 -1.2822677 -2.229029 0.07068007
000020 73 ef 89 3e f1 fd d6 be 21 c2 59 3e d6 5f 60 3d
       0.26940498 -0.41990617 0.2126546 0.054778896
000030 89 63 26 be f7 1b 02 bf db 9b 37 bc 48 3c 73 3e
       -0.16248907 -0.5082392 -0.011206592 0.23753464
000040 04 e8 1d bf 1f 83 89 be a3 dc f1 3d dc 8a 8c 3e
       -0.6168215 -0.2685785 0.11809661 0.2744969
000050 3e 28 08 be 57 ac b4 be 1d 41 4f 3f 7b be 85 3f
       -0.13296601 -0.35287735 0.8095873 1.0448755
000060 ee fb 2c 3f ec 66 b6 40 21 ad e1 bc 73 70 be 3d
       0.67571914 5.7000637 -0.027548375 0.09298792
000070 09 e2 0a bf 30 b0 24 bf 74 16 c2 be 5f 97 ce bf
       -0.5425115 -0.6433134 -0.37907755 -1.6139945
000080 2e a5 98 bf ee 9f ac bc 57 44 a8 be 73 9b ce 3e
       -1.1925409 -0.021072354 -0.3286464 0.40352973
000090 31 b2 c0 be 1c 5c 89 be d3 d6 60 be 1b 9f 0f bf
       -0.3763595 -0.26828086 -0.21956949 -0.5610215
0000a0 f9 84 3d bf 02 2f 07 3f 5c 14 6e 3f 57 7d 0b 3f
       -0.74031025 0.52806103 0.92999816 0.5448813
0000b0 c2 47 8a be 7b 6d 9b bd 00 df e4 bb 8b ec b5 3d
       -0.27007872 -0.07589241 -0.0069845915 0.088830076
0000c0 56 dc 8d 3e 83 fd 17 3e b3 e5 78 be ab d5 39 3c
       0.27707165 0.14842801 -0.24306373 0.011342446
0000d0 18 b5 10 3e e3 36 8b be e6 68 0c 3f 27 76 f4 bc
       0.14131582 -0.27190313 0.5484756 -0.029841496
0000e0 d3 64 0c 3f 32 89 05 bf 1d 72 c5 bd e6 54 83 bf
       0.54841346 -0.5216247 -0.09640906 -1.0260284
0000f0 a8 6f 19 c0 b0 7a f2 3f cb 49 14 be ca 30 42 3d
       -2.39744 1.8943691 -0.14481275 0.04740981
000100 77 27 e9 bd ef d7 5e be b8 89 53 3e 57 32 82 3f
       -0.113844804 -0.2176206 0.20658004 1.0171613
000110 f4 3a 2a be 01 c1 a1 3e 8d 7c 13 3e 59 7d 0b 3f
       -0.16624051 0.31592563 0.14402981 0.5448814
000120 10 79 6d be b9 36 4f 3e 75 5a 1a bf e1 db 90 3d
       -0.23190713 0.20235719 -0.60294276 0.070731886
000130 a3 d6 1e 3e b8 6f 08 c0 bb 8a 23 40 4f d5 83 bf
       0.15511565 -2.1318188 2.5553424 -1.0299472
000140 ec 5e ad 3e 6f dd 8f be aa 1a c9 3e da 20 fe be
       0.33861482 -0.28098628 0.39278156 -0.4963444
000150 3a bb 01 be fb 26 29 bf 00 58 f9 3d 72 ff 4d 3f
       -0.12669078 -0.66075104 0.12174988 0.80467904
000160 28 bf 1d 40 38 73 c6 3e c7 5c 86 bd f2 01 db be
       2.4647923 0.3875978 -0.065606646 -0.42774922
000170 4f 37 6a 3d b1 ac 8f bd 46 13 f0 bc 82 c0 67 be
       0.057181653 -0.0701536 -0.029306065 -0.2263203
000180 83 35 27 3f fd 4b c9 bf c4 b0 16 3f 64 5b 26 3d
       0.6531603 -1.5726315 0.5886347 0.0406145
000190 bc 5a c4 be 0e 5b 83 be 8b eb 37 bd 97 98 48 bf
       -0.38350475 -0.25655407 -0.044902366 -0.78357834
0001a0 4f 2a 45 bf 62 cb 64 bf 8c b0 ce be ec 1c 97 3e
       -0.7701768 -0.8937284 -0.4036907 0.29514253
0001b0 59 9d 43 bd f7 ff 90 3e 00 dc 51 bf 0f 0f 22 3e
       -0.04775748 0.28320286 -0.8197632 0.15826057
0001c0 16 28 94 bd 91 80 03 bf 04 a6 1e 40 aa 8f a1 bf
       -0.07234208 -0.5136805 2.4788828 -1.2621968
0001d0 13 77 32 bf 0d f3 da 3d 76 df 19 bf c0 f7 9c 3e
       -0.6971294 0.106908895 -0.601066 0.30657768
0001e0 13 b5 31 3e 45 0c 8a be 69 16 90 bf b3 0a 99 bf
       0.1735423 -0.26962486 -1.1256839 -1.195639
0001f0 82 61 43 c0 27 df 12 3f d6 ed 37 bd 76 25 88 bd
       -3.0528264 0.57371753 -0.044904552 -0.0664777
000200 56 ad 3e bd 3e 4a 6a be ab a4 ee 3d c3 fb 42 be
       -0.046552025 -0.22879884 0.11652502 -0.19041352
000210 60 bb 62 be 98 48 37 be 18 f9 9e 3e 93 ac de 3b
       -0.2214179 -0.17898786 0.31049418 0.006795475
000220 df ad b5 bc 3f f1 8e be 71 7b 3d bd 3e 76 3a 3f
       -0.022177635 -0.2791843 -0.0462603 0.72836673
000230 75 bd 2e 3f 9e ad 25 40 ac 56 77 40 52 04 bd 3e
       0.6825784 2.5887218 3.864665 0.3691736
000240 76 9a 6d 3d 4e 99 58 be 16 15 a3 3e f4 c7 fa bd
       0.058008634 -0.21152231 0.31852025 -0.12245169
000250 bc 39 7c 3f 80 95 3d bf b5 d9 fe 3e 3c 2e 22 3f
       0.98525596 -0.74056244 0.49775472 0.633518
000260 c1 5e e6 3e 68 29 56 be a5 d9 84 3e 2c b4 bb bd
       0.44994166 -0.20914233 0.259473 -0.091652244
000270 f0 ac 04 be 09 dd c0 3f 3a da b6 bf a9 a5 17 c0
       -0.12956595 1.5067455 -1.4285347 -2.369486
000280 31 48 7e 40 52 d2 8c 3f 0e 9d 2a be 26 26 a5 bd
       3.9731562 1.1001685 -0.16661474 -0.08063917
000290 1e 10 38 be 6e ce 14 be c0 6c 89 bc ae 54 1c 3e
       -0.17974898 -0.14531872 -0.016775489 0.15266678
0002a0 fb b2 97 be ac a9 a0 3e 8b 26 f2 bd 0d a7 cc bd
       -0.2962874 0.3137945 -0.11823758 -0.099928
0002b0 b0 37 54 3e 5f fc d3 3c 07 4d b5 be f6 5d e9 3f
       0.20724368 0.025877176 -0.3541033 1.82318
0002c0 42 a8 95 3f 92 a9 8f bf 3e 77 59 40 61 dd ea 3e
       1.1691973 -1.1223624 3.397903 0.45872024
0002d0 a2 9d ba be b1 74 d1 3e d3 aa 16 bf b6 32 ae 3e
       -0.3644839 0.4090934 -0.5885441 0.34023064
0002e0 12 c9 3a 3f 17 3c 8e 3e 39 4f 87 3f 36 0b 93 3f
       0.7296306 0.2778022 1.0571052 1.1487796
0002f0 6f 67 0f 3f 39 90 ab 3d 50 00 5b be 89 db 0e bf
       0.560172 0.08377118 -0.21386838 -0.55803734
000300 e3 15 ff be 5d e4 0a 3e b1 b6 4a bf 0a 28 e5 3f
       -0.49821386 0.13563676 -0.79185015 1.7902844
000310 0e 22 31 c0 c1 e7 65 3e 3f 28 89 bd bb e2 55 3d
       -2.7677035 0.22451688 -0.066971295 0.05221818
000320 4b 62 85 bf 8b b1 72 3e 5d 8c 14 3e ff 54 5a 3f
       -1.0420622 0.2370054 0.1450667 0.85285944
000330 fc 6b 03 40 6f c1 2a 40 e8 12 d6 bd fe 5a 22 3e
       2.0534658 2.6680562 -0.10452825 0.15855023
000340 b0 e2 27 3e 3b 00 62 be 78 02 5a be ab c9 fc bc
       0.16395068 -0.220704 -0.21290004 -0.030857882
000350 c0 4f b7 3d 46 27 df 3d 0e 0d 93 3e 9b 77 96 bd
       0.08950758 0.10896163 0.28720897 -0.07347032
000360 0d 5b ac be a1 24 6f be 92 d0 5e be 39 0c 5c be
       -0.33663216 -0.23353817 -0.21759251 -0.21489038
000370 52 b5 e1 3c 1e 0c 4a 3e 0b 9e a0 3c 97 8c 96 3e
       0.02755228 0.19731185 0.01960661 0.29404137
000380 66 30 9c bd bb 6f a2 be b6 e8 cf bd f0 d8 f4 bd
       -0.07626419 -0.3172587 -0.10151808 -0.1195544
000390 b6 be 67 bd bb f1 8d 3d 7f 18 81 3e eb 0a 2b be
       -0.05657836 0.06930872 0.25214002 -0.16703384
0003a0 a0 6c 6e 3e b6 7c 53 3d 6e d6 18 3d 52 c4 7f 3d
       0.23283625 0.051632605 0.03731387 0.062443085
0003b0 32 5f b2 be d3 c2 c3 be 8f b4 7d 3e 48 08 83 3e
       -0.34838253 -0.38234577 0.24775909 0.25592256
0003c0 6b 4a 98 bd 4e 80 47 be 70 74 90 be ec ab a3 be
       -0.07436069 -0.19482538 -0.28213835 -0.31967103
0003d0 f1 5e 90 be 50 c6 5f bf 26 7c 0c 3f c2 b7 21 3f
       -0.28197435 -0.87411976 0.54876935 0.6317102
0003e0 2b 05 52 3e 34 5d ed 3f ce bc 39 c0 90 84 bc be
       0.20509784 1.8544068 -2.9021487 -0.36819887
0003f0 8b 4b e1 be 5e 44 b9 be 8e 12 05 be d4 0f 17 bf
       -0.44002947 -0.36184973 -0.1299536 -0.59008527
