model_save/params_20240806_162900.pth (torch, 68674 bytes, 18 tensors)

fc1.weight f4 [300, 9]
00000000: 3257 a83e 886c 79be 9709 90be 6eaf 7fbe
00000010: 1ee9 0bbe d060 86be 4b26 2b3e 4c90 83be
00000020: 00cb 2a3c a2c6 46be 037b 693d 5b62 893b
00000030: d040 0cbd 8717 2d3d e424 1dbe ec8b 6a3c
00000040: 99a6 903e 5fea 90be 99a8 e6be 3b23 2cbe
00000050: 3b7c e5be 69c7 2d3e 9da8 05bf 91f9 90bf
00000060: 09ab 5f3f d45b d0bf ab79 8dbe 6616 00be
00000070: b343 663e b6a7 5ebe 6b2b c1bd f382 7e3e
00000080: 3382 333e 56f6 e8bd 6091 1cbd 100e e5bd
00000090: 7091 c4bd fadd dcbe 6a9c b7bd 7e66 1a3e
000000a0: f0b0 333d 3b10 f2bd 6c02 c63e 8cb9 bdbe
000000b0: 8759 47bc 5579 1d3e 602d 9fbb 0189 adbe
000000c0: 06f1 2cbe 6ce7 ba3d 7ce5 87be 1f88 53bd
000000d0: 71da 94be 2b56 103e e99f f63d 4062 883c
000000e0: 9438 653d bd87 6ebe b171 bd3d 4320 f5bc
000000f0: eed4 00be ca68 a3bb fb89 efbd b4b6 613e
00000100: fbd8 273e 02d3 b9be a142 a9be 179f 0bbe
00000110: 61ff 1dbf 78d3 63be 6813 7dbe 8ec0 bfbe
00000120: 6b13 063f 878d 8d3e 1651 26be 673e 11bf
00000130: 2843 adbe 499e 0940 8db4 7f40 859f ab40
00000140: b75c 94be f6d3 07bd 481b 973e 7685 733d
00000150: 369d 81be c028 30be 8b80 00bd 1692 c13c
00000160: 06d9 b0bd cb95 d2bd 6b3a 99bd 8e39 71be
00000170: d027 aebe 8ca4 c23e 331a 9b3e 15f7 2ebf
00000180: 792b e83e f8e7 f8bf 4856 77be b822 193d
00000190: fde9 aa3d 39a8 593e 8d32 9cbe 4ad6 6ebe
000001a0: d784 593e 06f2 643e 6fa3 b7bc a7a4 98bd
000001b0: 2b82 1c3c 8988 d9bd 3efa d2be a4e7 3cbf
000001c0: b58e d63e 50a2 213f 1bdd 443f 604d 633f
000001d0: 755b 05be 72e1 003e fc15 d1be 3c38 36bd
000001e0: b742 003e e0bf 793e 01aa 83be dbbd 913e
000001f0: edf7 583e 7fc3 98bd e04d 323d 9638 79bd
00000200: 509d 0ebe e017 48be 00c8 313e aba7 843c
00000210: 6bf5 95bd d6c0 a33e 8063 813d b8dd 6c39
00000220: dab6 b4be d431 38be ff0f 323e 2f35 133e
00000230: 217f 883e abfb 8abe fd66 a0bd 0e91 eb3d
00000240: 8a40 f3bc b702 94be 44b5 893d 2f54 71bd
00000250: 27f3 0fbe b0c6 b9bc b699 d0bd dce6 943d
00000260: 5cf3 2ebe 80c6 09bc 1032 a6bd 42ab 86be
00000270: 9b98 933d 4812 2ebe 53db 2e3e 26f2 12be
00000280: 0024 1e3c 6eb0 0ebe 33db 5dbe 1eab 9ebe
00000290: 207f 503d 96fc be3d e369 0d3e 56d9 4e3e
000002a0: 2be0 183d c683 ebbd 3e00 7fbe 8eb1 f7be
000002b0: 9bc2 163f e062 cf3d e8eb 55be d231 6340
000002c0: 7c27 32bf e57c 8e40 e57d d240 0341 94bd
000002d0: 83f9 acbd 10bd 50be fd86 333e e473 a33d
000002e0: 0e22 4abe e100 763d b741 733e 1465 a33e
000002f0: d21e 7cbe e58e 033e a97f e23e a867 99bf
00000300: c569 cc3e fa34 293e a2dd 0c3e 3da4 6240
00000310: 1944 ecbf 20b3 f6be ca5a 003d 66ee c6bc
00000320: 862d a5bd 8192 0ebe 1cc6 98be 2759 9a3e
00000330: c45a bbbd 42e7 4f3d 9c23 ac3d 7af4 7abe
00000340: f90e 6ebe d607 27bf e9a1 9a3e 0f28 973e
00000350: 59d8 51bf ca09 493e 92d2 1bc0 799d c0be
00000360: 635b 3fbd 73aa 3dbe 66d0 e9bd 46df afbe
00000370: a4c1 113f 4dd1 a63e ed54 1e3f 3804 483f
00000380: 17ef 9b3e 72dd 243d b935 9cbe fa08 36be
00000390: 0c9d 183e ad10 e6bb 6557 9abd e1f5 fe3d
000003a0: 53b2 a1be 11f0 bfbe 98ef 26be 77b3 dcbb
000003b0: 6869 6a3d 41b2 e8be eaa1 9abd 7b87 ae3e
000003c0: 2e49 f03e e036 dc3d dcd4 013f 673c 84be
000003d0: 601c 033e 82ce 903e 9c60 97be b305 83be
000003e0: 4b73 6e3e 2ec7 57be f679 80be 9eea 313e
000003f0: d94e adbe e12d 8cbe 96d6 583d b5d1 5e3e
0.32879025 -0.24357808 -0.28132316 -0.24969265 -0.13663146 -0.26245737 0.16713826 -0.25696027
0.0104243755 -0.1941171 0.05700208 0.004192633 -0.034241498 0.042258766 -0.15346104 0.014315587
0.28252104 -0.2830381 -0.45050505 -0.16810314 -0.44821343 0.169706 -0.5221041 -1.1326162
0.87370354 -1.6278024 -0.27631888 -0.12508544 0.22486763 -0.21743664 -0.094321094 0.2485464
0.17530136 -0.1137511 -0.038224578 -0.11184323 -0.095980525 -0.43138105 -0.089653805 0.1507816
0.043869913 -0.11819502 0.38673723 -0.37055624 -0.012167341 0.15378316 -0.004857704 -0.33893588
-0.16888818 0.091261715 -0.2654227 -0.051643487 -0.29072908 0.1409537 0.12042219 0.016648412
0.05596216 -0.23293968 0.092502005 -0.02992261 -0.12581226 -0.004986857 -0.116962396 0.22042352
0.16391365 -0.362938 -0.33058646 -0.13634907 -0.617178 -0.22248638 -0.24714434 -0.37451595
0.5237338 0.2764704 -0.1624187 -0.56735843 -0.338403 2.150286 3.995395 5.3632226
-0.28976986 -0.033161126 0.29513 0.05945345 -0.25315255 -0.17203045 -0.031372588 0.02362923
-0.08635144 -0.10282477 -0.074818455 -0.23557112 -0.3401475 0.38016164 0.30293426 -0.6834577
0.45345667 -1.9445791 -0.24154007 0.037386626 0.08345411 0.21255578 -0.30507317 -0.23323932
0.2124208 0.2235795 -0.022416798 -0.0745328 0.009552519 -0.10621745 -0.41206545 -0.73790956
0.41905752 0.63138294 0.7689988 0.8878994 -0.1302317 0.12586 -0.40837085 -0.044487223
0.1252545 0.24389601 -0.2571564 0.2846516 0.21188326 -0.07459163 0.0435313 -0.06084498
-0.13927197 -0.19540358 0.1736145 0.016193232 -0.073222004 0.3198306 0.06317806 0.0002258931
-0.35295755 -0.17987758 0.17388915 0.14375757 0.26659492 -0.27145132 -0.078321435 0.11502276
-0.02969386 -0.2890832 0.06724027 -0.058918174 -0.14057599 -0.02267775 -0.10185568 0.072705954
-0.17085022 -0.0084091425 -0.081150174 -0.26302534 0.072068416 -0.16999161 0.17075853 -0.14350185
0.009652138 -0.1393449 -0.21665649 -0.30989927 0.050902486 0.09325521 0.13809924 0.20200095
0.03732316 -0.11499743 -0.24902436 -0.4837765 0.58890694 0.10126281 -0.20890772 3.5499158
-0.695915 4.452746 6.577868 -0.072389625 -0.08446028 -0.20384622 0.17531963 0.07981089
-0.19739553 0.060059432 0.23755537 0.31913054 -0.24621132 0.12847479 0.44238022 -1.1984758
0.39924446 0.16524115 0.13756421 3.5412743 -1.8458282 -0.48183537 0.031336583 -0.0242836
-0.080653235 -0.13923074 -0.29838645 0.30146143 -0.091481715 0.050757654 0.084052294 -0.24507323
-0.23247899 -0.6524633 0.30201653 0.2952275 -0.81970745 0.1963264 -2.4347272 -0.37620142
-0.046718013 -0.18522052 -0.11416702 -0.34350032 0.569361 0.3258156 0.61848336 0.7813144
0.3045585 0.04025025 -0.30509737 -0.17776862 0.14903659 -0.007021031 -0.075362004 0.124492414
-0.31581363 -0.37487844 -0.16302335 -0.006735261 0.05722943 -0.45448497 -0.07550414 0.34087738
0.46930832 0.10752654 0.5071542 -0.25827333 0.12803793 0.28282553 -0.29565895 -0.25590286
0.23286168 -0.21072075 -0.2509305 0.17374656 -0.33849218 -0.27378753 0.05293902 0.21759684

fc1.bias f4 [300]
00000000: 932a 1b3e 995b af3c 881d c83d 5740 82be
00000010: ad24 5d3e 8ea7 b13c 638d 2fbe 94ec 673d
00000020: 49d7 a6ba f342 3fbe ebca 48bd 0d6e 5cbe
00000030: 64af 6c3d 2463 e3bd fb35 833d fbd7 0e3e
00000040: 4fca 3e3e 0b58 89be 9e14 5d3e 0bce b4be
00000050: fec3 09be 4ebe 6b3e 7c26 23be a9ea 303c
00000060: 66d7 8dbe 5ef7 e33d 5d07 05be 9e6c 8dbe
00000070: 21a5 a1bd 8980 8cbe cac6 8abe bf84 a8bd
00000080: 860e 3ebe 739e 11be a8b6 5bbe 54f0 9ebe
00000090: 9682 c2bd 377e 18bc 5d31 bfbe 48e2 6a3e
000000a0: beb8 5cbe 80e9 3dbd 0a36 68be 5a3d 82bd
000000b0: 2bc8 49be a956 33bd fbd5 37be 6bd1 5dbd
000000c0: 27fe a0be ab97 19bd 86b5 60be de93 5d3d
000000d0: b6a5 693e 409b fd3c 1429 b1be 5c24 033e
000000e0: 09df c8be 3465 363e a71e dabd 3881 183d
000000f0: 2d6b b73d a8ae b83d fb4a a53d 9b8e acbd
00000100: 6f68 e63d 0881 91be 3072 72be 1fde f1be
00000110: 2091 d7bd 96fb 56be 38ef 80be 0683 983d
00000120: b251 1c3e 2ec8 97be 04b7 5ebe d038 fcbd
00000130: fe44 bcbe d6ef 0abc 13d8 87be 16af c2bc
00000140: a324 063e ffee 5c3e 7fcc de3d 405e f3bc
00000150: 70e2 ea3d 8f93 03bf 2bd0 283d b0c4 56be
00000160: 08d3 9e3e 165a 32bd 9d86 e23e 0bf7 8abd
00000170: 892d 9ebd d001 9bbe 6b35 f3bc 4e4e 7abe
00000180: 5b44 583e c9ba 97bd 8b72 c5be 02c6 06be
00000190: 5333 92be f740 63bd a437 b7be fba3 803e
000001a0: a2b6 7f3e 1d9c e93d b50e 443e 364f 323e
000001b0: 1600 3f3e b67c 7dbe 480b 5dbe 610b d53d
000001c0: 5e7e dc3d 6541 1ebe 1b03 e93c cee7 bd3d
000001d0: 18a0 4ebe 9e8c 483e b67f 52be 802a 2a3c
000001e0: d61e 793e 9b8f 113e 28f8 8a3e 164e ad3a
000001f0: 86ce 003e b449 03be 93c6 90be 91cc 3fbe
00000200: 2294 89be e7fb 15bd b25d 33be b720 90be
00000210: 74a8 8fbe b821 24be 1337 60be 9519 4cbe
00000220: 7aa7 213e 9103 78be 10fd 06be 8f8b f73d
00000230: 764d c5bd af38 c5bc ded0 003d f241 a33e
00000240: 64ff f8be 3b3a 8ebd 0e27 67be 8bda 9dbe
00000250: 2715 84be 40a4 833d d612 99be eab3 2e3e
00000260: a6a9 cebd b633 5abd 2652 1cbe f151 0b3e
00000270: 95d5 5a3e 3cfa afbe 4be2 8cbe 8efd 243d
00000280: 1b8e 7dbe b958 6ebc 8bfb bdbd 569a 623c
00000290: d5d4 6b3e 3a39 fa3c fc2d 9abe 58d1 223d
000002a0: 87ec 3dbe 3265 57be ab4c 04be dea0 7fbe
000002b0: 150e a8bd ce8e 8bbe 603a e0bd ece3 6c3e
000002c0: 20d9 a73d c6b9 03be 3e51 46bd e6db 76be
000002d0: e812 493d 0b5e 39be e199 abbd 4297 a23e
000002e0: 5fce b43c f168 a63d ebbb 07be 2b5b b13c
000002f0: 7cf6 383d 2e48 0fbe 7a66 8fbe 0058 1f3c
00000300: 4bce d73d 0965 51be d685 2fbe 9302 183e
00000310: cecc 123e db31 de3d f293 1abe e468 fabd
00000320: 2686 dcbd 6f41 89be fbe9 7ebe 0d97 eebe
00000330: 9be1 f7bd dfcd ec3d 5cb2 d83d 93b6 36be
00000340: e337 a5be 1678 263e a7ec 97be abdf 83be
00000350: 2882 6fbe 22a8 e3bc 26e9 883e 55de dabd
00000360: bd71 cebe e6e5 a1be 2d44 923c ee01 613e
00000370: 4c32 353e 7b03 6cbd 84c6 98bc 0bd8 15be
00000380: cfb2 32be 1bdc 78be 6ac0 37be ce3e ab3e
00000390: ce7c 60be 4d6c ee3d 4de4 77bd b0d4 acbe
000003a0: 7092 71be a382 23be 7043 17be ab2c 2e3e
000003b0: a3d2 79be b32b 4fbe 8b63 dabd 3012 a3bd
000003c0: ab1a 44bb 82e1 6a3e fc66 ad3a 7cd7 91be
000003d0: 6cc0 b43d 2881 85be cbee c4bd 58c6 03bc
000003e0: b761 98be 2f6f a13d fd6d 2c3e 50ba d2bd
000003f0: 96fe 68bd 8a2c a2bd 9637 9abe 2b2c 85be
0.1515296 0.021405982 0.09771258 -0.25439712 0.21596022 0.021686342 -0.17143779 0.056622103
-0.0012728955 -0.18677883 -0.049021643 -0.21526356 0.057784453 -0.11102894 0.0640678 0.13949578
0.18631862 -0.26824984 0.21589896 -0.35313448 -0.13453671 0.23021814 -0.1593265 0.010798135
-0.27703398 0.11131166 -0.1299109 -0.2762193 -0.07892824 -0.27441815 -0.2710479 -0.08228444
-0.18560228 -0.142206 -0.21456397 -0.3104273 -0.094975635 -0.009307436 -0.3734235 0.22937882
-0.21554849 -0.04636526 -0.22676864 -0.06359358 -0.19705264 -0.043783817 -0.17952721 -0.054154795
-0.31443903 -0.037498157 -0.21944246 0.054096095 0.2281712 0.030957818 -0.34601653 0.12806839
-0.39232662 0.17812043 -0.10650378 0.037232608 0.08955989 0.09017688 0.08070942 -0.08425637
0.11250388 -0.28418756 -0.23676372 -0.47239777 -0.10525727 -0.2099441 -0.2518251 0.07446866
0.1526554 -0.29644912 -0.21749502 -0.123155236 -0.36771387 -0.008480033 -0.2653204 -0.023765128
0.13099913 0.21575545 0.10878848 -0.029708028 0.11468971 -0.5139703 0.04121415 -0.20973468
0.3102038 -0.043542944 0.44243327 -0.06785401 -0.07723529 -0.3027482 -0.029688558 -0.24443933
0.21119826 -0.07408673 -0.38563952 -0.13161471 -0.28554782 -0.055481877 -0.35784638 0.25125107
0.24972013 0.11406729 0.19146235 0.17413029 0.18652377 -0.24754605 -0.21586335 0.10402561
0.1076629 -0.15454634 0.028443864 0.09272729 -0.20178258 0.19584891 -0.2055653 0.010386109
0.24328169 0.14214937 0.27142453 0.0013222124 0.12578782 -0.12821084 -0.282765 -0.1873038
-0.2687083 -0.036617186 -0.1751621 -0.2814996 -0.28058207 -0.16028488 -0.21896009 -0.19931634
0.15786543 -0.2422011 -0.13182473 0.120871656 -0.09633915 -0.02407488 0.03144919 0.3188625
-0.48632348 -0.069447 -0.22573492 -0.30830798 -0.25797388 0.064278126 -0.29897183 0.1706082
-0.100909516 -0.05327197 -0.15265712 0.13605477 0.21370538 -0.343706 -0.27516398 0.04028087
-0.2476124 -0.01454752 -0.09276494 0.013830742 0.23030408 0.030544866 -0.30113208 0.039750427
-0.1854726 -0.21034697 -0.12919872 -0.2496371 -0.08205811 -0.2725739 -0.10948634 0.2313382
0.0819571 -0.12863836 -0.048417322 -0.24107322 0.049090296 -0.18102281 -0.083789594 0.31756026
0.022071062 0.08125485 -0.13255279 0.021649918 0.04515694 -0.13992378 -0.2800787 0.009725571
0.10537394 -0.20448698 -0.17140898 0.14844732 0.1433594 0.10849353 -0.15095499 -0.122270375
-0.10767774 -0.26807734 -0.24893944 -0.46599618 -0.12103578 0.11562704 0.10580894 -0.17843084
-0.322692 0.16256747 -0.2967274 -0.25756583 -0.23389494 -0.027790133 0.26740378 -0.10686938
-0.4032115 -0.3162071 0.017854774 0.21973392 0.17694968 -0.057620507 -0.018649347 -0.14633195
-0.17451023 -0.24302714 -0.17944494 0.33446354 -0.21922609 0.116417505 -0.06052046 -0.33756018
-0.23591018 -0.15967803 -0.14771819 0.17009227 -0.24396758 -0.20231514 -0.106635176 -0.07962453
-0.0029923122 0.22937587 0.0013229544 -0.28484714 0.08825764 -0.260751 -0.09615859 -0.008042894
-0.2976205 0.07882535 0.16838832 -0.102894425 -0.056883417 -0.079186514 -0.30120534 -0.2601026

fc2.weight f4 [2, 300]
00000000: b31f b33a d05e e6bc a15f b9bf 6051 d239
00000010: 8311 303c 28a9 363b abd4 983b 4c21 f63b
00000020: aa71 0d40 c4bc 243d 77b4 f7bf 68cd 58bd
00000030: a300 cc3e 95d5 09bd 89a0 d53c b829 3c3c
00000040: c4f1 ffbc cbd1 593d 8396 48bd 114f c1bf
00000050: 517e f23c 25ef 71c1 429b 0abd f89d 10c0
00000060: cfe9 67be 4549 a8bc a148 ccbd 51b2 443d
00000070: 257e 19ba 7a4e 20c1 b762 803c 322c 16bd
00000080: 5a6a ee3c 07c0 073c 6eb5 37c1 7a09 45bc
00000090: 321d a6bb 8a55 903b 05b3 eebc 98d3 603d
000000a0: a598 223d 487e db3c 7a0a 5d3e a2dd b8bd
000000b0: 4949 a0be c887 e43f 39e6 2a3d 8086 633d
000000c0: 18f1 a23b a0ad 82bd 46f9 f93a 6ed6 9ebc
000000d0: c0c2 65bd d456 bfbc ec0a 203d 061a 2cc0
000000e0: 5fff 11bc 3584 8ebf baa2 6f3d a658 d0bc
000000f0: 86fe c8ba ce1a 86bc 512b 103c 7ffa 2ac0
00000100: fb02 15bd b8cd 533d 1cd1 0ebd 60f5 8ec0
00000110: 9675 b5bc f4f7 44bc 1781 babd b60c 89bb
00000120: 0616 dbbc 1b03 42bd 7bce 0fbd 6213 39bd
00000130: 0bea 0ac1 c96f 693d 4daf 1e3d 1193 54bd
00000140: 01f9 4a3c 07f0 b4be 3a77 6fbd 8ba7 943c
00000150: 4945 6cc0 0c94 5f3f 0df0 a3bb 5bec 90bc
00000160: 65e9 65ba 0507 483c e714 883e 4769 0abd
00000170: de43 adbc ffd4 5dbd 8c6c 8f3c 84d7 66bd
00000180: 191e 1f3d 1449 753b 1aa9 9f3d dacd b63c
00000190: 2988 b53c 51a4 2b3d 0bdb a0bd 5d50 b0bd
000001a0: ea28 e1bc 5cd7 4ac0 355a 29be 5fce 5bbc
000001b0: 15a7 f1ba c122 6840 3cb8 4e3d ad59 9bc0
000001c0: fbd5 08bc 7e14 85bf 7db9 92bc 506d dbbd
000001d0: fd73 aabc 6ba0 04bd 67c8 a13d bdba 58bd
000001e0: 28a3 8bc0 3715 57bd bfd7 613f 5c6e 8abc
000001f0: 79c6 a9bd c536 04c1 b043 7bbc 0b7d b7bc
00000200: 3f93 7abd e46b ddbe 3ffd d33f ebb7 f3bc
00000210: e573 893c 50be 08bd 6f23 7f3c 5e99 913d
00000220: b755 5abc 1d9d a8ba 9024 513c dd75 4cbe
00000230: d7dc 3c3c e441 7c3d da00 803d 7164 08bc
00000240: 08f8 8dc1 c2e1 f93c e092 623e 24dd 5e3d
00000250: abc3 49bd 3a3d 363d 5b70 95bc 8e24 81bc
00000260: a40b 273a f0d9 b33c e9d7 06bd e838 2bbf
00000270: f3c3 0dbd 99bf 943c 8fb4 653a 783c 533b
00000280: 16ea 29be 5df5 c33c 0445 cdbd e06b 82bb
00000290: d999 c73c fbe7 a7bd 420e 4d3d 8fbc 8fbc
000002a0: 3fd9 b3bc dad6 74ba caab 81bf 4faf 173c
000002b0: 897f 1e3d 6caf 363c 25b9 1a3c ce46 25bd
000002c0: 0211 103c 269b 52bd 3cff 6e3d 9615 41bf
000002d0: 220c 6ebd 787e 363d 6b60 eabc b3d1 babf
000002e0: badd 3cc0 556d 35bd c084 303d 2a56 123d
000002f0: cf10 afbf 0d42 fdbc 90b7 3a3d 3b05 16bd
00000300: ce39 50bd 94e8 babf 3fb6 ccbd ce5a e93c
00000310: 1652 38bc bb82 f3bc c327 73bc e266 453a
00000320: 01c7 223c 8387 0bbd 05db 813c 0e7b 493d
00000330: 4ec3 e43f 8dd0 573d 4f8b a33e 1f5d 47bd
00000340: aaed 593d 2c7e debc fc07 e93a 8509 38bd
00000350: 3dfe 50bb 62ef 3e3f b764 ccbc 5f28 28bc
00000360: 8e75 c6c0 2c94 a8bf dd6a 7c3c 3b7f e13b
00000370: fe37 2dc0 c827 993b 6863 7ebc 40f1 28bc
00000380: c490 a1be 2d27 cebc 7ba5 27bc b4d0 ad3e
00000390: 2c2f 38bd d797 6b3d d5b2 493d e63a bbba
000003a0: c92e 11bd 1907 3a3c 3d01 f3bc 4320 153d
000003b0: aa18 5f3d a0ee 4d3d bdec fbbb 93b3 80bc
000003c0: fc90 c83c 1145 babb 2ca9 02bd 3c60 3f3d
000003d0: a163 e83c 1457 0f3d 548c 0bbd be3d 61c0
000003e0: 84bf 863d 8272 93bd eaaa 0d3c 1e2d 483d
000003f0: 29f5 193c 83be e8be 0693 1fbe 3079 03bd
0.0013666063 -0.028121382 -1.4482309 0.0004011495 0.010746363 0.002787182 0.004664024 0.0075112935
2.2100625 0.040219083 -1.9351948 -0.052930266 0.39844236 -0.033650953 0.026077526 0.011484556
-0.031243213 0.05317859 -0.048971664 -1.5102254 0.029601248 -15.120885 -0.03383947 -2.2596416
-0.22647785 -0.02054275 -0.0997479 0.04802162 -0.0005855284 -10.019159 0.01567207 -0.03666324
0.029103447 0.008285529 -11.481794 -0.012026185 -0.0050693983 0.0044047283 -0.029138098 0.05488929
0.039696354 0.026793614 0.21586028 -0.09026648 -0.31305912 1.7853937 0.041723464 0.05554819
0.0049725883 -0.063807726 0.0019071482 -0.019389357 -0.05609393 -0.023356833 0.039072916 -2.6890883
-0.008910983 -1.1134096 0.058504798 -0.025432896 -0.0015334643 -0.016370203 0.00879939 -2.671539
-0.036379796 0.05170986 -0.03486739 -4.467453 -0.022150796 -0.012022007 -0.09106653 -0.0041824235
-0.0267439 -0.047366243 -0.035109024 -0.0451845 -8.682139 0.056991372 0.0387414 -0.051898066
0.012388469 -0.35339376 -0.058463313 0.018146297 -3.6917288 0.87335277 -0.0050029815 -0.017690828
-0.0008770435 0.012208705 0.26578447 -0.033791807 -0.021150526 -0.054158207 0.017507814 -0.056357875
0.038847063 0.003742759 0.077959254 0.022314955 0.022159653 0.04190475 -0.07854279 -0.08609078
-0.02748533 -3.1693945 -0.16538318 -0.013415902 -0.0018436635 3.6271212 0.05046867 -4.8546968
-0.008351798 -1.0396879 -0.017910713 -0.10714209 -0.02080726 -0.03237955 0.07899552 -0.052912463
-4.3636665 -0.052510466 0.8821983 -0.016898327 -0.08289809 -8.263371 -0.015335962 -0.022398492
-0.06117558 -0.43246377 1.656166 -0.029750785 0.016778896 -0.03338462 0.015572413 0.071093306
-0.0133261 -0.0012864206 0.012765065 -0.19966836 0.011527262 0.061586276 0.062501624 -0.008324728
-17.746109 0.030503158 0.22126341 0.054410115 -0.04925887 0.044491984 -0.018242052 -0.015764501
0.0006372279 0.021954507 -0.03292075 -0.6688371 -0.0346107 0.018157767 0.0008762562 0.0032232087
-0.16593203 0.02392071 -0.10022929 -0.003980145 0.024365352 -0.08198544 0.050062425 -0.017545966
-0.021954177 -0.00093398767 -1.0130551 0.009258105 0.038695846 0.011150222 0.009443556 -0.040350728
0.0087931175 -0.051417492 0.05834888 -0.7542356 -0.05811704 0.044554204 -0.028610429 -1.4595245
-2.951033 -0.04429372 0.04309535 0.035726704 -1.3677005 -0.030915285 0.045585215 -0.036626082
-0.050836377 -1.4602227 -0.09995698 0.028485682 -0.01125004 -0.029725423 -0.014841023 0.00075302843
0.009935142 -0.03406478 0.015851507 0.04918962 1.7872102 0.052689124 0.31942222 -0.04867279
0.05320517 -0.027159773 0.0017778869 -0.044930954 -0.003188982 0.7458402 -0.024950368 -0.0102635315
-6.20185 -1.3170218 0.015406338 0.006881622 -2.7065425 0.0046739317 -0.01552663 -0.010311425
-0.3155576 -0.025165165 -0.010232325 0.3394829 -0.04496686 0.057517853 0.049242813 -0.0014284521
-0.03544501 0.011354231 -0.029663676 0.03640772 0.05446688 0.0502764 -0.0076881335 -0.015710628
0.024483196 -0.005684503 -0.031899616 0.046722636 0.02836782 0.034995154 -0.034069374 -3.5193934
0.065794975 -0.07199575 0.008646706 0.048871152 0.00939683 -0.4545785 -0.15583429 -0.032097995

fc2.bias f4 [2]
00000000: 3fd1 a1bd 3cd8 a53e
-0.07901239 0.32391536

fc1.weight f4 [300, 9]
00000000: 3257 a83e 886c 79be 9709 90be 6eaf 7fbe
00000010: 1ee9 0bbe d060 86be 4d26 2b3e 4f90 83be
00000020: 00cb 2a3c 93c6 46be 587b 693d 8a62 893b
00000030: 8740 0cbd f417 2d3d c024 1dbe 9d8b 6a3c
00000040: b3a6 903e 48ea 90be 4da8 e6be 0923 2cbe
00000050: e97b e5be bcc7 2d3e a3a8 05bf e7f9 90bf
00000060: 3bab 5f3f 175c d0bf 6b79 8dbe 6616 00be
00000070: b343 663e b6a7 5ebe 6b2b c1bd f382 7e3e
00000080: 3382 333e 56f6 e8bd 6091 1cbd 100e e5bd
00000090: 5791 c4bd a8dd dcbe 269c b7bd cb66 1a3e
000000a0: a2b0 333d 3a10 f2bd 1702 c63e 62b9 bdbe
000000b0: 7359 47bc 8379 1d3e 102d 9fbb d988 adbe
000000c0: e5f0 2cbe 81e7 ba3d aee5 87be d087 53bd
000000d0: 18da 94be 3b56 103e 31a0 f63d 4a62 883c
000000e0: b838 653d 8987 6ebe 8271 bd3d 3620 f5bc
000000f0: 2fd5 00be a968 a3bb bd89 efbd 10b7 613e
00000100: 60d9 273e f2d2 b9be 5142 a9be cf9e 0bbe
00000110: 7fff 1dbf 4dd3 63be 5e13 7dbe 86c0 bfbe
00000120: f49b 063f 44e8 8e3e 21f3 24be 6cac 10bf
00000130: 6a07 b0be 396a 0940 acb8 7f40 5575 ab40
00000140: f2f5 90be f6d3 07bd 481b 973e 7685 733d
00000150: 369d 81be c028 30be 8b80 00bd 1692 c13c
00000160: 06d9 b0bd cb95 d2bd f035 87bd 07c6 68be
00000170: ebd8 a8be a962 c63e 2881 9e3e 44df 32bf
00000180: 934d e83e 31fa f9bf 3a56 77be f722 193d
00000190: 24ea aa3d 8fa8 593e 9032 9cbe 70d6 6ebe
000001a0: 0385 593e 05f2 643e 2ea3 b7bc cba4 98bd
000001b0: 3f82 1c3c 8888 d9bd 04fa d2be 9ee7 3cbf
000001c0: cf8e d63e 5ca2 213f 82dd 443f b44d 633f
000001d0: ae5b 05be afe1 003e 0816 d1be e637 36bd
000001e0: e542 003e 31c0 793e b3a9 83be ffbd 913e
000001f0: fff7 583e 44c3 98bd e04d 323d 9638 79bd
00000200: 509d 0ebe e017 48be 00c8 313e aba7 843c
00000210: 6bf5 95bd d6c0 a33e 8063 813d 24de 6c39
00000220: beb6 b4be c231 38be 3910 323e 0035 133e
00000230: 327f 883e 87fb 8abe bd66 a0bd 5491 eb3d
00000240: 8640 f3bc 7802 94be 5ab5 893d f253 71bd
00000250: 03f3 0fbe 72c6 b9bc cf99 d0bd fbe6 943d
00000260: 59f3 2ebe 80c6 09bc 1032 a6bd 42ab 86be
00000270: 9c98 933d 4812 2ebe 53db 2e3e 26f2 12be
00000280: 0024 1e3c 6eb0 0ebe 33db 5dbe 1eab 9ebe
00000290: 207f 503d 96fc be3d e369 0d3e 5fd9 4e3e
000002a0: 2ce0 183d c683 ebbd 3e00 7fbe a51e f7be
000002b0: 216d 163f 2888 d23d e7da 56be ce79 6340
000002c0: 529c 31bf 6d92 8e40 c57c d240 cf8b afbd
000002d0: 7df9 acbd f8bc 50be 3987 333e fc73 a33d
000002e0: f321 4abe 3501 763d 1542 733e 2465 a33e
000002f0: d61e 7cbe 348c fd3d db84 e03e 05b4 99bf
00000300: f98f ca3e bbff 353e aed2 073e 74a6 6240
00000310: ad63 edbf 94b1 f6be 1c5b 003d 6bee c6bc
00000320: 652d a5bd 4792 0ebe 63c6 98be 8359 9a3e
00000330: 215b bbbd aee7 4f3d d023 ac3d 66f4 7abe
00000340: d50e 6ebe 9d07 27bf 2ba2 9a3e 5328 973e
00000350: 8fd8 51bf de09 493e dbd2 1bc0 3b9d c0be
00000360: 5a5b 3fbd 26aa 3dbe 1dd0 e9bd 49df afbe
00000370: e7c1 113f b4d1 a63e 0b55 1e3f 8a04 483f
00000380: 5fef 9b3e b4dd 243d b035 9cbe a208 36be
00000390: 5f9d 183e 5910 e6bb 2c57 9abd 2df6 fe3d
000003a0: fdb1 a1be caef bfbe 65ef 26be 78b3 dcbb
000003b0: a069 6a3d 2db2 e8be c8a1 9abd 8887 ae3e
000003c0: 8949 f03e 3f37 dc3d f2d4 013f 673c 84be
000003d0: 601c 033e 82ce 903e 9c60 97be b305 83be
000003e0: 4b73 6e3e 2ec7 57be f679 80be 9eea 313e
000003f0: a54e adbe c72d 8cbe cbd6 583d 0bd2 5e3e
0.32879025 -0.24357808 -0.28132316 -0.24969265 -0.13663146 -0.26245737 0.1671383 -0.25696036
0.0104243755 -0.19411688 0.057002395 0.004192655 -0.034241226 0.04225917 -0.1534605 0.014315513
0.2825218 -0.28303742 -0.45050278 -0.1681024 -0.44821098 0.16970724 -0.52210444 -1.1326264
0.8737065 -1.6278104 -0.27631697 -0.12508544 0.22486763 -0.21743664 -0.094321094 0.2485464
0.17530136 -0.1137511 -0.038224578 -0.11184323 -0.09598034 -0.4313786 -0.0896533 0.15078275
0.043869622 -0.11819501 0.3867347 -0.37055498 -0.012167322 0.15378384 -0.004857667 -0.3389347
-0.16888769 0.09126187 -0.2654242 -0.051643193 -0.29072642 0.14095394 0.12042273 0.01664843
0.055962294 -0.2329389 0.092501655 -0.029922586 -0.12581323 -0.0049868417 -0.11696193 0.22042489
0.16391516 -0.3629375 -0.33058408 -0.136348 -0.6171798 -0.22248574 -0.24714419 -0.3745157
0.52581716 0.2791158 -0.16108371 -0.56513095 -0.34380656 2.1471083 3.9956465 5.3580728
-0.2831264 -0.033161126 0.29513 0.05945345 -0.25315255 -0.17203045 -0.031372588 0.02362923
-0.08635144 -0.10282477 -0.06602085 -0.22731791 -0.32977995 0.38747147 0.30957913 -0.69871926
0.45371684 -1.9529477 -0.24153987 0.03738686 0.0834544 0.21255706 -0.30507326 -0.23323989
0.21242146 0.22357948 -0.022416677 -0.07453307 0.009552537 -0.106217444 -0.41206372 -0.7379092
0.4190583 0.63138366 0.76900494 0.8879044 -0.13023254 0.12586091 -0.4083712 -0.044486903
0.12525518 0.24389721 -0.25715408 0.28465268 0.21188353 -0.07459119 0.0435313 -0.06084498
-0.13927197 -0.19540358 0.1736145 0.016193232 -0.073222004 0.3198306 0.06317806 0.00022589468
-0.3529567 -0.17987731 0.17389001 0.14375687 0.26659542 -0.27145025 -0.07832096 0.115023285
-0.029693853 -0.28908134 0.06724043 -0.058917947 -0.14057545 -0.022677634 -0.10185587 0.072706185
-0.17085017 -0.0084091425 -0.081150174 -0.26302534 0.07206842 -0.16999161 0.17075853 -0.14350185
0.009652138 -0.1393449 -0.21665649 -0.30989927 0.050902486 0.09325521 0.13809924 0.20200108
0.037323162 -0.11499743 -0.24902436 -0.48265567 0.5876027 0.10279876 -0.20981942 3.5543094
-0.6937915 4.4553742 6.5777307 -0.08571588 -0.084460236 -0.20384586 0.17532052 0.07981107
-0.19739513 0.060059745 0.23755677 0.31913102 -0.24621138 0.12380257 0.4385136 -1.2008063
0.39562967 0.17773335 0.13263962 3.5414095 -1.8546044 -0.48182356 0.03133689 -0.024283608
-0.08065299 -0.13922988 -0.29838857 0.30146417 -0.09148241 0.050758056 0.08405268 -0.24507293
-0.23247845 -0.6524599 0.3020185 0.29522952 -0.8197107 0.1963267 -2.4347446 -0.37619957
-0.04671798 -0.18521938 -0.114166476 -0.3435004 0.56936496 0.32581866 0.61848515 0.78131926
0.30456063 0.040250495 -0.3050971 -0.1777673 0.14903782 -0.0070209918 -0.07536158 0.12449298
-0.31581107 -0.37487632 -0.1630226 -0.0067352615 0.057229638 -0.45448437 -0.075503886 0.34087777
0.46931103 0.10752725 0.50715554 -0.25827333 0.12803793 0.28282553 -0.29565895 -0.25590286
0.23286168 -0.21072075 -0.2509305 0.17374656 -0.33849064 -0.27378675 0.052939218 0.21759813

fc1.bias f4 [300]
00000000: 932a 1b3e a45b af3c ee1d c83d 5f40 82be
00000010: bf24 5d3e eda7 b13c 418d 2fbe e8ec 673d
00000020: 1658 f63a f342 3fbe f4b3 28bd f06d 5cbe
00000030: a8af 6c3d 3163 e3bd fb35 833d 32d8 0e3e
00000040: 6dca 3e3e 0b58 89be 9e14 5d3e a0c9 b4be
00000050: cfc3 09be 0e4c 673e 4126 23be ddea 303c
00000060: 2bd7 8dbe a0f7 e33d 4f07 05be 9e6c 8dbe
00000070: 19a5 a1bd e964 89be cbc6 8abe 7984 a8bd
00000080: 8a0e 3ebe 5c9e 11be 58b6 5bbe 54f0 9ebe
00000090: 9682 c2bd 207e 18bc 2a31 bfbe 55e2 6a3e
000000a0: beb8 5cbe 6ee9 3dbd f535 68be 3f3d 82bd
000000b0: 1bc8 49be 6656 33bd f6d5 37be 6bd1 5dbd
000000c0: 27fe a0be 715d 18bd 86b5 60be 1394 5d3d
000000d0: b6a5 693e 4e9b fd3c fa28 b1be 7e24 033e
000000e0: e7de c8be 3665 363e 881e dabd a381 183d
000000f0: 516b b73d c1ae b83d fb4a a53d 8b93 c0bd
00000100: a068 e63d 1081 91be 3072 72be d6dd f1be
00000110: 2091 d7bd 96fb 56be f8ee 80be 0683 983d
00000120: cf51 1c3e 2ec8 97be b4b6 5ebe d038 fcbd
00000130: e8a1 bcbe d6ef 0abc 03d8 87be 16af c2bc
00000140: a324 063e f02e 5d3e 93cc de3d 365e f3bc
00000150: b8e2 ea3d 695e 03bf 2bd0 283d b8c4 56be
00000160: 08d3 9e3e 0e5a 32bd 97d1 e13e 0bf7 8abd
00000170: 342d 9ebd d001 9bbe 6b35 f3bc 4e4e 7abe
00000180: b344 583e d0ba 97bd 5772 c5be cbc5 06be
00000190: 3033 92be d140 63bd 5e37 b7be 29a4 803e
000001a0: c1b6 7f3e 8c9c e93d de0e 443e 814f 323e
000001b0: 1600 3f3e ec2b 80be 480b 5dbe e308 ce3d
000001c0: bb7e dc3d 2041 1ebe 6c03 e93c dde7 bd3d
000001d0: 18a0 4ebe 9e8c 483e c07f 52be 802a 2a3c
000001e0: aaea 6e3e 9b8f 113e cbce 8b3e 404e ad3a
000001f0: bdce 003e f418 04be 93c6 90be 3ecc 3fbe
00000200: 2794 89be f0fb 15bd 6061 2fbe b820 90be
00000210: 74a8 8fbe b821 24be 1537 60be 7719 4cbe
00000220: d4a7 213e 4603 78be dffc 06be bd8b f73d
00000230: 764d c5bd 8738 c5bc 15d1 003d f241 a33e
00000240: edd1 f9be 3b3a 8ebd dd26 67be 8bda 9dbe
00000250: 2715 84be 40a4 833d d612 99be 10b4 2e3e
00000260: a6a9 cebd b633 5abd 2652 1cbe 9bfe 063e
00000270: bbd5 5a3e 3dfa afbe 3fe2 8cbe bcfd 243d
00000280: 068e 7dbe a958 6ebc 66fb bdbd 569a 623c
00000290: e8d4 6b3e ac39 fa3c fc2d 9abe 7cd1 223d
000002a0: 8eec 3dbe e064 57be 974c 04be e2a0 7fbe
000002b0: 1d0e a8bd ce8e 8bbe 603a e0bd 00e4 6c3e
000002c0: 60d9 a73d c6b9 03be ff50 46bd 92db 76be
000002d0: 3e13 493d 0b5e 39be 8999 abbd eb02 a23e
000002e0: 91ce b43c 0469 a63d ebbb 07be 2b5b b13c
000002f0: a1f6 383d 2e48 0fbe 7a66 8fbe 0858 1f3c
00000300: 4cce d73d f064 51be d585 2fbe 9302 183e
00000310: 17cd 123e e431 de3d b893 1abe f268 fabd
00000320: 2886 dcbd 5741 89be fbe9 7ebe 5370 efbe
00000330: 86a2 f5bd 20ce ec3d 666e d43d 93b6 36be
00000340: e337 a5be 1678 263e a7ec 97be abdf 83be
00000350: 2882 6fbe f1a7 e3bc 72e9 883e 54de dabd
00000360: 7771 cebe 3857 a1be 5f44 923c ee01 613e
00000370: 9132 353e 6503 6cbd 64c6 98bc 0bd8 15be
00000380: bab2 32be 12dc 78be 16c0 37be e16b ab3e
00000390: ce7c 60be 946c ee3d 06e4 77bd 61d4 acbe
000003a0: 7292 71be 7182 23be 4843 17be e82c 2e3e
000003b0: 8ed2 79be b32b 4fbe 8b63 dabd 3012 a3bd
000003c0: ab1a 44bb f0e1 6a3e 4067 ad3a 7cd7 91be
000003d0: 81c0 b43d 2f81 85be cbee c4bd 37c6 03bc
000003e0: 9c61 98be 946f a13d 086e 2c3e 58ba d2bd
000003f0: 96fe 68bd 412c a2bd 8837 9abe 072c 85be
0.1515296 0.021406002 0.09771334 -0.25439736 0.21596049 0.021686519 -0.17143728 0.056622416
0.0018794562 -0.18677883 -0.04118724 -0.21526313 0.057784706 -0.11102904 0.0640678 0.1394966
0.18631907 -0.26824984 0.21589896 -0.35310078 -0.13453601 0.22587606 -0.15932561 0.010798183
-0.27703223 0.11131215 -0.1299107 -0.2762193 -0.07892818 -0.268348 -0.27104792 -0.08228392
-0.18560234 -0.14220566 -0.21456277 -0.3104273 -0.094975635 -0.009307414 -0.37342197 0.22937901
-0.21554849 -0.046365194 -0.22676833 -0.06359338 -0.1970524 -0.043783568 -0.17952713 -0.054154795
-0.31443903 -0.037198488 -0.21944246 0.054096293 0.2281712 0.030957844 -0.34601575 0.1280689
-0.3923256 0.17812046 -0.106503546 0.037233006 0.08956016 0.09017707 0.08070942 -0.094031416
0.112504244 -0.2841878 -0.23676372 -0.4723956 -0.10525727 -0.2099441 -0.2518232 0.07446866
0.15265583 -0.29644912 -0.21749383 -0.123155236 -0.36842275 -0.008480033 -0.2653199 -0.023765128
0.13099913 0.21599936 0.10878863 -0.02970801 0.114690244 -0.51315933 0.04121415 -0.2097348
0.3102038 -0.043542914 0.44105217 -0.06785401 -0.077234656 -0.3027482 -0.029688558 -0.24443933
0.21119957 -0.074086785 -0.38563797 -0.1316139 -0.28554678 -0.055481736 -0.3578443 0.25125244
0.24972059 0.11406812 0.19146296 0.17413141 0.18652377 -0.2503351 -0.21586335 0.10060289
0.107663594 -0.1545453 0.028444014 0.0927274 -0.20178258 0.19584891 -0.20556545 0.010386109
0.23331705 0.14214937 0.27306208 0.0013222173 0.12578864 -0.12900144 -0.282765 -0.18730256
-0.26870844 -0.03661722 -0.1712699 -0.28149962 -0.28058207 -0.16028488 -0.21896012 -0.19931589
0.15786678 -0.24219999 -0.131824 0.120872 -0.09633915 -0.024074806 0.031449396 0.3188625
-0.48792973 -0.069447 -0.22573419 -0.30830798 -0.25797388 0.064278126 -0.29897183 0.17060876
-0.100909516 -0.05327197 -0.15265712 0.13183062 0.21370594 -0.34370604 -0.27516362 0.040281042
-0.24761209 -0.014547505 -0.09276466 0.013830742 0.23030436 0.030545078 -0.30113208 0.03975056
-0.1854727 -0.21034575 -0.12919842 -0.24963716 -0.08205817 -0.2725739 -0.10948634 0.2313385
0.08195758 -0.12863836 -0.048417088 -0.24107197 0.049090616 -0.18102281 -0.08378894 0.3164285
0.022071155 0.08125499 -0.13255279 0.021649918 0.04515708 -0.13992378 -0.2800787 0.009725578
0.10537395 -0.20448661 -0.17140897 0.14844732 0.14336048 0.1084936 -0.15095413 -0.12227048
-0.10767776 -0.26807663 -0.24893944 -0.46765384 -0.119938895 0.11562753 0.10372619 -0.17843084
-0.322692 0.16256747 -0.2967274 -0.25756583 -0.23389494 -0.027790042 0.26740605 -0.10686937
-0.40320942 -0.31511855 0.017854868 0.21973392 0.17695071 -0.057620425 -0.018649288 -0.14633195
-0.17450991 -0.243027 -0.17944369 0.33480743 -0.21922609 0.116418034 -0.060520194 -0.33755782
-0.2359102 -0.15967728 -0.1477176 0.17009318 -0.24396726 -0.20231514 -0.106635176 -0.07962453
-0.0029923122 0.22937751 0.0013229623 -0.28484714 0.0882578 -0.26075122 -0.09615859 -0.008042864
-0.2976197 0.0788261 0.16838849 -0.102894485 -0.056883417 -0.07918597 -0.30120492 -0.26010153

fc2.weight f4 [2, 300]
00000000: b61f b33a 405f e6bc b55f b9bf 6051 d239
00000010: 4a11 303c 2ea9 363b d7d4 983b a121 f63b
00000020: 69c2 0d40 c4bc 243d 3738 f7bf cfcd 58bd
00000030: 7700 cc3e c6d5 09bd 89a0 d53c c529 3c3c
00000040: 21f2 ffbc cbd1 593d 8396 48bd 83eb c1bf
00000050: 617e f23c bcc3 71c1 0b9b 0abd 1b9e 10c0
00000060: c9e9 67be 1949 a8bc ba48 ccbd 51b2 443d
00000070: 5f7e 19ba 245b 20c1 ed62 803c 5f2c 16bd
00000080: 5a6a ee3c cbbf 073c 26b5 37c1 7a09 45bc
00000090: 321d a6bb 7455 903b e5b2 eebc 98d3 603d
000000a0: a598 223d 187e db3c 930a 5d3e 05de b8bd
000000b0: 7049 a0be 2888 e43f a0e6 2a3d 8086 633d
000000c0: 21f1 a23b ff4e 80bd 46f9 f93a 58d6 9ebc
000000d0: c0c2 65bd d456 bfbc 540b 203d 0d1a 2cc0
000000e0: 9fff 11bc 3784 8ebf bda2 6f3d f758 d0bc
000000f0: eefe c8ba 161b 86bc 512b 103c 8b4e 2ac0
00000100: b802 15bd bccd 533d 1cd1 0ebd 1bf5 8ec0
00000110: 9675 b5bc f4f7 44bc c680 babd b60c 89bb
00000120: cc15 dbbc 1b03 42bd 4bce 0fbd 6213 39bd
00000130: 45ad 0ac1 c96f 693d 48af 1e3d 1193 54bd
00000140: 01f9 4a3c d74d b2be 6077 6fbd b3a7 943c
00000150: 6845 6cc0 e43c 603f 0df0 a3bb 5bec 90bc
00000160: 65e9 65ba e306 483c b0cd 883e 4769 0abd
00000170: 1844 adbc ffd4 5dbd 8c6c 8f3c 91d7 66bd
00000180: 371e 1f3d d648 753b 47a9 9f3d 48ce b63c
00000190: 8188 b53c 15a4 2b3d c1da a0bd 9150 b0bd
000001a0: e128 e1bc 96d7 4ac0 885a 29be 8fce 5bbc
000001b0: 15a7 f1ba 1d12 6840 3cb8 4e3d c359 9bc0
000001c0: 4ed6 08bc 3314 85bf 8fb9 92bc af6d dbbd
000001d0: fd73 aabc 6ba0 04bd a4c8 a13d bdba 58bd
000001e0: 9451 8bc0 3715 57bd 33ec 613f 1f6e 8abc
000001f0: 59c6 a9bd 9b3d 04c1 b243 7bbc 497d b7bc
00000200: 2293 7abd 3b6c ddbe e5fc d43f ebb7 f3bc
00000210: e573 893c 50be 08bd 7023 7f3c ab99 913d
00000220: 9c55 5abc 789d a8ba df24 513c 0a76 4cbe
00000230: d7dc 3c3c 9a41 7c3d b000 803d 7164 08bc
00000240: 15ec 8dc1 cae1 f93c fc92 623e 24dd 5e3d
00000250: abc3 49bd 3a3d 363d 5b70 95bc df24 81bc
00000260: a40b 273a f0d9 b33c e9d7 06bd 4be5 2abf
00000270: a3c3 0dbd ebbf 943c 8db4 653a cf3c 533b
00000280: e5e9 29be 17f5 c33c af44 cdbd e06b 82bb
00000290: e699 c73c 38e8 a7bd 420e 4d3d b6bc 8fbc
000002a0: a5d9 b3bc 29d7 74ba eeab 81bf 4faf 173c
000002b0: 3c7f 1e3d 6eaf 363c 25b9 1a3c 2c47 25bd
000002c0: b410 103c 269b 52bd 11ff 6e3d ee15 41bf
000002d0: 7c0c 6ebd 787e 363d a460 eabc 1014 bcbf
000002e0: d9dd 3cc0 8d6d 35bd c084 303d 2a56 123d
000002f0: 0811 afbf 0d42 fdbc 90b7 3a3d 3b05 16bd
00000300: ce39 50bd ade8 babf 1bb6 ccbd ce5a e93c
00000310: 2d52 38bc bb82 f3bc 8627 73bc 0267 453a
00000320: 01c7 223c c287 0bbd 05db 813c 3ce9 693d
00000330: 6900 e63f afd0 573d 30eb 9e3e 1f5d 47bd
00000340: b4ed 593d 2c7e debc fc07 e93a 8609 38bd
00000350: 3dfe 50bb 26ef 3e3f 7764 ccbc ac28 28bc
00000360: b675 c6c0 99c7 a9bf 9e6a 7c3c 3b7f e13b
00000370: 6038 2dc0 0b28 993b b163 7ebc 40f1 28bc
00000380: c990 a1be db26 cebc d0a5 27bc 936a aa3e
00000390: 2c2f 38bd f897 6b3d 02b3 493d 193b bbba
000003a0: c92e 11bd 4907 3a3c 3e01 f3bc 6720 153d
000003b0: bf18 5f3d a0ee 4d3d bdec fbbb 93b3 80bc
000003c0: fc90 c83c 6545 babb 72a9 02bd 3c60 3f3d
000003d0: 0c64 e83c 1457 0f3d 548c 0bbd f83d 61c0
000003e0: eebf 863d 5472 93bd a3aa 0d3c 1e2d 483d
000003f0: 29f5 193c acbe e8be 6793 1fbe df78 03bd
0.0013666067 -0.02812159 -1.4482332 0.0004011495 0.0107463095 0.0027871835 0.0046640444 0.007511333
2.2149909 0.040219083 -1.931403 -0.05293065 0.39844105 -0.033651136 0.026077526 0.011484568
-0.031243386 0.05317859 -0.048971664 -1.5149997 0.029601278 -15.110287 -0.033839267 -2.25965
-0.22647776 -0.020542668 -0.09974809 0.04802162 -0.00058553176 -10.022251 0.015672171 -0.03666341
0.029103447 0.008285473 -11.481726 -0.012026185 -0.0050693983 0.004404718 -0.029138038 0.05488929
0.039696354 0.026793525 0.21586065 -0.09026722 -0.31306028 1.7854052 0.041723847 0.05554819
0.0049725925 -0.06265067 0.0019071482 -0.019389316 -0.05609393 -0.023356833 0.039073303 -2.68909
-0.0089110425 -1.1134099 0.05850481 -0.025433047 -0.0015334764 -0.016370337 0.00879939 -2.661044
-0.036379546 0.051709875 -0.03486739 -4.46742 -0.022150796 -0.012022007 -0.09106593 -0.0041824235
-0.026743792 -0.047366243 -0.035108846 -0.0451845 -8.667302 0.056991372 0.03874138 -0.051898066
0.012388469 -0.34825012 -0.058463454 0.018146371 -3.6917362 0.8759291 -0.0050029815 -0.017690828
-0.0008770435 0.012208673 0.26719427 -0.033791807 -0.021150634 -0.054158207 0.017507814 -0.056357924
0.038847174 0.0037427447 0.07795959 0.02231516 0.022159817 0.041904528 -0.07854224 -0.08609117
-0.027485313 -3.1694083 -0.16538441 -0.013415947 -0.0018436635 3.6261055 0.05046867 -4.8547072
-0.0083518755 -1.0396789 -0.017910747 -0.1071428 -0.02080726 -0.03237955 0.07899597 -0.052912463
-4.3537083 -0.052510466 0.88251036 -0.016898213 -0.08289785 -8.26504 -0.015335964 -0.022398608
-0.061175473 -0.43246636 1.6639677 -0.029750785 0.016778896 -0.03338462 0.015572414 0.07109388
-0.013326075 -0.0012864312 0.012765138 -0.19966903 0.011527262 0.061586 0.06250131 -0.008324728
-17.740274 0.030503172 0.22126383 0.054410115 -0.04925887 0.044491984 -0.018242052 -0.015764652
0.0006372279 0.021954507 -0.03292075 -0.66756123 -0.0346104 0.01815792 0.0008762561 0.003223229
-0.1659313 0.023920579 -0.10022866 -0.003980145 0.024365377 -0.08198589 0.050062425 -0.01754604
-0.021954367 -0.00093399227 -1.0130594 0.009258105 0.03869556 0.011150224 0.009443556 -0.040351078
0.008793045 -0.051417492 0.05834872 -0.7542409 -0.058117375 0.044554204 -0.028610535 -1.4693623
-2.9510405 -0.04429393 0.04309535 0.035726704 -1.3677073 -0.030915285 0.045585215 -0.036626082
-0.050836377 -1.4602257 -0.09995671 0.028485682 -0.011250061 -0.029725423 -0.014840966 0.0007530303
0.009935142 -0.034065016 0.015851507 0.057107195 1.7968875 0.05268925 0.3103881 -0.04867279
0.053205207 -0.027159773 0.0017778869 -0.044930957 -0.003188982 0.7458366 -0.02495025 -0.010263603
-6.201869 -1.3264037 0.015406279 0.006881622 -2.7065659 0.004673963 -0.015526698 -0.010311425
-0.31555775 -0.025165012 -0.010232404 0.33284435 -0.04496686 0.057517976 0.04924298 -0.001428458
-0.03544501 0.011354276 -0.029663678 0.036407854 0.05446696 0.0502764 -0.0076881335 -0.015710628
0.024483196 -0.005684542 -0.031899877 0.046722636 0.028368019 0.034995154 -0.034069374 -3.5194073
0.065795764 -0.07199541 0.00864664 0.048871152 0.00939683 -0.4545797 -0.15583573 -0.032097694

fc2.bias f4 [2]
00000000: 3f20 9fbd 829a a53e
-0.07769822 0.32344443

fc1.weight f4 [300, 9]
00000000: 8e14 233e d7a4 9fbe b593 28be a470 c2bd
00000010: dd8c d2bc 7ef4 823e c22e 033e c58b 5c3e
00000020: cba2 52be 12ec 9f3e 13da a73d 0f2d 813d
00000030: 44aa babe eff4 fb3e ccf4 993f 866d e03f
00000040: 2278 8d40 7474 783d 7bf5 bd3e 7e83 01bf
00000050: c630 e23d 5063 4cbf 6fd8 7a3f af5d ccbe
00000060: 7f1b 9c3f c8b6 f93f 559a d43d a8a5 e83e
00000070: 25c4 8cbd 184b e7bd d70e 28be 235b a8bd
00000080: 3278 4b3f 026d d63f b321 4140 11af d23d
00000090: 5f70 a6be 8a31 833e a954 173e 0dce 1a3f
000000a0: 54b1 013f 2349 87be 19d5 02bf 1a13 a2c0
000000b0: e25c 653c 3fe6 313e 7c35 ad3d de2e f5bd
000000c0: 8eef 05bf d4f3 87bf 5a27 f3be e616 363e
000000d0: b4ec 9b3d f69e 89bd ebd9 aabd cbcb 5fbd
000000e0: 20f5 fdbd eb1b 02be 1005 05be 23be 50be
000000f0: c65d 00be d639 f1bd a8ce 473e 641f 8c3e
00000100: f91f a03d 08f1 8bbe 18f5 73be 74d2 0abf
00000110: 9edf 0f3e 4fe9 f1be 5ecb 01be bb14 023f
00000120: 4d39 9e3e a3e8 873e b17a e6bd 79f1 d13e
00000130: d93a 67bf 720e 8bbf 93ab f7be 33a0 2ec0
00000140: 847f 48bf 5f26 1bbf 627a 03bf 3437 4cbd
00000150: cf3e e03d 883c b93e b3bd 39bf eeba 9c3c
00000160: 8564 debe b83f f6be df3a d2bc 3f53 f3be
00000170: 5238 14be ea0c ffbd 745c e1bd 5d1e 2b3c
00000180: 0b4b e1bd 694c 81be 114b 03be 83d0 dc3c
00000190: 6754 ffbe 59c0 aa3e 6c2d 90be 796c 803f
000001a0: 68fc d23f 4439 5c3e 04a7 dcbe 8ba9 ec3e
000001b0: 7bec c13d d165 0d3e aaf8 de3e 7df0 f9bc
000001c0: bb2e 923e daf8 b7bf ac2a 86bf 6e0c 18c0
000001d0: 3a99 583e 1ff9 e9bd 7ad4 a4be 5f2a 683d
000001e0: dbcb bf3e 79f4 d43e 8412 b03e f819 0340
000001f0: 0744 93c0 c3fe 0b3e b1de d33e e1c0 493d
00000200: b556 abbe 6c71 d6be 2ca6 04c0 d26f 04bd
00000210: 3a7b 173f 30c2 fa3f 9edb 523d 579b a0be
00000220: 1e73 49be 9eab fd3d 9e7d ffbe 2f8f 6a3f
00000230: 2453 fa3e 2e0d b7bf e707 1540 a531 123f
00000240: 95a8 a0be a476 a6be 9010 6bbe 68d0 1b3d
00000250: 7db7 8bbe 563e 16bc feb9 c0bd d2a0 1a3e
00000260: 173c 853e 6ae1 d9be 1506 03bd c3f7 1dbf
00000270: 4ceb 8b3c 46cb 15bf 7c48 ebbe 82cb 6ebf
00000280: 1d9f 70bf d9c7 e93d 2de1 2dbe 88da e4be
00000290: 1b90 be3e 5260 e53d 384e 93bf c132 f3bf
000002a0: 8f9a 8ac0 8158 6ac0 d1cd 82be 27c5 bfbe
000002b0: 08dc a13e 7af8 63be 4502 b93e e2aa 5f3b
000002c0: 51f8 423e 8931 fe3d 017c 8fc0 0abb 63bf
000002d0: 9730 76be d21b 833e 6989 05bf b80c 033f
000002e0: c1a0 d7bd cff8 87be c877 0040 a332 01c0
000002f0: 30fc 233f e482 9abd 8f2a 9abd 62cd 183f
00000300: a47b 80be be92 97be ba7f 86bd c7a0 8cc0
00000310: 2b61 e63f 6c24 d0bd d922 10bf 9a74 d73d
00000320: 349a 22bd d5cf 943d cbfe 35bf 8fb5 0cbf
00000330: c6a5 a9bf ac72 b9bf 6a7a 033f 3163 b2bd
00000340: 8c20 05bf f7c5 09bd 2ed6 7abe 24a7 d4be
00000350: 7e84 0040 c154 9a3f 492d 623f 16c4 21bd
00000360: 0504 0a3e d5a6 5e3e 9a25 013d 863a 20bf
00000370: 7bd6 473f 7384 9cbf 9def e83e 97cb 6b3f
00000380: 9742 85be ec01 a8be 1bd5 13bd 86cd dfbe
00000390: c5af 9b3d 2417 d43e 72bf 833e 6e85 d6be
000003a0: 3c2b 8ebf f26b 2cbe 2993 9ebe 924f b73e
000003b0: 9827 233e dfa5 5ebe 2211 c83e adee 2cbf
000003c0: 921c 49bc bd91 be3e 2396 a6bc 5894 cfbe
000003d0: 5b4d 3fbe 1265 d93e c2dc 343e 15e4 033f
000003e0: 60cb ecbf 4dc0 00c0 df79 c6c0 b5be afbe
000003f0: f59f e7bd 19f5 2f3e 55d3 04bf 8c3f ed3d
0.1592581 -0.3118045 -0.16462596 -0.09494141 -0.025701934 0.25577158 0.12810805 0.21537693
-0.20569913 0.31234795 0.08195891 0.06307422 -0.36458027 0.49210307 1.2027831 1.7533424
4.4209146 0.060657933 0.3710135 -0.50591266 0.11044459 -0.7983904 0.979865 -0.39915225
1.2195891 1.9508905 0.10380999 0.45438886 -0.06873349 -0.1129362 -0.16411911 -0.08220508
0.7948028 1.6752017 3.0176818 0.102872975 -0.32507607 0.25623733 0.14778389 0.6047066
0.50661206 -0.26422986 -0.5110641 -5.0648317 0.013999196 0.17372988 0.08457467 -0.1197183
-0.52318656 -1.0621285 -0.4749096 0.17782173 0.07613507 -0.067197725 -0.08342346 -0.05463771
-0.124002695 -0.12705962 -0.12990212 -0.20385031 -0.12535772 -0.117786095 0.19512427 0.273677
0.07818598 -0.2733233 -0.23823965 -0.54227376 0.14050147 -0.47248313 -0.12675235 0.5081288
0.30903092 0.26544675 -0.1125387 0.41004542 -0.9032417 -1.0863783 -0.48373088 -2.7285278
-0.78319573 -0.60605425 -0.51358616 -0.049857333 0.1094948 0.36178994 -0.72555083 0.019132104
-0.43436065 -0.4809549 -0.025662838 -0.4752445 -0.1447461 -0.12453635 -0.11003962 0.010444251
-0.110006414 -0.2525361 -0.12821604 0.026954895 -0.4986908 0.33349875 -0.28159654 1.0033103
1.6483278 0.2150622 -0.43096173 0.462231 0.09468933 0.13808371 0.4354909 -0.030510182
0.28551278 -1.4372818 -1.0481772 -2.3757586 0.21152201 -0.11424469 -0.32193357 0.056681033
0.37460217 0.41592768 0.34389126 2.04846 -4.602054 0.13671403 0.41380838 0.04925621
-0.3346459 -0.4188341 -2.0726423 -0.032333203 0.59172404 1.9590511 0.051478975 -0.31368515
-0.1967282 0.12386249 -0.49900526 0.9162473 0.48891556 -1.4300897 2.3286073 0.57107
-0.31378618 -0.3251239 -0.22955537 0.03804055 -0.27288428 -0.0091701355 -0.09410475 0.1510041
0.26022407 -0.4255479 -0.031988222 -0.6170618 0.017079972 -0.58513296 -0.4595374 -0.9327928
-0.9399279 0.11415071 -0.16980429 -0.44697976 0.3721932 0.11200012 -1.1508245 -1.8999864
-4.331367 -3.6616518 -0.2554765 -0.37455103 0.31613183 -0.22262755 0.36134544 0.0034128954
0.19040038 0.12411792 -4.483887 -0.88957274 -0.24041973 0.25607163 -0.52162796 0.5119128
-0.10528708 -0.26557013 2.0073109 -2.0187156 0.6405668 -0.07544497 -0.07527649 0.5968839
-0.2509433 -0.29604143 -0.06567331 -4.394626 1.7998403 -0.10163197 -0.56303173 0.10520287
-0.03969784 0.07266203 -0.7109191 -0.54964536 -1.3253715 -1.448812 0.51358664 -0.087103255
-0.5200279 -0.03363606 -0.24495766 -0.41533768 2.0080867 1.2057115 0.8835035 -0.039493643
0.13478096 0.21743329 0.03153 -0.625893 0.78061646 -1.222792 0.4549531 0.9210753
-0.26027367 -0.32813966 -0.036091905 -0.4371149 0.07601885 0.41423905 0.25732 -0.41898674
-1.1106944 -0.16838053 -0.3097165 0.35802895 0.15933073 -0.21742962 0.3907557 -0.6755169
-0.012274878 0.37220564 -0.020335263 -0.40542865 -0.18681853 0.42459923 0.17662337 0.515199
-1.8499565 -2.011737 -6.202377 -0.34325185 -0.11309806 0.17183341 -0.5188497 0.11584386

fc1.bias f4 [300]
00000000: fb65 dcbd e58b 45be 7005 f53b 89a8 983c
00000010: 6bd9 b0bd 8eae 5fbd 70d3 25be 32d2 cd3d
00000020: fce7 36be c853 af3d 2a0d 0cbe 9211 1ebe
00000030: 0177 aebe 048a b7bd 289b 703d 0a20 2a3e
00000040: 509f 553e 047f 1dbe 140c 8abe e969 58be
00000050: ea43 203e c95a 24be efe6 03bf a40d c6be
00000060: 85da 20be 981e d2be f6bf 84be 02ef 94bd
00000070: 1387 ed3c 5f6e 41bd f844 a9be 30ec 903e
00000080: d6c8 02bf 8bb5 0cbe 1df5 693d 90ea 003e
00000090: 2ded e83d 2582 d2bd b0d2 04bf 6388 59be
000000a0: f8f5 85be e5a2 97be 512b 813e e409 92be
000000b0: eba5 0b3e 329f ec3d e2ab 00bd adbb a0bc
000000c0: 5757 54be 8236 b03e b1a1 473c a853 d2bd
000000d0: 3492 93be 69ad 86be 2b21 63be 0f5c 58be
000000e0: 2115 8b3e 7add 17bf 76da debe 09e5 94be
000000f0: 80f1 19bd 67da 9dbe bdbe 253e 584f b83c
00000100: 58fb d63d 6196 a13e 5e71 a23e 36b6 f73c
00000110: e3d2 4d3d c41b d3be 081f e03d 6118 19be
00000120: c032 7dbe e617 5cbe 48a3 3abe dd62 b93b
00000130: 18d0 7ebe 6c45 15be b0ae 623e 06be 1cbe
00000140: 1d2b 7e3e e33d b03d 1fb5 be3b 37d2 9fbc
00000150: 80ba bd3c 2e73 a73d 5088 b8be 92de a53d
00000160: d6a3 193e 0787 a03e 0777 02bf a0ae e2bb
00000170: b65f bc3d 7ecc 7abe 23af 45be 595b 92bd
00000180: 674e 04be 1eb4 9f3d 8216 4fbe 964c 7ebe
00000190: b9be 0c3e 1750 fbbd 7f65 a5bd cb16 53bd
000001a0: c38c c23e b23f 823d 7983 2a3d 0194 c13c
000001b0: f722 0e3e c88f e83d bba7 a93d 5526 66be
000001c0: 82e7 ca3d e026 213d a0e0 0ebe 3c8a e83d
000001d0: 388e aebc 43db 77be 3c1b 21bf 760e 4dbd
000001e0: 8f02 da3e 88a5 16bd 6061 1bbe 1a07 843c
000001f0: 108c c5bc 020f 323e eb9d b13c 3f69 3b3e
00000200: cf56 373e 03c0 073c fadd 87be eb22 47be
00000210: c302 90be 5b9b 9fbe 16c5 fdbc a07c 933e
00000220: 3893 9dbd b0dc c9bc 528b 1a3e 743a b2be
00000230: c7d9 19bf b31f 843c 7773 633d 3bb0 803d
00000240: e3bd 19bf fcd9 dc3d 76ce 27be c780 7fbe
00000250: f3c0 90bd a566 b5bd d44b 20be e078 06be
00000260: ea00 7abe d63c b1bc 0a93 5a3d 0152 e9be
00000270: 5a4e 643e 9ef0 12be 6c43 fd3c e46a 6bbe
00000280: e7e8 02bf dc18 b93d 2691 c9bd 0dbf 64be
00000290: d878 883d 90ee a0be 15bb 353e d7c1 d4be
000002a0: 8d30 27be cbfa 11bc 1ba9 3cbe 02a1 9cbe
000002b0: a699 22be 6ed7 69be f5a3 afbe 7f42 513d
000002c0: 5c87 bbbe b096 02be 8834 ba3d 6af3 473c
000002d0: 76e3 dabe ebb9 6abe 7644 bcbe 9c93 953d
000002e0: 8b7f cdbe 3efa 88be 784b d4be 59b7 a13e
000002f0: 73a2 dabd e8d8 bf3d 9e22 37be 9d7f 4cbe
00000300: 3ec6 533d 9a67 e4be ff43 61bd 89e5 7a3d
00000310: 847a a93d 7286 b0bc 19aa ecbd ae18 0dbe
00000320: 59bb 733e 21d0 863e d508 a4be 1b40 1ebe
00000330: 4b2a f73d d6f7 90be deae f1bd bb84 77bc
00000340: 1114 1e3e d1fe a2bd 55c3 14bd ad1f 9f3c
00000350: d9c7 2cbe 40ea 803d 5694 893e eb88 6abe
00000360: e799 463e 7102 04bf dbf8 ae3d b2b0 25bd
00000370: 6b19 38bd faf0 26be 51be 863e 0dcb 573e
00000380: 56dc d3be 5b8f 62bd 5eed c63d 032e 52be
00000390: 968d f0bc fc3f 52be 560a 7d3c 54bb 563e
000003a0: 597c de3e 6237 24be 19b0 f4bd 9391 87be
000003b0: a32f 2c3e 0cea fdbe 338c 92be bc4c dbbe
000003c0: 0f4e 553d 7822 ab3e 37b7 8ebe 0d66 24be
000003d0: 80eb ebbd 3511 9e3e a1c5 1abd 6c72 b3be
000003e0: 3943 98be 6d6b 263e 522f d33e f161 693d
000003f0: 2cea 1dbf 3651 18bd b767 f9be 659d aabd
-0.10761639 -0.19291647 0.007477455 0.018635051 -0.08635219 -0.054609828 -0.16193938 0.10049857
-0.17861933 0.08560902 -0.13676897 -0.1543639 -0.34075168 -0.08961871 0.05874172 0.16613784
0.20861554 -0.15380484 -0.2696234 -0.21134152 0.15650907 -0.16050257 -0.5152425 -0.38682282
-0.15708359 -0.41038966 -0.25927705 -0.072721496 0.028995072 -0.0472244 -0.3306043 0.28305197
-0.510877 -0.13741128 0.057118524 0.12589478 0.11373363 -0.10278729 -0.51883984 -0.21243434
-0.26164222 -0.29616466 0.2522836 -0.2852317 0.13637511 0.115538016 -0.03141392 -0.01962074
-0.20736443 0.34416586 0.012184546 -0.102698624 -0.28822482 -0.26304176 -0.22180621 -0.21128868
0.27164558 -0.5932232 -0.43526047 -0.2908099 -0.037583828 -0.3083069 0.16186042 0.022498772
0.10497159 0.31560043 0.31727117 0.030238252 0.050249945 -0.4123212 0.10943419 -0.14950706
-0.24726391 -0.21493492 -0.1822635 0.0056575374 -0.24884069 -0.14577264 0.2213695 -0.15306863
0.24821134 0.08605554 0.005819931 -0.019509418 0.02316022 0.08176266 -0.36041498 0.080990925
0.15003905 0.31353018 -0.5096287 -0.0069177896 0.09197943 -0.2449207 -0.1930509 -0.071463294
-0.12920533 0.077980265 -0.2022343 -0.24833903 0.1374463 -0.12271135 -0.080759995 -0.05153541
0.37998018 0.06359805 0.04162929 0.023630144 0.13880526 0.11355549 0.08283945 -0.2247556
0.09907438 0.039343715 -0.13952875 0.11354491 -0.02130805 -0.24204735 -0.6293218 -0.05006262
0.42580077 -0.036778957 -0.15173864 0.016116668 -0.024114639 0.17388538 0.021681746 0.18301867
0.17904209 0.008285525 -0.26536542 -0.19446914 -0.28127107 -0.31173214 -0.030977767 0.2880602
-0.076940954 -0.024641365 0.15092209 -0.3481022 -0.60097927 0.016128397 0.055530038 0.06283613
-0.6005537 0.10783765 -0.16387352 -0.24951468 -0.07068052 -0.088574685 -0.15653926 -0.13132048
-0.24414411 -0.021635454 0.053362884 -0.45570377 0.22295514 -0.143496 0.030915938 -0.22989994
-0.5113663 0.09037945 -0.09842138 -0.22338505 0.06663674 -0.3143201 0.17747147 -0.41554138
-0.16327114 -0.008909891 -0.18423884 -0.3059159 -0.15878925 -0.22836086 -0.34304777 0.051088806
-0.36626709 -0.12752795 0.09092051 0.0122040305 -0.42751664 -0.22922485 -0.36770982 0.07303545
-0.4013637 -0.2675342 -0.41463828 0.31585196 -0.10675516 0.093675435 -0.17884299 -0.19970556
0.05170273 -0.44610292 -0.054996487 0.061254058 0.08275321 -0.021548484 -0.11555881 -0.13778946
0.23801936 0.26330665 -0.32037988 -0.15454142 0.120686136 -0.28314084 -0.118009314 -0.015107329
0.15437342 -0.079587586 -0.036319096 0.019424284 -0.16873111 0.0629468 0.26870984 -0.22903793
0.19394647 -0.51566225 0.08543559 -0.040451713 -0.044946115 -0.16302863 0.26317075 0.21073551
-0.4137904 -0.055312496 0.09713243 -0.20525365 -0.029364388 -0.2053222 0.015444359 0.20969898
0.43454245 -0.16036752 -0.119476505 -0.26478252 0.16815047 -0.49592626 -0.2862259 -0.4283198
0.052076396 0.33424735 -0.27874157 -0.16054554 -0.115195274 0.30872503 -0.03778613 -0.35048234
-0.29738787 0.16251917 0.4124704 0.05697817 -0.6168544 -0.037186824 -0.4871194 -0.08330802
