model_save/params_20240806_164518.pth (torch, 68211 bytes, 18 tensors)

fc1.weight f4 [300, 9]
-0.0033094175 0.15053205 0.15349218 -0.09083303 -0.18662614 0.083388716 0.05294543 -0.20001094
-0.23727396 0.105755575 0.17938963 -0.02789725 -0.23443855 0.11383602 0.0028583976 0.13445258
-0.10383162 -0.1626166 -0.22724573 0.1933786 -0.17370182 -0.16923033 -0.29758802 -0.15958661
-0.19366097 0.11983292 -0.17413542 -0.21271035 -0.32619375 -0.3222967 0.08732927 0.027517676
0.22344962 -0.12962162 0.12425503 0.03245762 0.11593315 0.2664397 -0.09916052 -0.08894949
-0.20005295 -0.19276623 0.2959247 -0.18577552 -0.07156396 0.10982568 -0.16484581 0.15326053
-0.42943576 -0.3331079 0.46899578 -0.9887907 1.5095062 -0.3381278 0.10991921 0.11232025
0.28904465 -0.120003596 0.14583863 0.18527175 -0.2070812 0.6497477 0.4764153 0.027767066
-0.09906848 0.04572419 0.018420303 -0.29083222 -0.27847868 -0.52546906 -1.1012416 0.2567636
0.0074578524 0.08404541 -0.15681021 -0.021521568 0.11987007 -0.2175841 -0.25031668 -0.08904716
-0.2012336 0.07342547 0.0028408486 0.10031939 -0.04834861 -0.3169081 -0.3175021 0.07386783
0.07794119 -0.62526447 0.009947278 0.019883262 0.22075747 -0.24025406 -0.12023189 0.16640551
0.15748076 0.2786066 -0.2062726 -0.26525733 0.27190167 -0.08807929 0.14956541 0.09971283
0.038304336 -0.17007889 -0.21417138 -0.31331515 0.0160706 0.18720512 -0.11584402 -0.088166535
-0.18489492 0.05886504 0.109284975 0.02281082 0.026337035 -0.2754227 0.32420883 0.17241898
-0.3020354 0.071179986 0.20657381 -0.024872988 -0.17235777 0.14834478 0.13454996 0.0069809374
0.04458544 0.12621348 0.09296345 -0.1319307 -0.08666146 0.12672439 -0.2698748 -0.26295158
-0.048287205 0.18828365 0.1444349 0.08331857 -0.4538056 -0.4048082 -0.32257897 -0.37475577
-0.20372546 -0.1257798 0.043514498 -0.116847925 -0.37777266 -0.022969496 0.042820815 0.30696428
-0.20974377 -0.28753033 -0.043971412 0.120600455 0.03745621 0.20859486 0.28047198 -0.10369475
-0.14115727 -0.056078404 0.14614895 -0.2991959 -0.09870045 -0.086842105 0.2718456 0.027696043
-0.30538982 0.014614433 -0.29160985 0.102941155 0.15040128 0.05979549 -0.16450574 -0.17541097
0.061946973 0.1555411 0.020026546 -0.0006888825 -0.09700655 -0.04108607 -0.12814952 0.12161078
-0.15225425 -0.35803542 -0.13399652 -0.49367347 -0.2742666 -0.2161526 -0.107354626 0.24335068
-0.17122103 -0.15242542 -0.25560507 0.20927013 -0.17460433 0.03754382 -0.32368594 -0.16807267
-0.00835076 0.103394866 0.23581353 -0.14580381 0.27525714 0.12282351 -0.09347975 -0.3333037
0.13907622 -0.08473812 -0.39304832 0.25777104 -0.030940495 0.20864464 0.4648905 0.12691852
0.20022169 -0.16624448 -0.19077417 -0.038689375 -0.14488241 0.15301242 0.09082243 0.16264567
0.3078983 0.001107642 -0.0952722 -0.27087688 0.09248506 -0.32048956 -0.39138755 0.1848372
-0.26319084 0.13863221 0.18339044 -0.022101725 -0.31984594 -0.201809 -0.41899627 0.52937305
-0.9197236 1.0225173 -0.13288294 0.07348633 0.048451334 -0.19818895 -0.20295827 0.07423219
-0.31311792 -0.10495433 -0.0058194697 -0.067968816 -0.010240763 -0.14480035 -0.021728843 -0.24281678
00000000: d0e2 58bb 1325 1a3e 0e2d 1d3e ab06 babd
00000010: ec1a 3fbe b4c7 aa3d 4fdd 583d abcf 4cbe
00000020: f2f7 72be 6196 d83d eab1 373e c688 e4bc
00000030: a910 70be dc22 e93d f453 3b3b f0ad 093e
00000040: aca5 d4bd f784 26be 1bb3 68be 0a05 463e
00000050: e4de 31be b74a 2dbe 755d 98be ac6a 23be
00000060: 104f 46be f66a f53d 8e50 32be bed0 59be
00000070: de02 a7be 1304 a5be b0d9 b23d c06c e13c
00000080: facf 643e 88bb 04be 6c79 fe3d 48f2 043d
00000090: 5c6e ed3d c96a 883e ac14 cbbd 262b b6bd
000000a0: aeda 4cbe 8364 45be 7183 973e f03b 3ebe
000000b0: 2090 92bd 49ec e03d 57cd 28be 54f0 1c3e
000000c0: 01df dbbe 1e8d aabe 3720 f03e 6321 7dbf
000000d0: 8037 c13f 161f adbe 531d e13d 2908 e63d
000000e0: a9fd 933e 72c4 f5bd b956 153e e1b7 3d3e
000000f0: 180d 54be de55 263f b5ec f33e c277 e33c
00000100: 6ae4 cabd 4a49 3b3d 2de6 963c f6e7 94be
00000110: c294 8ebe 2485 06bf 7cf5 8cbf 8576 833e
00000120: 0061 f43b 0020 ac3d db92 20be 004e b0bc
00000130: 707e f53d 5ece 5ebe 8229 80be 5c5e b6bd
00000140: 2e10 4ebe 1860 963d 882d 3a3b 4174 cd3d
00000150: 3109 46bd c741 a2be a38f a2be 0448 973d
00000160: a19f 9f3d 5511 20bf e8f9 223c 39e2 a23c
00000170: 3f0e 623e 2905 76be 233c f6bd 3566 2a3e
00000180: a342 213e 86a5 8e3e 2039 53be cfcf 87be
00000190: b236 8b3e ea62 b4bd ad27 193e 3d36 cc3d
000001a0: 02e5 1c3d 2929 2ebe be4f 5bbe d86a a0be
000001b0: 7ea6 833c b3b2 3f3e a13f edbd a890 b4bd
000001c0: 1855 3dbe 781c 713d cdd0 df3d c2dd ba3c
000001d0: c4c0 d73c 3404 8dbe b3fe a53e 9a8e 303e
000001e0: 62a4 9abe d0c6 913d 1688 533e 70c2 cbbc
000001f0: 8e7e 30be b2e7 173e 77c7 093e 59c0 e43b
00000200: 399f 363d 1b3e 013e 9f63 be3d d718 07be
00000210: 907b b1bd 0ac4 013e 082d 8abe 97a1 86be
00000220: cec8 45bd 6ecd 403e bee6 133e eda2 aa3d
00000230: 3559 e8be 0543 cfbe 1229 a5be fddf bfbe
00000240: 689d 50be 6bcc 00be 423c 323d f74d efbd
00000250: 6b6b c1be 862a bcbc e164 2f3d 6c2a 9d3e
00000260: 12c7 56be 2d37 93be 5e1b 34bd 5ffd f63d
00000270: af6b 193d e499 553e 069a 8f3e ea5d d4bd
00000280: 888b 10be 78b2 65bd 12a8 153e 3430 99be
00000290: 7623 cabd 46da b1bd 592f 8b3e d0e2 e23c
000002a0: 0e5c 9cbe 6071 6f3c e34d 95be d0d2 d23d
000002b0: cb02 1a3e 1eec 743d 3174 28be ef9e 33be
000002c0: 1cbc 7d3d 2b46 1f3e b60e a43c 1f96 34ba
000002d0: 5fab c6bd de49 28bd a139 03be 130f f93d
000002e0: 8ae8 1bbe 6b50 b7be 6236 09be c5c2 fcbe
000002f0: ac6c 8cbe 1b57 5dbe bedc dbbd ec30 793e
00000300: 9154 2fbe 6915 1cbe abde 82be e94a 563e
00000310: 7acb 32be 8cc7 193d 2aba a5be 3e1b 2cbe
00000320: a0d1 08bc b0c0 d33d 1a79 713e 984d 15be
00000330: 81ee 8c3e e48a fb3d 5072 bfbd c8a6 aabe
00000340: ff69 0e3e 2e8b adbd a13d c9be 91fa 833e
00000350: ec76 fdbc f1a6 553e 2106 ee3e eef6 013e
00000360: ea06 4d3e fe3b 2abe 4e5a 43be c078 1ebd
00000370: 0e5c 14be 4aaf 1c3e 1c01 ba3d 968c 263e
00000380: d9a4 9d3e 4c2e 913a 121e c3bd 60b0 8abe
00000390: cf68 bd3d 3517 a4be f363 c8be f745 3d3e
000003a0: f3c0 86be 9af5 0d3e b4ca 3b3e ad0e b5bc
000003b0: d9c2 a3be 05a7 4ebe ae86 d6be fe84 073f
000003c0: 0173 6bbf d9e1 823f 7712 08be 0080 963d
000003d0: e874 463d 0bf2 4abe 4bd4 4fbe 0c07 983d
000003e0: fe50 a0be 4cf2 d6bd 40b1 bebb 3c33 8bbd
000003f0: e0c8 27bc 8b46 14be b000 b2bc f6a4 78be

fc1.bias f4 [300]
-0.29461557 -0.11084333 0.30568367 -0.17800054 -0.3317315 0.05767607 -0.105545186 0.30278587
-0.230812 0.015696859 -0.28894362 -0.2507734 -0.07979649 -0.2664973 -0.39355543 -0.16630371
0.21325405 0.029942505 0.1314353 -0.23517272 0.005417107 0.16529886 -0.28307027 0.23623474
-0.2226218 0.13103217 -0.12211 -0.14946747 -0.13319898 0.30639282 -0.24893522 0.1828771
-0.09945488 0.05783074 -0.28668395 -0.08013568 -0.03156111 0.216285 -0.09377486 0.056879904
0.02988677 -0.25780866 0.04281911 -0.20429632 0.14667039 -0.21022885 -0.3016717 -0.15182786
0.2787085 0.16968629 -0.20757975 -0.17712316 0.3249219 0.23197566 -0.007302092 -0.347061
-0.18135214 0.13426319 -0.09427187 0.024931163 0.32999656 0.21477312 -0.1475224 0.093434736
0.21852542 0.0025818965 -0.26938242 -0.046860855 0.25999615 -0.2395405 -0.09287466 0.24291658
-0.23309803 -0.22333276 0.1475198 -0.00042773416 -0.2532463 0.30891982 0.06845759 0.06761038
-0.12346503 -0.04608035 -0.13435376 0.08542686 -0.11545061 -0.24202533 0.14318421 -0.09625435
0.04231598 0.06293794 -0.12493567 -0.20003335 0.074493475 0.16757038 -0.16289021 -0.27200967
-0.33407885 -0.2870094 -0.11217595 -0.3856508 0.1170715 -0.06542958 0.03086242 -0.22704443
0.04530042 -0.038781565 0.19236313 -0.035526365 0.091202945 0.2557076 -0.13601594 -0.3182675
-0.28250322 0.07584588 0.025248373 0.078722715 -0.15224628 -0.14031151 0.19032738 0.0105597945
0.120209366 -0.16265456 0.29407945 -0.29253682 0.17329274 -0.3127838 -0.27961683 -0.10795304
-0.12007365 0.009526054 -0.11850378 0.010850698 -0.45753244 0.32208735 -0.088615775 -0.20132212
-0.065603055 -0.26824248 -0.20338778 -0.14076574 0.023316903 -0.15653324 -0.22223687 -0.35572016
-0.047244716 -0.110490195 0.083726786 -0.18328238 0.30954856 -0.2905075 -0.28124422 0.30485284
-0.34603393 -0.35113877 -0.07116786 0.21954155 -0.3057998 0.03701123 0.23370203 0.13533121
-0.26053685 -0.23240224 0.1306598 -0.107832715 0.16696696 -0.21466811 0.24385817 -0.2143758
-0.13136172 -0.4308146 0.028053492 -0.38224107 -0.32995558 -0.17675136 -0.10970943 0.16364574
-0.07482424 -0.08454582 0.28032228 0.07801095 -0.025932334 0.016881226 0.33114907 -0.32156467
-0.0598301 0.19366139 0.2083539 -0.28380772 0.066012554 0.13441901 0.13573705 -0.28106767
0.265174 -0.1973381 0.11116255 0.22558923 -0.20091233 -0.26902896 -0.20912382 -0.12960121
0.12181687 -0.061597284 -0.09140059 0.058107335 -0.027827865 0.2882748 -0.4101782 0.088526905
0.18805405 -0.055489734 -0.018372536 -0.1358056 -0.32312417 -0.069882005 0.038488865 0.037626863
-0.105565906 -0.06438765 -0.06501415 -0.22389658 0.43042412 -0.12750621 -0.023340285 -0.37771255
0.0034085417 0.07207534 -0.15185227 0.005623579 -0.056501582 0.031646132 -0.022423862 -0.24877124
0.064503044 -0.22223811 -0.08046472 -0.23847985 0.14809653 -0.31588542 -0.025292857 -0.08736236
0.024035938 -0.26248989 0.24195945 -0.2908281 0.054027412 -0.23523211 -0.118328184 0.09158115
-0.27203068 -0.03620527 -0.053316742 -0.12171951 -0.16379696 -0.32242057 0.024695307 0.1399235
00000000: dad7 96be d401 e3bd 9282 9c3e c645 36be
00000010: b6d8 a9be be3d 6c3d 1328 d8bd c006 9b3e
00000020: fb59 6cbe b396 803c 6bf0 93be 5f65 80be
00000030: 586c a3bd 5672 88be 1980 c9be 854b 2abe
00000040: 455f 5a3e fc49 f53c fa96 063e 1ed1 70be
00000050: fd81 b13b 1b44 293e 96ee 90be 85e7 713e
00000060: f8f6 63be 4c2d 063e cf14 fabd 000e 19be
00000070: 5065 08be 85df 9c3e e0e8 7ebe 2244 3b3e
00000080: 00af cbbd eddf 6c3d 3dc8 92be 2d1e a4bd
00000090: 3946 01bd d179 5d3e 090d c0bd e7fa 683d
000000a0: 19d5 f43c 7fff 83be 1763 2f3d 0e33 51be
000000b0: c330 163e 3b46 57be b774 9abe c378 1bbe
000000c0: e1b2 8e3e 3ec2 2d3e c98f 54be c65f 35be
000000d0: 2a5c a63e 078b 6d3e 6346 efbb fbb1 b1be
000000e0: 60b4 39be 4a7c 093e 9c11 c1bd 703c cc3c
000000f0: 4ff5 a83e 7ced 5b3e 1d10 17be b65a bf3d
00000100: 21c5 5f3e 0935 293b 7eec 89be 2bf1 3fbd
00000110: 371e 853e 1b4a 75be 1235 bebd 20bf 783e
00000120: 40b1 6ebe 58b1 64be 6e0f 173e 8241 e0b9
00000130: 80a9 81be bd2a 9e3e 7e33 8c3d 5077 8a3d
00000140: 3cdb fcbd c0be 3cbd 0894 09be 47f4 ae3d
00000150: 5f71 ecbd 7dd5 77be e29e 123e 0021 c5bd
00000160: 8553 2d3d 9be5 803d 46de ffbd 8bd5 4cbe
00000170: 0990 983d 9297 2b3e b1cc 26be da44 8bbe
00000180: 620c abbe e5f2 92be 81bc e5bd 0674 c5be
00000190: 2fc3 ef3d f2ff 85bd 30d3 fc3c 567e 68be
000001a0: ef8c 393d 6bd9 1ebd d7fa 443e 1884 11bd
000001b0: 9cc8 ba3d 1bec 823e c347 0bbe f5f3 a2be
000001c0: 43a4 90be 1655 9b3d add5 ce3c 6039 a13d
000001d0: 73e6 1bbe d2ad 0fbe 2ee5 423e fd02 2d3c
000001e0: 5430 f63d eb8e 26be 9591 963e 63c7 95be
000001f0: a773 313e 3325 a0be f029 8fbe 7c16 ddbd
00000200: 2ce9 f5bd 2b13 1c3c 1cb2 f2bd 20c7 313c
00000210: b141 eabe a2e8 a43e 307c b5bd 6327 4ebe
00000220: e55a 86bd 1457 89be e344 50be e524 10be
00000230: 1703 bf3c 404a 20be 1092 63be f420 b6be
00000240: ad83 41bd af48 e2bd f378 ab3d 60ae 3bbe
00000250: 267d 9e3e 66bd 94be 3eff 8fbe ac15 9c3e
00000260: 5c2b b1be 76c8 b3be 74c0 91bd 80cf 603e
00000270: cb91 9cbe 1699 173d 964f 6f3e 4494 0a3e
00000280: 1665 85be dafa 6dbe afcb 053e 66d7 dcbd
00000290: 63f9 2a3e f5d1 5bbe f5b5 793e 5485 5bbe
000002a0: b083 06be bb93 dcbe 70d0 e53c 1ab5 c3be
000002b0: f0ef a8be 4ffe 34be 56af e0bd c092 273e
000002c0: 733d 99bd 5c26 adbd 6786 8f3e 34c4 9f3d
000002d0: 0c70 d4bc 7f4a 8a3c 5f8c a93e 20a4 a4be
000002e0: 6810 75bd 2c4f 463e ba5a 553e 3f4f 91be
000002f0: 9731 873d 23a5 093e a7fe 0a3e 1ae8 8fbe
00000300: e3c4 873e 0013 4abe 31a9 e33d dd00 673e
00000310: f6bb 4dbe 2abe 89be 8e24 56be 2eb6 04be
00000320: 207b f93d 6f4d 7cbd 3c30 bbbd f501 6e3d
00000330: 43f7 e3bc c198 933e e102 d2be 984d b53d
00000340: 3e91 403e 3449 63bd 0082 96bc a010 0bbe
00000350: 8870 a5be 4c1e 8fbd 80a6 1d3d a01e 1a3d
00000360: f032 d8bd acdd 83bd 2426 85bd 2545 65be
00000370: 8d60 dc3e fd90 02be 2034 bfbc 8a63 c1be
00000380: d761 5f3b 3c9c 933d 297f 1bbe 0046 b83b
00000390: 346e 67bd 609f 013d 3fb2 b7bc e3bd 7ebe
000003a0: 2c1a 843d 6392 63be b0ca a4bd 1034 74be
000003b0: 9ea6 173e bcbb a1be f732 cfbc 09eb b2bd
000003c0: 04e7 c43c 1365 86be 38c4 773e 6ce7 94be
000003d0: d94b 5d3d b0e0 70be 0c56 f2bd e68e bb3d
000003e0: 9b47 8bbe fa4b 14bd a862 5abd 1448 f9bd
000003f0: 64ba 27be 4f14 a5be d04d ca3c 1b48 0f3e

fc2.weight f4 [2, 300]
0.014195411 -0.0015251519 -0.037353408 0.034180418 0.049104705 1.4287349 -0.15055653 -0.058339283
-0.0015902817 -0.031204794 0.011333736 0.023332587 -0.03809381 -0.0033104047 -0.026470043 -0.11290815
0.059453785 -0.0392305 0.031994194 -0.010682702 0.057112522 -0.046448793 -0.05391135 0.18094757
-0.045901414 0.017276995 0.22981311 -0.0030687526 0.044267327 -0.28371063 -0.033252925 -0.046790518
-0.04989396 -0.023174504 0.06517979 -0.011975446 -0.010706049 0.008666299 0.29415873 -0.055762246
0.104076974 -0.019149631 0.028189344 -0.02793731 0.026989872 -0.033290677 -0.031911798 -0.048822735
0.21171196 0.018205933 -0.068419494 0.050872445 -0.277979 -0.003436164 0.027702596 -0.055631526
0.0063741803 0.029812708 0.027743243 -0.0018746331 0.18002485 0.08430335 -0.017612588 -0.07282361
0.099903084 -0.012920886 0.08176077 0.29251298 -0.030897763 -0.038314678 -0.22625366 -0.025121761
-0.024071 0.04353234 0.10502764 -0.031742685 -0.023458146 -0.3002102 -0.004601607 0.019504922
-0.041996986 -0.018717106 0.9570258 -0.0066564493 0.058152188 0.16416745 0.020394072 0.04719703
-0.4245928 0.13804334 0.05984353 0.032735102 0.7933508 -0.046673052 -0.023747953 -0.014270075
0.2456811 0.017875563 0.031184284 -0.0664991 0.1432351 0.002301775 -0.0476909 -0.050637856
0.35471466 -0.08396721 1.4783183 0.043370657 -0.036451306 -0.23880345 0.01994839 0.18940336
-0.00055930245 -0.035624422 -0.2055223 0.0065311342 -0.14667802 0.18822634 -0.033150055 0.007635099
0.027122289 -0.27649602 0.18596031 -0.04885509 0.5009506 -0.032433975 0.0533318 -0.05322979
0.029241875 -0.03239408 -0.016449146 0.03448791 0.88252854 -0.19436546 -0.027780158 -1.487756
0.07050864 0.029776044 0.052243255 -0.1828978 -0.016573634 -0.004739519 0.018783972 0.088037826
0.029212438 0.01609454 -0.03990272 -0.017279185 -0.08087514 -0.037555717 0.027851 1.3610555
-0.0058853733 -0.021246528 0.01077304 0.61809796 -0.009572115 -0.07134438 -0.055503566 0.030961705
-0.017074026 0.07505059 -0.031840242 -0.052355845 0.023111286 0.31779376 0.21696603 -0.87671024
0.03178661 0.09588472 0.02834683 0.056923084 0.051815636 -0.005141169 -0.0031881705 -0.0063834414
-0.0009491867 -0.012909889 0.07968787 0.049699888 -0.029188562 0.017630154 -1.0043213 -0.04100896
0.03989532 0.3283628 0.03601289 0.038738295 -0.02337256 0.32246298 1.3942757 0.026176818
0.86799514 0.0147836115 0.06679181 0.03319924 0.042510964 0.044759404 0.015880786 -0.038938552
-1.0693849 -0.03412236 0.03575684 -0.2679972 -0.008274962 1.2512915 0.053368803 1.066978
0.0010694452 -0.2681899 0.026777081 -0.4089292 -0.17742836 -0.002846161 0.959723 0.116232455
0.014244698 0.049293704 -0.19361687 -0.020695178 -0.23720834 0.045587637 -0.049622115 -0.0053268466
0.010624591 0.045789957 -0.22407489 0.00091775507 -0.08893409 -0.036379 -0.11955804 -0.012329679
-0.003412053 0.03444791 0.0036616065 -0.05487116 0.044065397 0.009621054 -0.013509916 -0.0107068075
0.041643 0.023810685 -0.10039198 -0.04883075 -0.050722893 -0.049638122 0.05401226 0.0082544545
0.10515814 -0.12907262 0.009725958 -1.4652512 0.022555605 0.023589555 -0.013571512 -0.01430131
00000000: de93 683c 9be7 c7ba e3ff 18bd c400 0c3d
00000010: 0422 493d c9e0 b63f 7e2b 1abe 2cf5 6ebd
00000020: 0071 d0ba 32a1 ffbc 22b1 393c fb23 bf3c
00000030: 4108 1cbd 60f3 58bb b4d7 d8bc 633c e7bd
00000040: d085 733d 29b0 20bd 580c 033d 8006 2fbc
00000050: d2ee 693d 1741 3ebd 26d2 5cbd 524a 393e
00000060: 1f03 3cbd 7c88 8d3c 2154 6b3e 201d 49bb
00000070: a851 353d 8542 91be 3834 08bd 6aa7 3fbd
00000080: 9c5d 4cbd 75d8 bdbc fb7c 853d a934 44bc
00000090: 6d68 2fbc 18fd 0d3c f99b 963e f466 64bd
000000a0: 4f26 d53d b0df 9cbc 57ed e63c c9dc e4bc
000000b0: dd19 dd3c ce5b 08bd f2b5 02bd 59fa 47bd
000000c0: 05cb 583e 9c24 953c 851f 8cbd a05f 503d
000000d0: 4353 8ebe 4431 61bb 8ef0 e23c e2dd 63bd
000000e0: 80de d03b c839 f43c cc45 e33c 40b6 f5ba
000000f0: 6f58 383e 3ca7 ac3d 4648 90bc 8b24 95bd
00000100: fd99 cc3d 20b2 53bc 3172 a73d 43c4 953e
00000110: 4e1d fdbc daef 1cbd 0aaf 67be 27cc cdbc
00000120: 8c30 c5bc f84e 323d bb18 d73d 9e04 02bd
00000130: 4c2b c0bc 27b5 99be 14c9 96bb c9c8 9f3c
00000140: 0805 2cbd 9e54 99bc a5ff 743f 581e dabb
00000150: fd30 6e3d 831b 283e 7811 a73c ac51 413d
00000160: 3a64 d9be 3c5b 0d3e 7d1e 753d 3e15 063d
00000170: 0a19 4b3f 3e2c 3fbd 118b c2bc 08cd 69bc
00000180: d493 7b3e c66f 923c 2f76 ff3c ae30 88bd
00000190: 39ac 123e 60d9 163b 8857 43bd a469 4fbd
000001a0: 299d b53e 00f7 abbd 8939 bd3f 6ea5 313d
000001b0: f74d 15bd e488 74be ce6a a33c f4f2 413e
000001c0: 279e 12ba eaea 11bd 7074 52be 2003 d63b
000001d0: c332 16be 68be 403e 5ac8 07bd da2f fa3b
000001e0: 902f de3c e390 8dbe 616c 3e3e 461c 48bd
000001f0: 4c3e 003f 7dd9 04bd 7272 5a3d 7b07 5abd
00000200: a88c ef3c a8af 04bd 5cc0 86bc 3243 0d3d
00000210: 64ed 613f bd07 47be 3793 e3bc ca6e bebf
00000220: d566 903d e4ec f33c 06fd 553d 9049 3bbe
00000230: 6ec5 87bc f84d 9bbb d8e0 993c 2d4d b43d
00000240: ec4e ef3c b2d8 833c 0971 23bd 148d 8dbc
00000250: dea1 a5bd 06d4 19bd c827 e43c 1137 ae3f
00000260: 17da c0bb 330d aebc 6881 303c ab3b 1e3f
00000270: 5cd4 1cbc 011d 92bd b557 63bd 67a3 fd3c
00000280: d4de 8bbc 20b4 993d ea6a 02bd 1573 56bd
00000290: e153 bd3c ddb5 a23e 582c 5e3e 1570 60bf
000002a0: ad32 023d 355f c43d 9c37 e83c 2e28 693d
000002b0: a23c 543d 4077 a8bb a0f0 50bb 302c d1bb
000002c0: d7d2 78ba 0084 53bc 6533 a33d 1c92 4b3d
000002d0: da1c efbc 1d6d 903c 9a8d 80bf 03f9 27bd
000002e0: 4669 233d 2b1f a83e 4182 133d 0cac 1e3d
000002f0: d077 bfbc de19 a53e a077 b23f c470 d63c
00000300: ee34 5e3f f636 723c 25ca 883d edfb 073d
00000310: fa1f 2e3d a355 373d 6c18 823c 087e 1fbd
00000320: 9be1 88bf e3c3 0bbd c475 123d ee36 89be
00000330: b593 07bc 522a a03f 3f99 5a3d bc92 883f
00000340: a02c 8c3a 3050 89be 9c5b db3c 2b5f d1be
00000350: c8af 35be a886 3abb 68b0 753f 480b ee3d
00000360: 9862 693c 32e8 493d 8043 46be ef88 a9bc
00000370: bee6 72be 1aba 3a3d 8f40 4bbd d48c aebb
00000380: c412 2e3c 408e 3b3d e373 65be 8095 703a
00000390: 1423 b6bd 2502 15bd d8da f4bd 6c02 4abc
000003a0: c09c 5fbb 4019 0d3d 90f7 6f3b 95c0 60bd
000003b0: eb7d 343d a0a1 1d3c b258 5dbc 9b6b 2fbc
000003c0: da91 2a3d a00e c33c 4f9a cdbd c102 48bd
000003d0: cfc2 4fbd 5851 4bbd f63b 5d3d b13d 073c
000003e0: 275d d73d 9d2b 04be a059 1f3c 5a8d bbbf
000003f0: 88c6 b83c e23e c13c 0c5b 5ebc 0b50 6abc

fc2.bias f4 [2]
-0.10384531 0.02634985
00000000: daac d4bd a4db d73c

fc1.weight f4 [300, 9]
-0.0033093998 0.15053241 0.15349327 -0.090832725 -0.18662605 0.083388835 0.05294555 -0.20001028
-0.23727366 0.105756246 0.17939003 -0.027897144 -0.23443797 0.11383641 0.0028584062 0.13445404
-0.10383102 -0.16261579 -0.22724517 0.19337925 -0.17370078 -0.16923042 -0.29758692 -0.15958638
-0.1936609 0.11983339 -0.17413542 -0.21271035 -0.32619375 -0.3222967 0.08732927 0.027517676
0.22344962 -0.12962162 0.12425503 0.03245762 0.11593315 0.2664397 -0.09916052 -0.08894949
-0.20005295 -0.19276623 0.2959247 -0.18577552 -0.07156402 0.11246784 -0.16204223 0.15537335
-0.42685476 -0.32875264 0.47302684 -0.9824697 1.5140262 -0.33812705 0.11088668 0.11085732
0.28895622 -0.121498704 0.14332838 0.19470617 -0.20382181 0.65874356 0.5088108 0.028824706
-0.10127512 0.044875752 0.017587647 -0.28144276 -0.23337732 -0.50388706 -1.0633098 0.28168556
0.0074578524 0.08404541 -0.1568103 -0.021521568 0.11987007 -0.2175841 -0.25031668 -0.08904716
-0.20123367 0.07433311 0.003838675 0.101002626 -0.04807764 -0.31974873 -0.3281247 0.072083846
0.07249549 -0.6252682 0.009947326 0.01988329 0.22075868 -0.2402539 -0.120231256 0.16640663
0.15748233 0.27860874 -0.2062726 -0.26525733 0.27190322 -0.08807899 0.14956681 0.09971307
0.03830403 -0.17007829 -0.21417235 -0.31331515 0.016070638 0.18720569 -0.1158436 -0.08816616
-0.18489453 0.058865417 0.109285586 0.022810997 0.02633699 -0.2754229 0.32420883 0.17241898
-0.3020354 0.071179986 0.20657381 -0.024872988 -0.17235777 0.14834478 0.1345509 0.0069809444
0.04458562 0.12621407 0.092963584 -0.1319298 -0.086661145 0.12672481 -0.26987666 -0.26295063
-0.048287075 0.18828455 0.14443634 0.0833188 -0.45380783 -0.40480977 -0.32258213 -0.37475413
-0.20372516 -0.12577897 0.0435146 -0.11684794 -0.37777016 -0.02296951 0.042820945 0.30696568
-0.20974374 -0.28752863 -0.043971322 0.1206008 0.037456524 0.20859633 0.28047436 -0.10369468
-0.14115661 -0.056078404 0.14614895 -0.2991959 -0.09870045 -0.086842105 0.2718456 0.027696043
-0.30538982 0.014614433 -0.29160985 0.102941416 0.15040277 0.05979562 -0.16450526 -0.17541142
0.06194735 0.1555407 0.020026714 -0.00068887963 -0.09700628 -0.04108608 -0.12814938 0.121611096
-0.15225351 -0.35803798 -0.13399659 -0.49367443 -0.27426657 -0.21615273 -0.1073544 0.24335183
-0.17121972 -0.15242487 -0.2556073 0.20927136 -0.17460527 0.037544068 -0.32368594 -0.16807267
-0.00835076 0.103394866 0.23581353 -0.14580381 0.27525714 0.12282351 -0.09347975 -0.33330205
0.13907638 -0.08473814 -0.39304683 0.25777394 -0.030940522 0.20864551 0.4648913 0.12691854
0.20022169 -0.16624448 -0.19077417 -0.038689375 -0.14488241 0.15301242 0.09082243 0.16264567
0.30789852 0.0010545396 -0.09532387 -0.27092555 0.09244071 -0.32047632 -0.39136067 0.18482974
-0.26320118 0.13822067 0.18339099 -0.022101535 -0.31984332 -0.20180885 -0.4189987 0.52937615
-0.9197273 1.0225246 -0.13288198 0.07348633 0.04845136 -0.19818895 -0.20295827 0.07423219
-0.31311792 -0.10495433 -0.0058194697 -0.067968816 -0.010240763 -0.14480035 -0.021728843 -0.2428169
00000000: 84e2 58bb 2b25 1a3e 572d 1d3e 8206 babd
00000010: e61a 3fbe c4c7 aa3d 6fdd 583d 7fcf 4cbe
00000020: def7 72be bb96 d83d 05b2 373e 8d88 e4bc
00000030: 8210 70be 1023 e93d 1954 3b3b 52ae 093e
00000040: 5ca5 d4bd c184 26be f5b2 68be 3605 463e
00000050: 9ede 31be bd4a 2dbe 505d 98be 9d6a 23be
00000060: 0b4f 46be 356b f53d 8e50 32be bed0 59be
00000070: de02 a7be 1304 a5be b0d9 b23d c06c e13c
00000080: facf 643e 88bb 04be 6c79 fe3d 48f2 043d
00000090: 5c6e ed3d c96a 883e ac14 cbbd 262b b6bd
000000a0: aeda 4cbe 8364 45be 7183 973e f03b 3ebe
000000b0: 2890 92bd 8a55 e63d 66ee 25be 311a 1f3e
000000c0: b58c dabe 4452 a8be 9330 f23e 2283 7bbf
000000d0: 9ccb c13f fd1e adbe 8e18 e33d 2a09 e33d
000000e0: 12f2 933e 50d4 f8bd adc4 123e 0e61 473e
000000f0: aab6 50be 6ba3 283f 6d41 023f ca21 ec3c
00000100: 5569 cfbd a3cf 373d f813 903c 4419 90be
00000110: 77fa 6ebe befe 00bf 891a 88bf 1739 903e
00000120: 0061 f43b 0020 ac3d e192 20be 004e b0bc
00000130: 707e f53d 5ece 5ebe 8229 80be 5c5e b6bd
00000140: 3310 4ebe f53b 983d 4892 7b3b 77da ce3d
00000150: 0fed 44bd 1bb6 a3be f6ff a7be b2a0 933d
00000160: 8478 943d 9411 20bf 1cfa 223c 48e2 a23c
00000170: 900e 623e 1e05 76be ce3b f6bd 8066 2a3e
00000180: 0c43 213e cea5 8e3e 2039 53be cfcf 87be
00000190: e636 8b3e c262 b4bd 0b28 193e 5e36 cc3d
000001a0: b0e4 1c3d 0129 2ebe ff4f 5bbe d86a a0be
000001b0: 92a6 833c d9b2 3f3e 693f edbd 7690 b4bd
000001c0: fe54 3dbe dd1c 713d 1fd1 df3d 21de ba3c
000001d0: acc0 d73c 3b04 8dbe b3fe a53e 9a8e 303e
000001e0: 62a4 9abe d0c6 913d 1688 533e 70c2 cbbc
000001f0: 8e7e 30be b2e7 173e b6c7 093e 68c0 e43b
00000200: 699f 363d 433e 013e b163 be3d 9b18 07be
00000210: 667b b1bd 26c4 013e 462d 8abe 77a1 86be
00000220: abc8 45bd aacd 403e 1fe7 133e 0ca3 aa3d
00000230: 8059 e8be 3a43 cfbe 7c29 a5be c6df bfbe
00000240: 549d 50be 34cc 00be 5d3c 323d f94d efbd
00000250: 176b c1be 8e2a bcbc 0465 2f3d 9b2a 9d3e
00000260: 10c7 56be f436 93be 461b 34bd 8dfd f63d
00000270: 036c 193d 479a 553e 569a 8f3e e05d d4bd
00000280: 5c8b 10be 78b2 65bd 12a8 153e 3430 99be
00000290: 7623 cabd 46da b1bd 592f 8b3e d0e2 e23c
000002a0: 0e5c 9cbe 6071 6f3c e34d 95be f3d2 d23d
000002b0: 2f03 1a3e 41ec 743d 1174 28be 0d9f 33be
000002c0: 81bc 7d3d 1046 1f3e 100f a43c ee95 34ba
000002d0: 3bab c6bd e149 28bd 9739 03be 3d0f f93d
000002e0: 58e8 1bbe c150 b7be 6736 09be e5c2 fcbe
000002f0: ab6c 8cbe 2457 5dbe a0dc dbbd 3931 793e
00000300: 3954 2fbe 4415 1cbe f6de 82be 3b4b 563e
00000310: b9cb 32be cfc7 193d 2aba a5be 3e1b 2cbe
00000320: a0d1 08bc b0c0 d33d 1a79 713e 984d 15be
00000330: 81ee 8c3e e48a fb3d 5072 bfbd 91a6 aabe
00000340: 0a6a 0e3e 318b adbd 6f3d c9be f2fa 833e
00000350: fa76 fdbc 2ba7 553e 3c06 ee3e eff6 013e
00000360: ea06 4d3e fe3b 2abe 4e5a 43be c078 1ebd
00000370: 0e5c 14be 4aaf 1c3e 1c01 ba3d 968c 263e
00000380: e0a4 9d3e 7a38 8a3a 2939 c3bd c1b6 8abe
00000390: 8e51 bd3d 7915 a4be 6d60 c8be 0244 3d3e
000003a0: 4ec2 86be b889 0d3e d9ca 3b3e 470e b5bc
000003b0: 81c2 a3be fba6 4ebe ff86 d6be 3285 073f
000003c0: 4073 6bbf 16e2 823f 3712 08be 0080 963d
000003d0: ef74 463d 0bf2 4abe 4bd4 4fbe 0c07 983d
000003e0: fe50 a0be 4cf2 d6bd 40b1 bebb 3c33 8bbd
000003f0: e0c8 27bc 8b46 14be b000 b2bc fea4 78be

fc1.bias f4 [300]
-0.29461563 -0.11084277 0.30568418 -0.17800054 -0.3317315 0.060728814 -0.10646766 0.302172
-0.230812 0.016653303 -0.28894126 -0.25077266 -0.07979617 -0.2664973 -0.39355347 -0.16630383
0.21325444 0.0299427 0.1314353 -0.2351726 0.0054171127 0.16529948 -0.28307027 0.23623504
-0.2226218 0.1309854 -0.12210955 -0.14946747 -0.13319898 0.30461526 -0.24893531 0.1828771
-0.09945488 0.0578309 -0.28191453 -0.080135174 -0.031560972 0.21628533 -0.08653621 0.056880206
0.029886821 -0.25780866 0.042819455 -0.20429587 0.14667152 -0.21022885 -0.30166984 -0.15182786
0.28600115 0.16968639 -0.21646397 -0.17712316 0.3248575 0.23197627 -0.007302065 -0.34705883
-0.18135214 0.13426319 -0.09427192 0.024931163 0.33583432 0.21424091 -0.14752239 0.093435206
0.21852647 0.0025819195 -0.26938197 -0.04662666 0.25999615 -0.2395405 -0.08538844 0.23512957
-0.23309803 -0.22333276 0.14752088 -0.00042773216 -0.253244 0.31105086 0.06845786 0.067610726
-0.12346503 -0.04608035 -0.13435724 0.085427314 -0.11545021 -0.24287148 0.14318421 -0.09625435
0.036570735 0.0625427 -0.12493555 -0.20003335 0.07335362 0.16757043 -0.16288997 -0.27200967
-0.33407986 -0.2870071 -0.11199236 -0.3856499 0.115327515 -0.0654292 0.03086242 -0.22704443
0.045300502 -0.04701433 0.19023299 -0.035526365 0.09120302 0.23194854 -0.1360157 -0.31826678
-0.28250098 0.075846605 0.027762808 0.078722715 -0.15224606 -0.14080755 0.19032899 0.010559857
0.120209366 -0.16117899 0.2971672 -0.29253682 0.1790343 -0.3127838 -0.27961683 -0.10795304
-0.12007365 0.009526088 -0.11850378 0.010850698 -0.45753312 0.32290033 -0.088615775 -0.22489125
-0.0656028 -0.26824054 -0.20338778 -0.14076471 0.023317078 -0.15653324 -0.22223689 -0.3557194
-0.04724474 -0.110489614 0.08372709 -0.18328223 0.30954954 -0.2905075 -0.28124422 0.30328718
-0.34603363 -0.35113877 -0.07116786 0.21432148 -0.3057998 0.03701135 0.23370203 0.13533172
-0.26053685 -0.23105413 0.1306602 -0.10783273 0.1669684 -0.21529897 0.2512952 -0.20520663
-0.13136058 -0.43081236 0.028053492 -0.3822405 -0.32995558 -0.17282534 -0.10970943 0.16364574
-0.07482365 -0.08454582 0.28032535 0.078011006 -0.025932238 0.016881261 0.32349283 -0.32156467
-0.0598301 0.1839247 0.20835494 -0.28380772 0.065899484 0.13267614 0.12911764 -0.28106767
0.26487085 -0.19733702 0.11116314 0.23325826 -0.20091233 -0.26902732 -0.20912385 -0.12960075
0.13004161 -0.061597176 -0.09140059 0.059042424 -0.027827853 0.287538 -0.41017723 0.076128736
0.18805405 -0.05548956 -0.018372536 -0.13580559 -0.32312158 -0.06988167 0.038486123 0.039657492
-0.105565906 -0.06438765 -0.065014206 -0.22389539 0.43064326 -0.12750565 -0.0213017 -0.37771055
0.0034085622 0.07207534 -0.15185118 0.005623579 -0.055168442 0.031646132 -0.022423755 -0.2487714
0.064503096 -0.22223811 -0.08046472 -0.23847985 0.14809756 -0.31588557 -0.02529279 -0.087362245
0.02496619 -0.26248989 0.24196006 -0.2908281 0.054027747 -0.2352322 -0.118328184 0.0915815
-0.27202842 -0.03584434 -0.053316742 -0.12495246 -0.16379596 -0.32241824 0.024695307 0.13992426
00000000: dcd7 96be 8901 e3bd a382 9c3e c645 36be
00000010: b6d8 a9be c7be 783d b70b dabd 4ab6 9a3e
00000020: fb59 6cbe 826c 883c 1cf0 93be 4665 80be
00000030: 2d6c a3bd 5672 88be d77f c9be 8d4b 2abe
00000040: 5f5f 5a3e 654a f53c fa96 063e 16d1 70be
00000050: 0982 b13b 4444 293e 96ee 90be 99e7 713e
00000060: f8f6 63be 0921 063e 9214 fabd 000e 19be
00000070: 5065 08be 88f6 9b3e e6e8 7ebe 2244 3b3e
00000080: 00af cbbd 18e0 6c3d 1a57 90be e91d a4bd
00000090: 1446 01bd e779 5d3e e539 b1bd 38fb 683d
000000a0: 35d5 f43c 7fff 83be 7463 2f3d f032 51be
000000b0: 0f31 163e 3b46 57be 7874 9abe c378 1bbe
000000c0: be6e 923e 45c2 2d3e bba8 5dbe c65f 35be
000000d0: b953 a63e 308b 6d3e 2946 efbb b2b1 b1be
000000e0: 60b4 39be 4a7c 093e a311 c1bd 703c cc3c
000000f0: 7af2 ab3e f861 5b3e 1c10 17be f55a bf3d
00000100: 67c5 5f3e 6c35 293b 6fec 89be 99fb 3ebd
00000110: 371e 853e 1b4a 75be 22e0 aebd cec5 703e
00000120: 40b1 6ebe 58b1 64be b70f 173e 3d41 e0b9
00000130: 33a9 81be 0f42 9f3e a233 8c3d 7e77 8a3d
00000140: 3cdb fcbd c0be 3cbd f294 09be 84f4 ae3d
00000150: 2971 ecbd 4db3 78be e29e 123e 0021 c5bd
00000160: 32cb 153d 6316 803d 36de ffbd 8bd5 4cbe
00000170: 6c3a 963d 9597 2b3e a1cc 26be da44 8bbe
00000180: 840c abbe 98f2 92be 405c e5bd e773 c5be
00000190: d530 ec3d bfff 85bd 30d3 fc3c 567e 68be
000001a0: 058d 393d 1992 40bd 70cc 423e 1884 11bd
000001b0: a6c8 ba3d eb83 6d3e b347 0bbe ddf3 a2be
000001c0: f8a3 90be 7755 9b3d d46e e33c 6039 a13d
000001d0: 64e6 1bbe db2f 10be 9ae5 423e 4003 2d3c
000001e0: 5430 f63d 1b0c 25be 4d26 983e 63c7 95be
000001f0: c454 373e 3325 a0be f029 8fbe 7c16 ddbd
00000200: 2ce9 f5bd 4f13 1c3c 1cb2 f2bd 20c7 313c
00000210: c841 eabe 3153 a53e 307c b5bd e449 66be
00000220: c35a 86bd d356 89be e344 50be a024 10be
00000230: 7503 bf3c 404a 20be 1192 63be da20 b6be
00000240: b383 41bd 6148 e2bd 1c79 ab3d 56ae 3bbe
00000250: 477d 9e3e 66bd 94be 3eff 8fbe 7548 9b3e
00000260: 522b b1be 76c8 b3be 74c0 91bd 1777 5b3e
00000270: cb91 9cbe 3799 173d 964f 6f3e 6694 0a3e
00000280: 1665 85be 7499 6cbe cacb 053e 68d7 dcbd
00000290: c4f9 2a3e 5577 5cbe c4a9 803e b021 52be
000002a0: 6383 06be 7093 dcbe 70d0 e53c 07b5 c3be
000002b0: f0ef a8be 20f9 30be 56af e0bd c092 273e
000002c0: 243d 99bd 5c26 adbd ce86 8f3e 3cc4 9f3d
000002d0: d86f d4bc 924a 8a3c daa0 a53e 20a4 a4be
000002e0: 6810 75bd c256 3c3e ff5a 553e 3f4f 91be
000002f0: 4ff6 863d 41dc 073e 6a37 043e 1ae8 8fbe
00000300: 279d 873e b712 4abe 80a9 e33d 41db 6e3e
00000310: f6bb 4dbe f3bd 89be 9024 56be 0fb6 04be
00000320: a129 053e 524d 7cbd 3c30 bbbd 78d6 713d
00000330: 3df7 e3bc 2e38 933e c002 d2be 62e9 9b3d
00000340: 3e91 403e 0549 63bd 0082 96bc 9f10 0bbe
00000350: 3170 a5be 1f1e 8fbd a0a3 1d3d e56f 223d
00000360: f032 d8bd acdd 83bd 2b26 85bd d544 65be
00000370: 467d dc3e d790 02be e780 aebc 4763 c1be
00000380: 2f62 5f3b 3c9c 933d e07e 1bbe 0046 b83b
00000390: 4ef8 61bd 609f 013d 06b2 b7bc eebd 7ebe
000003a0: 331a 843d 6392 63be b0ca a4bd 1034 74be
000003b0: e3a6 173e c1bb a1be d332 cfbc faea b2bd
000003c0: e585 cc3c 1365 86be 61c4 773e 6ce7 94be
000003d0: 334c 5d3d b6e0 70be 0c56 f2bd 158f bb3d
000003e0: 4f47 8bbe 84d1 12bd a862 5abd 13e7 ffbd
000003f0: 21ba 27be 0114 a5be d04d ca3c 4e48 0f3e

fc2.weight f4 [2, 300]
0.014195465 -0.0015251528 -0.037353706 0.034180418 0.049104705 1.4304587 -0.15760453 -0.067876145
-0.0015902817 -0.0335425 0.011333695 0.023332724 -0.03809392 -0.0033104047 -0.026470168 -0.11290881
0.059454013 -0.039230883 0.031994194 -0.0106827915 0.057112664 -0.04644901 -0.05391135 0.18094869
-0.045901414 0.017262254 0.22981264 -0.0030687526 0.044267327 -0.28597897 -0.033252925 -0.046790518
-0.04989396 -0.023174586 0.06471231 -0.011975469 -0.010706075 0.008666383 0.2968258 -0.05576262
0.10407763 -0.019149631 0.02818939 -0.027937375 0.026989847 -0.033290677 -0.0319118 -0.04882277
0.21225066 0.018205933 -0.073422395 0.050872445 -0.27856737 -0.003436176 0.027702682 -0.055631492
0.0063741803 0.029812708 0.027743243 -0.0018746331 0.18127625 0.08521026 -0.017612724 -0.072823904
0.09990381 -0.012920949 0.08176088 0.29258466 -0.030897763 -0.038314678 -0.2287463 0.0015456335
-0.024071 0.04353234 0.105028324 -0.031743042 -0.023458268 -0.30746448 -0.0046016457 0.0195048
-0.041996986 -0.018717106 0.9570221 -0.006656425 0.058152024 0.16564195 0.020394072 0.047197055
-0.4243086 0.1383856 0.059843678 0.032735102 0.7953197 -0.046673052 -0.023748096 -0.014270075
0.2456809 0.017875545 0.031184627 -0.06649911 0.1432503 0.0023017775 -0.0476909 -0.050637856
0.35471502 -0.09066925 1.4832004 0.043370657 -0.036451306 -0.2178488 0.019948483 0.18940362
-0.0005592976 -0.0356248 -0.2058084 0.0065311342 -0.1466775 0.18822531 -0.033150457 0.0076350598
0.027122289 -0.275878 0.18636025 -0.04885509 0.5088617 -0.032433975 0.0533318 -0.053229794
0.029241875 -0.032394223 -0.016449146 0.03448791 0.8825281 -0.19974105 -0.02778017 -1.489486
0.07050901 0.02977618 0.052243255 -0.18289778 -0.016573554 -0.004739519 0.018783972 0.088038005
0.029212357 0.016094666 -0.039902925 -0.017279308 -0.080875754 -0.037555717 0.027851 1.363696
-0.005885336 -0.021246376 0.01077304 0.6252328 -0.009572115 -0.071344964 -0.055503566 0.030961754
-0.017074026 0.07451147 -0.031840645 -0.052355845 0.023111442 0.31837687 0.2190618 -0.9006233
0.031787 0.095884964 0.02834683 0.05692342 0.051815674 -0.0049840645 -0.0031881705 -0.0063834414
-0.0009491845 -0.012909889 0.079687394 0.049699888 -0.0291887 0.017630232 -0.99799263 -0.041008968
0.03989532 0.33966136 0.036012974 0.038738295 -0.0233724 0.33250114 1.4130646 0.026176818
0.8677888 0.014783689 0.06679191 0.034341253 0.042510964 0.04475922 0.015880786 -0.038938817
-1.0576196 -0.034122758 0.03575684 -0.27013767 -0.008274949 1.2510651 0.053369116 1.0836254
0.0010694452 -0.26819283 0.026777081 -0.40893146 -0.17742904 -0.0028461595 0.95972216 0.11637204
0.014244698 0.049293704 -0.1936162 -0.020695217 -0.23802803 0.045587353 -0.052343383 -0.005326867
0.010624585 0.045789957 -0.22407568 0.00091775507 -0.09026473 -0.036379 -0.11955772 -0.012329679
-0.0034120549 0.03444791 0.0036616065 -0.05487116 0.0440652 0.009621054 -0.01351001 -0.01070682
0.038457192 0.023810685 -0.100392565 -0.04883075 -0.05072304 -0.049638122 0.05401226 0.00825446
0.10515797 -0.13151631 0.009725958 -1.4508653 0.022555629 0.023589585 -0.013571512 -0.014301356
00000000: 1894 683c a3e7 c7ba 3300 19bd c400 0c3d
00000010: 0422 493d 4519 b73f 1563 21be a602 8bbd
00000020: 0071 d0ba dc63 09bd f6b0 393c 4524 bf3c
00000030: 5f08 1cbd 60f3 58bb f7d7 d8bc bc3c e7bd
00000040: 0d86 733d 90b0 20bd 580c 033d e006 2fbc
00000050: f8ee 693d 5141 3ebd 26d2 5cbd 9d4a 393e
00000060: 1f03 3cbd 9269 8d3c 0154 6b3e 201d 49bb
00000070: a851 353d d66b 92be 3834 08bd 6aa7 3fbd
00000080: 9c5d 4cbd a1d8 bdbc e387 843d c234 44bc
00000090: 8868 2fbc 72fd 0d3c 8df9 973e 5867 64bd
000000a0: a726 d53d b0df 9cbc 70ed e63c ecdc e4bc
000000b0: d019 dd3c ce5b 08bd f3b5 02bd 63fa 47bd
000000c0: 3d58 593e 9c24 953c 7b5e 96bd a05f 503d
000000d0: 62a0 8ebe 7831 61bb bcf0 e23c d9dd 63bd
000000e0: 80de d03b c839 f43c cc45 e33c 40b6 f5ba
000000f0: 7ba0 393e b782 ae3d 8f48 90bc b324 95bd
00000100: 5e9a cc3d 63b2 53bc 4072 a73d a8cd 953e
00000110: 4e1d fdbc daef 1cbd 783c 6abe db96 ca3a
00000120: 8c30 c5bc f84e 323d 1719 d73d fe04 02bd
00000130: 8e2b c0bc fc6b 9dbe 67c9 96bb 88c8 9f3c
00000140: 0805 2cbd 9e54 99bc 66ff 743f 241e dabb
00000150: d130 6e3d 0b9e 293e 7811 a73c b351 413d
00000160: fa3e d9be f4b4 0d3e a51e 753d 3e15 063d
00000170: 129a 4b3f 3e2c 3fbd 5e8b c2bc 08cd 69bc
00000180: c693 7b3e bc6f 923c e776 ff3c af30 88bd
00000190: 35b0 123e 6bd9 163b 8857 43bd a469 4fbd
000001a0: 359d b53e cdb0 b9bd 83d9 bd3f 6ea5 313d
000001b0: f74d 15bd c113 5fbe 006b a33c 06f3 413e
000001c0: d49d 12ba 4feb 11bd 70bf 52be 2003 d63b
000001d0: a032 16be 23be 403e c6c8 07bd 862f fa3b
000001e0: 902f de3c e23f 8dbe 39d5 3e3e 461c 48bd
000001f0: c344 023f 7dd9 04bd 7272 5a3d 7c07 5abd
00000200: a88c ef3c ceaf 04bd 5cc0 86bc 3243 0d3d
00000210: 5ded 613f eb88 4cbe 3d93 e3bc 7aa7 bebf
00000220: 0767 903d 2ded f33c 06fd 553d 8e49 3bbe
00000230: 43c5 87bc f84d 9bbb d8e0 993c 454d b43d
00000240: c14e ef3c f6d8 833c 4071 23bd 568d 8dbc
00000250: 30a2 a5bd 06d4 19bd c827 e43c 978d ae3f
00000260: c7d9 c0bb e10c aebc 6881 303c 420f 203f
00000270: 5cd4 1cbc 4f1d 92bd b557 63bd 81a3 fd3c
00000280: d4de 8bbc 7899 983d 566b 02bd 1573 56bd
00000290: 3554 bd3c 4b02 a33e bd51 603e 408f 66bf
000002a0: 1633 023d 565f c43d 9c37 e83c 8828 693d
000002b0: ac3c 543d 5d51 a3bb a0f0 50bb 302c d1bb
000002c0: b2d2 78ba 0084 53bc 2533 a33d 1c92 4b3d
000002d0: 241d efbc 476d 903c 727c 7fbf 05f9 27bd
000002e0: 4669 233d 18e8 ad3e 5782 133d 0cac 1e3d
000002f0: 7a77 bfbc 973d aa3e 4ddf b43f c470 d63c
00000300: 6827 5e3f 4937 723c 32ca 883d 6aa9 0c3d
00000310: fa1f 2e3d 7255 373d 6c18 823c 4f7e 1fbd
00000320: 1460 87bf 4ec4 0bbd c475 123d 7c4f 8abe
00000330: a793 07bc e722 a03f 9399 5a3d 3db4 8a3f
00000340: a02c 8c3a 9250 89be 9c5b db3c 775f d1be
00000350: f5af 35be a286 3abb 5ab0 753f 7754 ee3d
00000360: 9862 693c 32e8 493d 5343 46be 0489 a9bc
00000370: 9fbd 73be ceb9 3a3d 0466 56bd 008d aebb
00000380: bd12 2e3c 408e 3b3d 1874 65be 8095 703a
00000390: b7dc b8bd 2502 15bd aeda f4bd 6c02 4abc
000003a0: c89c 5fbb 4019 0d3d 90f7 6f3b 95c0 60bd
000003b0: b67d 343d a0a1 1d3c 1759 5dbc a86b 2fbc
000003c0: 4a85 1d3d a00e c33c 9e9a cdbd c102 48bd
000003d0: f6c2 4fbd 5851 4bbd f63b 5d3d b73d 073c
000003e0: 105d d73d 36ac 06be a059 1f3c f4b5 b9bf
000003f0: 95c6 b83c f23e c13c 0c5b 5ebc 3c50 6abc

fc2.bias f4 [2]
-0.10454732 0.02370874
00000000: e81c d6bd d538 c23c

fc1.weight f4 [300, 9]
0.31412312 -0.3475005 0.19986135 -0.091020435 -0.4290821 0.35607222 -0.06416655 -0.4045523
-0.3546952 0.3020057 0.06431192 -0.11359899 0.36894232 0.079914525 0.04620704 0.22818877
-0.87484556 -0.21790114 0.23072328 0.07042982 -0.027112477 -0.16695337 -0.1234928 0.18826059
-0.17158625 -0.018683005 -0.39655486 -0.21040654 0.0685111 0.013222098 -0.051823854 0.07291928
0.32120916 0.19727698 0.25627694 0.10240021 0.15175176 0.1707264 0.016231293 -0.40637603
-0.21547197 -0.26885685 -0.7596279 0.0883156 0.24261363 0.21118899 0.08438723 -0.023746917
-0.25886288 -0.19678009 0.08312125 -0.29807243 0.5985727 -0.38816503 -0.2895592 0.057984084
0.058273982 0.3442467 0.01132839 -1.1232107 -0.033205148 -2.945342 0.28679606 0.07639856
-0.06722658 -0.13008173 -0.09019607 -0.22237822 0.18443282 -0.37793502 -0.24799104 0.2942323
-0.28013062 -0.018725425 -0.3132643 0.18539932 0.030529648 -0.18400308 0.08996713 0.024130583
0.22996947 -0.32023224 -0.25175282 0.02622667 0.12208617 0.22676566 0.111534804 -0.10165577
-0.25580263 0.21591416 0.11339792 -0.12230497 -0.07930694 -0.033738077 0.047138553 -0.12998652
-0.23996156 -0.20194536 -0.20719557 -0.1558492 -0.3210557 -0.24416013 -0.08527278 -0.14872904
0.0030325206 -0.0790027 0.13112515 0.2913926 -0.051480494 -0.055782553 -0.3404562 0.09835656
-0.16380079 0.024173794 -0.12718982 -0.21129012 0.1273909 0.0045429445 0.042884376 0.20037827
-0.26908594 0.24987908 -0.35818976 -0.2040891 -0.056775063 0.10850903 0.0734677 -0.08194401
-0.101662055 0.16933627 -0.28701976 0.41204923 -0.24371678 0.6635583 -0.20274337 0.07037507
0.13407065 -0.050777074 -0.41685498 -0.016407436 0.30938768 0.15984498 0.667394 -0.43001598
-0.14452824 -0.11765818 -0.275927 0.28376433 0.054866463 -0.30970824 -0.09985606 -0.17942373
0.1740261 0.30670667 0.23800135 -0.26393694 -0.18356545 -0.07686145 -0.71875685 0.39887783
0.0013830753 0.27867132 -0.11887607 -0.06989619 -0.11184482 -0.07331395 0.059758663 0.16178146
-0.059725612 -0.13133101 -0.21895075 0.030877372 0.018397743 -0.12233315 0.29503235 0.24366447
-0.23471305 -0.2297767 0.14385957 0.04342091 0.10526517 0.31990042 0.0042797327 -0.08622043
-0.14694989 -0.09969279 -0.081207484 -0.08118844 -0.27277237 -0.2137933 -0.34447914 0.017161276
0.31899884 -0.018912409 -0.49388865 -0.30685818 -0.55355924 -0.054508768 -0.2019278 0.11224297
0.20550844 0.02499536 0.024846945 -0.0065725856 0.05105569 -0.6584656 0.294862 0.05658399
-0.005668528 0.35645914 0.26569763 -0.015867831 -0.13372612 -0.29290426 -0.51832783 0.21108061
0.21396448 -0.119418606 -0.10647573 0.15589401 -0.20339665 0.3064375 -0.2943528 0.60010016
-0.15309075 -0.18990164 0.25466326 0.17804451 -0.26448873 -0.15400425 -0.15382616 -0.22678241
0.041096415 -0.2247133 0.16999641 -0.30283368 0.0074317753 -0.29017898 0.33186308 -0.22568426
-0.29345402 -0.20863843 -0.22219154 0.26355782 -0.2211695 0.28405696 -0.17016736 -0.21742967
-0.24093115 -0.35736796 -0.17734005 0.11541628 0.119688414 -0.32518587 0.07705667 -0.11078151
00000000: bfd4 a03e 96eb b1be 74a8 4c3e ec68 babd
00000010: a6b0 dbbe 194f b63e c169 83bd 7b21 cfbe
00000020: 9c9a b5be 7ea0 9a3e f8b5 833d 96a6 e8bd
00000030: 02e6 bc3e 3aaa a33d 9843 3d3d 51aa 693e
00000040: e1f5 5fbf 7a21 5fbe b942 6c3e 823d 903d
00000050: fc1a debc d3f5 2abe cbe9 fcbd 62c7 403e
00000060: 4eb4 2fbe 1a0d 99bc 3d09 cbbe d074 57be
00000070: 8c4f 8c3d 80a1 583c 4045 54bd b456 953d
00000080: 8775 a43e fa02 4a3e bb36 833e 34b7 d13d
00000090: d064 1b3e e7d2 2e3e 7df7 843c 8510 d0be
000000a0: afa4 5cbe 9ba7 89be f976 42bf cfde b43d
000000b0: b56f 783e ed41 583e 36d3 ac3d e588 c2bc
000000c0: ad89 84be b880 49be 793b aa3d f39c 98be
000000d0: 0f3c 193f 91bd c6be 1a41 94be b880 6d3d
000000e0: b3b0 6e3d 1a41 b03e b69a 393c 5ec5 8fbf
000000f0: 1f02 08bd 7c80 3cc0 efd6 923e d976 9c3d
00000100: 17ae 89bd 2534 05be b8b8 b8bd 1eb7 63be
00000110: f5db 3c3e b380 c1be 5df1 7dbe 9ea5 963e
00000120: 486d 8fbe 1066 99bc 2e64 a0be 52d9 3d3e
00000130: 5019 fa3c 4e6b 3cbe b040 b83d 80ad c53c
00000140: 1e7d 6b3e 7bf5 a3be bfe5 80be 50d9 d63c
00000150: 5008 fa3d 4235 683e 5c6c e43d e630 d0bd
00000160: 90f8 82be 9a18 5d3e 2b3d e83d 077b fabd
00000170: ad6b a2bd f030 0abd 5b14 413d 301b 05be
00000180: 7cb8 75be c4ca 4ebe 132b 54be ef96 1fbe
00000190: 6a61 a4be 1d05 7abe 7fa3 aebd 6d4c 18be
000001a0: 41bd 463b 2bcc a1bd ac45 063e 6931 953e
000001b0: 36dd 52bd 3f7c 64bd 4650 aebe 2a6f c93d
000001c0: 65bb 27be 1f08 c63c 0c3e 02be 705c 58be
000001d0: c372 023e fbdc 943b 87a7 2f3d f62f 4d3e
000001e0: a2c5 89be 4de0 7f3e a664 b7be bcfc 50be
000001f0: f88c 68bd fb39 de3d 3c76 963d 43d2 a7bd
00000200: 3234 d0bd 7d66 2d3e 41f4 92be 1ef8 d23e
00000210: e490 79be f5de 293f f59b 4fbe ce20 903d
00000220: d149 093e 9ffb 4fbd 046e d5be e368 86bc
00000230: 1068 9e3e 67ae 233e 55da 2a3f 0e2b dcbe
00000240: 36ff 13be c6f6 f0bd 4e46 8dbe 8f49 913e
00000250: a8bb 603d 1492 9ebe 5681 ccbd dbba 37be
00000260: e633 323e a808 9d3e a0b6 733e be22 87be
00000270: 95f8 3bbe 8969 9dbd 7300 38bf b739 cc3e
00000280: 4e48 b53a 02ae 8e3e 4c75 f3bd bc25 8fbd
00000290: e60e e5bd a025 96bd 80c5 743d 0aaa 253e
000002a0: d8a2 74bd a37b 06be a034 60be 8bf2 fc3c
000002b0: ddb6 963c cd89 fabd 7b0e 973e 2e83 793e
000002c0: 9e58 70be 954a 6bbe ec4f 133e 20da 313d
000002d0: 4495 d73d fdc9 a33e 003d 8c3b 5694 b0bd
000002e0: 087a 16be bc2b ccbd 1c50 a6bd 2046 a6bd
000002f0: d2a8 8bbe a1ec 5abe 925f b0be ce95 8c3c
00000300: d153 a33e 32ee 9abc f9de fcbe 841c 9dbe
00000310: 0fb6 0dbf 9644 5fbd 29c6 4ebe a4df e53d
00000320: ce70 523e 12c3 cc3c d28b cb3c d85e d7bb
00000330: c51f 513d 3491 28bf 27f8 963e 9dc4 673d
00000340: 0fbf b9bb d081 b63e 8509 883e 41fd 81bc
00000350: 80ef 08be 8cf7 95be 22b1 04bf 8425 583e
00000360: 8119 5b3e be91 f4bd f30f dabd aea2 1f3e
00000370: 3647 50be 60e5 9c3e 69b5 96be 2aa0 193f
00000380: d2c3 1cbe 9375 42be 3963 823e 4d51 363e
00000390: 116b 87be 4ab3 1dbe 9b84 1dbe a639 68be
000003a0: b754 283d 3e1b 66be 8a13 2e3e 040d 9bbe
000003b0: 4086 f33b 5792 94be f5e9 a93e c619 67be
000003c0: 9b3f 96be 50a5 55be 2e86 63be 0df1 863e
000003d0: 427a 62be ea6f 913e 5a40 2ebe e2a5 5ebe
000003e0: a8b6 76be eff8 b6be a198 35be 5f5f ec3d
000003f0: 331f f53d c37e a6be e3cf 9d3d 6be1 e2bd

fc1.bias f4 [300]
-0.062639564 -0.041692253 -0.13021228 0.17029253 -0.42107955 -0.3025774 -0.35608965 -0.036654375
-0.012068301 -0.325598 0.11676278 0.037304286 -0.008023673 -0.2607469 -0.030014975 0.27780673
-0.31626052 0.25131568 -0.22600552 -0.3277714 -0.24635696 0.06036314 0.033176687 -0.2781499
0.07902186 -0.032742888 0.007578939 -0.16724965 -0.049237777 -0.15720572 -0.264217 -0.29896444
-0.16130938 -0.051810652 0.2870352 -0.31925103 0.1590984 -0.22685811 -0.23968878 -0.17009062
0.3715436 -0.1698885 0.22326022 0.040818103 -0.062089495 -0.03232068 -0.01849362 -0.12333402
0.16504958 0.12041673 0.13877141 0.16783153 -0.34260446 0.3154732 -0.04123169 -0.28182897
-0.11218125 -0.2334921 0.014097762 0.14357592 -0.2505444 -0.20143105 -0.12196778 0.14829628
-0.2391681 0.14362359 -0.013089983 -0.0862877 -0.24137339 -0.11588697 0.20542529 -0.43858868
-0.288217 0.03428439 0.084601514 -0.16535798 -0.20618051 0.19542421 0.12645744 -0.030442173
0.18361662 0.07971648 0.38475552 -0.13428514 -0.38362765 0.26005647 -0.2016297 -0.082156055
0.059803713 -0.07671272 -0.32908666 0.09994436 0.35720775 0.16615403 -0.3938843 0.093519635
0.19285902 0.25044772 -0.16504194 -0.19137661 0.122224666 -0.1935369 0.036191143 -0.0803909
-0.026345506 -0.22255987 0.2291184 0.0012882054 0.25103292 -0.058289815 0.13285498 -0.044379838
-0.2914989 0.10516731 -0.1467797 0.14762315 -0.1598397 0.2077189 -0.25677902 -0.23231944
-0.18094358 -0.17563581 -0.014445742 0.12743238 -0.16179298 -0.2582891 -0.19197573 -0.2834745
0.020644143 -0.1387495 -0.11843863 -0.37338445 0.12277922 -0.25364584 -0.18677092 0.20803313
0.19134647 -0.3047412 0.123847246 0.36884364 -0.31039628 0.19799747 -0.18374197 -0.17976809
0.034559753 0.18701543 -0.17031115 0.032841705 -0.17785156 0.27580997 0.29462698 0.2473146
0.28314075 -0.11747437 -0.015693255 -0.08527798 -0.038729947 0.066740364 0.02065126 0.16708817
-0.17425002 0.35372204 -0.14700243 0.30161825 0.27776662 -0.19258627 0.18410887 0.12745304
0.25253645 0.015445525 -0.14756031 -0.25661358 0.089691475 -0.11988115 -0.12496333 -0.16945851
0.25048158 -0.30197802 -0.042796712 -0.018140275 -0.24943963 -0.39321968 0.017674714 0.2770874
-0.23015921 -0.065906495 -0.17717867 0.15961124 0.17908336 -0.16894242 0.2088757 -0.078793645
0.08492194 0.20450157 0.27017573 -0.17500953 -0.020861 0.051396735 0.40294698 0.20366926
-0.22118779 -0.05927188 -0.00016980701 -0.08002401 -0.12646072 -0.2280077 -0.080503196 0.057425886
0.05514039 0.110412136 0.1339816 0.19783787 0.10260523 0.08185066 0.19960384 -0.27197108
0.034629703 -0.06954002 -0.22873247 0.045872185 -0.27528828 -0.056042273 0.18504722 -0.14061205
-0.3074772 -0.066069774 0.224643 -0.18006377 0.22980215 -0.16384262 0.19618846 0.19898023
-0.14864787 0.11500906 -0.09279706 -0.054395936 0.31401372 -0.2104474 0.25755402 0.095134474
-0.17183764 0.22128473 -0.23677282 0.086698994 0.1612444 0.0057846196 -0.23905376 -0.15645336
-0.09194901 0.06311042 -0.23897883 0.1939397 -0.25444847 -0.06960945 -0.31564966 0.19753243
00000000: 2c49 80bd 7fc5 2abd 5e56 05be 2a61 2e3e
00000010: bd97 d7be 6deb 9abe 6251 b6be e622 16bd
00000020: 20ba 45bc c8b4 a6be 5321 ef3d 61cc 183d
00000030: b975 03bc 9e80 85be f7e1 f5bc af3c 8e3e
00000040: e6ec a1be 73ac 803e fe6d 67be a7d1 a7be
00000050: 0045 7cbe 573f 773d 47e4 073d aa69 8ebe
00000060: 37d6 a13d 681d 06bd c058 f83b 7e43 2bbe
00000070: 8dad 49bd 89fa 20be 7347 87be de11 99be
00000080: 492e 25be 6837 54bd 47f6 923e df74 a3be
00000090: b1ea 223e 7e4d 68be fa70 75be 3c2c 2ebe
000000a0: f63a be3e 40f7 2dbe 549e 643e e230 273d
000000b0: 8e51 7ebd b062 04bd ef7f 97bc 8c96 fcbd
000000c0: c202 293e 0c9d f63d 181a 0e3e 07dc 2b3e
000000d0: da69 afbe b485 a13e 90e2 28bd e34b 90be
000000e0: 48bf e5bd 8e18 6fbe 4dfa 663c 9105 133e
000000f0: 5b47 80be f143 4ebe 3eca f9bd fbda 173e
00000100: 7be8 74be 1012 133e 5e77 56bc 9bb7 b0bd
00000110: 962a 77be 2656 edbd 025b 523e b28e e0be
00000120: 2e91 93be ca6d 0c3d 8f43 ad3d 9a53 29be
00000130: fc20 53be 491d 483e 0f7e 013e dd61 f9bc
00000140: ff05 3c3e 6542 a33d adfe c43e 0b82 09be
00000150: d86a c4be 1f26 853e 0478 4ebe 6f41 a8bd
00000160: bdf4 743d 8f1b 9dbd 0c7e a8be a1af cc3d
00000170: efe3 b63e 4824 2a3e 34ab c9be 3987 bf3d
00000180: d67c 453e af3a 803e c100 29be 3bf8 43be
00000190: ed50 fa3d 8a2e 46be 2a3d 143d fca3 a4bd
000001a0: 88d2 d7bc bce6 63be 049e 6a3e 00d9 a83a
000001b0: 6387 803e 4dc1 6ebd 230b 083e a2c7 35bd
000001c0: 583f 95be f561 d73d 6b4d 16be 862a 173e
000001d0: 05ad 23be 43b4 543e 8a78 83be 26e5 6dbe
000001e0: 4649 39be e0d9 33be d5ad 6cbc a27d 023e
000001f0: 0fad 25be 783e 84be 4995 44be 9223 91be
00000200: e81d a93c 5914 0ebe f48f f2bd 3f2c bfbe
00000210: ac73 fb3d dedd 81be e040 3fbe a306 553e
00000220: 54f0 433e 0a07 9cbe a0a3 fd3d 13d9 bc3e
00000230: 43ec 9ebe d9bf 4a3e db26 3cbe 2015 38be
00000240: 878e 0d3d f980 3f3e 0c66 2ebe 0685 063d
00000250: b81e 36be f736 8d3e 59d9 963e 0a40 7d3e
00000260: d3f7 903e 6796 f0bd 248f 80bc 39a6 aebd
00000270: 4ba3 1ebd 2caf 883d d52c a93c 2919 2b3e
00000280: 996e 32be 0e1b b53e ce87 16be b56d 9a3e
00000290: 6d37 8e3e 5635 45be 0987 3c3e 0d83 023e
000002a0: 754c 813e 3a0f 7d3c 0d1a 17be db62 83be
000002b0: 2ab0 b73d 4084 f5bd c6ec ffbd 8886 2dbe
000002c0: 1f3f 803e dd9c 9abe 9b4b 2fbd ea9a 94bc
000002d0: 1a6d 7fbe 1754 c9be 90ca 903c 66de 8d3e
000002e0: dbae 6bbe fcf9 86bd 536e 35be 2171 233e
000002f0: a161 373e 3eff 2cbe 83e3 553e 905e a1bd
00000300: 8eeb ad3d dc68 513e 7954 8a3e b335 33be
00000310: b0e4 aabc 6285 523d 114f ce3e ad8e 503e
00000320: 0d7f 62be 12c7 72bd 390e 32b9 a1e3 a3bd
00000330: eb7e 01be da7a 69be dcde a4bd 6837 6b3d
00000340: e4da 613d c21f e23d 7932 093e 0396 4a3e
00000350: b122 d23d 52a1 a73d f364 4c3e cb3f 8bbe
00000360: e0d7 0d3d ff6a 8ebd d838 6abe 79e4 3b3d
00000370: 96f2 8cbe 958c 65bd 057d 3d3e 9bfc 0fbe
00000380: a76d 9dbe 974f 87bd d108 663e a362 38be
00000390: 4151 6b3e 5cc6 27be a1e5 483e 79c1 4b3e
000003a0: 2637 18be df89 eb3d 630c bebd 46ce 5ebd
000003b0: 68c6 a03e 867f 57be 1fde 833e ddd5 c23d
000003c0: 35f6 2fbe 7798 623e 9374 72be 3e8f b13d
000003d0: 411d 253e e88c bd3b 82ca 74be 4f35 20be
000003e0: c34f bcbd 0940 813d deb6 74be 2198 463e
000003f0: 1247 82be 668f 8ebd d59c a1be f145 4a3e
