model_save/params_20240806_174313.pth (torch, 68211 bytes, 18 tensors)

fc1.weight f4 [300, 9]
0	0x3d2c9020	0.042129636
1	0xbea8d95a	-0.32978326
2	0x3e88a529	0.26688507
3	0x3e121d38	0.14268959
4	0xbdeb2086	-0.11480813
5	0x3dd08964	0.10182455
6	0xbdab29e0	-0.083575964
7	0xbe75e173	-0.24011783
8	0x3e92896f	0.2862048
9	0x3e6792ea	0.22614637
10	0x3e0b4848	0.13601792
11	0xbe88a080	-0.26684952
12	0x3e83452b	0.25638708
13	0xbe8e0b6f	-0.27743098
14	0xbe1f759e	-0.15572211
15	0x3e4c4312	0.1994746
16	0xbbddf340	-0.0067733824
17	0xbe98455e	-0.29740423
18	0xbe1b74eb	-0.1518132
19	0xbe7dd280	-0.2478733
20	0x3dae9a74	0.08525553
21	0xbe9029da	-0.2815693
22	0xbe304e73	-0.17217426
23	0xbe98312e	-0.2972502
24	0x3de7ec64	0.11324385
25	0xbd0145a8	-0.03156057
26	0x3bd741c0	0.0065691173
27	0x3dbfe6f4	0.09370223
28	0x3c91df00	0.01780653
29	0x3b028c00	0.0019919872
30	0xbdb96fdc	-0.090545386
31	0xbe38766b	-0.18013923
32	0x3ea6f4b9	0.32608584
33	0xbe2881c6	-0.16455755
34	0xbe96f8ca	-0.29486686
35	0x3d5c98c0	0.05385661
36	0x3dc4e884	0.09614661
37	0xbe92356b	-0.2855638
38	0xbe1a6ff3	-0.15081768
39	0x3e8ab4a1	0.27090934
40	0x3d4b7f08	0.049681693
41	0xbe1598f6	-0.14609131
42	0x3e3ef962	0.1864982
43	0xbbd35b00	-0.006450057
44	0x3e6dc00a	0.23217788
45	0x3e611c5a	0.21983472
46	0x3e413b3a	0.1887025
47	0x3e85decb	0.2614654
48	0x3e9ca82f	0.30597064
49	0x3e0f48f6	0.13992676
50	0x3da4393c	0.08018729
51	0x3c8f06c0	0.017459273
52	0x3e9a7c6b	0.30173048
53	0xbe09d450	-0.13459897
54	0xbd86dd70	-0.065852046
55	0xbe5da2c0	-0.21644115
56	0xbe2d5960	-0.16928625
57	0xbc2dd0a0	-0.010608822
58	0xbe9b933b	-0.30385765
59	0xbdab05c6	-0.083507106
60	0x3e78ec92	0.24308994
61	0xbe9b13c0	-0.30288506
62	0x3e429056	0.19000372
63	0x3eaaaa61	0.33333114
64	0x3e825539	0.25455645
65	0xbe380c8b	-0.17973535
66	0x3de3c924	0.11122349
67	0xbe392df0	-0.1808393
68	0xbe83bb2e	-0.25728744
69	0x3da91020	0.08255029
70	0xbe100248	-0.1406337
71	0xbe98929b	-0.2979935
72	0xbb98f200	-0.0046675205
73	0x3df3a434	0.11896554
74	0x3e8fadb1	0.28062204
75	0x3dfd0420	0.123543024
76	0x3e47e3fe	0.19520566
77	0xbe3ef966	-0.18649825
78	0x3e3d4b4a	0.18485752
79	0xbe4bc9a3	-0.19901137
80	0x3e7ccf96	0.24688563
81	0x3cb1e390	0.021714956
82	0xbdb73490	-0.089455724
83	0x3d675408	0.056476623
84	0x3bda9340	0.0066703856
85	0x3e602da2	0.21892408
86	0xbe195b56	-0.14976248
87	0x3e899563	0.26871786
88	0x3dd17cec	0.10228905
89	0xbe482578	-0.19545543
90	0x3c1c5a00	0.009542942
91	0x3e704776	0.2346476
92	0x3da27834	0.07933083
93	0xbdbafa80	-0.0912981
94	0xbe8363cb	-0.25662073
95	0xbdb1a060	-0.08673167
96	0xbe446bcb	-0.19181745
97	0xbe11a223	-0.14222006
98	0xbe9154e4	-0.2838508
99	0x3e6a98b6	0.22909817
100	0xbe41121b	-0.18854563
101	0xbe9f2c94	-0.31088698
102	0xbe02f77b	-0.12789719
103	0x3e9d4de5	0.3072349
104	0xbde585ac	-0.112071365
105	0x3e1de0f8	0.1541785
106	0xbd852f04	-0.06503108
107	0x3dbd84c0	0.09253836
108	0xbe13a773	-0.14419346
109	0x3ae44500	0.0017415583
110	0x3d13e908	0.036110908
111	0x3e4afd8e	0.19823286
112	0xbe6ac1c0	-0.22925472
113	0xbe9d4872	-0.30719334
114	0xbe8fa2cc	-0.28053892
115	0x3e2908ba	0.16507235
116	0x3e83af43	0.25719652
117	0xbe671beb	-0.22569244
118	0xbc2246a0	-0.009904534
119	0x3e85b4f5	0.26114622
120	0x3e787a36	0.2426537
121	0x3c100960	0.008791298
122	0xbe8c92c2	-0.27455717
123	0x3d560618	0.052251905
124	0xbdcf9536	-0.101358816
125	0xbe148b90	-0.14506364
126	0xbe617393	-0.22016744
127	0xbe12fd46	-0.14354429
128	0x3e03967e	0.12850377
129	0x3c7acfa0	0.015308291
130	0x3e12a716	0.1432155
131	0xbe5cc830	-0.2156074
132	0xbea5e5e3	-0.32401952
133	0xbdf6e3c6	-0.12055163
134	0xbc5c9460	-0.01346311
135	0xbcdd6190	-0.02702406
136	0x3dd0cea4	0.101956636
137	0x3bdfcb40	0.006829649
138	0xbe37d38e	-0.17951795
139	0x3ea03349	0.31289127
140	0x3e52a4ee	0.20570728
141	0x3e98d3dd	0.2984914
142	0x3d80ed50	0.06295264
143	0x3d9ac7ac	0.07557616
144	0x3e9e8cc1	0.30966762
145	0xbd4ff9b8	-0.05077526
146	0x3e05a322	0.13050511
147	0x3ea65cc7	0.32492658
148	0xbd28b200	-0.04118538
149	0xbe0d133e	-0.13776872
150	0xbd986df0	-0.07442844
151	0xbe11b5d0	-0.14229512
152	0x3e548c5a	0.20756665
153	0x3e285b16	0.16440997
154	0xbe0df7db	-0.1386408
155	0xbd802b6c	-0.06258282
156	0xbd11d140	-0.035599947
157	0xbe6e6e53	-0.23284273
158	0xbe493a53	-0.19651155
159	0xbd892710	-0.06696904
160	0x3d3b6a00	0.045755386
161	0xbe26ea76	-0.16300377
162	0xbe7ef4db	-0.24898092
163	0x3e1f44e0	0.15553617
164	0x3e58ce0a	0.21172348
165	0xbe927b9e	-0.28609937
166	0xbd9cfbbc	-0.07665202
167	0x3ea842ef	0.32863566
168	0x3dcacb50	0.0990206
169	0x3e8419f3	0.25801048
170	0x3e37f80a	0.17965713
171	0x3e4e97d2	0.20175102
172	0x3de86310	0.1134702
173	0xbe3d016e	-0.18457577
174	0xbe93aaf2	-0.28841358
175	0x3cde3550	0.02712503
176	0xbd9ddca4	-0.077080995
177	0x3e0d45c0	0.13796139
178	0xbdd1667c	-0.102246255
179	0x3e15c8f8	0.14627445
180	0xbea35b5e	-0.31905645
181	0xbda19c90	-0.0789119
182	0xbe6b3f60	-0.22973394
183	0xbd383b28	-0.04497829
184	0x3d5c3fa8	0.053771645
185	0xbe645086	-0.22296342
186	0x3e8f3bc1	0.27975276
187	0x3d295e60	0.04134977
188	0x3e83d003	0.25744638
189	0x3dd4b8e0	0.103868246
190	0x3e554b56	0.2082952
191	0x3e6ff4e2	0.23433259
192	0xbea72fe8	-0.32653737
193	0x3e4c5bc6	0.19956884
194	0x3ea474e9	0.32120445
195	0xbe623c83	-0.22093396
196	0xbe81baac	-0.25337732
197	0xbe271f18	-0.16320455
198	0x3e85cd6d	0.2613329
199	0xbe532926	-0.20621166
200	0xbc81fe80	-0.015868425
201	0x3e163ad8	0.14670885
202	0x3d51e078	0.05123946
203	0xbe921cfb	-0.28537735
204	0x3e95480f	0.2915654
205	0x3e319cda	0.1734499
206	0xbe5a63a3	-0.21327071
207	0x3cc22770	0.023700446
208	0xbe4ec8b0	-0.20193744
209	0x3d9fab54	0.0779635
210	0xbe823ffb	-0.25439438
211	0x3e988fa5	0.29797092
212	0xbe1cf2c6	-0.15326986
213	0x3dfc116c	0.123080105
214	0xbd4821a8	-0.048860222
215	0x3e0a04e0	0.13478422
216	0xbe2017cb	-0.15634076
217	0xbe8c990b	-0.27460513
218	0x3e7efe7a	0.24901763
219	0x3e31213e	0.17297837
220	0xbe8629a7	-0.26203653
221	0x3dfa278c	0.12214574
222	0xbe8645b2	-0.26225048
223	0xbeaa1e50	-0.33226252
224	0x3ea0a225	0.31373706
225	0x3e979f5f	0.29613778
226	0x3e9d07ff	0.30670163
227	0xbe56b033	-0.20965652
228	0xbddba3fc	-0.10724637
229	0xbe4a37b3	-0.1974781
230	0xbe76b4b0	-0.24092364
231	0xbe85a933	-0.2610565
232	0x3e9895d5	0.29801813
233	0xbea7c8c6	-0.32770365
234	0x3ea8c1b7	0.32960293
235	0x3e92d725	0.28679767
236	0xbe99bf4f	-0.3002877
237	0xbe6c6800	-0.23086548
238	0xbda271f4	-0.07931891
239	0xbe6ab410	-0.22920251
240	0xbde0fe80	-0.10986042
241	0xbdbf4246	-0.093388125
242	0x3e9a5401	0.30142215
243	0xbe253ed3	-0.16137247
244	0x3e7f7922	0.24948552
245	0x3c73a9e0	0.014872044
246	0xbdaa9170	-0.08328521
247	0x3dce5c2c	0.10076174
248	0x3ea6d679	0.32585505
249	0xbdf3052c	-0.11866221
250	0x3e0d1526	0.13777599
251	0xbdbbf33c	-0.09177253
252	0x3e3eff12	0.18651989
253	0xbc5f9c00	-0.013648033
254	0xbbf41100	-0.0074483156
255	0xbe213b16	-0.15745196

fc1.bias f4 [300]
0	0xbd1fded8	-0.03903088
1	0x3e1045f0	0.14089179
2	0x3e6b2536	0.22963414
3	0xbd541dc8	-0.051786214
4	0x3e4cf0ca	0.20013729
5	0x3e3dcec6	0.18535909
6	0x3dbda8f0	0.09260738
7	0x3e8000d5	0.25000635
8	0xbd891fb4	-0.066955
9	0xbb232880	-0.0024895966
10	0x3e08d85a	0.13363782
11	0xbe0136c8	-0.12618554
12	0x3e226b72	0.158613
13	0xbe6ee5bb	-0.23329823
14	0xbe9ed478	-0.31021476
15	0xbe4ccfae	-0.20001099
16	0xbe469f38	-0.19396675
17	0xbdc39886	-0.09550576
18	0xbe19f37e	-0.15034291
19	0x3e84c519	0.25931624
20	0xbd62c220	-0.055360913
21	0xbe6955ee	-0.22786686
22	0x3e50315a	0.20331326
23	0xbe1f971b	-0.15584986
24	0xbe21cb13	-0.15800123
25	0x3ea74c87	0.32675573
26	0x3e0cc63a	0.13747492
27	0x3e7178c2	0.23581222
28	0xbd5458a0	-0.051842332
29	0x3e07769a	0.13228837
30	0xbd4a9558	-0.04945883
31	0xbe01045e	-0.12599322
32	0xbe8375a7	-0.256757
33	0x3e4580fe	0.19287488
34	0xbe52df13	-0.20592909
35	0xbdc449b6	-0.09584372
36	0x3bdda8c0	0.0067645013
37	0xbe85c20a	-0.26124603
38	0xbdc26d70	-0.0949353
39	0xbde0f8dc	-0.10984966
40	0x3d9b3844	0.07579091
41	0xbe24221e	-0.1602864
42	0xbe479fb0	-0.1949451
43	0xbeaa62fb	-0.3327864
44	0x3d6f9038	0.058487147
45	0xbe580d20	-0.21098757
46	0x3d9c641c	0.07636282
47	0x3d9d0bb4	0.07668248
48	0xbe09ab9b	-0.13444369
49	0xbe72e0e6	-0.23718604
50	0x3ea59b69	0.3234513
51	0xbe4ad163	-0.19806437
52	0x3d95f9a4	0.07323006
53	0xbde97d26	-0.11400823
54	0x3e8d7917	0.27631447
55	0x3e3e0422	0.18556264
56	0x3e351c02	0.17686465
57	0x3d76e428	0.06027618
58	0xbc5c1d00	-0.0134346485
59	0x3b80b200	0.0039274693
60	0x3e2a1a38	0.16611564
61	0xbea22c4e	-0.31674427
62	0xbe8bc507	-0.27298757
63	0xbdb15bec	-0.08660111
64	0x3e34e966	0.1766716
65	0xbd52d718	-0.05147466
66	0xbe6c518e	-0.23077986
67	0xbe24d00e	-0.16094992
68	0xbe53545e	-0.20637652
69	0xbe0ffdf6	-0.14061722
70	0x3c68d8e0	0.014211863
71	0x3ea0fa9f	0.3144121
72	0x3e8b56ed	0.27214757
73	0xbd74c6a8	-0.059759766
74	0x3e882963	0.26594076
75	0xbe11c0b6	-0.1423367
76	0x3dc56d34	0.096399695
77	0x3e911fc7	0.28344557
78	0xbe4e8b26	-0.20170268
79	0xbdac9e7c	-0.08428666
80	0xbdf61a7c	-0.1201677
81	0xbd3f8d00	-0.046765327
82	0x3e5f2fe2	0.2179561
83	0x3da192f4	0.07889357
84	0x3e8363f1	0.25662187
85	0x3e794f6a	0.243467
86	0xbde6fa50	-0.11278212
87	0x3d3010c0	0.042984724
88	0xbc728860	-0.014803022
89	0x3e3abfca	0.18237224
90	0x3e3c5a4a	0.18393818
91	0xbe9ce412	-0.30642754
92	0x3e727d3e	0.23680589
93	0x3deefecc	0.116696924
94	0x3e601a9a	0.21885148
95	0xbdc01cb6	-0.09380476
96	0xbe1178f0	-0.1420629
97	0xb946c800	-0.00018957257
98	0x3e91dcb7	0.28488705
99	0xbd5f3ae8	-0.054499537
100	0xbdc77ea6	-0.09740953
101	0x3e5bbeae	0.21459457
102	0x3e40804a	0.18798938
103	0x3e1554fa	0.14583197
104	0x3e44af2a	0.19207445
105	0x3e436606	0.19081888
106	0xbe614a28	-0.22000945
107	0xbe6ecdf3	-0.23320751
108	0x3e8f0687	0.27934667
109	0xbe966422	-0.2937327
110	0x3b62f780	0.0034632385
111	0xbe1b2abe	-0.15153024
112	0x3d272e00	0.040815353
113	0xbe90e03b	-0.28296074
114	0x3ca319b0	0.01990971
115	0xbe82ceaa	-0.25548297
116	0x3e15c4ee	0.14625904
117	0x3e53fd42	0.20702079
118	0xbd832c14	-0.064048916
119	0x3db71e04	0.08941272
120	0xba8df100	-0.001082927
121	0xbd8f77a0	-0.070052385
122	0x3e3bb5a2	0.18331006
123	0xbdf02f70	-0.11727798
124	0xbd4ea028	-0.050445706
125	0xbcc7ce50	-0.02439037
126	0xbe778be6	-0.24174461
127	0xbde2ea2c	-0.11079821
128	0xbe9d7257	-0.30751297
129	0x3e6d49ce	0.23172686
130	0xbe0855f8	-0.13314044
131	0xbdb470a6	-0.088105485
132	0x3e5f4c8a	0.21806541
133	0xbcbb73f0	-0.022882432
134	0x3d822f20	0.06356645
135	0x3e8981c9	0.2685683
136	0x3d5b7d60	0.053586364
137	0x3e8da8f1	0.27667955
138	0x3ddb80bc	0.107179135
139	0xbe9195e8	-0.28434682
140	0x3cdec170	0.027191848
141	0xbd9ce09c	-0.07660028
142	0xbd853ac4	-0.06505349
143	0x3d8dcf7c	0.0692434
144	0xbe3c08c8	-0.18362725
145	0x3e05cab0	0.130656
146	0xbe8b2003	-0.2717286
147	0xbc28cc20	-0.010302573
148	0x3bb82840	0.0056200325
149	0x3d0afd40	0.033932924
150	0xbe219bd6	-0.15782103
151	0x3e9db229	0.30799988
152	0xbd49c3e8	-0.049259096
153	0xbe90789c	-0.28217018
154	0x3aa10000	0.0012283325
155	0x3e84328f	0.25819823
156	0x3d0d4940	0.034493685
157	0x3c7ebe20	0.015548259
158	0x3ea34ceb	0.3189462
159	0x3e238f3a	0.15972605
160	0xbe9c2edb	-0.30504498
161	0x3c0020a0	0.007820278
162	0xbdf960ac	-0.12176642
163	0xbd183978	-0.03716418
164	0xbd38d448	-0.045124322
165	0x3c4254a0	0.0118609965
166	0x3dfe5af0	0.12419689
167	0x3d125398	0.035724252
168	0xbe8467bc	-0.25860393
169	0x3e20210a	0.15637603
170	0x3e9c7dcd	0.30564728
171	0x3e16ad2a	0.14714494
172	0xbc386a20	-0.011255771
173	0xbe7b548b	-0.2454397
174	0x3e33bb42	0.17551902
175	0xbe813094	-0.25232375
176	0x3ca441c0	0.020050883
177	0xbc15ca80	-0.009142518
178	0xbe842a2e	-0.2581343
179	0xbe2260d0	-0.15857244
180	0xbd088f78	-0.033339947
181	0x3e67623e	0.2259607
182	0xbe2c9248	-0.16852677
183	0x3da8b89c	0.082383364
184	0xbe9cfafb	-0.30660233
185	0x3d9f2b24	0.077719
186	0xbd8f1f60	-0.06988406
187	0x3e2f0ca6	0.17094669
188	0x3e86158d	0.26188317
189	0xbe8991a6	-0.26868933
190	0x3c3dc9a0	0.011583716
191	0x3df73920	0.120714426
192	0xbe3ef403	-0.1864777
193	0xbdd2e76c	-0.102980465
194	0x3e9fdd3f	0.31223485
195	0xbe45cb20	-0.19315767
196	0x3be0ad00	0.0068565607
197	0x3ea96745	0.330866
198	0x3e95b4ef	0.29239604
199	0xbdadb5d6	-0.08481948
200	0xbe9cddf6	-0.30638093
201	0xbcc14640	-0.023593068
202	0x3e1406da	0.14455739
203	0x3e2232c2	0.15839675
204	0xbe2f121e	-0.17096755
205	0xbd884c54	-0.066551834
206	0xbdcf17a0	-0.10111928
207	0xbe44dc08	-0.1922456
208	0xbe2f3160	-0.17108679
209	0xbe5a54c6	-0.21321401
210	0xbe9bf22a	-0.30458194
211	0x3d5a4748	0.053290635
212	0xbd421e88	-0.047392398
213	0xbe4cf21e	-0.20014235
214	0x3ea07795	0.31341234
215	0x3d91a07c	0.07110688
216	0xbdf54bbc	-0.11977336
217	0xbda85d3c	-0.08220908
218	0xbe11383e	-0.14181611
219	0x3d1fa2e8	0.03897372
220	0xbe947783	-0.2899743
221	0x3e79e14a	0.24402347
222	0x3e2a4756	0.16628775
223	0xbe0ade9e	-0.13561484
224	0x3dcbd40c	0.09952554
225	0xbe632cf6	-0.2218512
226	0x3dd36850	0.103226304
227	0x3da5ec60	0.081017256
228	0x3ea3a4ff	0.3196182
229	0x3da64b30	0.0811981
230	0xbcfcd070	-0.03086111
231	0xbe49f130	-0.19720912
232	0x3e6d98aa	0.23202768
233	0xbe05d626	-0.13069972
234	0x3daea6e0	0.08527923
235	0x3abcf400	0.0014415979
236	0x3dc48074	0.09594813
237	0x3e82bb23	0.255334
238	0x3ea4782b	0.3212293
239	0xbd189ae8	-0.037257105
240	0x3ce431b0	0.027855724
241	0xbe032d03	-0.1281014
242	0x3d84b67c	0.06480119
243	0xbe1fba5b	-0.15598433
244	0xbe54d07b	-0.20782654
245	0x3d2943a8	0.041324288
246	0xbe90a79f	-0.28252885
247	0x3e02a550	0.12758374
248	0xbdf179a0	-0.11790776
249	0x3cfbc5f0	0.030734032
250	0xbdcea5d0	-0.1009022
251	0x3e07e95a	0.1327261
252	0x3d90ce14	0.07070556
253	0xbe0acd53	-0.13554887
254	0x3da15730	0.07877958
255	0xbdd9b8b0	-0.106309295

fc2.weight f4 [2, 300]
0	0x3d47cc12	0.0487786
1	0xbcf6d7a6	-0.030132126
2	0xbd32eb8c	-0.043681666
3	0xbcd296ca	-0.025706667
4	0x3bb7b730	0.0056065544
5	0xbb2b09e0	-0.0026098415
6	0x3c7893c0	0.015171945
7	0xbc6adca8	-0.014334835
8	0xbca4c832	-0.020114992
9	0x3d278d4e	0.040906243
10	0x3ca0c61c	0.019625716
11	0xbd3c04bd	-0.045902956
12	0x3b913088	0.004430834
13	0xbd6ae03d	-0.057342757
14	0x3b4226d0	0.0029625185
15	0xbcc64d02	-0.024206642
16	0x3d37f0d8	0.04490742
17	0xbd21a860	-0.039467216
18	0xbd35f84d	-0.04442625
19	0x3d2fcf38	0.04292223
20	0xbd46555e	-0.048421256
21	0x3d375d84	0.044766918
22	0x3d69968a	0.05702833
23	0xbcd34212	-0.02578834
24	0x3d300d82	0.042981632
25	0x3c97f02c	0.01854714
26	0x3a2c1f00	0.00065658987
27	0xbd468b54	-0.048472717
28	0x3bba2620	0.0056808144
29	0xbbada840	-0.005299598
30	0x3d655a70	0.05599445
31	0xbc1cb60c	-0.009564888
32	0x3cc94f20	0.024573863
33	0xbc705280	-0.014668107
34	0xbc7001b4	-0.014648844
35	0x3d45cb30	0.048289478
36	0xbcbbe80e	-0.0229378
37	0x3c5d1460	0.013493627
38	0xbc8ef2a8	-0.017449692
39	0x3d4965ce	0.049169354
40	0x3d488f96	0.04896506
41	0xbc94579e	-0.018108185
42	0xbbe84390	-0.007088132
43	0x3d0fd840	0.03511834
44	0x3d31fe9a	0.043455698
45	0x3d571232	0.052507587
46	0xbbc1fd40	-0.0059200823
47	0xbb9037f0	-0.0044011995
48	0x3d5a9ecc	0.053374097
49	0x3bf4f0b0	0.0074749812
50	0xbb297c90	-0.0025861599
51	0x3d626862	0.05527533
52	0x3d096a52	0.03354866
53	0x3c91a038	0.017776594
54	0xbd00a7cc	-0.031410024
55	0x3c6d1390	0.014469996
56	0x3d649bfa	0.055812813
57	0xbd5446bc	-0.05182527
58	0x3d0210ba	0.031754233
59	0xbc5378c0	-0.012907207
60	0xbcd927d8	-0.026508257
61	0x3ae00c00	0.001709342
62	0xbce9da28	-0.028546408
63	0xbcddb5bf	-0.027064202
64	0xba4bd480	-0.00077755004
65	0x3d3c1644	0.04591967
66	0x3c289be8	0.010291077
67	0x3d4da382	0.05020476
68	0x3ce431d0	0.027855784
69	0x3d421c00	0.047389984
70	0xbcf60efa	-0.030036438
71	0x3d033eb6	0.032042228
72	0xbc17ff70	-0.00927721
73	0x3d2911c4	0.04127671
74	0xbd31789e	-0.04332792
75	0xbd1e915a	-0.038712837
76	0xbbbeeba8	-0.0058264323
77	0x3d32d4fe	0.043660156
78	0xba685200	-0.00088623166
79	0xbd367928	-0.044549137
80	0x3d00f904	0.03148748
81	0x3cdf0e48	0.02722849
82	0x3d3961de	0.04525935
83	0x3c830500	0.015993595
84	0x3d163500	0.03667164
85	0x3c342e90	0.0109974295
86	0x3d4ca082	0.04995776
87	0xbd002abc	-0.031290755
88	0x3ce45728	0.02787359
89	0xbd0a433e	-0.033755533
90	0xbd249b3a	-0.040187098
91	0x3d323838	0.043510646
92	0x3b242b10	0.0025050081
93	0xbbaef1e0	-0.0053388923
94	0x3d57c0cc	0.0526741
95	0x3d51f72a	0.051261105
96	0x3c39c3f0	0.011338219
97	0x3c0f4af8	0.008745901
98	0x3cc22ebc	0.023703925
99	0x3d5ef266	0.054430388
100	0x3d02cb54	0.03193219
101	0xbcfb615d	-0.030686075
102	0x3d1c958a	0.03822855
103	0x3cfce440	0.030870557
104	0x3d4eca6e	0.05048602
105	0xbd005fb9	-0.03134129
106	0xbd0ef3c0	-0.034900427
107	0xbd27e62b	-0.04099099
108	0xbca4d4f2	-0.020121071
109	0x3d35eafa	0.044413544
110	0xbd3dc9f9	-0.046335194
111	0xbd62d0c2	-0.05537487
112	0xbca6adc8	-0.020346537
113	0x3d44ff0a	0.048094787
114	0x3d5b041a	0.05347071
115	0xbbc03058	-0.005865138
116	0xbbb4cdc8	-0.005517695
117	0xbcba846c	-0.022768222
118	0x3c7f55e8	0.0155844465
119	0xbd531b71	-0.051539842
120	0x3d6ba0f4	0.057526544
121	0x3cd697f4	0.026195504
122	0xbd64e00f	-0.05587774
123	0xbd0637d5	-0.03276809
124	0x3d45b4ae	0.048268013
125	0xbd487d84	-0.048947826
126	0x3cefa624	0.029254027
127	0xbc35e6cc	-0.01110239
128	0xbd23dfa4	-0.040008202
129	0x3d2042d8	0.039126247
130	0x3c01c9f8	0.007921688
131	0xbd65d718	-0.056113333
132	0xbd5d9e60	-0.054106116
133	0x39e65480	0.00043931976
134	0xbce8e560	-0.028429687
135	0x3c06c898	0.008226536
136	0xbcf6cd46	-0.030127179
137	0x3d4ab9aa	0.04949347
138	0x3cecda24	0.028912611
139	0x3d531d1a	0.051541425
140	0x3a802f00	0.0009779632
141	0x3cd03974	0.02541802
142	0xbcf27f9e	-0.029601868
143	0xbcaf531c	-0.021401934
144	0xb915d300	-0.00014288351
145	0x3cc15c58	0.023603603
146	0x3ccf8b74	0.025335051
147	0x3d0415a4	0.0322472
148	0x3d6917f0	0.056907594
149	0xbc3eb20c	-0.011639129
150	0xbd679cab	-0.056545895
151	0xbd03d3ca	-0.0321844
152	0x3d3d72fc	0.046252236
153	0xbcf298ca	-0.029613871
154	0xbcd9b56d	-0.026575768
155	0x3cae9824	0.02131278
156	0x3d5c62c8	0.053805143
157	0x3bea7590	0.007155128
158	0x3cb6bd50	0.022307068
159	0x3c92908c	0.017891191
160	0xbd1e89da	-0.038705684
161	0xbcabf9fe	-0.020993229
162	0xbd125747	-0.035727765
163	0x3d16e49c	0.036839113
164	0x39fff080	0.00048816577
165	0x3c3b93f0	0.011448845
166	0x3c5e8608	0.01358176
167	0x3d18f470	0.03734249
168	0x3d264a2a	0.040598072
169	0xbd25ad02	-0.040448196
170	0xbb336aa0	-0.0027376786
171	0x3d44a674	0.048010305
172	0x3c9b2440	0.018938184
173	0x3c856a5c	0.016286068
174	0xbd4e0c8f	-0.050304946
175	0x3cd1332c	0.025537096
176	0xbd31b8a8	-0.043388993
177	0x3d03fde0	0.032224536
178	0x3bef84b0	0.0073095188
179	0xbb8b8c68	-0.004258681
180	0x3d484930	0.048897922
181	0xbd53a3b2	-0.051669784
182	0xbd233d4a	-0.03985337
183	0x3d1b5c6c	0.037929937
184	0x3c6582e8	0.014008261
185	0xbc8985cc	-0.016787432
186	0xbd4d7660	-0.05016172
187	0xbd218290	-0.039431155
188	0xbcd4da82	-0.025983099
189	0xbb2e0a70	-0.0026556514
190	0xbc70b44c	-0.014691424
191	0xbd1e3a9d	-0.038630117
192	0x3cb2b574	0.02181504
193	0xbd0c1813	-0.034202646
194	0x3d200038	0.03906271
195	0x3c36fef8	0.011169188
196	0x3d5353f0	0.05159372
197	0x3b787f20	0.003791757
198	0x3d21c55a	0.03949485
199	0x3d1a3ac4	0.0376537
200	0xbc6a634c	-0.014305901
201	0xbd2fb084	-0.042892948
202	0xbd607753	-0.054801296
203	0xbbd3f6e8	-0.0064686425
204	0xbc086c78	-0.008326642
205	0xbcec22b5	-0.028825143
206	0x3c8edf24	0.017440386
207	0xbc5c5ab4	-0.01344936
208	0xbd328208	-0.04358104
209	0xbba43088	-0.005010668
210	0xbce8a9a6	-0.028401207
211	0x3c97c6d4	0.018527426
212	0xbd2279a0	-0.039666772
213	0x3d21d634	0.03951092
214	0xbd36c189	-0.044618163
215	0x3d26315e	0.040574424
216	0x39973e80	0.0002884753
217	0xbd6685c9	-0.05627993
218	0xbc8e921c	-0.017403655
219	0x3cfd5d58	0.030928299
220	0xbd4fdf94	-0.05075033
221	0xbd1345b7	-0.035955157
222	0xbd1dc5e5	-0.038518805
223	0x3d1bdc1a	0.038051702
224	0x3c0d03f0	0.008606896
225	0x3ca1d1bc	0.01975333
226	0xbd0d309a	-0.03447018
227	0xbd64c0ca	-0.05584792
228	0xbb829430	-0.0039849505
229	0x3b4fcbd0	0.0031707175
230	0x3cce4400	0.02517891
231	0xba9f58c0	-0.0012157187
232	0xbcfc20d0	-0.030777365
233	0xbd406497	-0.04697093
234	0xbc5df51c	-0.013547208
235	0xbd641411	-0.0556832
236	0x3cb9e82c	0.022693716
237	0x3d31a48c	0.043369815
238	0xbd0d931e	-0.03456413
239	0x3c276030	0.010215804
240	0xbcb567b8	-0.022144184
241	0xbc81638a	-0.015794534
242	0xbb096080	-0.002096206
243	0xbce4edba	-0.027945388
244	0xbca8a684	-0.020587213
245	0xbcda06e7	-0.02661462
246	0xbd15c304	-0.036562935
247	0x3c94a298	0.018143937
248	0x3b6313c0	0.0034649223
249	0x3d4f87e8	0.05066672
250	0xbd22f500	-0.03978443
251	0x3d3eb694	0.04656084
252	0x3cdfd89c	0.027324967
253	0xbd289f7c	-0.04116772
254	0xbd5619fa	-0.052270867
255	0x3d04dd2e	0.032437496

fc2.bias f4 [2]
0	0x3d5545dc	0.052068576
1	0x3bfdf8c0	0.0077506006

fc1.weight f4 [300, 9]
0	0x3d2c9020	0.042129636
1	0xbea8d95a	-0.32978326
2	0x3e88a529	0.26688507
3	0x3e121d38	0.14268959
4	0xbdeb2086	-0.11480813
5	0x3dd08964	0.10182455
6	0xbdab29e0	-0.083575964
7	0xbe75e173	-0.24011783
8	0x3e92896f	0.2862048
9	0x3e6792ea	0.22614637
10	0x3e0b4848	0.13601792
11	0xbe88a080	-0.26684952
12	0x3e83452b	0.25638708
13	0xbe8e0b6f	-0.27743098
14	0xbe1f759e	-0.15572211
15	0x3e4c4312	0.1994746
16	0xbbddf340	-0.0067733824
17	0xbe98455e	-0.29740423
18	0xbe1b74eb	-0.1518132
19	0xbe7dd280	-0.2478733
20	0x3dae9a74	0.08525553
21	0xbe9029da	-0.2815693
22	0xbe304e73	-0.17217426
23	0xbe98312e	-0.2972502
24	0x3de7ec64	0.11324385
25	0xbd0145a8	-0.03156057
26	0x3bd741c0	0.0065691173
27	0x3dbfe6f4	0.09370223
28	0x3c91df00	0.01780653
29	0x3b028c00	0.0019919872
30	0xbdb96fdc	-0.090545386
31	0xbe38766b	-0.18013923
32	0x3ea6f4b9	0.32608584
33	0xbe2881c6	-0.16455755
34	0xbe96f8ca	-0.29486686
35	0x3d5c98c0	0.05385661
36	0x3dc4e884	0.09614661
37	0xbe92356b	-0.2855638
38	0xbe1a6ff3	-0.15081768
39	0x3e8ab4a1	0.27090934
40	0x3d4b7f08	0.049681693
41	0xbe1598f6	-0.14609131
42	0x3e3ef962	0.1864982
43	0xbbd35b00	-0.006450057
44	0x3e6dc00a	0.23217788
45	0x3e611c5a	0.21983472
46	0x3e413b3a	0.1887025
47	0x3e85decb	0.2614654
48	0x3e9ca82f	0.30597064
49	0x3e0f48f6	0.13992676
50	0x3da4393c	0.08018729
51	0x3c8f06c0	0.017459273
52	0x3e9a7c6b	0.30173048
53	0xbe09d450	-0.13459897
54	0xbd86dd70	-0.065852046
55	0xbe5da2c0	-0.21644115
56	0xbe2d5960	-0.16928625
57	0xbc2dd0a0	-0.010608822
58	0xbe9b933b	-0.30385765
59	0xbdab05c6	-0.083507106
60	0x3e78ec92	0.24308994
61	0xbe9b13c0	-0.30288506
62	0x3e429056	0.19000372
63	0x3eaaaa61	0.33333114
64	0x3e825539	0.25455645
65	0xbe380c8b	-0.17973535
66	0x3de3c924	0.11122349
67	0xbe392df0	-0.1808393
68	0xbe83bb2e	-0.25728744
69	0x3da91020	0.08255029
70	0xbe100248	-0.1406337
71	0xbe98929b	-0.2979935
72	0xbb98f200	-0.0046675205
73	0x3df3a434	0.11896554
74	0x3e8fadb1	0.28062204
75	0x3dfd0420	0.123543024
76	0x3e47e3fe	0.19520566
77	0xbe3ef966	-0.18649825
78	0x3e3d4b4a	0.18485752
79	0xbe4bc9a3	-0.19901137
80	0x3e7ccf96	0.24688563
81	0x3cb1e390	0.021714956
82	0xbdb73490	-0.089455724
83	0x3d675408	0.056476623
84	0x3bda9340	0.0066703856
85	0x3e602da2	0.21892408
86	0xbe195b56	-0.14976248
87	0x3e899563	0.26871786
88	0x3dd17cec	0.10228905
89	0xbe482578	-0.19545543
90	0x3c1c5a00	0.009542942
91	0x3e704776	0.2346476
92	0x3da27834	0.07933083
93	0xbdbafa80	-0.0912981
94	0xbe8363cb	-0.25662073
95	0xbdb1a060	-0.08673167
96	0xbe446bcb	-0.19181745
97	0xbe11a223	-0.14222006
98	0xbe9154e4	-0.2838508
99	0x3e6a98b6	0.22909817
100	0xbe41121b	-0.18854563
101	0xbe9f2c94	-0.31088698
102	0xbe02f77b	-0.12789719
103	0x3e9d4de5	0.3072349
104	0xbde585ac	-0.112071365
105	0x3e1de0f8	0.1541785
106	0xbd852f04	-0.06503108
107	0x3dbd84c0	0.09253836
108	0xbe13a773	-0.14419346
109	0x3ae44500	0.0017415583
110	0x3d13e908	0.036110908
111	0x3e4afd8e	0.19823286
112	0xbe6ac1c0	-0.22925472
113	0xbe9d4872	-0.30719334
114	0xbe8fa2cc	-0.28053892
115	0x3e2908ba	0.16507235
116	0x3e83af43	0.25719652
117	0xbe671beb	-0.22569244
118	0xbc2246a0	-0.009904534
119	0x3e85b4f5	0.26114622
120	0x3e787a36	0.2426537
121	0x3c100960	0.008791298
122	0xbe8c92c2	-0.27455717
123	0x3d560618	0.052251905
124	0xbdcf9536	-0.101358816
125	0xbe148b90	-0.14506364
126	0xbe617393	-0.22016744
127	0xbe12fd46	-0.14354429
128	0x3e03967e	0.12850377
129	0x3c7acfa0	0.015308291
130	0x3e12a716	0.1432155
131	0xbe5cc830	-0.2156074
132	0xbea5e5e3	-0.32401952
133	0xbdf6e3c6	-0.12055163
134	0xbc5c9460	-0.01346311
135	0xbcdd6190	-0.02702406
136	0x3dd0cea4	0.101956636
137	0x3bdfcb40	0.006829649
138	0xbe37d38e	-0.17951795
139	0x3ea03349	0.31289127
140	0x3e52a4ee	0.20570728
141	0x3e98d3dd	0.2984914
142	0x3d80ed50	0.06295264
143	0x3d9ac7ac	0.07557616
144	0x3e9e8cc1	0.30966762
145	0xbd4ff9b8	-0.05077526
146	0x3e05a322	0.13050511
147	0x3ea65cc7	0.32492658
148	0xbd28b200	-0.04118538
149	0xbe0d133e	-0.13776872
150	0xbd986df0	-0.07442844
151	0xbe11b5d0	-0.14229512
152	0x3e548c5a	0.20756665
153	0x3e285b16	0.16440997
154	0xbe0df7db	-0.1386408
155	0xbd802b6c	-0.06258282
156	0xbd11d140	-0.035599947
157	0xbe6e6e53	-0.23284273
158	0xbe493a53	-0.19651155
159	0xbd892710	-0.06696904
160	0x3d3b6a00	0.045755386
161	0xbe26ea76	-0.16300377
162	0xbe7ef4db	-0.24898092
163	0x3e1f44e0	0.15553617
164	0x3e58ce0a	0.21172348
165	0xbe927b9e	-0.28609937
166	0xbd9cfbbc	-0.07665202
167	0x3ea842ef	0.32863566
168	0x3dcacb50	0.0990206
169	0x3e8419f3	0.25801048
170	0x3e37f80a	0.17965713
171	0x3e4e97d2	0.20175102
172	0x3de86310	0.1134702
173	0xbe3d016e	-0.18457577
174	0xbe93aaf2	-0.28841358
175	0x3cde3550	0.02712503
176	0xbd9ddca4	-0.077080995
177	0x3e0d45c0	0.13796139
178	0xbdd1667c	-0.102246255
179	0x3e15c8f8	0.14627445
180	0xbea35b5e	-0.31905645
181	0xbda19c90	-0.0789119
182	0xbe6b3f60	-0.22973394
183	0xbd383b28	-0.04497829
184	0x3d5c3fa8	0.053771645
185	0xbe645086	-0.22296342
186	0x3e8f3bc1	0.27975276
187	0x3d295e60	0.04134977
188	0x3e83d003	0.25744638
189	0x3dd4b8e0	0.103868246
190	0x3e554b56	0.2082952
191	0x3e6ff4e2	0.23433259
192	0xbea72fe8	-0.32653737
193	0x3e4c5bc6	0.19956884
194	0x3ea474e9	0.32120445
195	0xbe623c83	-0.22093396
196	0xbe81baac	-0.25337732
197	0xbe271f18	-0.16320455
198	0x3e85cd6d	0.2613329
199	0xbe532926	-0.20621166
200	0xbc81fe80	-0.015868425
201	0x3e163ad8	0.14670885
202	0x3d51e078	0.05123946
203	0xbe921cfb	-0.28537735
204	0x3e95480f	0.2915654
205	0x3e319cda	0.1734499
206	0xbe5a63a3	-0.21327071
207	0x3cc22770	0.023700446
208	0xbe4ec8b0	-0.20193744
209	0x3d9fab54	0.0779635
210	0xbe823ffb	-0.25439438
211	0x3e988fa5	0.29797092
212	0xbe1cf2c6	-0.15326986
213	0x3dfc116c	0.123080105
214	0xbd4821a8	-0.048860222
215	0x3e0a04e0	0.13478422
216	0xbe2017cb	-0.15634076
217	0xbe8c990b	-0.27460513
218	0x3e7efe7a	0.24901763
219	0x3e31213e	0.17297837
220	0xbe8629a7	-0.26203653
221	0x3dfa278c	0.12214574
222	0xbe8645b2	-0.26225048
223	0xbeaa1e50	-0.33226252
224	0x3ea0a225	0.31373706
225	0x3e979f5f	0.29613778
226	0x3e9d07ff	0.30670163
227	0xbe56b033	-0.20965652
228	0xbddba3fc	-0.10724637
229	0xbe4a37b3	-0.1974781
230	0xbe76b4b0	-0.24092364
231	0xbe85a933	-0.2610565
232	0x3e9895d5	0.29801813
233	0xbea7c8c6	-0.32770365
234	0x3ea8c1b7	0.32960293
235	0x3e92d725	0.28679767
236	0xbe99bf4f	-0.3002877
237	0xbe6c6800	-0.23086548
238	0xbda271f4	-0.07931891
239	0xbe6ab410	-0.22920251
240	0xbde0fe80	-0.10986042
241	0xbdbf4246	-0.093388125
242	0x3e9a5401	0.30142215
243	0xbe253ed3	-0.16137247
244	0x3e7f7922	0.24948552
245	0x3c73a9e0	0.014872044
246	0xbdaa9170	-0.08328521
247	0x3dce5c2c	0.10076174
248	0x3ea6d679	0.32585505
249	0xbdf3052c	-0.11866221
250	0x3e0d1526	0.13777599
251	0xbdbbf33c	-0.09177253
252	0x3e3eff12	0.18651989
253	0xbc5f9c00	-0.013648033
254	0xbbf41100	-0.0074483156
255	0xbe213b16	-0.15745196

fc1.bias f4 [300]
0	0xbd1fded8	-0.03903088
1	0x3e1045f0	0.14089179
2	0x3e6b2536	0.22963414
3	0xbd541dc8	-0.051786214
4	0x3e4cf0ca	0.20013729
5	0x3e3dcec6	0.18535909
6	0x3dbda8f0	0.09260738
7	0x3e8000d5	0.25000635
8	0xbd891fb4	-0.066955
9	0xbb232880	-0.0024895966
10	0x3e08d85a	0.13363782
11	0xbe0136c8	-0.12618554
12	0x3e226b72	0.158613
13	0xbe6ee5bb	-0.23329823
14	0xbe9ed478	-0.31021476
15	0xbe4ccfae	-0.20001099
16	0xbe469f38	-0.19396675
17	0xbdc39886	-0.09550576
18	0xbe19f37e	-0.15034291
19	0x3e84c519	0.25931624
20	0xbd62c220	-0.055360913
21	0xbe6955ee	-0.22786686
22	0x3e50315a	0.20331326
23	0xbe1f971b	-0.15584986
24	0xbe21cb13	-0.15800123
25	0x3ea74c87	0.32675573
26	0x3e0cc63a	0.13747492
27	0x3e7178c2	0.23581222
28	0xbd5458a0	-0.051842332
29	0x3e07769a	0.13228837
30	0xbd4a9558	-0.04945883
31	0xbe01045e	-0.12599322
32	0xbe8375a7	-0.256757
33	0x3e4580fe	0.19287488
34	0xbe52df13	-0.20592909
35	0xbdc449b6	-0.09584372
36	0x3bdda8c0	0.0067645013
37	0xbe85c20a	-0.26124603
38	0xbdc26d70	-0.0949353
39	0xbde0f8dc	-0.10984966
40	0x3d9b3844	0.07579091
41	0xbe24221e	-0.1602864
42	0xbe479fb0	-0.1949451
43	0xbeaa62fb	-0.3327864
44	0x3d6f9038	0.058487147
45	0xbe580d20	-0.21098757
46	0x3d9c641c	0.07636282
47	0x3d9d0bb4	0.07668248
48	0xbe09ab9b	-0.13444369
49	0xbe72e0e6	-0.23718604
50	0x3ea59b69	0.3234513
51	0xbe4ad163	-0.19806437
52	0x3d95f9a4	0.07323006
53	0xbde97d26	-0.11400823
54	0x3e8d7917	0.27631447
55	0x3e3e0422	0.18556264
56	0x3e351c02	0.17686465
57	0x3d76e428	0.06027618
58	0xbc5c1d00	-0.0134346485
59	0x3b80b200	0.0039274693
60	0x3e2a1a38	0.16611564
61	0xbea22c4e	-0.31674427
62	0xbe8bc507	-0.27298757
63	0xbdb15bec	-0.08660111
64	0x3e34e966	0.1766716
65	0xbd52d718	-0.05147466
66	0xbe6c518e	-0.23077986
67	0xbe24d00e	-0.16094992
68	0xbe53545e	-0.20637652
69	0xbe0ffdf6	-0.14061722
70	0x3c68d8e0	0.014211863
71	0x3ea0fa9f	0.3144121
72	0x3e8b56ed	0.27214757
73	0xbd74c6a8	-0.059759766
74	0x3e882963	0.26594076
75	0xbe11c0b6	-0.1423367
76	0x3dc56d34	0.096399695
77	0x3e911fc7	0.28344557
78	0xbe4e8b26	-0.20170268
79	0xbdac9e7c	-0.08428666
80	0xbdf61a7c	-0.1201677
81	0xbd3f8d00	-0.046765327
82	0x3e5f2fe2	0.2179561
83	0x3da192f4	0.07889357
84	0x3e8363f1	0.25662187
85	0x3e794f6a	0.243467
86	0xbde6fa50	-0.11278212
87	0x3d3010c0	0.042984724
88	0xbc728860	-0.014803022
89	0x3e3abfca	0.18237224
90	0x3e3c5a4a	0.18393818
91	0xbe9ce412	-0.30642754
92	0x3e727d3e	0.23680589
93	0x3deefecc	0.116696924
94	0x3e601a9a	0.21885148
95	0xbdc01cb6	-0.09380476
96	0xbe1178f0	-0.1420629
97	0xb946c800	-0.00018957257
98	0x3e91dcb7	0.28488705
99	0xbd5f3ae8	-0.054499537
100	0xbdc77ea6	-0.09740953
101	0x3e5bbeae	0.21459457
102	0x3e40804a	0.18798938
103	0x3e1554fa	0.14583197
104	0x3e44af2a	0.19207445
105	0x3e436606	0.19081888
106	0xbe614a28	-0.22000945
107	0xbe6ecdf3	-0.23320751
108	0x3e8f0687	0.27934667
109	0xbe966422	-0.2937327
110	0x3b62f780	0.0034632385
111	0xbe1b2abe	-0.15153024
112	0x3d272e00	0.040815353
113	0xbe90e03b	-0.28296074
114	0x3ca319b0	0.01990971
115	0xbe82ceaa	-0.25548297
116	0x3e15c4ee	0.14625904
117	0x3e53fd42	0.20702079
118	0xbd832c14	-0.064048916
119	0x3db71e04	0.08941272
120	0xba8df100	-0.001082927
121	0xbd8f77a0	-0.070052385
122	0x3e3bb5a2	0.18331006
123	0xbdf02f70	-0.11727798
124	0xbd4ea028	-0.050445706
125	0xbcc7ce50	-0.02439037
126	0xbe778be6	-0.24174461
127	0xbde2ea2c	-0.11079821
128	0xbe9d7257	-0.30751297
129	0x3e6d49ce	0.23172686
130	0xbe0855f8	-0.13314044
131	0xbdb470a6	-0.088105485
132	0x3e5f4c8a	0.21806541
133	0xbcbb73f0	-0.022882432
134	0x3d822f20	0.06356645
135	0x3e8981c9	0.2685683
136	0x3d5b7d60	0.053586364
137	0x3e8da8f1	0.27667955
138	0x3ddb80bc	0.107179135
139	0xbe9195e8	-0.28434682
140	0x3cdec170	0.027191848
141	0xbd9ce09c	-0.07660028
142	0xbd853ac4	-0.06505349
143	0x3d8dcf7c	0.0692434
144	0xbe3c08c8	-0.18362725
145	0x3e05cab0	0.130656
146	0xbe8b2003	-0.2717286
147	0xbc28cc20	-0.010302573
148	0x3bb82840	0.0056200325
149	0x3d0afd40	0.033932924
150	0xbe219bd6	-0.15782103
151	0x3e9db229	0.30799988
152	0xbd49c3e8	-0.049259096
153	0xbe90789c	-0.28217018
154	0x3aa10000	0.0012283325
155	0x3e84328f	0.25819823
156	0x3d0d4940	0.034493685
157	0x3c7ebe20	0.015548259
158	0x3ea34ceb	0.3189462
159	0x3e238f3a	0.15972605
160	0xbe9c2edb	-0.30504498
161	0x3c0020a0	0.007820278
162	0xbdf960ac	-0.12176642
163	0xbd183978	-0.03716418
164	0xbd38d448	-0.045124322
165	0x3c4254a0	0.0118609965
166	0x3dfe5af0	0.12419689
167	0x3d125398	0.035724252
168	0xbe8467bc	-0.25860393
169	0x3e20210a	0.15637603
170	0x3e9c7dcd	0.30564728
171	0x3e16ad2a	0.14714494
172	0xbc386a20	-0.011255771
173	0xbe7b548b	-0.2454397
174	0x3e33bb42	0.17551902
175	0xbe813094	-0.25232375
176	0x3ca441c0	0.020050883
177	0xbc15ca80	-0.009142518
178	0xbe842a2e	-0.2581343
179	0xbe2260d0	-0.15857244
180	0xbd088f78	-0.033339947
181	0x3e67623e	0.2259607
182	0xbe2c9248	-0.16852677
183	0x3da8b89c	0.082383364
184	0xbe9cfafb	-0.30660233
185	0x3d9f2b24	0.077719
186	0xbd8f1f60	-0.06988406
187	0x3e2f0ca6	0.17094669
188	0x3e86158d	0.26188317
189	0xbe8991a6	-0.26868933
190	0x3c3dc9a0	0.011583716
191	0x3df73920	0.120714426
192	0xbe3ef403	-0.1864777
193	0xbdd2e76c	-0.102980465
194	0x3e9fdd3f	0.31223485
195	0xbe45cb20	-0.19315767
196	0x3be0ad00	0.0068565607
197	0x3ea96745	0.330866
198	0x3e95b4ef	0.29239604
199	0xbdadb5d6	-0.08481948
200	0xbe9cddf6	-0.30638093
201	0xbcc14640	-0.023593068
202	0x3e1406da	0.14455739
203	0x3e2232c2	0.15839675
204	0xbe2f121e	-0.17096755
205	0xbd884c54	-0.066551834
206	0xbdcf17a0	-0.10111928
207	0xbe44dc08	-0.1922456
208	0xbe2f3160	-0.17108679
209	0xbe5a54c6	-0.21321401
210	0xbe9bf22a	-0.30458194
211	0x3d5a4748	0.053290635
212	0xbd421e88	-0.047392398
213	0xbe4cf21e	-0.20014235
214	0x3ea07795	0.31341234
215	0x3d91a07c	0.07110688
216	0xbdf54bbc	-0.11977336
217	0xbda85d3c	-0.08220908
218	0xbe11383e	-0.14181611
219	0x3d1fa2e8	0.03897372
220	0xbe947783	-0.2899743
221	0x3e79e14a	0.24402347
222	0x3e2a4756	0.16628775
223	0xbe0ade9e	-0.13561484
224	0x3dcbd40c	0.09952554
225	0xbe632cf6	-0.2218512
226	0x3dd36850	0.103226304
227	0x3da5ec60	0.081017256
228	0x3ea3a4ff	0.3196182
229	0x3da64b30	0.0811981
230	0xbcfcd070	-0.03086111
231	0xbe49f130	-0.19720912
232	0x3e6d98aa	0.23202768
233	0xbe05d626	-0.13069972
234	0x3daea6e0	0.08527923
235	0x3abcf400	0.0014415979
236	0x3dc48074	0.09594813
237	0x3e82bb23	0.255334
238	0x3ea4782b	0.3212293
239	0xbd189ae8	-0.037257105
240	0x3ce431b0	0.027855724
241	0xbe032d03	-0.1281014
242	0x3d84b67c	0.06480119
243	0xbe1fba5b	-0.15598433
244	0xbe54d07b	-0.20782654
245	0x3d2943a8	0.041324288
246	0xbe90a79f	-0.28252885
247	0x3e02a550	0.12758374
248	0xbdf179a0	-0.11790776
249	0x3cfbc5f0	0.030734032
250	0xbdcea5d0	-0.1009022
251	0x3e07e95a	0.1327261
252	0x3d90ce14	0.07070556
253	0xbe0acd53	-0.13554887
254	0x3da15730	0.07877958
255	0xbdd9b8b0	-0.106309295

fc2.weight f4 [2, 300]
0	0x3d47cc12	0.0487786
1	0xbcf6d7a6	-0.030132126
2	0xbd32eb8c	-0.043681666
3	0xbcd296ca	-0.025706667
4	0x3bb7b730	0.0056065544
5	0xbb2b09e0	-0.0026098415
6	0x3c7893c0	0.015171945
7	0xbc6adca8	-0.014334835
8	0xbca4c832	-0.020114992
9	0x3d278d4e	0.040906243
10	0x3ca0c61c	0.019625716
11	0xbd3c04bd	-0.045902956
12	0x3b913088	0.004430834
13	0xbd6ae03d	-0.057342757
14	0x3b4226d0	0.0029625185
15	0xbcc64d02	-0.024206642
16	0x3d37f0d8	0.04490742
17	0xbd21a860	-0.039467216
18	0xbd35f84d	-0.04442625
19	0x3d2fcf38	0.04292223
20	0xbd46555e	-0.048421256
21	0x3d375d84	0.044766918
22	0x3d69968a	0.05702833
23	0xbcd34212	-0.02578834
24	0x3d300d82	0.042981632
25	0x3c97f02c	0.01854714
26	0x3a2c1f00	0.00065658987
27	0xbd468b54	-0.048472717
28	0x3bba2620	0.0056808144
29	0xbbada840	-0.005299598
30	0x3d655a70	0.05599445
31	0xbc1cb60c	-0.009564888
32	0x3cc94f20	0.024573863
33	0xbc705280	-0.014668107
34	0xbc7001b4	-0.014648844
35	0x3d45cb30	0.048289478
36	0xbcbbe80e	-0.0229378
37	0x3c5d1460	0.013493627
38	0xbc8ef2a8	-0.017449692
39	0x3d4965ce	0.049169354
40	0x3d488f96	0.04896506
41	0xbc94579e	-0.018108185
42	0xbbe84390	-0.007088132
43	0x3d0fd840	0.03511834
44	0x3d31fe9a	0.043455698
45	0x3d571232	0.052507587
46	0xbbc1fd40	-0.0059200823
47	0xbb9037f0	-0.0044011995
48	0x3d5a9ecc	0.053374097
49	0x3bf4f0b0	0.0074749812
50	0xbb297c90	-0.0025861599
51	0x3d626862	0.05527533
52	0x3d096a52	0.03354866
53	0x3c91a038	0.017776594
54	0xbd00a7cc	-0.031410024
55	0x3c6d1390	0.014469996
56	0x3d649bfa	0.055812813
57	0xbd5446bc	-0.05182527
58	0x3d0210ba	0.031754233
59	0xbc5378c0	-0.012907207
60	0xbcd927d8	-0.026508257
61	0x3ae00c00	0.001709342
62	0xbce9da28	-0.028546408
63	0xbcddb5bf	-0.027064202
64	0xba4bd480	-0.00077755004
65	0x3d3c1644	0.04591967
66	0x3c289be8	0.010291077
67	0x3d4da382	0.05020476
68	0x3ce431d0	0.027855784
69	0x3d421c00	0.047389984
70	0xbcf60efa	-0.030036438
71	0x3d033eb6	0.032042228
72	0xbc17ff70	-0.00927721
73	0x3d2911c4	0.04127671
74	0xbd31789e	-0.04332792
75	0xbd1e915a	-0.038712837
76	0xbbbeeba8	-0.0058264323
77	0x3d32d4fe	0.043660156
78	0xba685200	-0.00088623166
79	0xbd367928	-0.044549137
80	0x3d00f904	0.03148748
81	0x3cdf0e48	0.02722849
82	0x3d3961de	0.04525935
83	0x3c830500	0.015993595
84	0x3d163500	0.03667164
85	0x3c342e90	0.0109974295
86	0x3d4ca082	0.04995776
87	0xbd002abc	-0.031290755
88	0x3ce45728	0.02787359
89	0xbd0a433e	-0.033755533
90	0xbd249b3a	-0.040187098
91	0x3d323838	0.043510646
92	0x3b242b10	0.0025050081
93	0xbbaef1e0	-0.0053388923
94	0x3d57c0cc	0.0526741
95	0x3d51f72a	0.051261105
96	0x3c39c3f0	0.011338219
97	0x3c0f4af8	0.008745901
98	0x3cc22ebc	0.023703925
99	0x3d5ef266	0.054430388
100	0x3d02cb54	0.03193219
101	0xbcfb615d	-0.030686075
102	0x3d1c958a	0.03822855
103	0x3cfce440	0.030870557
104	0x3d4eca6e	0.05048602
105	0xbd005fb9	-0.03134129
106	0xbd0ef3c0	-0.034900427
107	0xbd27e62b	-0.04099099
108	0xbca4d4f2	-0.020121071
109	0x3d35eafa	0.044413544
110	0xbd3dc9f9	-0.046335194
111	0xbd62d0c2	-0.05537487
112	0xbca6adc8	-0.020346537
113	0x3d44ff0a	0.048094787
114	0x3d5b041a	0.05347071
115	0xbbc03058	-0.005865138
116	0xbbb4cdc8	-0.005517695
117	0xbcba846c	-0.022768222
118	0x3c7f55e8	0.0155844465
119	0xbd531b71	-0.051539842
120	0x3d6ba0f4	0.057526544
121	0x3cd697f4	0.026195504
122	0xbd64e00f	-0.05587774
123	0xbd0637d5	-0.03276809
124	0x3d45b4ae	0.048268013
125	0xbd487d84	-0.048947826
126	0x3cefa624	0.029254027
127	0xbc35e6cc	-0.01110239
128	0xbd23dfa4	-0.040008202
129	0x3d2042d8	0.039126247
130	0x3c01c9f8	0.007921688
131	0xbd65d718	-0.056113333
132	0xbd5d9e60	-0.054106116
133	0x39e65480	0.00043931976
134	0xbce8e560	-0.028429687
135	0x3c06c898	0.008226536
136	0xbcf6cd46	-0.030127179
137	0x3d4ab9aa	0.04949347
138	0x3cecda24	0.028912611
139	0x3d531d1a	0.051541425
140	0x3a802f00	0.0009779632
141	0x3cd03974	0.02541802
142	0xbcf27f9e	-0.029601868
143	0xbcaf531c	-0.021401934
144	0xb915d300	-0.00014288351
145	0x3cc15c58	0.023603603
146	0x3ccf8b74	0.025335051
147	0x3d0415a4	0.0322472
148	0x3d6917f0	0.056907594
149	0xbc3eb20c	-0.011639129
150	0xbd679cab	-0.056545895
151	0xbd03d3ca	-0.0321844
152	0x3d3d72fc	0.046252236
153	0xbcf298ca	-0.029613871
154	0xbcd9b56d	-0.026575768
155	0x3cae9824	0.02131278
156	0x3d5c62c8	0.053805143
157	0x3bea7590	0.007155128
158	0x3cb6bd50	0.022307068
159	0x3c92908c	0.017891191
160	0xbd1e89da	-0.038705684
161	0xbcabf9fe	-0.020993229
162	0xbd125747	-0.035727765
163	0x3d16e49c	0.036839113
164	0x39fff080	0.00048816577
165	0x3c3b93f0	0.011448845
166	0x3c5e8608	0.01358176
167	0x3d18f470	0.03734249
168	0x3d264a2a	0.040598072
169	0xbd25ad02	-0.040448196
170	0xbb336aa0	-0.0027376786
171	0x3d44a674	0.048010305
172	0x3c9b2440	0.018938184
173	0x3c856a5c	0.016286068
174	0xbd4e0c8f	-0.050304946
175	0x3cd1332c	0.025537096
176	0xbd31b8a8	-0.043388993
177	0x3d03fde0	0.032224536
178	0x3bef84b0	0.0073095188
179	0xbb8b8c68	-0.004258681
180	0x3d484930	0.048897922
181	0xbd53a3b2	-0.051669784
182	0xbd233d4a	-0.03985337
183	0x3d1b5c6c	0.037929937
184	0x3c6582e8	0.014008261
185	0xbc8985cc	-0.016787432
186	0xbd4d7660	-0.05016172
187	0xbd218290	-0.039431155
188	0xbcd4da82	-0.025983099
189	0xbb2e0a70	-0.0026556514
190	0xbc70b44c	-0.014691424
191	0xbd1e3a9d	-0.038630117
192	0x3cb2b574	0.02181504
193	0xbd0c1813	-0.034202646
194	0x3d200038	0.03906271
195	0x3c36fef8	0.011169188
196	0x3d5353f0	0.05159372
197	0x3b787f20	0.003791757
198	0x3d21c55a	0.03949485
199	0x3d1a3ac4	0.0376537
200	0xbc6a634c	-0.014305901
201	0xbd2fb084	-0.042892948
202	0xbd607753	-0.054801296
203	0xbbd3f6e8	-0.0064686425
204	0xbc086c78	-0.008326642
205	0xbcec22b5	-0.028825143
206	0x3c8edf24	0.017440386
207	0xbc5c5ab4	-0.01344936
208	0xbd328208	-0.04358104
209	0xbba43088	-0.005010668
210	0xbce8a9a6	-0.028401207
211	0x3c97c6d4	0.018527426
212	0xbd2279a0	-0.039666772
213	0x3d21d634	0.03951092
214	0xbd36c189	-0.044618163
215	0x3d26315e	0.040574424
216	0x39973e80	0.0002884753
217	0xbd6685c9	-0.05627993
218	0xbc8e921c	-0.017403655
219	0x3cfd5d58	0.030928299
220	0xbd4fdf94	-0.05075033
221	0xbd1345b7	-0.035955157
222	0xbd1dc5e5	-0.038518805
223	0x3d1bdc1a	0.038051702
224	0x3c0d03f0	0.008606896
225	0x3ca1d1bc	0.01975333
226	0xbd0d309a	-0.03447018
227	0xbd64c0ca	-0.05584792
228	0xbb829430	-0.0039849505
229	0x3b4fcbd0	0.0031707175
230	0x3cce4400	0.02517891
231	0xba9f58c0	-0.0012157187
232	0xbcfc20d0	-0.030777365
233	0xbd406497	-0.04697093
234	0xbc5df51c	-0.013547208
235	0xbd641411	-0.0556832
236	0x3cb9e82c	0.022693716
237	0x3d31a48c	0.043369815
238	0xbd0d931e	-0.03456413
239	0x3c276030	0.010215804
240	0xbcb567b8	-0.022144184
241	0xbc81638a	-0.015794534
242	0xbb096080	-0.002096206
243	0xbce4edba	-0.027945388
244	0xbca8a684	-0.020587213
245	0xbcda06e7	-0.02661462
246	0xbd15c304	-0.036562935
247	0x3c94a298	0.018143937
248	0x3b6313c0	0.0034649223
249	0x3d4f87e8	0.05066672
250	0xbd22f500	-0.03978443
251	0x3d3eb694	0.04656084
252	0x3cdfd89c	0.027324967
253	0xbd289f7c	-0.04116772
254	0xbd5619fa	-0.052270867
255	0x3d04dd2e	0.032437496

fc2.bias f4 [2]
0	0x3d5545dc	0.052068576
1	0x3bfdf8c0	0.0077506006

fc1.weight f4 [300, 9]
0	0x3d904f20	0.07046342
1	0x3e712ffe	0.23553464
2	0x3df81124	0.12112644
3	0xbe0c617b	-0.13709061
4	0xbe81be04	-0.25340283
5	0xbe893313	-0.2679678
6	0xbe93aed4	-0.2884432
7	0x3c984d50	0.018591553
8	0x3cef2700	0.029193401
9	0x3d0efeb8	0.034910887
10	0xbd3adef8	-0.045622796
11	0xbe9fc623	-0.31205854
12	0xbe1674ab	-0.14692943
13	0xbd8e56f0	-0.06950176
14	0xbdb043b0	-0.0860666
15	0x3cb5a290	0.022172242
16	0x3e8baf5d	0.2728223
17	0xbe19d2d0	-0.15021825
18	0xbcc1e0f0	-0.023666829
19	0x3e76e93a	0.24112406
20	0x3e8a9669	0.2706788
21	0x3da9242c	0.08258852
22	0xbe4d3940	-0.2004137
23	0xbcbca170	-0.023026198
24	0x3d857bb0	0.06517732
25	0xbe92b65c	-0.28654754
26	0x3e9ab261	0.30214217
27	0xbea8813f	-0.32911107
28	0xbd95eb64	-0.07320288
29	0xbe916cdb	-0.28403363
30	0x3e157ee2	0.14599183
31	0x3e93402f	0.28759906
32	0x3df1a8f4	0.117998034
33	0xbd9b41b0	-0.07580888
34	0xbdf689dc	-0.12038013
35	0xbe8f7fe8	-0.28027272
36	0xbb8c2740	-0.00427714
37	0x3e9ee1cd	0.31031647
38	0xbe511b70	-0.20420623
39	0xbd75f158	-0.060044616
40	0xbe3e84d0	-0.18605351
41	0x3d9c8010	0.076416135
42	0x3dc254bc	0.09488818
43	0x3dde9f00	0.108701706
44	0x3d9284ec	0.07154259
45	0xbd55cf38	-0.052199572
46	0x3d96c840	0.073624134
47	0x3db4b764	0.088240415
48	0x3e789e1a	0.24279061
49	0x3c48a800	0.012247086
50	0xbe17ca3e	-0.14823243
51	0x3e77b152	0.24188736
52	0x3e65105e	0.22369525
53	0xbe297bcb	-0.1655113
54	0x3e56d2b6	0.20978817
55	0x3e80fd39	0.25193194
56	0x3cdacd30	0.02670917
57	0x3d7283f8	0.059207886
58	0xbea3cf07	-0.31993887
59	0x3e373bd6	0.1789392
60	0x3e62a2ce	0.22132418
61	0xbe8b2538	-0.27176833
62	0xbcfae090	-0.030624658
63	0xbd202c68	-0.03910485
64	0xbdf88a20	-0.1213572
65	0x3d2584a0	0.040409684
66	0x3d8bfd30	0.06835401
67	0x3e0f2f2a	0.13982835
68	0x3d30f860	0.04320562
69	0xbe890396	-0.26760548
70	0xbe7320c3	-0.23742966
71	0xbe299c3e	-0.16563508
72	0xbd95dadc	-0.07317135
73	0xbc29be60	-0.01036033
74	0xbe155b4b	-0.14585607
75	0x3e1a2922	0.15054753
76	0x3ea0dc55	0.314181
77	0xbe8187f7	-0.25299045
78	0x3e0042d6	0.12525496
79	0xbc7a5a00	-0.015280247
80	0x3ea98423	0.33108625
81	0xbe89ae5c	-0.26890838
82	0xbe7ada0e	-0.24497244
83	0xbe69f3fe	-0.22846982
84	0x3df1e70c	0.11811647
85	0xbd8720e0	-0.06598067
86	0xbc8af290	-0.016961366
87	0xbbe750c0	-0.0070591867
88	0xbe2260c3	-0.15857224
89	0xbd38a618	-0.045080274
90	0xbe288488	-0.16456807
91	0xbd848bb0	-0.06471956
92	0xbdd8a2d0	-0.10577929
93	0x3e79f752	0.24410751
94	0x3d565008	0.052322417
95	0x3e3cc6da	0.18435231
96	0xbe8da96f	-0.2766833
97	0x3ea7358d	0.32658044
98	0xbda3d1b4	-0.07998982
99	0x3e85ae3d	0.26109496
100	0xbe8cb98c	-0.2748531
101	0xbe75dae6	-0.24009284
102	0x3e08acfa	0.13347235
103	0xbe58f11e	-0.21185729
104	0x3e736842	0.2377024
105	0x3d6d9af8	0.058009118
106	0x3e303f22	0.17211583
107	0x3dbf9a30	0.09355581
108	0x3cb26bd0	0.021779925
109	0xbe8e6624	-0.27812302
110	0xbe7a31b3	-0.24433021
111	0xbe7feb2e	-0.24992058
112	0xbdfabdc6	-0.12243228
113	0xbd2f0698	-0.042730898
114	0xbe25b04b	-0.16180532
115	0xbd31e2e0	-0.043429255
116	0xbea9a067	-0.3313019
117	0xbe9d19e2	-0.3068381
118	0xbe2a182b	-0.16610782
119	0xbdd0968c	-0.101849645
120	0xbe1ae9ae	-0.15128204
121	0x3e62c7ba	0.22146502
122	0xbd7aa8a8	-0.061196
123	0x39ce9000	0.0003939867
124	0x3e290e22	0.16509297
125	0x3be6d800	0.007044792
126	0xbe302f80	-0.1720562
127	0x3db1862c	0.086681694
128	0x3e795d06	0.24351892
129	0xbe024820	-0.12722826
130	0x3dbc0a70	0.09181678
131	0x3e74e0e6	0.23913917
132	0xbdc9eea6	-0.09859972
133	0xbe7d8cb6	-0.24760708
134	0xbe3d742b	-0.18501346
135	0x3e99a645	0.30009666
136	0xbd3513a0	-0.04420817
137	0xbea67a3b	-0.3251513
138	0x3c858dc0	0.016302943
139	0xbcd57840	-0.026058316
140	0xbe4e30ee	-0.20135853
141	0x3e179100	0.14801407
142	0xbea30166	-0.31837004
143	0xbe834f1e	-0.256463
144	0xbe95a61a	-0.29228288
145	0xbda63b7c	-0.081168145
146	0xbe4bf6ab	-0.19918315
147	0x3dbb7c70	0.09154594
148	0xbe398618	-0.18117559
149	0xbe869610	-0.26286364
150	0xbe88bd3e	-0.2670688
151	0xbd139f48	-0.036040574
152	0x3df6d83c	0.12052962
153	0xbe84f0f2	-0.25965077
154	0x3e2a9462	0.16658166
155	0x3ea11969	0.314647
156	0x3e2fa532	0.17152861
157	0x3e207536	0.15669712
158	0x3ea4741f	0.32119843
159	0xbe14d28b	-0.14533441
160	0xbe9344e3	-0.28763494
161	0x3ea3b341	0.31972697
162	0x3e262d38	0.16228187
163	0x3e9cf601	0.30656436
164	0x3d780c88	0.060558826
165	0xbe6b3dc3	-0.22972779
166	0x3cb3d4d0	0.021952063
167	0x3d3d1cf8	0.046170205
168	0xbe83bd3e	-0.25730318
169	0x3e5e13da	0.2168726
170	0xbe2f321e	-0.17108962
171	0xbe37d82e	-0.1795356
172	0xbdbb78dc	-0.091539115
173	0x3e583fc2	0.21118072
174	0xbe60c47e	-0.21949956
175	0x3b9c5fc0	0.0047721565
176	0x3e1641e6	0.14673576
177	0xbdd21570	-0.10257995
178	0x3e8c31e9	0.27381828
179	0x3df3963c	0.11893889
180	0xbd9f4e84	-0.077786475
181	0xbc913cd0	-0.017729193
182	0x3ea72a25	0.3264934
183	0xbe195bdb	-0.14976446
184	0xbea1c403	-0.31594858
185	0xbe2d7b3b	-0.1694154
186	0x3e98a091	0.29810002
187	0xbe76dda3	-0.24107985
188	0xbe3101f6	-0.17285904
189	0xbe418bbb	-0.18900959
190	0x3e184618	0.14870489
191	0xbe887fa7	-0.2665989
192	0xbe4f00cb	-0.20215146
193	0xbe1f0560	-0.15529394
194	0xbdbf641c	-0.09345266
195	0x3e892b11	0.2679067
196	0xbd385828	-0.045005947
197	0x3ea464ed	0.3210825
198	0x3e901283	0.28139123
199	0x3e198602	0.14992526
200	0x3d9e2b44	0.07723096
201	0x3e50f2f6	0.20405182
202	0xbde41b66	-0.11138038
203	0x3e9d926d	0.30775777
204	0x3d585100	0.052811623
205	0xbe93a270	-0.28834867
206	0xbe79958b	-0.24373452
207	0x3d4b8e58	0.049696296
208	0x3e24ad10	0.16081643
209	0x3e17a802	0.14810184
210	0xbe9655dc	-0.2936238
211	0x3e7bc4d2	0.245868
212	0x3b5a4800	0.0033307076
213	0xbe1a22db	-0.15052359
214	0xbd246aa0	-0.040140748
215	0x3daeea40	0.085407734
216	0xbb93fb00	-0.0045160055
217	0x3e50ab76	0.20377907
218	0xbca9e2d0	-0.020738035
219	0xbe0ff166	-0.1405693
220	0x3dbe9640	0.09306002
221	0xbe18bd3e	-0.1491594
222	0xbdcebaec	-0.10094246
223	0xbd0ed560	-0.03487146
224	0xbe7db7f6	-0.24777207
225	0x3e850abd	0.25984755
226	0xbe875fc6	-0.26440257
227	0xbe6c9e66	-0.23107299
228	0x3d914da0	0.07094884
229	0xbe46f966	-0.19431075
230	0xbea9ec60	-0.33188152
231	0x3ea04d19	0.3130882
232	0x3c8b3db0	0.016997188
233	0xbdb8bbb0	-0.090201735
234	0xbe50bf70	-0.20385528
235	0xbe8ca66b	-0.27470717
236	0xbd59f7a0	-0.05321467
237	0xbe53cc18	-0.20683324
238	0x3db5a960	0.08870196
239	0xbcee9bf0	-0.029127091
240	0x3e756a56	0.23966345
241	0x3e463512	0.19356182
242	0xbe6180c8	-0.22021782
243	0xbe6cb0ab	-0.23114268
244	0xbe49ed8e	-0.19719526
245	0x3e51f1ea	0.20502439
246	0x3e41c732	0.18923643
247	0xbe88f5ce	-0.26750034
248	0xbdbe5550	-0.09293616
249	0xbe993ea2	-0.29930598
250	0xbe4e05a0	-0.20119333
251	0xbe01b918	-0.12668264
252	0xbdb0fed0	-0.086423516
253	0xbe3613a0	-0.17780924
254	0xbe0fbe40	-0.14037418
255	0xbe1c5de8	-0.15270197
