model_save/params_20240806_162432.pth (torch, 68211 bytes, 18 tensors)

fc1.weight f4 [300, 9]
00000000: 7e93 3fbe 6055 36be d089 f0bc 7cb9 91be
00000010: b007 a7be 30ea 71be 3873 7a3d 38cd 60bd
00000020: fadb 473e 0c90 af3d daa5 343e 434d 3dbe
00000030: 422c 88be b81e 3d3d a68f 70be 766e b7bd
00000040: 40a9 f13b d01f b9bc 5a58 7d3e a641 dcbd
00000050: 33ef 8dbe 9e88 033e fcdb a8be 00d5 c3bb
00000060: d6d6 c2bd 6b9b 7dbe 368e 63be 638a 9cbe
00000070: 2ce0 e43d 0e34 4b3e 10fb eebd b256 663e
00000080: 1a24 583e 38d2 6a3d af45 963e 40ae 7dbd
00000090: 5ac5 643e dbfe 7dbe b001 1fbe 7071 2fbe
000000a0: ea53 5d3e 4806 353d e0c5 fcbd 6604 91be
000000b0: fc6b 81be 545c 8ebd 6b79 90be f432 f53d
000000c0: c848 6bbe 3ae1 593e 9e2d 333e 4d0a 923e
000000d0: f8c5 5e3d ea67 9ebe 16f0 aebd d0f4 f0bd
000000e0: c03a 98bc c0d1 b1bc 0fd1 a43e a204 a7be
000000f0: eebc 283e dba7 3cbe bc14 a0bd 80ce bdbc
00000100: 1888 6fbe 10bc 8cbc 946d fb3d 2ae1 503e
00000110: 46b1 6f3e 0058 e83b 3395 1dbe 6869 03bd
00000120: 7912 8a3e ac2b ba3d 9aac 7f3e f822 023d
00000130: 36e5 d7bd 5bbe 00be c695 563e eb29 983e
00000140: 83af 3ebe 1296 643e da62 343e c0da 61be
00000150: 40fa adbc bab5 1b3e 107d d6bc 626a 553e
00000160: f0fc ed3d d945 a33e 1458 89bd ac47 ad3d
00000170: 4a68 003e 76ad a3be b067 51be 874f 8cbe
00000180: f99b 823e 374c 8d3e 4c13 cdbd b252 463e
00000190: 57ae 923e f86c 143e 80e6 28bd b0ba 59be
000001a0: fe58 70be 5dcb 893e 51d8 983e a924 8b3e
000001b0: 9f3c 933e 5659 1b3e 08e6 55bd bc27 f8bd
000001c0: 9828 81be 86ad 293e 1bcd 30be e269 793e
000001d0: daaa 8ebe 7ab0 493e c08b cf3b 145c e03d
000001e0: 57f8 833e 18a0 43be 4827 1f3e 80d2 6ebd
000001f0: a1b6 803e 52b9 6b3e eb89 2bbe 4022 49bd
00000200: c666 493e ebba 3cbe 1807 2abe 8029 a8bd
00000210: a633 d0bd 01d6 823e a058 5b3c de0a 04be
00000220: 10e2 ec3c f0c6 95bd b870 08bd 8036 69bc
00000230: e049 29bc 34a0 8a3d b2e5 6d3e 2dcc 8c3e
00000240: 9087 c6bc 8c9b b0bd c189 a83e db21 60be
00000250: 20e8 2abc c8e5 23be ab5c a03e 2b6a a33e
00000260: 5670 0cbe 123d 283e 3e8b 5ebe 57dc 913e
00000270: 504d e13d 6878 473d cd1a 933e 5842 03be
00000280: 9636 603e 2f5f 83be 2c72 a2be a63e edbd
00000290: 9f11 833e 1c00 d2bd 0bd4 5bbe a43b bc3d
000002a0: b207 713e 1763 843e b8d1 84be 544f fa3d
000002b0: 6199 863e f428 8b3d 7830 66bd 4c8e 89bd
000002c0: 7a65 84be 929d 123e 9a37 713e 723b 093e
000002d0: 5038 c43c 90ac 8bbd 6868 293d ebac 7ebe
000002e0: 920f 743e 3c7a fe3d 9323 74be 2690 623e
000002f0: dc9a d33d c4d8 8ebd 067e 493e bc3f ac3d
00000300: e910 953e e6c1 343e 5f74 9dbe 3efd a8be
00000310: 2068 4bbd 06c8 edbd 2b27 963e e660 94be
00000320: 437c 76be d21b 4f3e 40e9 cdbd 1cae 95bd
00000330: a978 a73e 50e4 b2bc 9037 88bd c40d 91be
00000340: e0d8 403d 206b 353d b820 223d b803 91be
00000350: 68bc 503d 7eec 4f3e 5182 8b3e 5061 a4bd
00000360: 2315 6dbe 4e42 1fbe d07d ad3d 70ea 59be
00000370: b01f 99bd 2fea a13e d454 853d f079 b6bd
00000380: 1f58 8f3e eb99 9e3e f0d9 5bbe dd55 813e
00000390: 5025 993c c778 a5be c0d3 1bbd e06d 79bd
000003a0: e1eb 8d3e 28b5 40bd 162c 4abe f00c 9cbd
000003b0: e85d 0d3e 24f9 8b3d 1e3a 24be e655 97be
000003c0: dce6 be3d f613 06be 8e05 373e 75eb 9a3e
000003d0: 9ee6 5dbe 3a7f 9ebe 83ee 923e 8ffd a33e
000003e0: abf9 81be 03a0 883e b482 98bd 967a b0bd
000003f0: cec8 293e 5855 03bd e000 a0bd c0b6 a73b
-0.18708608 -0.17806005 -0.02936259 -0.28461826 -0.32623053 -0.23624492 0.061145037 -0.05488321
0.19517508 0.08572397 0.17641392 -0.18486504 -0.26596266 0.046171874 -0.23492298 -0.089566156
0.0073749125 -0.022598177 0.24740735 -0.10754709 -0.27721557 0.12845084 -0.32980335 -0.0059763193
-0.09513633 -0.24766319 -0.22222218 -0.3057433 0.1117557 0.19844076 -0.1166898 0.22494009
0.21107522 0.057329386 0.2935004 -0.061933756 0.22340909 -0.24804251 -0.15527987 -0.17133117
0.21614042 0.044195443 -0.12342429 -0.28323668 -0.25277698 -0.06951204 -0.28217635 0.11972609
-0.22976983 0.21277323 0.1749787 0.28523484 0.054388016 -0.30938655 -0.085418865 -0.11765444
-0.018582702 -0.021706462 0.3219075 -0.32620722 0.16478321 -0.18423407 -0.07816455 -0.023169756
-0.2339176 -0.017179519 0.1227676 0.20398393 0.23407468 0.0070905685 -0.15388946 -0.032082945
0.2696722 0.09090361 0.24968186 0.03177163 -0.105417654 -0.12572615 0.20955572 0.2971948
-0.1862164 0.22322872 0.17615834 -0.22056103 -0.021237493 0.15206042 -0.026182681 0.20841363
0.116205096 0.31889227 -0.06706253 0.08460936 0.12539783 -0.31968278 -0.2044971 -0.27404425
0.25509623 0.2759721 -0.10013446 0.19367483 0.28648636 0.14494693 -0.041235447 -0.21262622
-0.23471448 0.26912966 0.29852536 0.27176407 0.28757188 0.15170798 -0.052221328 -0.12116954
-0.25226283 0.165701 -0.17265742 0.24356797 -0.27864724 0.19696227 0.006333798 0.109550625
0.25775406 -0.1910404 0.15542328 -0.058306217 0.25139335 0.23019913 -0.1675183 -0.04910493
0.19668111 -0.18430679 -0.16604269 -0.082110405 -0.10166101 0.25553897 0.013387829 -0.1289477
0.028916389 -0.07313335 -0.033310622 -0.014234185 -0.010332555 0.067688376 0.23232153 0.27499524
-0.024234563 -0.08623418 0.32917598 -0.21887915 -0.0104313195 -0.16005623 0.313207 0.31916937
-0.13714728 0.16429546 -0.21732804 0.28488418 0.11001074 0.048698813 0.28731385 -0.12818277
0.21895823 -0.25658557 -0.3172773 -0.11584215 0.2559938 -0.10253927 -0.21467607 0.09191063
0.23538092 0.2585685 -0.25941253 0.12222162 0.26288894 0.067949206 -0.056198567 -0.06716594
-0.2585867 0.14317921 0.23556367 0.13401583 0.023952633 -0.06820023 0.041359335 -0.2487065
0.23834065 0.12425658 -0.23841695 0.22125301 0.103322715 -0.069749385 0.1967698 0.08410594
0.29114464 0.17652091 -0.30752847 -0.33005708 -0.04965985 -0.11610417 0.29326758 -0.28980178
-0.2407084 0.20225456 -0.100542545 -0.07308599 0.32709244 -0.021837384 -0.06651223 -0.28330815
0.047081828 0.044291615 0.039581984 -0.2832315 0.05096093 0.20305058 0.2724786 -0.080263734
-0.23152594 -0.15552637 0.084712625 -0.21280837 -0.07476747 0.3162398 0.0651032 -0.089099765
0.2799692 0.30976805 -0.21469855 0.2526082 0.01869455 -0.32318708 -0.038043737 -0.0608958
0.27719024 -0.047047764 -0.1974338 -0.07619655 0.13805354 0.06834629 -0.16037795 -0.29557723
0.09321377 -0.13093552 0.17873213 0.30257764 -0.21670005 -0.3095644 0.28697595 0.32029387
-0.25385794 0.2668458 -0.07446805 -0.086171314 0.16580507 -0.032063812 -0.07812667 0.005118221

fc1.bias f4 [300]
00000000: b8d5 0abe 7026 9b3c 40cf 83be 7158 8a3e
00000010: 2ed3 3bbe 1e4f a4be 7409 9ebd 9027 6abe
00000020: f272 9bbe 032b 3cbe a8fd 59bd 402b 8fbc
00000030: 8e2d 583e 1cc0 db3d 0dc0 a43e 20d0 96be
00000040: 2654 8bbe b843 303d 3091 a83d e0a5 cebd
00000050: b04d 993c d08b 863d 4c26 d73d b480 81be
00000060: 0b20 35be ec85 82be 0638 593e 7301 97be
00000070: 545c a03d 009e 423a 7e6d 0a3e 6e22 66be
00000080: cb0b 81be ca40 3a3e b327 96be 1878 5dbd
00000090: 1842 4c3d 8810 93be 916b 873e 86c7 2dbe
000000a0: 4096 ebbb 0a10 363e 50e2 90be 3604 533e
000000b0: 953e 9c3e f8c8 56be 88fd 28bd 3305 1bbe
000000c0: 80f5 463c cec5 28be 6bad 4fbe 6349 18be
000000d0: 895f 853e 2395 883e 9b94 943e 6c12 ef3d
000000e0: 20e4 68bc 9627 43be 7098 ea3d c485 a6bd
000000f0: a274 94be d803 16be f2f8 6f3e 2774 84be
00000100: 2095 4abd e3a1 3abe d8ef 043d 0862 463d
00000110: 3743 83be 3ad7 513e ca7c 0a3e 302f c23d
00000120: 8afc 533e 26b1 c2bd 4ec0 90be b041 d3bc
00000130: 901f e1bc f184 983e 6b2b a6be d6bb 2e3e
00000140: 47aa 95be d212 3e3e 00a2 d43b 78fd 263d
00000150: 2476 d73d f406 af3d 804e 2abc 33d6 8cbe
00000160: 8b5e a03e 6628 563e 8096 33be 92b6 7b3e
00000170: 7399 853e f4fa ee3d a0a4 cc3d 40b8 4fbe
00000180: a8d7 273d 244d a8bd 048e a23d 73e5 16be
00000190: 636c 933e b305 8e3e 3e2b 283e ef2b 8d3e
000001a0: b993 9d3e 4087 043e d0d6 e43c 9883 79be
000001b0: 1909 a33e 86f0 93be 7199 9d3e 8c4f cb3d
000001c0: 565b 083e b62a 0ebe 36ab 2fbe 0b31 0dbe
000001d0: 40ae 21be c078 bcbd d566 963e 7ba3 11be
000001e0: ee1a 9abe 870f 99be 9baa 13be de20 1b3e
000001f0: 70d2 3bbe 124e 0b3e 80c8 103c ac7a f73d
00000200: 802e 47be 4e18 26be 8224 453e bebd 043e
00000210: 78f2 7e3d 08af 0cbd 224f 483e ded5 03be
00000220: 7aa3 703e 62cd 743e 7226 3f3e 4096 19bd
00000230: 3b18 a8be 562f 4dbe e01a 663d d6c7 4ebe
00000240: e8e7 30bd 8442 da3d 8069 833d 48fb 46bd
00000250: a1fa a83e 2891 46bd 0685 493e b802 0dbe
00000260: 4ec5 5e3e 6cfa 923d 98ca 303d 6ecb 3fbe
00000270: b056 c63c f119 893e 769d 4b3e 7f52 913e
00000280: 3c1e c23d c6aa a7be 4d3d a13e 4a03 2f3e
00000290: 4ca3 903d e36d 6ebe e9cb a33e 91fb a33e
000002a0: 3b8d 43be 047b 803d c473 9cbe 6c4e 9dbd
000002b0: 3297 383e 103a d2bc 3640 bbbd c60f 66be
000002c0: 5e4a 8fbe e882 263e 50c0 4bbe a3c4 963e
000002d0: 3764 8cbe d8a0 263d 4d15 a13e e060 d93d
000002e0: 52d9 333e 30af c4bd 16dc 53be cc24 92bd
000002f0: 4758 8dbe 40c7 d6bc 4982 883e f3e2 47be
00000300: 738f 803e 2cef d8bd 850f a63e 4c28 b13d
00000310: 9005 acbd b02f 95bc 684c 7fbe ecaa c23d
00000320: c853 a6be acf0 e13d aefd 4fbe 0017 983b
00000330: 56dd 163e 3cf6 f6bd 362c 393e bd75 8a3e
00000340: f3c9 3abe 2655 653e 005f dbba 2caf d53d
00000350: 4cc4 a13d d68a e7bd 068d fbbd 93a9 59be
00000360: 49d3 8b3e f09a cebd b0b5 f03c 8c29 a8bd
00000370: d0b9 d73c 206d d1bd 51c3 883e 8416 ff3d
00000380: d6db 97be 3ea5 52be 8ced c03d 52c7 363e
00000390: 2066 d03d 362f 663e 36fd c0bd c830 3e3d
000003a0: f802 2a3e 000b b83d 8017 9c3c 5549 9b3e
000003b0: 4684 dfbd 42eb 403e 827d 9bbe a077 893d
000003c0: 9a99 7c3e 9b0b 60be 30a2 cebd e03b 343d
000003d0: 8025 4abc ca73 9bbe 435d 85be 7b1f 43be
000003e0: 2611 1dbe 6866 2fbe bc65 84be a04c ecbd
000003f0: 288d 42bd 2aea 89be 48aa 5e3d 78cc 8dbe
-0.1355809 0.018939227 -0.25744057 0.270206 -0.18342277 -0.32091612 -0.07716647 -0.22866654
-0.30361134 -0.18375783 -0.05322042 -0.017476678 0.21111128 0.10730001 0.32177773 -0.29455662
-0.27212638 0.04303333 0.08230817 -0.10090232 0.018713802 0.06569636 0.105053514 -0.25293505
-0.17688005 -0.254928 0.21212777 -0.29493293 0.0783011 0.00074240565 0.1351833 -0.22474071
-0.2520431 0.18188778 -0.29327163 -0.05406961 0.04986772 -0.2872355 0.26449254 -0.16970643
-0.007189542 0.17779556 -0.28297663 0.20607075 0.30516496 -0.20975101 -0.04125741 -0.15138702
0.012143493 -0.16481707 -0.20280997 -0.14871745 0.2604945 0.26676282 0.29019627 0.116734356
-0.0142145455 -0.1905807 0.114548564 -0.081309825 -0.28995234 -0.14649904 0.23434809 -0.25869867
-0.049458623 -0.18225817 0.032455295 0.048433334 -0.25637218 0.20492259 0.13524166 0.094816566
0.20701805 -0.09506445 -0.28271717 -0.025788158 -0.02748087 0.29788926 -0.32455 0.17063841
-0.29231474 0.18561867 0.0064890385 0.04076907 0.105205804 0.08546248 -0.010394692 -0.2750717
0.3132213 0.20913848 -0.1753788 0.24581364 0.26093635 0.11668959 0.09992337 -0.2028513
0.04097715 -0.082178384 0.079372436 -0.14735965 0.2879363 0.27738723 0.16422746 0.2757258
0.30776766 0.12942219 0.027934462 -0.24366605 0.31842878 -0.28894442 0.3078113 0.09927282
0.13316092 -0.1388348 -0.17155156 -0.1378824 -0.15789127 -0.09202719 0.2937533 -0.14222519
-0.3009867 -0.2989466 -0.1442055 0.15149257 -0.18341994 0.13604 0.008836865 0.12083945
-0.19451332 -0.16220209 0.19252208 0.12963006 0.062242955 -0.03434661 0.19561437 -0.12874553
0.23499861 0.23906472 0.1866701 -0.037496805 -0.32830986 -0.20037588 0.056177974 -0.20193419
-0.043189913 0.10657218 0.06416607 -0.048579484 0.33003715 -0.048478276 0.1967965 -0.13770568
0.21754953 0.071766704 0.04316196 -0.18729946 0.024211258 0.26777604 0.19884285 0.28383252
0.09478423 -0.32747477 0.3149208 0.17091098 0.070623964 -0.23284106 0.3199151 0.32027867
-0.19096844 0.06273463 -0.30557072 -0.076809734 0.18026426 -0.025662452 -0.09143107 -0.22466955
-0.27986425 0.16260874 -0.1989758 0.29446897 -0.27420208 0.040680736 0.31461564 0.106141806
0.1756337 -0.09603727 -0.20689425 -0.07135925 -0.27606413 -0.026218057 0.266619 -0.19520168
0.25109443 -0.105924934 0.32433715 0.08650264 -0.083994985 -0.018211216 -0.2493149 0.09505257
-0.32485795 0.11032233 -0.20311615 0.0046414137 0.1473287 -0.12058684 0.18083271 0.27042952
-0.182411 0.22395763 -0.0016736686 0.10433802 0.07898769 -0.11305778 -0.122827575 -0.21256094
0.27309635 -0.10088146 0.02938351 -0.082110494 0.02633372 -0.10225892 0.26711515 0.124554664
-0.2965991 -0.20570847 0.094203085 0.17849472 0.10175729 0.22478947 -0.09423296 0.04643324
0.16602695 0.08986473 0.019054174 0.30329385 -0.10913901 0.18839744 -0.30369192 0.0671227
0.2466797 -0.21879427 -0.100895286 0.044002414 -0.012338042 -0.30361778 -0.26047716 -0.19054978
-0.15338573 -0.17128909 -0.25858867 -0.115380526 -0.0474979 -0.26936466 0.05436161 -0.2769506

fc2.weight f4 [2, 300]
00000000: 00e2 dbb8 601a 6d3c d051 bd3b 809b 643d
00000010: b030 8b3c 481d 163c da17 1d3d 4884 4a3c
00000020: 5872 433c 10fc b5bb 70eb 6a3b 0f36 32bd
00000030: 5477 a23c 2cb7 343d 38d2 773c 4085 c53b
00000040: 18ed 4b3c 5091 5bbd 966c 54bd d8d4 86bc
00000050: 38f2 4d3c 20d2 f7bb 8859 fa3c 98b3 9cbc
00000060: 1073 3fbc 4c2f 963c c013 c13b f6f7 5abd
00000070: 20d2 d83b cc6b 2d3d 6215 633d cced 30bc
00000080: b737 3dbd a0b8 1bbc c8d5 4d3d d8a6 de3c
00000090: 6cc8 97bc 50cf 96bc aa4c 2c3d 808f 4abc
000000a0: d897 903b b02d 9dbc 98f8 a3bc 8415 ca3c
000000b0: 987f f0bc a888 09bd c8ce 3a3c 50f3 793c
000000c0: 504b bebb 601d 183b 72a1 64bd 90b5 333b
000000d0: 80cf 6a3c 70c0 bc3c be43 263d 8cfd 5bbc
000000e0: 8e84 443d fe47 4f3d 9696 4fbd d8ff 9b3c
000000f0: 2cb2 3b3d d2b3 99bc 3633 483d f82d c3bc
00000100: c893 97bb cccf d13c 10fc fa3b b089 d6bc
00000110: 0ac2 08bd 1114 2bbd fce2 c93c b00e 843c
00000120: e89a dabb dcff 353d 260e 633d 80f6 6b3d
00000130: b83e d73c 10ce c3bb 2a22 d7bc eef9 9cbc
00000140: 706c 383d 2a65 07bd 0c0f 07bc 1027 b7bb
00000150: 7f3a 08bd 06e1 d6bc 7e6b 393d d263 d3bc
00000160: 5e2c 193d 6210 cbbc 048e 44bd a8c6 223d
00000170: f073 26bd 1867 78bc 76dd 26bd 7e01 bbbc
00000180: 4020 a93c e2ea 05bd c093 8bbb 081c 1cbd
00000190: 6ae8 4d3d f4f0 4b3d 00e2 413b 8475 92bc
000001a0: d06e 9dbb d035 b5bb fc92 633d f41e e3bc
000001b0: 3823 353c 6855 f9bc c01f 6cbd 3c31 183d
000001c0: f269 233d 98bd 38bc 486b 913c d825 68bd
000001d0: 2c96 14bc dac9 043d 1055 033b 5055 0b3c
000001e0: dd0a 1abd 2824 0d3d 00ef c03c 3e7d a9bc
000001f0: 4a8c b5bc cc74 51bd 34d8 1fbd e787 e3bc
00000200: c00c 673c 8871 033c 1c9e ccbc c1aa 58bd
00000210: 0c82 c03c 43d5 e9bc e019 713b 80b8 843b
00000220: 4a98 d2bc 1cae 17bd ee8e 503d d58f 02bd
00000230: f09f 9bbb c464 2a3d 18e3 bbbc 647d 6bbc
00000240: 6aaf 59bd 4812 0cbd a834 c8bb 80d6 99ba
00000250: 3a01 4cbd 99b8 43bd 0e60 223d 10cd 3d3d
00000260: 1ae3 39bd 5c49 923c a87e ea3c 456c f4bc
00000270: a4b7 b13c 4878 55bd c43e 33bd 00c2 a23b
00000280: 0eff 133d 10bb dfbb f022 753c 9060 65bb
00000290: 62e1 313d 5aa0 09bd 60e3 22bb 286e d83c
000002a0: f846 28bd d0c4 603d a068 2e3d 9629 00bd
000002b0: ba37 a4bc 78f8 2fbc 3892 b9bb 26fa 5f3d
000002c0: f0ec 703b 6448 0dbd 00fb 9c3b f439 82bc
000002d0: fcec 0b3d 04cf 033d 3019 513d 5ce9 03bd
000002e0: e0da 1d3c 8fc0 48bd bc82 b03c b6a5 673d
000002f0: e601 42bd aaef 673d 78f7 21bd 781e 403d
00000300: 78c0 523d 58c5 dabc 8853 3d3c 4455 34bd
00000310: b9d1 eabc b86c c0bc 74e1 143d fc85 f43c
00000320: 3000 3a3d b4a3 7bbc 98fa c2bb a800 413c
00000330: 84aa 51bc a0bb 0b3c a829 d3bb 60b5 2d3d
00000340: 60dc e63b b44e 8cbc e45a 58bd 69ae 3dbd
00000350: 779d 4abd 5059 a83b c039 4e3c 9846 f0bb
00000360: f004 633c 9624 0cbd b0f1 6a3b 4c0b 1f3d
00000370: 123c 043d a0fb 843b e46c 253d 20a1 9dba
00000380: 98f5 11bc 94c5 b0bc 2064 d8bb dc32 b33c
00000390: 205e e33b c899 1c3c 4215 0d3d a711 45bd
000003a0: fd01 14bd 1694 193d 6085 d23b 4c1e c2bc
000003b0: 4c77 06bd b8ba 473c f6e3 31bd 1a63 063d
000003c0: f421 d5bc 9690 1fbd d84a cb3c f8b8 f43c
000003d0: b0a5 03bb ecd0 10bd 6c00 1bbc 4cf7 4dbc
000003e0: a26b 0e3d ea94 363d b68e b8bc 204e 77bc
000003f0: b0f7 c0bc 1c86 0c3d 609e 913c c0b7 62bb
-0.000104848295 0.01447162 0.005777575 0.05581236 0.01699099 0.009162255 0.038352825 0.01236064
0.011929117 -0.00555373 0.0035845898 -0.043508586 0.01983229 0.04412 0.015125804 0.0060278475
0.012446664 -0.053605378 -0.051861368 -0.016458914 0.0125699565 -0.0075628906 0.03056027 -0.019128606
-0.011685148 0.0183331 0.005892247 -0.05345913 0.0066168457 0.04233913 0.055440314 -0.010798883
-0.046195712 -0.009504467 0.050252706 0.027179167 -0.018528186 -0.018409401 0.0420653 -0.012363315
0.0044126324 -0.019186825 -0.020016 0.024668463 -0.029357716 -0.03357759 0.01140184 0.015255764
-0.005807318 0.0023210868 -0.05581803 0.0027421452 0.014331698 0.02304098 0.040591948 -0.0134271495
0.047977977 0.050605766 -0.05068072 0.019042894 0.045824215 -0.018762503 0.048876964 -0.02382563
-0.004625771 0.02561178 0.0076594427 -0.026188701 -0.033388175 -0.041767184 0.024644367 0.016120285
-0.0066712983 0.04443346 0.055433415 0.057608128 0.026275024 -0.0059754923 -0.026261408 -0.019162145
0.04502529 -0.033055462 -0.008243334 -0.0055893734 -0.03325891 -0.026230346 0.04526853 -0.025804434
0.037395827 -0.024788085 -0.047987 0.039740235 -0.04063791 -0.015161298 -0.040738545 -0.02282786
0.02064526 -0.032694705 -0.0042595565 -0.03811267 0.050270475 0.049790338 0.002958417 -0.017878301
-0.0048044696 -0.0055300966 0.055560097 -0.02772472 0.01105576 -0.030436233 -0.057647467 0.03715633
0.03989596 -0.011275671 0.017751351 -0.056676716 -0.009069007 0.032419063 0.0020039715 0.008504227
-0.037608016 0.03445831 0.023551464 -0.020689603 -0.022161622 -0.051136777 -0.039024547 -0.027774764
0.014102161 0.008022673 -0.024977736 -0.05289722 0.023499511 -0.028544074 0.0036789104 0.0040503144
-0.025707383 -0.037031278 0.05091756 -0.03187545 -0.0047492906 0.041600004 -0.022935435 -0.014373157
-0.053145804 -0.03419712 -0.0061097927 -0.00117369 -0.049805857 -0.047783468 0.039642386 0.04633814
-0.045382597 0.017857246 0.028624848 -0.029836783 0.021694012 -0.052116662 -0.04376103 0.0049669743
0.03613191 -0.0068277195 0.014961943 -0.0035000183 0.043427832 -0.03360019 -0.0024854764 0.026419714
-0.041083306 0.054875195 0.042580247 -0.03128966 -0.020046104 -0.010740392 -0.0056631826 0.05468192
0.003676232 -0.034492865 0.0047906637 -0.015896775 0.034161553 0.032179847 0.05104941 -0.03220497
0.009634703 -0.049011763 0.021546714 0.05655452 -0.04736509 0.056625046 -0.039542645 0.046904057
0.051453084 -0.026705429 0.01155556 -0.044026628 -0.028664457 -0.023489341 0.03634782 0.029849045
0.045410335 -0.015358854 -0.0059502833 0.011779942 -0.012797002 0.00852862 -0.006444175 0.0424093
0.0070453137 -0.017127372 -0.052821055 -0.04630891 -0.049466576 0.0051376 0.012587011 -0.007332634
0.013856158 -0.03421458 0.0035849623 0.038829133 0.03228385 0.0040583163 0.04038705 -0.0012026168
-0.008908652 -0.021578588 -0.0066037327 0.021874838 0.006938711 0.009558149 0.0344441 -0.048112538
-0.03613471 0.03749474 0.006424591 -0.023696087 -0.032828614 0.012190513 -0.04343029 0.032809354
-0.026017167 -0.038956247 0.024815962 0.029873356 -0.002008777 -0.035355493 -0.00946055 -0.012571167
0.034770615 0.04457561 -0.022528987 -0.01509431 -0.023555607 0.034307584 0.017775714 -0.0034594387

fc2.bias f4 [2]
00000000: c68f 273d c055 cdbc
0.040908597 -0.025065303

fc1.weight f4 [300, 9]
00000000: 7e93 3fbe 6055 36be d089 f0bc 7cb9 91be
00000010: b007 a7be 30ea 71be 3873 7a3d 38cd 60bd
00000020: fadb 473e 0c90 af3d daa5 343e 434d 3dbe
00000030: 422c 88be b81e 3d3d a68f 70be 766e b7bd
00000040: 40a9 f13b d01f b9bc 5a58 7d3e a641 dcbd
00000050: 33ef 8dbe 9e88 033e fcdb a8be 00d5 c3bb
00000060: d6d6 c2bd 6b9b 7dbe 368e 63be 638a 9cbe
00000070: 2ce0 e43d 0e34 4b3e 10fb eebd b256 663e
00000080: 1a24 583e 38d2 6a3d af45 963e 40ae 7dbd
00000090: 5ac5 643e dbfe 7dbe b001 1fbe 7071 2fbe
000000a0: ea53 5d3e 4806 353d e0c5 fcbd 6604 91be
000000b0: fc6b 81be 545c 8ebd 6b79 90be f432 f53d
000000c0: c848 6bbe 3ae1 593e 9e2d 333e 4d0a 923e
000000d0: f8c5 5e3d ea67 9ebe 16f0 aebd d0f4 f0bd
000000e0: c03a 98bc c0d1 b1bc 0fd1 a43e a204 a7be
000000f0: eebc 283e dba7 3cbe bc14 a0bd 80ce bdbc
00000100: 1888 6fbe 10bc 8cbc 946d fb3d 2ae1 503e
00000110: 46b1 6f3e 0058 e83b 3395 1dbe 6869 03bd
00000120: 7912 8a3e ac2b ba3d 9aac 7f3e f822 023d
00000130: 36e5 d7bd 5bbe 00be c695 563e eb29 983e
00000140: 83af 3ebe 1296 643e da62 343e c0da 61be
00000150: 40fa adbc bab5 1b3e 107d d6bc 626a 553e
00000160: f0fc ed3d d945 a33e 1458 89bd ac47 ad3d
00000170: 4a68 003e 76ad a3be b067 51be 874f 8cbe
00000180: f99b 823e 374c 8d3e 4c13 cdbd b252 463e
00000190: 57ae 923e f86c 143e 80e6 28bd b0ba 59be
000001a0: fe58 70be 5dcb 893e 51d8 983e a924 8b3e
000001b0: 9f3c 933e 5659 1b3e 08e6 55bd bc27 f8bd
000001c0: 9828 81be 86ad 293e 1bcd 30be e269 793e
000001d0: daaa 8ebe 7ab0 493e c08b cf3b 145c e03d
000001e0: 57f8 833e 18a0 43be 4827 1f3e 80d2 6ebd
000001f0: a1b6 803e 52b9 6b3e eb89 2bbe 4022 49bd
00000200: c666 493e ebba 3cbe 1807 2abe 8029 a8bd
00000210: a633 d0bd 01d6 823e a058 5b3c de0a 04be
00000220: 10e2 ec3c f0c6 95bd b870 08bd 8036 69bc
00000230: e049 29bc 34a0 8a3d b2e5 6d3e 2dcc 8c3e
00000240: 9087 c6bc 8c9b b0bd c189 a83e db21 60be
00000250: 20e8 2abc c8e5 23be ab5c a03e 2b6a a33e
00000260: 5670 0cbe 123d 283e 3e8b 5ebe 57dc 913e
00000270: 504d e13d 6878 473d cd1a 933e 5842 03be
00000280: 9636 603e 2f5f 83be 2c72 a2be a63e edbd
00000290: 9f11 833e 1c00 d2bd 0bd4 5bbe a43b bc3d
000002a0: b207 713e 1763 843e b8d1 84be 544f fa3d
000002b0: 6199 863e f428 8b3d 7830 66bd 4c8e 89bd
000002c0: 7a65 84be 929d 123e 9a37 713e 723b 093e
000002d0: 5038 c43c 90ac 8bbd 6868 293d ebac 7ebe
000002e0: 920f 743e 3c7a fe3d 9323 74be 2690 623e
000002f0: dc9a d33d c4d8 8ebd 067e 493e bc3f ac3d
00000300: e910 953e e6c1 343e 5f74 9dbe 3efd a8be
00000310: 2068 4bbd 06c8 edbd 2b27 963e e660 94be
00000320: 437c 76be d21b 4f3e 40e9 cdbd 1cae 95bd
00000330: a978 a73e 50e4 b2bc 9037 88bd c40d 91be
00000340: e0d8 403d 206b 353d b820 223d b803 91be
00000350: 68bc 503d 7eec 4f3e 5182 8b3e 5061 a4bd
00000360: 2315 6dbe 4e42 1fbe d07d ad3d 70ea 59be
00000370: b01f 99bd 2fea a13e d454 853d f079 b6bd
00000380: 1f58 8f3e eb99 9e3e f0d9 5bbe dd55 813e
00000390: 5025 993c c778 a5be c0d3 1bbd e06d 79bd
000003a0: e1eb 8d3e 28b5 40bd 162c 4abe f00c 9cbd
000003b0: e85d 0d3e 24f9 8b3d 1e3a 24be e655 97be
000003c0: dce6 be3d f613 06be 8e05 373e 75eb 9a3e
000003d0: 9ee6 5dbe 3a7f 9ebe 83ee 923e 8ffd a33e
000003e0: abf9 81be 03a0 883e b482 98bd 967a b0bd
000003f0: cec8 293e 5855 03bd e000 a0bd c0b6 a73b
-0.18708608 -0.17806005 -0.02936259 -0.28461826 -0.32623053 -0.23624492 0.061145037 -0.05488321
0.19517508 0.08572397 0.17641392 -0.18486504 -0.26596266 0.046171874 -0.23492298 -0.089566156
0.0073749125 -0.022598177 0.24740735 -0.10754709 -0.27721557 0.12845084 -0.32980335 -0.0059763193
-0.09513633 -0.24766319 -0.22222218 -0.3057433 0.1117557 0.19844076 -0.1166898 0.22494009
0.21107522 0.057329386 0.2935004 -0.061933756 0.22340909 -0.24804251 -0.15527987 -0.17133117
0.21614042 0.044195443 -0.12342429 -0.28323668 -0.25277698 -0.06951204 -0.28217635 0.11972609
-0.22976983 0.21277323 0.1749787 0.28523484 0.054388016 -0.30938655 -0.085418865 -0.11765444
-0.018582702 -0.021706462 0.3219075 -0.32620722 0.16478321 -0.18423407 -0.07816455 -0.023169756
-0.2339176 -0.017179519 0.1227676 0.20398393 0.23407468 0.0070905685 -0.15388946 -0.032082945
0.2696722 0.09090361 0.24968186 0.03177163 -0.105417654 -0.12572615 0.20955572 0.2971948
-0.1862164 0.22322872 0.17615834 -0.22056103 -0.021237493 0.15206042 -0.026182681 0.20841363
0.116205096 0.31889227 -0.06706253 0.08460936 0.12539783 -0.31968278 -0.2044971 -0.27404425
0.25509623 0.2759721 -0.10013446 0.19367483 0.28648636 0.14494693 -0.041235447 -0.21262622
-0.23471448 0.26912966 0.29852536 0.27176407 0.28757188 0.15170798 -0.052221328 -0.12116954
-0.25226283 0.165701 -0.17265742 0.24356797 -0.27864724 0.19696227 0.006333798 0.109550625
0.25775406 -0.1910404 0.15542328 -0.058306217 0.25139335 0.23019913 -0.1675183 -0.04910493
0.19668111 -0.18430679 -0.16604269 -0.082110405 -0.10166101 0.25553897 0.013387829 -0.1289477
0.028916389 -0.07313335 -0.033310622 -0.014234185 -0.010332555 0.067688376 0.23232153 0.27499524
-0.024234563 -0.08623418 0.32917598 -0.21887915 -0.0104313195 -0.16005623 0.313207 0.31916937
-0.13714728 0.16429546 -0.21732804 0.28488418 0.11001074 0.048698813 0.28731385 -0.12818277
0.21895823 -0.25658557 -0.3172773 -0.11584215 0.2559938 -0.10253927 -0.21467607 0.09191063
0.23538092 0.2585685 -0.25941253 0.12222162 0.26288894 0.067949206 -0.056198567 -0.06716594
-0.2585867 0.14317921 0.23556367 0.13401583 0.023952633 -0.06820023 0.041359335 -0.2487065
0.23834065 0.12425658 -0.23841695 0.22125301 0.103322715 -0.069749385 0.1967698 0.08410594
0.29114464 0.17652091 -0.30752847 -0.33005708 -0.04965985 -0.11610417 0.29326758 -0.28980178
-0.2407084 0.20225456 -0.100542545 -0.07308599 0.32709244 -0.021837384 -0.06651223 -0.28330815
0.047081828 0.044291615 0.039581984 -0.2832315 0.05096093 0.20305058 0.2724786 -0.080263734
-0.23152594 -0.15552637 0.084712625 -0.21280837 -0.07476747 0.3162398 0.0651032 -0.089099765
0.2799692 0.30976805 -0.21469855 0.2526082 0.01869455 -0.32318708 -0.038043737 -0.0608958
0.27719024 -0.047047764 -0.1974338 -0.07619655 0.13805354 0.06834629 -0.16037795 -0.29557723
0.09321377 -0.13093552 0.17873213 0.30257764 -0.21670005 -0.3095644 0.28697595 0.32029387
-0.25385794 0.2668458 -0.07446805 -0.086171314 0.16580507 -0.032063812 -0.07812667 0.005118221

fc1.bias f4 [300]
00000000: b8d5 0abe 7026 9b3c 40cf 83be 7158 8a3e
00000010: 2ed3 3bbe 1e4f a4be 7409 9ebd 9027 6abe
00000020: f272 9bbe 032b 3cbe a8fd 59bd 402b 8fbc
00000030: 8e2d 583e 1cc0 db3d 0dc0 a43e 20d0 96be
00000040: 2654 8bbe b843 303d 3091 a83d e0a5 cebd
00000050: b04d 993c d08b 863d 4c26 d73d b480 81be
00000060: 0b20 35be ec85 82be 0638 593e 7301 97be
00000070: 545c a03d 009e 423a 7e6d 0a3e 6e22 66be
00000080: cb0b 81be ca40 3a3e b327 96be 1878 5dbd
00000090: 1842 4c3d 8810 93be 916b 873e 86c7 2dbe
000000a0: 4096 ebbb 0a10 363e 50e2 90be 3604 533e
000000b0: 953e 9c3e f8c8 56be 88fd 28bd 3305 1bbe
000000c0: 80f5 463c cec5 28be 6bad 4fbe 6349 18be
000000d0: 895f 853e 2395 883e 9b94 943e 6c12 ef3d
000000e0: 20e4 68bc 9627 43be 7098 ea3d c485 a6bd
000000f0: a274 94be d803 16be f2f8 6f3e 2774 84be
00000100: 2095 4abd e3a1 3abe d8ef 043d 0862 463d
00000110: 3743 83be 3ad7 513e ca7c 0a3e 302f c23d
00000120: 8afc 533e 26b1 c2bd 4ec0 90be b041 d3bc
00000130: 901f e1bc f184 983e 6b2b a6be d6bb 2e3e
00000140: 47aa 95be d212 3e3e 00a2 d43b 78fd 263d
00000150: 2476 d73d f406 af3d 804e 2abc 33d6 8cbe
00000160: 8b5e a03e 6628 563e 8096 33be 92b6 7b3e
00000170: 7399 853e f4fa ee3d a0a4 cc3d 40b8 4fbe
00000180: a8d7 273d 244d a8bd 048e a23d 73e5 16be
00000190: 636c 933e b305 8e3e 3e2b 283e ef2b 8d3e
000001a0: b993 9d3e 4087 043e d0d6 e43c 9883 79be
000001b0: 1909 a33e 86f0 93be 7199 9d3e 8c4f cb3d
000001c0: 565b 083e b62a 0ebe 36ab 2fbe 0b31 0dbe
000001d0: 40ae 21be c078 bcbd d566 963e 7ba3 11be
000001e0: ee1a 9abe 870f 99be 9baa 13be de20 1b3e
000001f0: 70d2 3bbe 124e 0b3e 80c8 103c ac7a f73d
00000200: 802e 47be 4e18 26be 8224 453e bebd 043e
00000210: 78f2 7e3d 08af 0cbd 224f 483e ded5 03be
00000220: 7aa3 703e 62cd 743e 7226 3f3e 4096 19bd
00000230: 3b18 a8be 562f 4dbe e01a 663d d6c7 4ebe
00000240: e8e7 30bd 8442 da3d 8069 833d 48fb 46bd
00000250: a1fa a83e 2891 46bd 0685 493e b802 0dbe
00000260: 4ec5 5e3e 6cfa 923d 98ca 303d 6ecb 3fbe
00000270: b056 c63c f119 893e 769d 4b3e 7f52 913e
00000280: 3c1e c23d c6aa a7be 4d3d a13e 4a03 2f3e
00000290: 4ca3 903d e36d 6ebe e9cb a33e 91fb a33e
000002a0: 3b8d 43be 047b 803d c473 9cbe 6c4e 9dbd
000002b0: 3297 383e 103a d2bc 3640 bbbd c60f 66be
000002c0: 5e4a 8fbe e882 263e 50c0 4bbe a3c4 963e
000002d0: 3764 8cbe d8a0 263d 4d15 a13e e060 d93d
000002e0: 52d9 333e 30af c4bd 16dc 53be cc24 92bd
000002f0: 4758 8dbe 40c7 d6bc 4982 883e f3e2 47be
00000300: 738f 803e 2cef d8bd 850f a63e 4c28 b13d
00000310: 9005 acbd b02f 95bc 684c 7fbe ecaa c23d
00000320: c853 a6be acf0 e13d aefd 4fbe 0017 983b
00000330: 56dd 163e 3cf6 f6bd 362c 393e bd75 8a3e
00000340: f3c9 3abe 2655 653e 005f dbba 2caf d53d
00000350: 4cc4 a13d d68a e7bd 068d fbbd 93a9 59be
00000360: 49d3 8b3e f09a cebd b0b5 f03c 8c29 a8bd
00000370: d0b9 d73c 206d d1bd 51c3 883e 8416 ff3d
00000380: d6db 97be 3ea5 52be 8ced c03d 52c7 363e
00000390: 2066 d03d 362f 663e 36fd c0bd c830 3e3d
000003a0: f802 2a3e 000b b83d 8017 9c3c 5549 9b3e
000003b0: 4684 dfbd 42eb 403e 827d 9bbe a077 893d
000003c0: 9a99 7c3e 9b0b 60be 30a2 cebd e03b 343d
000003d0: 8025 4abc ca73 9bbe 435d 85be 7b1f 43be
000003e0: 2611 1dbe 6866 2fbe bc65 84be a04c ecbd
000003f0: 288d 42bd 2aea 89be 48aa 5e3d 78cc 8dbe
-0.1355809 0.018939227 -0.25744057 0.270206 -0.18342277 -0.32091612 -0.07716647 -0.22866654
-0.30361134 -0.18375783 -0.05322042 -0.017476678 0.21111128 0.10730001 0.32177773 -0.29455662
-0.27212638 0.04303333 0.08230817 -0.10090232 0.018713802 0.06569636 0.105053514 -0.25293505
-0.17688005 -0.254928 0.21212777 -0.29493293 0.0783011 0.00074240565 0.1351833 -0.22474071
-0.2520431 0.18188778 -0.29327163 -0.05406961 0.04986772 -0.2872355 0.26449254 -0.16970643
-0.007189542 0.17779556 -0.28297663 0.20607075 0.30516496 -0.20975101 -0.04125741 -0.15138702
0.012143493 -0.16481707 -0.20280997 -0.14871745 0.2604945 0.26676282 0.29019627 0.116734356
-0.0142145455 -0.1905807 0.114548564 -0.081309825 -0.28995234 -0.14649904 0.23434809 -0.25869867
-0.049458623 -0.18225817 0.032455295 0.048433334 -0.25637218 0.20492259 0.13524166 0.094816566
0.20701805 -0.09506445 -0.28271717 -0.025788158 -0.02748087 0.29788926 -0.32455 0.17063841
-0.29231474 0.18561867 0.0064890385 0.04076907 0.105205804 0.08546248 -0.010394692 -0.2750717
0.3132213 0.20913848 -0.1753788 0.24581364 0.26093635 0.11668959 0.09992337 -0.2028513
0.04097715 -0.082178384 0.079372436 -0.14735965 0.2879363 0.27738723 0.16422746 0.2757258
0.30776766 0.12942219 0.027934462 -0.24366605 0.31842878 -0.28894442 0.3078113 0.09927282
0.13316092 -0.1388348 -0.17155156 -0.1378824 -0.15789127 -0.09202719 0.2937533 -0.14222519
-0.3009867 -0.2989466 -0.1442055 0.15149257 -0.18341994 0.13604 0.008836865 0.12083945
-0.19451332 -0.16220209 0.19252208 0.12963006 0.062242955 -0.03434661 0.19561437 -0.12874553
0.23499861 0.23906472 0.1866701 -0.037496805 -0.32830986 -0.20037588 0.056177974 -0.20193419
-0.043189913 0.10657218 0.06416607 -0.048579484 0.33003715 -0.048478276 0.1967965 -0.13770568
0.21754953 0.071766704 0.04316196 -0.18729946 0.024211258 0.26777604 0.19884285 0.28383252
0.09478423 -0.32747477 0.3149208 0.17091098 0.070623964 -0.23284106 0.3199151 0.32027867
-0.19096844 0.06273463 -0.30557072 -0.076809734 0.18026426 -0.025662452 -0.09143107 -0.22466955
-0.27986425 0.16260874 -0.1989758 0.29446897 -0.27420208 0.040680736 0.31461564 0.106141806
0.1756337 -0.09603727 -0.20689425 -0.07135925 -0.27606413 -0.026218057 0.266619 -0.19520168
0.25109443 -0.105924934 0.32433715 0.08650264 -0.083994985 -0.018211216 -0.2493149 0.09505257
-0.32485795 0.11032233 -0.20311615 0.0046414137 0.1473287 -0.12058684 0.18083271 0.27042952
-0.182411 0.22395763 -0.0016736686 0.10433802 0.07898769 -0.11305778 -0.122827575 -0.21256094
0.27309635 -0.10088146 0.02938351 -0.082110494 0.02633372 -0.10225892 0.26711515 0.124554664
-0.2965991 -0.20570847 0.094203085 0.17849472 0.10175729 0.22478947 -0.09423296 0.04643324
0.16602695 0.08986473 0.019054174 0.30329385 -0.10913901 0.18839744 -0.30369192 0.0671227
0.2466797 -0.21879427 -0.100895286 0.044002414 -0.012338042 -0.30361778 -0.26047716 -0.19054978
-0.15338573 -0.17128909 -0.25858867 -0.115380526 -0.0474979 -0.26936466 0.05436161 -0.2769506

fc2.weight f4 [2, 300]
00000000: 00e2 dbb8 601a 6d3c d051 bd3b 809b 643d
00000010: b030 8b3c 481d 163c da17 1d3d 4884 4a3c
00000020: 5872 433c 10fc b5bb 70eb 6a3b 0f36 32bd
00000030: 5477 a23c 2cb7 343d 38d2 773c 4085 c53b
00000040: 18ed 4b3c 5091 5bbd 966c 54bd d8d4 86bc
00000050: 38f2 4d3c 20d2 f7bb 8859 fa3c 98b3 9cbc
00000060: 1073 3fbc 4c2f 963c c013 c13b f6f7 5abd
00000070: 20d2 d83b cc6b 2d3d 6215 633d cced 30bc
00000080: b737 3dbd a0b8 1bbc c8d5 4d3d d8a6 de3c
00000090: 6cc8 97bc 50cf 96bc aa4c 2c3d 808f 4abc
000000a0: d897 903b b02d 9dbc 98f8 a3bc 8415 ca3c
000000b0: 987f f0bc a888 09bd c8ce 3a3c 50f3 793c
000000c0: 504b bebb 601d 183b 72a1 64bd 90b5 333b
000000d0: 80cf 6a3c 70c0 bc3c be43 263d 8cfd 5bbc
000000e0: 8e84 443d fe47 4f3d 9696 4fbd d8ff 9b3c
000000f0: 2cb2 3b3d d2b3 99bc 3633 483d f82d c3bc
00000100: c893 97bb cccf d13c 10fc fa3b b089 d6bc
00000110: 0ac2 08bd 1114 2bbd fce2 c93c b00e 843c
00000120: e89a dabb dcff 353d 260e 633d 80f6 6b3d
00000130: b83e d73c 10ce c3bb 2a22 d7bc eef9 9cbc
00000140: 706c 383d 2a65 07bd 0c0f 07bc 1027 b7bb
00000150: 7f3a 08bd 06e1 d6bc 7e6b 393d d263 d3bc
00000160: 5e2c 193d 6210 cbbc 048e 44bd a8c6 223d
00000170: f073 26bd 1867 78bc 76dd 26bd 7e01 bbbc
00000180: 4020 a93c e2ea 05bd c093 8bbb 081c 1cbd
00000190: 6ae8 4d3d f4f0 4b3d 00e2 413b 8475 92bc
000001a0: d06e 9dbb d035 b5bb fc92 633d f41e e3bc
000001b0: 3823 353c 6855 f9bc c01f 6cbd 3c31 183d
000001c0: f269 233d 98bd 38bc 486b 913c d825 68bd
000001d0: 2c96 14bc dac9 043d 1055 033b 5055 0b3c
000001e0: dd0a 1abd 2824 0d3d 00ef c03c 3e7d a9bc
000001f0: 4a8c b5bc cc74 51bd 34d8 1fbd e787 e3bc
00000200: c00c 673c 8871 033c 1c9e ccbc c1aa 58bd
00000210: 0c82 c03c 43d5 e9bc e019 713b 80b8 843b
00000220: 4a98 d2bc 1cae 17bd ee8e 503d d58f 02bd
00000230: f09f 9bbb c464 2a3d 18e3 bbbc 647d 6bbc
00000240: 6aaf 59bd 4812 0cbd a834 c8bb 80d6 99ba
00000250: 3a01 4cbd 99b8 43bd 0e60 223d 10cd 3d3d
00000260: 1ae3 39bd 5c49 923c a87e ea3c 456c f4bc
00000270: a4b7 b13c 4878 55bd c43e 33bd 00c2 a23b
00000280: 0eff 133d 10bb dfbb f022 753c 9060 65bb
00000290: 62e1 313d 5aa0 09bd 60e3 22bb 286e d83c
000002a0: f846 28bd d0c4 603d a068 2e3d 9629 00bd
000002b0: ba37 a4bc 78f8 2fbc 3892 b9bb 26fa 5f3d
000002c0: f0ec 703b 6448 0dbd 00fb 9c3b f439 82bc
000002d0: fcec 0b3d 04cf 033d 3019 513d 5ce9 03bd
000002e0: e0da 1d3c 8fc0 48bd bc82 b03c b6a5 673d
000002f0: e601 42bd aaef 673d 78f7 21bd 781e 403d
00000300: 78c0 523d 58c5 dabc 8853 3d3c 4455 34bd
00000310: b9d1 eabc b86c c0bc 74e1 143d fc85 f43c
00000320: 3000 3a3d b4a3 7bbc 98fa c2bb a800 413c
00000330: 84aa 51bc a0bb 0b3c a829 d3bb 60b5 2d3d
00000340: 60dc e63b b44e 8cbc e45a 58bd 69ae 3dbd
00000350: 779d 4abd 5059 a83b c039 4e3c 9846 f0bb
00000360: f004 633c 9624 0cbd b0f1 6a3b 4c0b 1f3d
00000370: 123c 043d a0fb 843b e46c 253d 20a1 9dba
00000380: 98f5 11bc 94c5 b0bc 2064 d8bb dc32 b33c
00000390: 205e e33b c899 1c3c 4215 0d3d a711 45bd
000003a0: fd01 14bd 1694 193d 6085 d23b 4c1e c2bc
000003b0: 4c77 06bd b8ba 473c f6e3 31bd 1a63 063d
000003c0: f421 d5bc 9690 1fbd d84a cb3c f8b8 f43c
000003d0: b0a5 03bb ecd0 10bd 6c00 1bbc 4cf7 4dbc
000003e0: a26b 0e3d ea94 363d b68e b8bc 204e 77bc
000003f0: b0f7 c0bc 1c86 0c3d 609e 913c c0b7 62bb
-0.000104848295 0.01447162 0.005777575 0.05581236 0.01699099 0.009162255 0.038352825 0.01236064
0.011929117 -0.00555373 0.0035845898 -0.043508586 0.01983229 0.04412 0.015125804 0.0060278475
0.012446664 -0.053605378 -0.051861368 -0.016458914 0.0125699565 -0.0075628906 0.03056027 -0.019128606
-0.011685148 0.0183331 0.005892247 -0.05345913 0.0066168457 0.04233913 0.055440314 -0.010798883
-0.046195712 -0.009504467 0.050252706 0.027179167 -0.018528186 -0.018409401 0.0420653 -0.012363315
0.0044126324 -0.019186825 -0.020016 0.024668463 -0.029357716 -0.03357759 0.01140184 0.015255764
-0.005807318 0.0023210868 -0.05581803 0.0027421452 0.014331698 0.02304098 0.040591948 -0.0134271495
0.047977977 0.050605766 -0.05068072 0.019042894 0.045824215 -0.018762503 0.048876964 -0.02382563
-0.004625771 0.02561178 0.0076594427 -0.026188701 -0.033388175 -0.041767184 0.024644367 0.016120285
-0.0066712983 0.04443346 0.055433415 0.057608128 0.026275024 -0.0059754923 -0.026261408 -0.019162145
0.04502529 -0.033055462 -0.008243334 -0.0055893734 -0.03325891 -0.026230346 0.04526853 -0.025804434
0.037395827 -0.024788085 -0.047987 0.039740235 -0.04063791 -0.015161298 -0.040738545 -0.02282786
0.02064526 -0.032694705 -0.0042595565 -0.03811267 0.050270475 0.049790338 0.002958417 -0.017878301
-0.0048044696 -0.0055300966 0.055560097 -0.02772472 0.01105576 -0.030436233 -0.057647467 0.03715633
0.03989596 -0.011275671 0.017751351 -0.056676716 -0.009069007 0.032419063 0.0020039715 0.008504227
-0.037608016 0.03445831 0.023551464 -0.020689603 -0.022161622 -0.051136777 -0.039024547 -0.027774764
0.014102161 0.008022673 -0.024977736 -0.05289722 0.023499511 -0.028544074 0.0036789104 0.0040503144
-0.025707383 -0.037031278 0.05091756 -0.03187545 -0.0047492906 0.041600004 -0.022935435 -0.014373157
-0.053145804 -0.03419712 -0.0061097927 -0.00117369 -0.049805857 -0.047783468 0.039642386 0.04633814
-0.045382597 0.017857246 0.028624848 -0.029836783 0.021694012 -0.052116662 -0.04376103 0.0049669743
0.03613191 -0.0068277195 0.014961943 -0.0035000183 0.043427832 -0.03360019 -0.0024854764 0.026419714
-0.041083306 0.054875195 0.042580247 -0.03128966 -0.020046104 -0.010740392 -0.0056631826 0.05468192
0.003676232 -0.034492865 0.0047906637 -0.015896775 0.034161553 0.032179847 0.05104941 -0.03220497
0.009634703 -0.049011763 0.021546714 0.05655452 -0.04736509 0.056625046 -0.039542645 0.046904057
0.051453084 -0.026705429 0.01155556 -0.044026628 -0.028664457 -0.023489341 0.03634782 0.029849045
0.045410335 -0.015358854 -0.0059502833 0.011779942 -0.012797002 0.00852862 -0.006444175 0.0424093
0.0070453137 -0.017127372 -0.052821055 -0.04630891 -0.049466576 0.0051376 0.012587011 -0.007332634
0.013856158 -0.03421458 0.0035849623 0.038829133 0.03228385 0.0040583163 0.04038705 -0.0012026168
-0.008908652 -0.021578588 -0.0066037327 0.021874838 0.006938711 0.009558149 0.0344441 -0.048112538
-0.03613471 0.03749474 0.006424591 -0.023696087 -0.032828614 0.012190513 -0.04343029 0.032809354
-0.026017167 -0.038956247 0.024815962 0.029873356 -0.002008777 -0.035355493 -0.00946055 -0.012571167
0.034770615 0.04457561 -0.022528987 -0.01509431 -0.023555607 0.034307584 0.017775714 -0.0034594387

fc2.bias f4 [2]
00000000: c68f 273d c055 cdbc
0.040908597 -0.025065303

fc1.weight f4 [300, 9]
00000000: 1976 883e 9be3 a23e 6c54 a13d 50e6 bc3d
00000010: 1846 19be 0648 103e fc83 a2be 00fc d13b
00000020: 50ea c5bd 6e7c 0e3e 72af 073e 5002 a23c
00000030: ca43 363e 987f 1fbd 27f9 9a3e 88fa 05be
00000040: 3c9a fbbd 806d fcbc 1077 d8bd 80e4 003b
00000050: 583e 72bd 6e1e 6dbe 0870 40be 00d2 773a
00000060: 3276 3e3e e8cb 21be aaa6 8fbe 8b0d 03be
00000070: ec12 93bd e02f 633d b829 253d 44b4 94bd
00000080: e5fb 9a3e f3bb 0cbe 2eb5 3a3e c124 a03e
00000090: 06c4 4bbe 783f 4a3d 382b 34bd 36ea f9bd
000000a0: ae24 0abe b462 d63d c0f7 9abc d023 943d
000000b0: 7034 58be 2074 75bc a51b a53e 407d dc3b
000000c0: dd75 a33e c16c 823e 60f1 2fbe 53b4 7dbe
000000d0: 9eeb 1e3e a8e5 5bbd c5b5 953e 2622 133e
000000e0: 10ad a6bd 603a 0ebd 3095 c93c 8c16 b03d
000000f0: 500b aa3c 2033 a73d d488 96be 5555 a73e
00000100: 9b82 80be 8a5c 463e fb3d 21be 3a9f 2f3e
00000110: 9bad a23e a1f9 8d3e 36ba d3bd e3f7 7ebe
00000120: 80df de3c 608d 463d 28f5 94be 967d 3b3e
00000130: 801e ed3d 3618 24be 5c90 e1bd 22ff 6f3e
00000140: 3a21 763e eedb 84be b02b 123e d05d 4abe
00000150: d0a2 97be 00cc debd dca1 abbd b85e 39be
00000160: 8099 6d3c 40db 96bc 1d73 923e 4c36 9cbd
00000170: 9bcc 0cbe ba04 0c3e 70ca d43d d01a 8b3c
00000180: b611 3d3e 5821 58be dfef a63e 769d a1be
00000190: e212 433e d08b 8c3c 2117 a63e ccbf 8ebd
000001a0: ae57 523e d0bb a3be c8da 12be cb29 37be
000001b0: 7c8f 9e3d 804a 2e3d 7472 e93d 0078 49bb
000001c0: 6a4d a5be 70c0 ebbc 1874 93be 104d dc3c
000001d0: 8688 6cbe 37a8 8abe bd03 833e ff84 97be
000001e0: 5b14 39be 5b04 03be 3829 74bd 7a4c 473e
000001f0: fa14 a9be 10e8 97bd 8837 32bd d494 bf3d
00000200: f5fa a63e a81a 363d 6c1b a43d e088 893d
00000210: 9f0f 92be 1af5 80be a2f7 293e da8d 713e
00000220: cac6 003e 26dc 203e a6ec 2bbe 5fb6 93be
00000230: 666e 363e 12b0 8abe 9435 86be 16a5 3f3e
00000240: fe1b 2c3e 3e3c 39be b1f6 863e 4383 78be
00000250: 0048 85be 23ee 54be 5003 87be f687 cbbd
00000260: 3fa0 a63e 6a09 7f3e 008b a83b f9e9 9e3e
00000270: 9c3e c5bd ce72 41be 2029 513d 2c28 d3bd
00000280: 7fd6 9ebe c1bc 933e 28ba 72bd ca35 413e
00000290: 6ba2 26be 12d2 2d3e 521c 783e b090 243e
000002a0: 00c3 d63b 43ed 91be 04e8 a23d 3841 6dbe
000002b0: 765e 95be 6a5d 053e 94a2 f33d 9680 7a3e
000002c0: 9e55 703e 607f 63be 1490 9fbd dec3 77be
000002d0: d0ec e2bc e3c4 81be 9054 33be 02d6 3a3e
000002e0: 37e1 8fbe 5315 1dbe 8b2b 03be 4032 a53b
000002f0: b87b 5f3d cb6d 873e 34fb ac3d e46c a5bd
00000300: 90d1 9dbc 28d8 a6be e3ef 70be 0081 d5bc
00000310: 1e8f 93be 9c83 e93d 7040 88be 659f a93e
00000320: eec9 1f3e 28c1 04be 08a8 0cbe 0058 08bb
00000330: 8085 da3c c028 dcbb 0038 63bc 3274 293e
00000340: edc6 9d3e d60d 6c3e 2a7f 4a3e 10ed 8bbc
00000350: 6022 6fbe 6052 7ebe 1c5f 973d 0051 afbc
00000360: 99d6 8f3e b4e9 95bd c8c1 63bd 6054 053c
00000370: 4091 f73d aa3e 7c3e 9ea4 5fbe b435 83be
00000380: 76e3 babd f854 6abe 401d 9bbd c2f7 3f3e
00000390: 00b3 b43d cbb2 81be ce1d 86be a89b 88be
000003a0: e8f7 5a3d a00d 383c 8611 8bbe 58ce 62bd
000003b0: 60d1 1b3d a61c 0e3e dc51 e03d 6980 9e3e
000003c0: db0d 02be 164e 003e fcdb 8dbd 70a6 f4bc
000003d0: 5ba6 9a3e d2c3 8fbe 962c 0a3e 80d8 3a3b
000003e0: 7a02 4e3e 9029 f2bc 9ed0 09be fcd9 acbd
000003f0: 5676 523e 7a74 403e 1012 ae3d 18ee 1abd
0.266526 0.31814274 0.0787743 0.09223616 -0.14968145 0.14089975 -0.3174132 0.0064082146
-0.09663832 0.13914654 0.13250521 0.019776493 0.17799297 -0.038940042 0.30268213 -0.13083851
-0.12285277 -0.030813932 -0.10569584 0.0019667447 -0.059141487 -0.23156139 -0.18792737 0.00094535947
0.18599775 -0.1580044 -0.28056842 -0.12798135 -0.071813434 0.05546558 0.04032299 -0.072609454
0.30270305 -0.13743572 0.18233177 0.3127804 -0.19898996 0.049376935 -0.04398653 -0.12202875
-0.13490555 0.10468045 -0.018916965 0.07233393 -0.21113753 -0.0149813 0.32247654 0.006728798
0.3192586 0.25473598 -0.17181921 -0.2477582 0.15519568 -0.053685814 0.29240242 0.14368495
-0.08138478 -0.03472364 0.024607271 0.085980505 0.020757347 0.08164048 -0.29401267 0.3268229
-0.25099644 0.19371238 -0.157463 0.17150584 0.31773075 0.27729514 -0.10338251 -0.24899249
0.027206182 0.04847467 -0.2909329 0.18309626 0.11578083 -0.1602486 -0.110138625 0.23437169
0.24036112 -0.25949043 0.14274478 -0.19762349 -0.29616404 -0.10878754 -0.083804816 -0.18102539
0.014501929 -0.018415093 0.2860345 -0.07627544 -0.13749926 0.13673678 0.103901744 0.016980559
0.18463787 -0.2110647 0.32604882 -0.31565446 0.19050172 0.017156512 0.3243952 -0.06970176
0.2054126 -0.31979227 -0.14341271 -0.17887037 0.07742211 0.042551517 0.11398783 -0.0030741692
-0.32285625 -0.028778285 -0.2879951 0.026892215 -0.23098955 -0.27081463 0.2558879 -0.29593655
-0.18074171 -0.1279463 -0.05960962 0.19462767 -0.33023816 -0.07417309 -0.04350999 0.093545586
0.3261334 0.044459015 0.08013043 0.0671556 -0.28527543 -0.25186998 0.1659837 0.23589268
0.12575832 0.1570898 -0.16789493 -0.28850076 0.17815551 -0.27087456 -0.26212752 0.18715319
0.16807553 -0.18089387 0.26360086 -0.24268822 -0.26031494 -0.20793967 -0.26369715 -0.09938042
0.32544133 0.24905935 0.005143523 0.31037882 -0.096310824 -0.18891451 0.05106461 -0.103103966
-0.31023023 0.28854945 -0.059259564 0.18868175 -0.16272895 0.16974667 0.24229553 0.16070819
0.0065540075 -0.2850133 0.0795441 -0.2316941 -0.2917363 0.13023916 0.11896244 0.24463114
0.2347016 -0.22216558 -0.077911526 -0.24195811 -0.027700812 -0.25345525 -0.17512727 0.182457
-0.28101513 -0.15340166 -0.12809579 0.0050413907 0.054561347 0.26450953 0.08446351 -0.0807741
-0.019264966 -0.3258679 -0.2352901 -0.026062489 -0.28820127 0.114020556 -0.26611662 0.3312942
0.15604374 -0.12964308 -0.13735974 -0.0020804405 0.026674986 -0.006718725 -0.013868332 0.16548231
0.3081583 0.23052153 0.19775072 -0.017080814 -0.23352957 -0.24836111 0.073911875 -0.021400928
0.28093413 -0.07319966 -0.055604726 0.008137792 0.12088251 0.2463328 -0.2184014 -0.2562691
-0.09125416 -0.22883976 -0.07573938 0.18746856 0.08823204 -0.2533172 -0.26194614 -0.26681256
0.053459078 0.011233717 -0.27161807 -0.055372566 0.038041472 0.13878116 0.109531134 0.30957344
-0.12700598 0.12529787 -0.06926724 -0.02986452 0.30205044 -0.28079087 0.1349357 0.0028510392
0.20118132 -0.029560834 -0.13458487 -0.08440015 0.20552954 0.18794432 0.08499539 -0.03782472

fc1.bias f4 [300]
00000000: 04e7 c33d e053 643c 6ca9 9cbd 7685 1ebe
00000010: a678 f0bd 0052 24be bc85 9ebe 1c2b efbd
00000020: 7b67 14be 4643 a8be ab72 27be 655d aa3e
00000030: eba8 1fbe 27f7 a63e 6382 9d3e 001d 90bc
00000040: 1085 4abe 3bbd a83e fb6c 97be 50bd 63be
00000050: 1ed0 0abe 3e56 8dbe c037 f33b 1e01 20be
00000060: 52d2 563e 82b0 133e 8983 a73e 537f 48be
00000070: f857 0c3d 9649 72be 834d 9a3e 37c2 94be
00000080: 86a2 90be c473 eb3d ca94 023e 7302 47be
00000090: f6b0 243e 1e65 5c3e bed5 5b3e 703b eebc
000000a0: 64a9 c63d f6a1 3fbe b12e 8b3e a8d7 4c3d
000000b0: 9662 26be 2ed2 623e 4ef6 3bbe 40ad a93b
000000c0: 68f8 63be 8ba1 63be 2ebd 45be 041e 8c3d
000000d0: b60f 98be ae7e 23be 5834 63be b6bd d0bd
000000e0: b6a9 a8be 2c69 f33d 45f4 a73e bc9a a5be
000000f0: c048 213d c846 3cbe c934 a03e 8aa2 323e
00000100: c0c7 a33b 88ff 32be 855b 963e e803 55be
00000110: 04b0 97bd 06a2 113e 32ed a9be 2077 96be
00000120: b040 23be fbc2 a2be cb8c 81be acb2 e33d
00000130: d06b a7bc 5dc2 a53e 3085 153e b090 dcbc
00000140: 8030 b73d e810 433d a6c6 8ebe 00dd 99be
00000150: e0c3 68be 60af 283d a61a c7bd 5b05 6dbe
00000160: 3894 24be e5db 8c3e e029 0d3d cd48 9e3e
00000170: 804b da3c e89a 36be 1845 7b3d 5b04 25be
00000180: ee2b 17be 40ea d53c c096 bdbd 38ed 6a3d
00000190: b488 c63d ccf2 f43d a32b a93e 58ee 78bd
000001a0: 80d8 3ebe 9857 94be 5042 39be cc37 c2bd
000001b0: 3bf7 29be 7c24 bbbd 1aeb 0d3e 7c2e 9dbe
000001c0: f632 87be 244d b33d 95bb 883e d63f 1b3e
000001d0: f8b4 30bd 4096 873d 4160 9d3e ccec a7be
000001e0: a8e3 603d 015f a73e 340c b03d 1c59 ba3d
000001f0: 6af6 4a3e a0a8 c93d 464a 693e 29ff 893e
00000200: 7021 78be 48ff 40be da9e 293e 10e0 8a3d
00000210: 1040 8fbe 1cb3 86bd beb4 6c3e 50ae a0bd
00000220: 54d4 80bd 909a 54be 500c e7bc 1802 00bd
00000230: e3ea 963e d301 a33e 5097 b9bd 745c a5be
00000240: b023 f93d 3334 4abe 920b 243e b881 19be
00000250: c889 41be fbe4 883e f0d8 9abe 0e27 0a3e
00000260: 5c39 9b3d 0655 58be 50af fbbc 1424 9cbe
00000270: 910f 893e ba8c 353e be26 45be 0090 b9b9
00000280: b8d7 10be 483c 7ebd 104e e7bd 4286 2f3e
00000290: 00d4 4abc 9086 4cbe a01b 74bc c0fe 5f3d
000002a0: 4915 913e 6682 ddbd 0080 733c de89 373e
000002b0: b659 423e 0ac1 773e 8a0c 043e 9c47 d9bd
000002c0: 1336 48be ec9f a23d dbed 71be 88d0 65bd
000002d0: ccf9 863d 181e 66be 90d7 803d 9ed2 6a3e
000002e0: 149b ce3d b068 cb3d 1891 1a3d 5443 95bd
000002f0: 4043 20be 6f62 8b3e 18d8 94be 802b 29bb
00000300: f83c 32be b806 3bbd 4cdd afbd 4470 f13d
00000310: 856c a33e 80aa 1dbd 332a 97be 25e4 8e3e
00000320: ba63 2f3e ec52 9cbe a650 19be a006 55bd
00000330: 8c69 a9bd f47b e73d baec 88be e839 353d
00000340: 28ae 1cbe c076 cdbc 90f3 133e d912 953e
00000350: 01f8 863e 4659 0e3e 4ac4 503e 373d 953e
00000360: 2004 97bd 568f b9bd 48ee 16be 1ae9 89be
00000370: a05e 20bc 166f 1abe 78c3 2ebd 9e9e 32be
00000380: fdf4 8c3e 2042 16bc 0e0b 88be 60b4 13bd
00000390: 0004 d0b9 28a1 53bd 8e1a 14be d6a3 6abe
000003a0: 1193 a83e 0c7a b4bd 588d 26be 00cd 913c
000003b0: 7c11 97bd ad81 823e e87a 493d 55bc 883e
000003c0: b8b4 50be 739f 22be 970e 9dbe 6a31 083e
000003d0: 32f8 413e 2f6e 923e 16d0 3ebe f278 553e
000003e0: 20f8 f43d 22aa 663e 3b68 803e 4805 7a3d
000003f0: 76d2 b9bd b6f9 04be 10b4 80be 8e7e 6b3e
0.09565547 0.013936013 -0.07649502 -0.15480599 -0.11741762 -0.16046906 -0.30961406 -0.11678144
-0.144926 -0.32863826 -0.16352336 0.3327438 -0.15591781 0.32610437 0.3076354 -0.017591953
-0.19777322 0.3295687 -0.29575333 -0.22240186 -0.13555953 -0.2760486 0.0074224174 -0.15625426
0.20978668 0.14422801 0.3271754 -0.1957982 0.03426358 -0.23660883 0.30137262 -0.29054424
-0.28248996 0.1149669 0.12752071 -0.19434528 0.1608313 0.21522948 0.21468255 -0.029081076
0.097002774 -0.18714127 0.2718406 0.050010353 -0.16248545 0.2215049 -0.18355677 0.0051781237
-0.22262728 -0.22229593 -0.19310448 0.068416625 -0.29699486 -0.15966293 -0.22187936 -0.101924345
-0.3294198 0.11885294 0.3280355 -0.32344615 0.03937602 -0.18386376 0.31290272 0.17444816
0.0049981773 -0.1748029 0.293667 -0.20802271 -0.07406619 0.14221963 -0.33188778 -0.2938776
-0.15942645 -0.31789383 -0.2530273 0.11118063 -0.020437151 0.3237485 0.14601588 -0.026924461
0.089447975 0.047623545 -0.27885932 -0.30051422 -0.2273097 0.041182876 -0.0972188 -0.23146574
-0.16072166 0.27511516 0.034463763 0.30914918 0.02664733 -0.1783253 0.06134519 -0.16114943
-0.14762852 0.026112676 -0.09257269 0.057355136 0.09694043 0.11960372 0.33041105 -0.060774177
-0.18637276 -0.2897308 -0.18091702 -0.09483299 -0.16598217 -0.09137818 0.13859215 -0.30699527
-0.26406068 0.08754948 0.26705614 0.1516107 -0.043141335 0.06620455 0.30737498 -0.3279785
0.05490461 0.3268967 0.085960776 0.090990275 0.19820562 0.09846616 0.2278224 0.26952484
-0.24231505 -0.18847382 0.16564503 0.06781018 -0.27978563 -0.06577131 0.23115823 -0.078457475
-0.062904984 -0.20762086 -0.028204113 -0.031251997 0.2947608 0.3183733 -0.09062064 -0.322971
0.1216501 -0.19746475 0.16020039 -0.1499089 -0.18900216 0.26737198 -0.30243635 0.1349146
0.075793 -0.21126184 -0.030723244 -0.30496275 0.2676969 0.17729464 -0.1925306 -0.00035393238
-0.1414479 -0.062069207 -0.11294186 0.17141059 -0.012379646 -0.19973207 -0.014899164 0.054686308
0.28336552 -0.10815887 0.014862061 0.17923686 0.18979535 0.24194732 0.12895408 -0.106093615
-0.19551878 0.07940659 -0.23625891 -0.056107074 0.06590614 -0.22472417 0.06291115 0.22931907
0.100881726 0.09932077 0.03773603 -0.072882324 -0.15650654 0.27223536 -0.29071116 -0.0025813282
-0.1740607 -0.045660704 -0.08587131 0.11788991 0.3191873 -0.03849268 -0.29524383 0.27908435
0.17127886 -0.30532014 -0.14972171 -0.05200827 -0.082720846 0.11302939 -0.26743108 0.044244677
-0.1530081 -0.025081038 0.1444838 0.29115942 0.26361087 0.13901243 0.20387378 0.29148266
-0.07373834 -0.09060542 -0.14739335 -0.26935655 -0.009788185 -0.15081438 -0.042666882 -0.1744332
0.2753066 -0.009171039 -0.26570934 -0.03606069 -0.00039675832 -0.051667362 -0.14463255 -0.22914061
0.32924703 -0.08812341 -0.16264856 0.017797947 -0.07376382 0.2548956 0.04918948 0.26706186
-0.20381439 -0.15881138 -0.30675194 0.133001 0.18942335 0.28599688 -0.18634066 0.20846918
0.119613886 0.22525838 0.25079522 0.061040193 -0.09073345 -0.12985882 -0.25137377 0.22997496
