model_save/params_20240731_172651.pth (torch, 68211 bytes, 18 tensors)

fc1.weight f4 [300, 9]
00000000: 3bac 963e b422 a13d 8089 553b 8b1f 0bbe
00000010: 8efd 19be 9062 7abe 0eeb 54be 585c 663d
00000020: 3b86 34be cc73 f03d 8890 a8be 8873 0c3d
00000030: 77b5 a93e 6ac8 4f3e 88a4 18bd 48fe 043d
00000040: 0890 3e3d 50e7 fc3c 9061 6bbe 9807 7b3d
00000050: 8a11 763e 60d2 093d 3942 aa3e b88f 313d
00000060: 4833 283d 2bab a0be fbdb a93e 4bfe a33e
00000070: 6635 b4bd d8d1 793d 277b 8f3e 3a6b 90be
00000080: b2ae 493e 6eb3 633e 714f a23e f0fa e6bc
00000090: c3b4 a43e 90e0 153e 40a8 96bb 60b2 e3bd
000000a0: fb62 61be e0f7 d53d 188c 7fbd 8837 29bd
000000b0: 967a 37be c6f3 0e3e d865 4e3d 3086 82bc
000000c0: 8ef7 57be 263c 1c3e 80ce 423c 103d 3dbe
000000d0: 3074 bdbc c882 063e e016 abbd ac86 e03d
000000e0: 818d 9b3e ceb0 4a3e 82ab 87be 34bb f83d
000000f0: d857 7ebe 6549 933e b9b7 993e 531d 4dbe
00000100: 0b17 2fbe 162f c0bd e01a 793d 60e6 453c
00000110: bc12 a5bd 8917 a93e 3e37 a8be 2c9f b8bd
00000120: 4005 83bc faeb 3d3e 4e60 6fbe b0b5 babc
00000130: 3bc9 7bbe ace7 adbd bdc7 913e daee 493e
00000140: f0d3 ae3d f2ec 7b3e 32e2 3c3e 0873 4bbd
00000150: e80c 09be 7820 163e c27c 473e e825 263d
00000160: a886 0d3e 2c82 cf3d 10b4 69be 5882 53bd
00000170: 8001 e63c 186f 643d 54c6 e93d ce8b 213e
00000180: 865f 73be b3a7 4cbe 104e 093e 61c3 9b3e
00000190: f625 66be 146a a03d 569a 23be 2ca4 ddbd
000001a0: b170 913e 30a5 7dbe bec3 a7be 0f40 843e
000001b0: 00da 043c 7366 7ebe c934 9a3e 1ecc 6abe
000001c0: 9086 7cbe 9091 853c 683d 83be 520e 1a3e
000001d0: 56f0 91be 2060 6bbe f2a0 8dbe f178 913e
000001e0: 49c2 903e c0cf d6bd 7865 07bd 9c37 813d
000001f0: e68e b0bd 0071 27be 004b 61bd 66a3 41be
00000200: 3efd 54be 3808 37be 860b 353e d80b 70bd
00000210: a7ee 97be a802 57bd aeab 663e 2a33 99be
00000220: 9ba3 5fbe f027 cc3c 49c9 a63e 51ed 973e
00000230: e873 583d f406 c33d 725d 84be 5813 53be
00000240: 40be 85be c045 70bd 6084 88bd 8700 993e
00000250: c0e3 99bc d418 f53d 1976 963e fc5f be3d
00000260: 7cd2 a03d 85ed 9c3e 7694 b7bd 0ccc e13d
00000270: a0a4 48be 8387 4bbe 8efc 553e 36b5 c7bd
00000280: 80cd f83c 866b 3bbe 387a 38be 6602 473e
00000290: 1811 123e 367c 1bbe 61da 953e c086 21be
000002a0: 80a9 b8bc b64c 593e 0a2a 673e 58c8 6fbe
000002b0: 0f11 8f3e 38cb 7bbe 6adc 623e 90f3 4fbe
000002c0: 08b5 2bbd 1085 823c 80b5 a1bd bb4e 30be
000002d0: cec8 2f3e 702a 223e 5a0a 773e c891 16be
000002e0: fed6 573e d83c 23bd 908c a2be 5a1b 793e
000002f0: e090 5abd a6d0 8fbe 7572 8d3e 4c21 92bd
00000300: 4db4 913e 802c e73d e0fd 44be 866d 3b3e
00000310: 109b e43c 3406 9ebe c679 3e3e 855f 883e
00000320: de28 7fbe 4842 03be 257d a93e c252 663e
00000330: 87e7 99be 4621 d4bd 84d0 82be 10e4 27be
00000340: 7a10 5d3e e0e5 49bc da5d 96be b430 d43d
00000350: a161 993e b3ac 12be cecd 063e 2aa9 673e
00000360: afe0 87be 58d4 003d 1a9d 83be a2a6 753e
00000370: b081 8c3c 9e37 58be 8345 923e d3f0 1bbe
00000380: bbcf 93be e5b3 a83e bba4 13be e694 ecbd
00000390: 6482 d23d 80c7 123e 5fd4 9a3e bad5 7c3e
000003a0: 3435 b03d 6c16 823d 8c75 c43d aab1 593e
000003b0: a62d dbbd e0b8 053d dbb0 90be 4a75 513e
000003c0: 68bd 42be 466c 3ebe 3130 8b3e 2769 a93e
000003d0: 64a8 a23d e738 853e 581c 12bd 4a53 363e
000003e0: c115 953e 0e4a 63be 2c67 ae3d b801 53bd
000003f0: 56c3 9abe c9ab 803e 959d 853e 5a95 98be
0.29428276 0.07867947 0.0032583177 -0.13586251 -0.1503813 -0.24451661 -0.20792791 0.05624041
-0.1762933 0.117408365 -0.3292277 0.034289867 0.3314626 0.20291296 -0.037266284 0.032469064
0.046524078 0.030872017 -0.22986436 0.06128654 0.24030128 0.033647895 0.3325365 0.04334995
0.04106453 -0.3138059 0.33175644 0.32029948 -0.087992474 0.06099114 0.28023645 -0.28206807
0.19695547 0.22236416 0.31701234 -0.028195828 0.3216916 0.14636445 -0.0045976937 -0.11118007
-0.22010414 0.10447669 -0.062389463 -0.041312724 -0.17917857 0.1396018 0.050390095 -0.015933126
-0.21090528 0.1525732 0.011890054 -0.18480325 -0.023126692 0.13135827 -0.083539724 0.109631866
0.30381396 0.19794008 -0.26498038 0.12145081 -0.24838197 0.28766933 0.30022982 -0.20030718
-0.17098634 -0.09383981 0.060816646 0.012078851 -0.08060214 0.33025768 -0.32854646 -0.090147346
-0.015993714 0.18547049 -0.23376581 -0.022791713 -0.24588482 -0.084914535 0.284727 0.19720021
0.085365176 0.24602106 0.18445662 -0.04967025 -0.1338383 0.14660823 0.19481185 0.040563494
0.13820899 0.1013225 -0.22822595 -0.051637977 0.028076887 0.05577001 0.11414781 0.15775988
-0.23766908 -0.19985847 0.13408685 0.304225 -0.22475418 0.07832733 -0.15976843 -0.10822329
0.2840629 -0.24770045 -0.32766527 0.25830123 0.008108616 -0.24843769 0.30118397 -0.22929427
-0.24660707 0.016304761 -0.25632787 0.15044525 -0.28503674 -0.22985888 -0.27661854 0.28412583
0.28273228 -0.10488844 -0.033055753 0.06309435 -0.08621006 -0.163517 -0.055003166 -0.18909988
-0.20799729 -0.17874229 0.17680177 -0.058605045 -0.29674265 -0.052492768 0.22526428 -0.29921848
-0.21839754 0.024921387 0.32575443 0.29673246 0.05284491 0.095228106 -0.25852543 -0.20612848
-0.26121712 -0.05866027 -0.066658735 0.29883215 -0.018785357 0.11967626 0.29386976 0.09295651
0.07852647 0.30649963 -0.089638636 0.11025247 -0.1959405 -0.19875912 0.20897123 -0.0975136
0.030371428 -0.18302736 -0.18015373 0.19434509 0.14264333 -0.15184101 0.29268172 -0.1577406
-0.022541761 0.21220669 0.2257463 -0.23416269 0.27942702 -0.2458924 0.22154394 -0.20307755
-0.04192069 0.01593259 -0.078959465 -0.17217533 0.17166445 0.15836501 0.24125043 -0.14704049
0.21078107 -0.039852947 -0.31747866 0.2432684 -0.05336082 -0.28088874 0.27626386 -0.07135257
0.2845787 0.112877846 -0.1923747 0.18303499 0.02790597 -0.30864108 0.1860114 0.26635376
-0.24917933 -0.12818253 0.3310329 0.22492507 -0.30059454 -0.10357909 -0.2554971 -0.16395593
0.21588317 -0.012322873 -0.29368478 0.10360852 0.29957297 -0.14323692 0.13164446 0.22623125
-0.26538607 0.031452507 -0.25705796 0.23989347 0.017151684 -0.21114966 0.28568658 -0.15228586
-0.28869423 0.3294975 -0.14418308 -0.115518376 0.10278776 0.14333916 0.3024015 0.24690905
0.08603898 0.06351933 0.09592733 0.2125918 -0.10702066 0.032647014 -0.2825993 0.20454898
-0.19017565 -0.1859599 0.27185205 0.33088037 0.07942274 0.26019976 -0.035671562 0.1780521
0.2911816 -0.22196218 0.08515772 -0.05151531 -0.30227154 0.25131062 0.26096788 -0.29801446

fc1.bias f4 [300]
00000000: eda6 873e 1e20 29be d62d 6bbe 035b 96be
00000010: 9cf8 a1bd fcdf bfbd 20ec 4a3c 0312 02be
00000020: 925b 053e 77c3 95be 7d9d a83e d4cd a6be
00000030: f091 11be ae0a 31be 0092 f63c 23d6 77be
00000040: 98d5 35be 0012 a4be fe10 2b3e c928 8b3e
00000050: 1940 953e 20a5 47bd d8d7 58bd 5ac9 283e
00000060: 6b6f a9be 26b3 97be 3bee 08be cf14 963e
00000070: 4dd5 843e 9e6f 563e 8363 33be 1b2c 30be
00000080: cc8f cf3d 66d1 3e3e 1c3a bcbd 6b00 1ebe
00000090: fe39 623e 96b6 11be 08e1 5c3d a824 6ebe
000000a0: 46e7 afbd 2035 ac3d cb73 9fbe c06e 18be
000000b0: 992e 8b3e 9ad6 533e 00c7 8a3b e55e 8f3e
000000c0: ba0f 753e 8076 d43d 6e71 343e 4beb 11be
000000d0: 30b7 89bd 7a1e 4c3e bea5 83be 7365 20be
000000e0: 7af7 573e a07a 9f3d 9e43 15be 5725 823e
000000f0: 7ea3 0d3e 10ed d0bc 0257 033e 975b 953e
00000100: 00de 36bb 5aa4 7f3e 4c14 99bd 4a58 553e
00000110: a8d8 4bbe e8fe 8cbe c65c b8bd 2be0 36be
00000120: af94 a63e d9ad 8e3e 42a0 6c3e 200d 1ebe
00000130: 2cd0 d2bd 4b75 5fbe 44b8 e03d 129e 6b3e
00000140: acc8 bcbd c3c4 97be 805f 39bd 9456 c83d
00000150: 6a27 7d3e e034 233e 8a53 763e 8883 513d
00000160: f038 293e 53ae 46be c908 a83e 664c d8bd
00000170: d861 15be 40b8 00be c6eb e5bd a03b 69bc
00000180: a09d 333c 5cfd 86bd 0049 24bd 0440 9abd
00000190: 2afd 463e c0b8 0f3d eec4 3abe 66d9 b5bd
000001a0: c31e 02be 5bce 89be 685a 81be 9e1b 13be
000001b0: b0f1 033e dc1a e83d e034 4d3d 08bd 5c3d
000001c0: 6e01 4fbe e014 67bd 8690 67be 680a 44bd
000001d0: 672e 933e 0eed 593e d635 783e 0c69 e3bd
000001e0: 70ac 993d 4d29 a93e baa1 603e c816 5dbe
000001f0: acf8 fa3d a6c2 afbd 652f a03e 7491 aabe
00000200: 2677 d8bd 9926 a93e d04e f73c 06b1 3a3e
00000210: de60 24be 7ced eebd 7339 0bbe c67d 34be
00000220: 1181 a13e 75f7 a23e 454f a83e 7845 91be
00000230: 68d7 4ebd b606 293e 88a3 11be 59c1 853e
00000240: f830 273e c654 293e a824 84be a362 44be
00000250: 00a6 70bd e8dd 1c3e 171c aa3e b0bf 64be
00000260: 52a1 1b3e 986e 9cbe 6877 64be 5c98 8b3d
00000270: e440 a3be 80b5 54be e3b3 a93e 625c 553e
00000280: f86f 433d d009 4dbe bc8b fc3d 9c6f e0bd
00000290: 9d94 8f3e dbb4 8fbe 141d 91be a03f 0d3e
000002a0: 8604 7f3e 5c51 98bd 06f3 eabd c4a6 dd3d
000002b0: 26ef 1fbe ca0d 643e 838c 11be 85be a63e
000002c0: c039 913b 93a7 45be 1eb1 40be 503b 63be
000002d0: e83c 11bd b27d 7d3e 602b 1e3c 88d7 753d
000002e0: 11d3 9e3e f08f ff3c 02e7 273e 94fc bb3d
000002f0: d083 aabc 2e19 66be 092c 973e 70b8 87be
00000300: ded0 0f3e 68c8 8dbe 4f9b 813e b35b a73e
00000310: f554 903e 000c 8b3c 80ab 883d 3077 f4bc
00000320: ae1f 53be db69 8a3e b027 cf3d 080a 8ebe
00000330: dc83 bc3d 205a 303c 4197 9f3e 00d1 d63c
00000340: 3a01 7b3e 4622 3f3e 9019 95bc 3e0b 88be
00000350: e6f9 4dbe 3c3a 91bd d800 0c3e 6025 f9bd
00000360: 1bce 69be 3b36 90be 308c 8fbe 7bf8 35be
00000370: 62ae 2a3e 10ea 983c fa7c 033e 9259 6a3e
00000380: f6e0 62be 9063 bd3c 5138 823e fe3e 69be
00000390: 8639 ecbd 4341 74be 6397 9ebe ce5c 84be
000003a0: eebb 18be dcff 823d 1a65 5e3e 6beb 9fbe
000003b0: 407e 8c3d 08f0 91be 56d3 4dbe 2c18 e13d
000003c0: 90dd fcbd 632c 47be 90a6 c5bc 805c ab3d
000003d0: 9ba8 75be 2050 73bd 0db8 9b3e f1c1 a53e
000003e0: 6f0a 8f3e 3a3b 6f3e be4a 06be 488a 4e3d
000003f0: 90ec cf3d 9c4e b73d f0e3 6cbe 4253 0d3e
0.26494542 -0.16516158 -0.22966704 -0.2936631 -0.079087466 -0.093688935 0.012385398 -0.12702183
0.13023213 -0.2925069 0.32932654 -0.3257891 -0.14215827 -0.1728923 0.030098915 -0.2420278
-0.17757261 -0.32044983 0.16705701 0.27179554 0.29150465 -0.04874146 -0.05294022 0.1648306
-0.33092818 -0.29628867 -0.13372128 0.2931275 0.25943986 0.20941016 -0.1751843 -0.17204325
0.10134849 0.18634567 -0.09190771 -0.15429847 0.22092435 -0.14229807 0.053925544 -0.23256171
-0.08589034 0.0840857 -0.3114303 -0.14885998 0.2718399 0.20687333 0.0042351484 0.28002086
0.2393178 0.103741646 0.17621395 -0.14249913 -0.06724393 0.19933501 -0.2571239 -0.156637
0.21090499 0.07787061 -0.14576575 0.25419113 0.13831899 -0.025503665 0.1282616 0.2917144
-0.0027903318 0.24965039 -0.074745744 0.20834461 -0.19906867 -0.27538228 -0.0900207 -0.17858951
0.32535312 0.2786701 0.23108009 -0.15434694 -0.10293612 -0.21822087 0.10972646 0.23009518
-0.092179626 -0.29642305 -0.04525709 0.097821385 0.24722067 0.15938139 0.24055305 0.05115083
0.16525626 -0.19402437 0.32819203 -0.10561447 -0.14588106 -0.12570286 -0.11226611 -0.014235407
0.010962874 -0.06591293 -0.04010868 -0.07531741 0.19432512 0.0350883 -0.18239185 -0.08879356
-0.12707047 -0.2691525 -0.25264287 -0.14366004 0.12885165 0.11333248 0.050099254 0.05389121
-0.20215389 -0.056416392 -0.22613725 -0.047861487 0.2874634 0.21281835 0.24239287 -0.111040205
0.07503593 0.33039322 0.21936694 -0.21590722 0.12254462 -0.08582048 0.3128616 -0.33314097
-0.10569601 0.3303726 0.030188948 0.18231592 -0.16052577 -0.1166639 -0.13596134 -0.17626104
0.31543782 0.3182942 0.32872978 -0.28373313 -0.050498396 0.16506466 -0.14222538 0.26124075
0.16327274 0.16536245 -0.25809216 -0.19178252 -0.05875206 0.15319026 0.33224556 -0.22338748
0.15198258 -0.30553126 -0.22311175 0.068161696 -0.31885445 -0.20772362 0.33145055 0.20836022
0.047714204 -0.20023274 0.1233134 -0.10958788 0.2804307 -0.2806767 -0.28342497 0.13793802
0.2490407 -0.07437393 -0.11472134 0.10822824 -0.15618572 0.22270885 -0.14213757 0.3256723
0.004431933 -0.19302206 -0.18817565 -0.22190595 -0.035458475 0.2475498 0.009653896 0.06002
0.31020406 0.031196564 0.16396716 0.09179035 -0.020814806 -0.22470543 0.29525784 -0.26507902
0.1404452 -0.2769196 0.25313804 0.32687148 0.28189817 0.016973495 0.06673336 -0.02984199
-0.20617554 0.27033886 0.10114992 -0.27742028 0.09204838 0.010763675 0.31170085 0.026222706
0.24512187 0.18665418 -0.018200666 -0.26571077 -0.2011486 -0.070911855 0.13672197 -0.12165332
-0.22832529 -0.28166375 -0.28036642 -0.17770569 0.16668084 0.018666297 0.12840644 0.22885731
-0.22156128 0.023118764 0.2543359 -0.22777936 -0.11534409 -0.2385302 -0.30974874 -0.25852054
-0.1491544 0.063964576 0.21718255 -0.31234297 0.06860018 -0.28503442 -0.2010015 0.109909385
-0.12346947 -0.19450526 -0.024127275 0.08367252 -0.23990099 -0.059402585 0.30413857 0.32374528
0.27937648 0.23362437 -0.1311445 0.050424844 0.101525426 0.089505404 -0.23133826 0.13801292

fc2.weight f4 [2, 300]
00000000: da91 4f3d 1ce5 fc3c 28b3 233c 0770 60bd
00000010: 463c 3e3d 60eb c73b 5037 b3bc 8292 45bd
00000020: ef60 0fbd d8cd f3bc 60eb 583d 143a 73bc
00000030: c008 0c3d fe9c 4ebd 78de 8b3c 638e 48bd
00000040: 640c 51bd c008 773a 4054 543a c04e d7bc
00000050: 622d 473d 98b4 7e3c 08dd d13c 8e79 4d3d
00000060: a0fd 71bc f065 b8bb e440 0ebc 46c5 4e3d
00000070: 1237 1bbd ff9b 21bd 2186 ecbc 16b6 5cbd
00000080: 745f 0dbc c01f a03b 8575 31bd 4031 c03b
00000090: 625f 3a3d cc3a 2cbd 60dd 3b3b f095 dbbb
000000a0: fb68 3fbd 7c34 4fbc 6205 02bd 9a4f 87bc
000000b0: 64d2 16bc d047 653d 20de 4ebb 8845 5d3d
000000c0: f8b1 f9bb 9818 303c d4b9 093d ac56 803c
000000d0: a0bb fb3b c01d 1b3c 9c8f 3dbd b8e5 773c
000000e0: 10a4 473c 4e85 4d3d 0b1a dfbc 80ae 24ba
000000f0: 56f4 3dbd c418 17bc a62a 4dbd 5807 743c
00000100: 005a 6abc bbee 3cbd e074 b93a c227 273d
00000110: c83a 47bd 9941 08bd 701d 653d accd 5c3d
00000120: 48e3 cdbb 10ec a63c 3a59 5d3d a04a 7b3c
00000130: 07e2 24bd b64a 513d 181a 34bd 2815 66bd
00000140: 1ca6 fb3c 32ad 0fbd 58c2 7f3c 26de 3e3d
00000150: 6c4a 68bd 7ca6 3a3d 6e8d 17bd 4049 fbba
00000160: ce99 96bc 6ccc 043d e840 633d 5e82 323d
00000170: 5a3a 1abd c24c 073d 208f a13b 6cd6 08bd
00000180: 463d 4d3d a86f 5a3c 880a 463c 4e9a 03bd
00000190: 10d1 1abd 9e0c 04bd 3bd8 4abd cfad 41bd
000001a0: 40ad 3eba 7d54 04bd d47b febc 12e6 5a3d
000001b0: 2096 a4bc 98fe b8bb 1085 7e3c d010 093d
000001c0: 1f33 6bbd 382a d83c 94aa 14bd 7c8a 5abc
000001d0: 79d8 e2bc d0cc 753c f891 65bd 2639 153d
000001e0: 0eb5 653d c054 c53b 44f6 5bbc e091 1c3d
000001f0: 5e7d 2a3d b8ee 343c 653b 13bd fc81 debc
00000200: c8f5 41bd f883 a8bc 6c51 0c3d e8a3 773c
00000210: d88e 203c 882d 12bc 08c4 92bc 9ce9 f0bc
00000220: 08a3 1b3c 523c c2bc 0077 b63c f841 2ebd
00000230: 8cd0 373d e4b5 c63c a0d0 43bd 50e3 61bb
00000240: c2f3 473d 0bf5 38bd e284 033d be38 8fbc
00000250: a4ea 7abc d0bf bebb 7e96 4f3d a066 c7bc
00000260: 2407 2d3d 3b67 f9bc 7c4e 56bd 483a febb
00000270: 981e f53c 38da 623c 4c1a 633d 992d 4cbd
00000280: 3432 8fbc a03b 11bb fc71 11bc ef1d 39bd
00000290: a22b 503d b610 52bd ba56 133d 14b7 fb3c
000002a0: 9e80 d8bc 59ef 39bd 1819 093c 301f 58bd
000002b0: 08b7 53bd 3a14 2f3d 3c13 333d b846 ef3c
000002c0: 2027 8dbc fa0d 643d 4042 5c3b ccaa 513d
000002d0: 22c1 0abd ddc2 e3bc 0427 273d 3bfd 0abd
000002e0: 1414 673d f8a8 0a3c 30be 183b 5cf3 d63c
000002f0: 8933 4fbd 8085 2cba 40f2 a7bb 6447 0bbc
00000300: 1cff f03c 5ceb 913c 0065 bbbb ca34 32bd
00000310: a094 db3c 5e2a 593d 9062 b13b 60c4 e93c
00000320: 3035 d63c 2cfd 3c3d 50ca 1bbb d4e1 68bc
00000330: a42f 093d 9824 f23c 04ee 62bc feb2 1fbd
00000340: 1c48 a53c d2a7 bdbc 4cb9 f0bc 085b dd3c
00000350: 1243 3b3d c52b 59bd 2078 7a3c c094 ffba
00000360: 94fc c3bc 4cae 47bd d05d 5ebb 76be 07bd
00000370: 7dff fbbc e41d 0ebd e44a f03c ace6 49bc
00000380: f208 58bd 68fa b3bb f0ac 113d d006 623c
00000390: 8edd a2bc ecab cc3c 14c9 44bd ca69 0fbd
000003a0: c862 263c 00de db3c 70f9 a6bc 70a6 f43c
000003b0: 0685 213d c830 443c 1a9d 6b3d 0c18 2d3d
000003c0: e86e 713c e4e9 50bc 1ec6 023d 80cc 0f3d
000003d0: 3d28 f6bc f463 c23c ccef 663d f8cc 9b3c
000003e0: 1e04 33bd 7c24 f13c e426 76bc 3042 eb3c
000003f0: a397 2bbd a808 e73c d022 f73b ba77 453d
0.050676204 0.030870967 0.009991445 -0.054794338 0.0464442 0.006101057 -0.021876961 -0.048235424
-0.035004552 -0.02976124 0.052958846 -0.01484539 0.034188032 -0.05044269 0.017073855 -0.048963916
-0.051037207 0.0009423606 0.00080997124 -0.026282668 0.048627265 0.015545987 0.025618091 0.05016475
-0.014769942 -0.0056273863 -0.008682463 0.050481103 -0.037894316 -0.03945541 -0.028872551 -0.05388459
-0.008628715 0.0048865974 -0.043324966 0.005865246 0.04550112 -0.04204826 0.0028665885 -0.0067012236
-0.046730977 -0.012646791 -0.031743415 -0.01651745 -0.0092054345 0.05597669 -0.0031565502 0.05402139
-0.0076200925 0.010748051 0.033624485 0.015666328 0.0076822788 0.009467542 -0.046279535 0.015130453
0.012185112 0.050175957 -0.027234098 -0.0006282106 -0.046375595 -0.009222213 -0.0500895 0.014894329
-0.014303684 -0.04612611 0.0014149211 0.0408094 -0.048640043 -0.033265684 0.055936277 0.05390708
-0.0062831976 0.020376235 0.05404017 0.015337616 -0.04025462 0.05109664 -0.043970197 -0.05617252
0.030718856 -0.03507728 0.0156103 0.046598576 -0.0567116 0.045568928 -0.037000112 -0.001917161
-0.018383887 0.032421514 0.05548182 0.04358136 -0.037653305 0.033032186 0.004930392 -0.033407614
0.050107263 0.013332285 0.012087472 -0.03212958 -0.037797034 -0.032238595 -0.04952262 -0.047284897
-0.0007273741 -0.032307137 -0.031064905 0.05344207 -0.020091116 -0.0056455843 0.015534654 0.0334633
-0.0574218 0.026387319 -0.03629549 -0.013338681 -0.027691113 0.015002444 -0.05604741 0.036431454
0.05608087 0.006022066 -0.0134254135 0.038225055 0.041623466 0.011043243 -0.035945315 -0.02716159
-0.047353536 -0.02057074 0.034257337 0.015114762 0.009799682 -0.008921988 -0.01791574 -0.029408269
0.009499319 -0.023710404 0.02227354 -0.04254338 0.04487662 0.024256654 -0.047806382 -0.0034467764
0.04881645 -0.045155566 0.03210915 -0.017483111 -0.015314732 -0.0058212057 0.05068063 -0.024340928
0.042243138 -0.030444732 -0.052320942 -0.0077584125 0.029921815 0.013845973 0.055445 -0.049848173
-0.017479993 -0.0022160783 -0.008877274 -0.045194563 0.05082286 -0.051285468 0.03597138 0.030726947
-0.026428517 -0.045394275 0.008367799 -0.052764118 -0.051688224 0.0427439 0.043719515 0.029208526
-0.01723057 0.05567739 0.0033608824 0.051188275 -0.033875592 -0.027802879 0.040808693 -0.033932906
0.056415632 0.008463137 0.002330672 0.02623909 -0.050586257 -0.00065811723 -0.005125314 -0.008500908
0.02941852 0.017812423 -0.0057188272 -0.043507375 0.026804268 0.05301892 0.005413361 0.028536022
0.026148409 0.04613988 -0.002377171 -0.014213998 0.0334927 0.029558465 -0.013850693 -0.03898906
0.020175986 -0.023151312 -0.029385231 0.027020946 0.04571826 -0.053020258 0.015287429 -0.0019499287
-0.02392415 -0.048750207 -0.0033930428 -0.033140622 -0.030761475 -0.034696475 0.029332586 -0.012323063
-0.052742906 -0.0054924972 0.035565317 0.01379557 -0.019881036 0.024984322 -0.048043326 -0.035012998
0.010155387 0.026839256 -0.020382613 0.02986452 0.0394335 0.011974521 0.05752287 0.04225926
0.014735915 -0.012751076 0.03192722 0.035107136 -0.030048484 0.023729302 0.056381032 0.019018635
-0.0437051 0.029436342 -0.015023921 0.028718084 -0.04189266 0.02820237 0.007541992 0.048209883

fc2.bias f4 [2]
00000000: e834 393c 0a4f 5bbd
0.011304118 -0.053542174

fc1.weight f4 [300, 9]
00000000: 3bac 963e b422 a13d 8089 553b 8b1f 0bbe
00000010: 8efd 19be 9062 7abe 0eeb 54be 585c 663d
00000020: 3b86 34be cc73 f03d 8890 a8be 8873 0c3d
00000030: 77b5 a93e 6ac8 4f3e 88a4 18bd 48fe 043d
00000040: 0890 3e3d 50e7 fc3c 9061 6bbe 9807 7b3d
00000050: 8a11 763e 60d2 093d 3942 aa3e b88f 313d
00000060: 4833 283d 2bab a0be fbdb a93e 4bfe a33e
00000070: 6635 b4bd d8d1 793d 277b 8f3e 3a6b 90be
00000080: b2ae 493e 6eb3 633e 714f a23e f0fa e6bc
00000090: c3b4 a43e 90e0 153e 40a8 96bb 60b2 e3bd
000000a0: fb62 61be e0f7 d53d 188c 7fbd 8837 29bd
000000b0: 967a 37be c6f3 0e3e d865 4e3d 3086 82bc
000000c0: 8ef7 57be 263c 1c3e 80ce 423c 103d 3dbe
000000d0: 3074 bdbc c882 063e e016 abbd ac86 e03d
000000e0: 818d 9b3e ceb0 4a3e 82ab 87be 34bb f83d
000000f0: d857 7ebe 6549 933e b9b7 993e 531d 4dbe
00000100: 0b17 2fbe 162f c0bd e01a 793d 60e6 453c
00000110: bc12 a5bd 8917 a93e 3e37 a8be 2c9f b8bd
00000120: 4005 83bc faeb 3d3e 4e60 6fbe b0b5 babc
00000130: 3bc9 7bbe ace7 adbd bdc7 913e daee 493e
00000140: f0d3 ae3d f2ec 7b3e 32e2 3c3e 0873 4bbd
00000150: e80c 09be 7820 163e c27c 473e e825 263d
00000160: a886 0d3e 2c82 cf3d 10b4 69be 5882 53bd
00000170: 8001 e63c 186f 643d 54c6 e93d ce8b 213e
00000180: 865f 73be b3a7 4cbe 104e 093e 61c3 9b3e
00000190: f625 66be 146a a03d 569a 23be 2ca4 ddbd
000001a0: b170 913e 30a5 7dbe bec3 a7be 0f40 843e
000001b0: 00da 043c 7366 7ebe c934 9a3e 1ecc 6abe
000001c0: 9086 7cbe 9091 853c 683d 83be 520e 1a3e
000001d0: 56f0 91be 2060 6bbe f2a0 8dbe f178 913e
000001e0: 49c2 903e c0cf d6bd 7865 07bd 9c37 813d
000001f0: e68e b0bd 0071 27be 004b 61bd 66a3 41be
00000200: 3efd 54be 3808 37be 860b 353e d80b 70bd
00000210: a7ee 97be a802 57bd aeab 663e 2a33 99be
00000220: 9ba3 5fbe f027 cc3c 49c9 a63e 51ed 973e
00000230: e873 583d f406 c33d 725d 84be 5813 53be
00000240: 40be 85be c045 70bd 6084 88bd 8700 993e
00000250: c0e3 99bc d418 f53d 1976 963e fc5f be3d
00000260: 7cd2 a03d 85ed 9c3e 7694 b7bd 0ccc e13d
00000270: a0a4 48be 8387 4bbe 8efc 553e 36b5 c7bd
00000280: 80cd f83c 866b 3bbe 387a 38be 6602 473e
00000290: 1811 123e 367c 1bbe 61da 953e c086 21be
000002a0: 80a9 b8bc b64c 593e 0a2a 673e 58c8 6fbe
000002b0: 0f11 8f3e 38cb 7bbe 6adc 623e 90f3 4fbe
000002c0: 08b5 2bbd 1085 823c 80b5 a1bd bb4e 30be
000002d0: cec8 2f3e 702a 223e 5a0a 773e c891 16be
000002e0: fed6 573e d83c 23bd 908c a2be 5a1b 793e
000002f0: e090 5abd a6d0 8fbe 7572 8d3e 4c21 92bd
00000300: 4db4 913e 802c e73d e0fd 44be 866d 3b3e
00000310: 109b e43c 3406 9ebe c679 3e3e 855f 883e
00000320: de28 7fbe 4842 03be 257d a93e c252 663e
00000330: 87e7 99be 4621 d4bd 84d0 82be 10e4 27be
00000340: 7a10 5d3e e0e5 49bc da5d 96be b430 d43d
00000350: a161 993e b3ac 12be cecd 063e 2aa9 673e
00000360: afe0 87be 58d4 003d 1a9d 83be a2a6 753e
00000370: b081 8c3c 9e37 58be 8345 923e d3f0 1bbe
00000380: bbcf 93be e5b3 a83e bba4 13be e694 ecbd
00000390: 6482 d23d 80c7 123e 5fd4 9a3e bad5 7c3e
000003a0: 3435 b03d 6c16 823d 8c75 c43d aab1 593e
000003b0: a62d dbbd e0b8 053d dbb0 90be 4a75 513e
000003c0: 68bd 42be 466c 3ebe 3130 8b3e 2769 a93e
000003d0: 64a8 a23d e738 853e 581c 12bd 4a53 363e
000003e0: c115 953e 0e4a 63be 2c67 ae3d b801 53bd
000003f0: 56c3 9abe c9ab 803e 959d 853e 5a95 98be
0.29428276 0.07867947 0.0032583177 -0.13586251 -0.1503813 -0.24451661 -0.20792791 0.05624041
-0.1762933 0.117408365 -0.3292277 0.034289867 0.3314626 0.20291296 -0.037266284 0.032469064
0.046524078 0.030872017 -0.22986436 0.06128654 0.24030128 0.033647895 0.3325365 0.04334995
0.04106453 -0.3138059 0.33175644 0.32029948 -0.087992474 0.06099114 0.28023645 -0.28206807
0.19695547 0.22236416 0.31701234 -0.028195828 0.3216916 0.14636445 -0.0045976937 -0.11118007
-0.22010414 0.10447669 -0.062389463 -0.041312724 -0.17917857 0.1396018 0.050390095 -0.015933126
-0.21090528 0.1525732 0.011890054 -0.18480325 -0.023126692 0.13135827 -0.083539724 0.109631866
0.30381396 0.19794008 -0.26498038 0.12145081 -0.24838197 0.28766933 0.30022982 -0.20030718
-0.17098634 -0.09383981 0.060816646 0.012078851 -0.08060214 0.33025768 -0.32854646 -0.090147346
-0.015993714 0.18547049 -0.23376581 -0.022791713 -0.24588482 -0.084914535 0.284727 0.19720021
0.085365176 0.24602106 0.18445662 -0.04967025 -0.1338383 0.14660823 0.19481185 0.040563494
0.13820899 0.1013225 -0.22822595 -0.051637977 0.028076887 0.05577001 0.11414781 0.15775988
-0.23766908 -0.19985847 0.13408685 0.304225 -0.22475418 0.07832733 -0.15976843 -0.10822329
0.2840629 -0.24770045 -0.32766527 0.25830123 0.008108616 -0.24843769 0.30118397 -0.22929427
-0.24660707 0.016304761 -0.25632787 0.15044525 -0.28503674 -0.22985888 -0.27661854 0.28412583
0.28273228 -0.10488844 -0.033055753 0.06309435 -0.08621006 -0.163517 -0.055003166 -0.18909988
-0.20799729 -0.17874229 0.17680177 -0.058605045 -0.29674265 -0.052492768 0.22526428 -0.29921848
-0.21839754 0.024921387 0.32575443 0.29673246 0.05284491 0.095228106 -0.25852543 -0.20612848
-0.26121712 -0.05866027 -0.066658735 0.29883215 -0.018785357 0.11967626 0.29386976 0.09295651
0.07852647 0.30649963 -0.089638636 0.11025247 -0.1959405 -0.19875912 0.20897123 -0.0975136
0.030371428 -0.18302736 -0.18015373 0.19434509 0.14264333 -0.15184101 0.29268172 -0.1577406
-0.022541761 0.21220669 0.2257463 -0.23416269 0.27942702 -0.2458924 0.22154394 -0.20307755
-0.04192069 0.01593259 -0.078959465 -0.17217533 0.17166445 0.15836501 0.24125043 -0.14704049
0.21078107 -0.039852947 -0.31747866 0.2432684 -0.05336082 -0.28088874 0.27626386 -0.07135257
0.2845787 0.112877846 -0.1923747 0.18303499 0.02790597 -0.30864108 0.1860114 0.26635376
-0.24917933 -0.12818253 0.3310329 0.22492507 -0.30059454 -0.10357909 -0.2554971 -0.16395593
0.21588317 -0.012322873 -0.29368478 0.10360852 0.29957297 -0.14323692 0.13164446 0.22623125
-0.26538607 0.031452507 -0.25705796 0.23989347 0.017151684 -0.21114966 0.28568658 -0.15228586
-0.28869423 0.3294975 -0.14418308 -0.115518376 0.10278776 0.14333916 0.3024015 0.24690905
0.08603898 0.06351933 0.09592733 0.2125918 -0.10702066 0.032647014 -0.2825993 0.20454898
-0.19017565 -0.1859599 0.27185205 0.33088037 0.07942274 0.26019976 -0.035671562 0.1780521
0.2911816 -0.22196218 0.08515772 -0.05151531 -0.30227154 0.25131062 0.26096788 -0.29801446

fc1.bias f4 [300]
00000000: eda6 873e 1e20 29be d62d 6bbe 035b 96be
00000010: 9cf8 a1bd fcdf bfbd 20ec 4a3c 0312 02be
00000020: 925b 053e 77c3 95be 7d9d a83e d4cd a6be
00000030: f091 11be ae0a 31be 0092 f63c 23d6 77be
00000040: 98d5 35be 0012 a4be fe10 2b3e c928 8b3e
00000050: 1940 953e 20a5 47bd d8d7 58bd 5ac9 283e
00000060: 6b6f a9be 26b3 97be 3bee 08be cf14 963e
00000070: 4dd5 843e 9e6f 563e 8363 33be 1b2c 30be
00000080: cc8f cf3d 66d1 3e3e 1c3a bcbd 6b00 1ebe
00000090: fe39 623e 96b6 11be 08e1 5c3d a824 6ebe
000000a0: 46e7 afbd 2035 ac3d cb73 9fbe c06e 18be
000000b0: 992e 8b3e 9ad6 533e 00c7 8a3b e55e 8f3e
000000c0: ba0f 753e 8076 d43d 6e71 343e 4beb 11be
000000d0: 30b7 89bd 7a1e 4c3e bea5 83be 7365 20be
000000e0: 7af7 573e a07a 9f3d 9e43 15be 5725 823e
000000f0: 7ea3 0d3e 10ed d0bc 0257 033e 975b 953e
00000100: 00de 36bb 5aa4 7f3e 4c14 99bd 4a58 553e
00000110: a8d8 4bbe e8fe 8cbe c65c b8bd 2be0 36be
00000120: af94 a63e d9ad 8e3e 42a0 6c3e 200d 1ebe
00000130: 2cd0 d2bd 4b75 5fbe 44b8 e03d 129e 6b3e
00000140: acc8 bcbd c3c4 97be 805f 39bd 9456 c83d
00000150: 6a27 7d3e e034 233e 8a53 763e 8883 513d
00000160: f038 293e 53ae 46be c908 a83e 664c d8bd
00000170: d861 15be 40b8 00be c6eb e5bd a03b 69bc
00000180: a09d 333c 5cfd 86bd 0049 24bd 0440 9abd
00000190: 2afd 463e c0b8 0f3d eec4 3abe 66d9 b5bd
000001a0: c31e 02be 5bce 89be 685a 81be 9e1b 13be
000001b0: b0f1 033e dc1a e83d e034 4d3d 08bd 5c3d
000001c0: 6e01 4fbe e014 67bd 8690 67be 680a 44bd
000001d0: 672e 933e 0eed 593e d635 783e 0c69 e3bd
000001e0: 70ac 993d 4d29 a93e baa1 603e c816 5dbe
000001f0: acf8 fa3d a6c2 afbd 652f a03e 7491 aabe
00000200: 2677 d8bd 9926 a93e d04e f73c 06b1 3a3e
00000210: de60 24be 7ced eebd 7339 0bbe c67d 34be
00000220: 1181 a13e 75f7 a23e 454f a83e 7845 91be
00000230: 68d7 4ebd b606 293e 88a3 11be 59c1 853e
00000240: f830 273e c654 293e a824 84be a362 44be
00000250: 00a6 70bd e8dd 1c3e 171c aa3e b0bf 64be
00000260: 52a1 1b3e 986e 9cbe 6877 64be 5c98 8b3d
00000270: e440 a3be 80b5 54be e3b3 a93e 625c 553e
00000280: f86f 433d d009 4dbe bc8b fc3d 9c6f e0bd
00000290: 9d94 8f3e dbb4 8fbe 141d 91be a03f 0d3e
000002a0: 8604 7f3e 5c51 98bd 06f3 eabd c4a6 dd3d
000002b0: 26ef 1fbe ca0d 643e 838c 11be 85be a63e
000002c0: c039 913b 93a7 45be 1eb1 40be 503b 63be
000002d0: e83c 11bd b27d 7d3e 602b 1e3c 88d7 753d
000002e0: 11d3 9e3e f08f ff3c 02e7 273e 94fc bb3d
000002f0: d083 aabc 2e19 66be 092c 973e 70b8 87be
00000300: ded0 0f3e 68c8 8dbe 4f9b 813e b35b a73e
00000310: f554 903e 000c 8b3c 80ab 883d 3077 f4bc
00000320: ae1f 53be db69 8a3e b027 cf3d 080a 8ebe
00000330: dc83 bc3d 205a 303c 4197 9f3e 00d1 d63c
00000340: 3a01 7b3e 4622 3f3e 9019 95bc 3e0b 88be
00000350: e6f9 4dbe 3c3a 91bd d800 0c3e 6025 f9bd
00000360: 1bce 69be 3b36 90be 308c 8fbe 7bf8 35be
00000370: 62ae 2a3e 10ea 983c fa7c 033e 9259 6a3e
00000380: f6e0 62be 9063 bd3c 5138 823e fe3e 69be
00000390: 8639 ecbd 4341 74be 6397 9ebe ce5c 84be
000003a0: eebb 18be dcff 823d 1a65 5e3e 6beb 9fbe
000003b0: 407e 8c3d 08f0 91be 56d3 4dbe 2c18 e13d
000003c0: 90dd fcbd 632c 47be 90a6 c5bc 805c ab3d
000003d0: 9ba8 75be 2050 73bd 0db8 9b3e f1c1 a53e
000003e0: 6f0a 8f3e 3a3b 6f3e be4a 06be 488a 4e3d
000003f0: 90ec cf3d 9c4e b73d f0e3 6cbe 4253 0d3e
0.26494542 -0.16516158 -0.22966704 -0.2936631 -0.079087466 -0.093688935 0.012385398 -0.12702183
0.13023213 -0.2925069 0.32932654 -0.3257891 -0.14215827 -0.1728923 0.030098915 -0.2420278
-0.17757261 -0.32044983 0.16705701 0.27179554 0.29150465 -0.04874146 -0.05294022 0.1648306
-0.33092818 -0.29628867 -0.13372128 0.2931275 0.25943986 0.20941016 -0.1751843 -0.17204325
0.10134849 0.18634567 -0.09190771 -0.15429847 0.22092435 -0.14229807 0.053925544 -0.23256171
-0.08589034 0.0840857 -0.3114303 -0.14885998 0.2718399 0.20687333 0.0042351484 0.28002086
0.2393178 0.103741646 0.17621395 -0.14249913 -0.06724393 0.19933501 -0.2571239 -0.156637
0.21090499 0.07787061 -0.14576575 0.25419113 0.13831899 -0.025503665 0.1282616 0.2917144
-0.0027903318 0.24965039 -0.074745744 0.20834461 -0.19906867 -0.27538228 -0.0900207 -0.17858951
0.32535312 0.2786701 0.23108009 -0.15434694 -0.10293612 -0.21822087 0.10972646 0.23009518
-0.092179626 -0.29642305 -0.04525709 0.097821385 0.24722067 0.15938139 0.24055305 0.05115083
0.16525626 -0.19402437 0.32819203 -0.10561447 -0.14588106 -0.12570286 -0.11226611 -0.014235407
0.010962874 -0.06591293 -0.04010868 -0.07531741 0.19432512 0.0350883 -0.18239185 -0.08879356
-0.12707047 -0.2691525 -0.25264287 -0.14366004 0.12885165 0.11333248 0.050099254 0.05389121
-0.20215389 -0.056416392 -0.22613725 -0.047861487 0.2874634 0.21281835 0.24239287 -0.111040205
0.07503593 0.33039322 0.21936694 -0.21590722 0.12254462 -0.08582048 0.3128616 -0.33314097
-0.10569601 0.3303726 0.030188948 0.18231592 -0.16052577 -0.1166639 -0.13596134 -0.17626104
0.31543782 0.3182942 0.32872978 -0.28373313 -0.050498396 0.16506466 -0.14222538 0.26124075
0.16327274 0.16536245 -0.25809216 -0.19178252 -0.05875206 0.15319026 0.33224556 -0.22338748
0.15198258 -0.30553126 -0.22311175 0.068161696 -0.31885445 -0.20772362 0.33145055 0.20836022
0.047714204 -0.20023274 0.1233134 -0.10958788 0.2804307 -0.2806767 -0.28342497 0.13793802
0.2490407 -0.07437393 -0.11472134 0.10822824 -0.15618572 0.22270885 -0.14213757 0.3256723
0.004431933 -0.19302206 -0.18817565 -0.22190595 -0.035458475 0.2475498 0.009653896 0.06002
0.31020406 0.031196564 0.16396716 0.09179035 -0.020814806 -0.22470543 0.29525784 -0.26507902
0.1404452 -0.2769196 0.25313804 0.32687148 0.28189817 0.016973495 0.06673336 -0.02984199
-0.20617554 0.27033886 0.10114992 -0.27742028 0.09204838 0.010763675 0.31170085 0.026222706
0.24512187 0.18665418 -0.018200666 -0.26571077 -0.2011486 -0.070911855 0.13672197 -0.12165332
-0.22832529 -0.28166375 -0.28036642 -0.17770569 0.16668084 0.018666297 0.12840644 0.22885731
-0.22156128 0.023118764 0.2543359 -0.22777936 -0.11534409 -0.2385302 -0.30974874 -0.25852054
-0.1491544 0.063964576 0.21718255 -0.31234297 0.06860018 -0.28503442 -0.2010015 0.109909385
-0.12346947 -0.19450526 -0.024127275 0.08367252 -0.23990099 -0.059402585 0.30413857 0.32374528
0.27937648 0.23362437 -0.1311445 0.050424844 0.101525426 0.089505404 -0.23133826 0.13801292

fc2.weight f4 [2, 300]
00000000: da91 4f3d 1ce5 fc3c 28b3 233c 0770 60bd
00000010: 463c 3e3d 60eb c73b 5037 b3bc 8292 45bd
00000020: ef60 0fbd d8cd f3bc 60eb 583d 143a 73bc
00000030: c008 0c3d fe9c 4ebd 78de 8b3c 638e 48bd
00000040: 640c 51bd c008 773a 4054 543a c04e d7bc
00000050: 622d 473d 98b4 7e3c 08dd d13c 8e79 4d3d
00000060: a0fd 71bc f065 b8bb e440 0ebc 46c5 4e3d
00000070: 1237 1bbd ff9b 21bd 2186 ecbc 16b6 5cbd
00000080: 745f 0dbc c01f a03b 8575 31bd 4031 c03b
00000090: 625f 3a3d cc3a 2cbd 60dd 3b3b f095 dbbb
000000a0: fb68 3fbd 7c34 4fbc 6205 02bd 9a4f 87bc
000000b0: 64d2 16bc d047 653d 20de 4ebb 8845 5d3d
000000c0: f8b1 f9bb 9818 303c d4b9 093d ac56 803c
000000d0: a0bb fb3b c01d 1b3c 9c8f 3dbd b8e5 773c
000000e0: 10a4 473c 4e85 4d3d 0b1a dfbc 80ae 24ba
000000f0: 56f4 3dbd c418 17bc a62a 4dbd 5807 743c
00000100: 005a 6abc bbee 3cbd e074 b93a c227 273d
00000110: c83a 47bd 9941 08bd 701d 653d accd 5c3d
00000120: 48e3 cdbb 10ec a63c 3a59 5d3d a04a 7b3c
00000130: 07e2 24bd b64a 513d 181a 34bd 2815 66bd
00000140: 1ca6 fb3c 32ad 0fbd 58c2 7f3c 26de 3e3d
00000150: 6c4a 68bd 7ca6 3a3d 6e8d 17bd 4049 fbba
00000160: ce99 96bc 6ccc 043d e840 633d 5e82 323d
00000170: 5a3a 1abd c24c 073d 208f a13b 6cd6 08bd
00000180: 463d 4d3d a86f 5a3c 880a 463c 4e9a 03bd
00000190: 10d1 1abd 9e0c 04bd 3bd8 4abd cfad 41bd
000001a0: 40ad 3eba 7d54 04bd d47b febc 12e6 5a3d
000001b0: 2096 a4bc 98fe b8bb 1085 7e3c d010 093d
000001c0: 1f33 6bbd 382a d83c 94aa 14bd 7c8a 5abc
000001d0: 79d8 e2bc d0cc 753c f891 65bd 2639 153d
000001e0: 0eb5 653d c054 c53b 44f6 5bbc e091 1c3d
000001f0: 5e7d 2a3d b8ee 343c 653b 13bd fc81 debc
00000200: c8f5 41bd f883 a8bc 6c51 0c3d e8a3 773c
00000210: d88e 203c 882d 12bc 08c4 92bc 9ce9 f0bc
00000220: 08a3 1b3c 523c c2bc 0077 b63c f841 2ebd
00000230: 8cd0 373d e4b5 c63c a0d0 43bd 50e3 61bb
00000240: c2f3 473d 0bf5 38bd e284 033d be38 8fbc
00000250: a4ea 7abc d0bf bebb 7e96 4f3d a066 c7bc
00000260: 2407 2d3d 3b67 f9bc 7c4e 56bd 483a febb
00000270: 981e f53c 38da 623c 4c1a 633d 992d 4cbd
00000280: 3432 8fbc a03b 11bb fc71 11bc ef1d 39bd
00000290: a22b 503d b610 52bd ba56 133d 14b7 fb3c
000002a0: 9e80 d8bc 59ef 39bd 1819 093c 301f 58bd
000002b0: 08b7 53bd 3a14 2f3d 3c13 333d b846 ef3c
000002c0: 2027 8dbc fa0d 643d 4042 5c3b ccaa 513d
000002d0: 22c1 0abd ddc2 e3bc 0427 273d 3bfd 0abd
000002e0: 1414 673d f8a8 0a3c 30be 183b 5cf3 d63c
000002f0: 8933 4fbd 8085 2cba 40f2 a7bb 6447 0bbc
00000300: 1cff f03c 5ceb 913c 0065 bbbb ca34 32bd
00000310: a094 db3c 5e2a 593d 9062 b13b 60c4 e93c
00000320: 3035 d63c 2cfd 3c3d 50ca 1bbb d4e1 68bc
00000330: a42f 093d 9824 f23c 04ee 62bc feb2 1fbd
00000340: 1c48 a53c d2a7 bdbc 4cb9 f0bc 085b dd3c
00000350: 1243 3b3d c52b 59bd 2078 7a3c c094 ffba
00000360: 94fc c3bc 4cae 47bd d05d 5ebb 76be 07bd
00000370: 7dff fbbc e41d 0ebd e44a f03c ace6 49bc
00000380: f208 58bd 68fa b3bb f0ac 113d d006 623c
00000390: 8edd a2bc ecab cc3c 14c9 44bd ca69 0fbd
000003a0: c862 263c 00de db3c 70f9 a6bc 70a6 f43c
000003b0: 0685 213d c830 443c 1a9d 6b3d 0c18 2d3d
000003c0: e86e 713c e4e9 50bc 1ec6 023d 80cc 0f3d
000003d0: 3d28 f6bc f463 c23c ccef 663d f8cc 9b3c
000003e0: 1e04 33bd 7c24 f13c e426 76bc 3042 eb3c
000003f0: a397 2bbd a808 e73c d022 f73b ba77 453d
0.050676204 0.030870967 0.009991445 -0.054794338 0.0464442 0.006101057 -0.021876961 -0.048235424
-0.035004552 -0.02976124 0.052958846 -0.01484539 0.034188032 -0.05044269 0.017073855 -0.048963916
-0.051037207 0.0009423606 0.00080997124 -0.026282668 0.048627265 0.015545987 0.025618091 0.05016475
-0.014769942 -0.0056273863 -0.008682463 0.050481103 -0.037894316 -0.03945541 -0.028872551 -0.05388459
-0.008628715 0.0048865974 -0.043324966 0.005865246 0.04550112 -0.04204826 0.0028665885 -0.0067012236
-0.046730977 -0.012646791 -0.031743415 -0.01651745 -0.0092054345 0.05597669 -0.0031565502 0.05402139
-0.0076200925 0.010748051 0.033624485 0.015666328 0.0076822788 0.009467542 -0.046279535 0.015130453
0.012185112 0.050175957 -0.027234098 -0.0006282106 -0.046375595 -0.009222213 -0.0500895 0.014894329
-0.014303684 -0.04612611 0.0014149211 0.0408094 -0.048640043 -0.033265684 0.055936277 0.05390708
-0.0062831976 0.020376235 0.05404017 0.015337616 -0.04025462 0.05109664 -0.043970197 -0.05617252
0.030718856 -0.03507728 0.0156103 0.046598576 -0.0567116 0.045568928 -0.037000112 -0.001917161
-0.018383887 0.032421514 0.05548182 0.04358136 -0.037653305 0.033032186 0.004930392 -0.033407614
0.050107263 0.013332285 0.012087472 -0.03212958 -0.037797034 -0.032238595 -0.04952262 -0.047284897
-0.0007273741 -0.032307137 -0.031064905 0.05344207 -0.020091116 -0.0056455843 0.015534654 0.0334633
-0.0574218 0.026387319 -0.03629549 -0.013338681 -0.027691113 0.015002444 -0.05604741 0.036431454
0.05608087 0.006022066 -0.0134254135 0.038225055 0.041623466 0.011043243 -0.035945315 -0.02716159
-0.047353536 -0.02057074 0.034257337 0.015114762 0.009799682 -0.008921988 -0.01791574 -0.029408269
0.009499319 -0.023710404 0.02227354 -0.04254338 0.04487662 0.024256654 -0.047806382 -0.0034467764
0.04881645 -0.045155566 0.03210915 -0.017483111 -0.015314732 -0.0058212057 0.05068063 -0.024340928
0.042243138 -0.030444732 -0.052320942 -0.0077584125 0.029921815 0.013845973 0.055445 -0.049848173
-0.017479993 -0.0022160783 -0.008877274 -0.045194563 0.05082286 -0.051285468 0.03597138 0.030726947
-0.026428517 -0.045394275 0.008367799 -0.052764118 -0.051688224 0.0427439 0.043719515 0.029208526
-0.01723057 0.05567739 0.0033608824 0.051188275 -0.033875592 -0.027802879 0.040808693 -0.033932906
0.056415632 0.008463137 0.002330672 0.02623909 -0.050586257 -0.00065811723 -0.005125314 -0.008500908
0.02941852 0.017812423 -0.0057188272 -0.043507375 0.026804268 0.05301892 0.005413361 0.028536022
0.026148409 0.04613988 -0.002377171 -0.014213998 0.0334927 0.029558465 -0.013850693 -0.03898906
0.020175986 -0.023151312 -0.029385231 0.027020946 0.04571826 -0.053020258 0.015287429 -0.0019499287
-0.02392415 -0.048750207 -0.0033930428 -0.033140622 -0.030761475 -0.034696475 0.029332586 -0.012323063
-0.052742906 -0.0054924972 0.035565317 0.01379557 -0.019881036 0.024984322 -0.048043326 -0.035012998
0.010155387 0.026839256 -0.020382613 0.02986452 0.0394335 0.011974521 0.05752287 0.04225926
0.014735915 -0.012751076 0.03192722 0.035107136 -0.030048484 0.023729302 0.056381032 0.019018635
-0.0437051 0.029436342 -0.015023921 0.028718084 -0.04189266 0.02820237 0.007541992 0.048209883

fc2.bias f4 [2]
00000000: e834 393c 0a4f 5bbd
0.011304118 -0.053542174

fc1.weight f4 [300, 9]
00000000: 25bd 993e 5cc0 b4bd e0e5 793c 80d8 a7be
00000010: c964 a03e 8579 a33e 7e24 66be d9d2 893e
00000020: f003 4abe 8805 1b3e e692 143e ba61 a4be
00000030: ae41 043e 57b8 a83e 072d 853e 504c c93d
00000040: 0820 0bbe c2bf 653e 40a0 08bd f80b 063e
00000050: 868e b5bd 5050 9abd a514 893e 8639 9ebe
00000060: 68b7 1cbe 12b0 533e 68e0 39bd 304b a6be
00000070: 0ebc 34be f640 97be ea44 543e 2cdd abbd
00000080: e080 183e 2a8e 413e 487f 25be 6856 0b3d
00000090: 96c5 a1be c4ba 97bd a113 a23e 9cc6 e8bd
000000a0: f3f6 6fbe 5f4e 823e 4ce9 a2bd b4ca be3d
000000b0: f9dd 883e a04d 273e b084 8abe 2c9f df3d
000000c0: dcf2 893d 8a15 123e db4d 97be bf31 8b3e
000000d0: 6470 dc3d 7a31 7d3e 61e7 8e3e 9ddc 973e
000000e0: 387f 1abd d9b8 993e 9267 82be f02c 04be
000000f0: 100f cf3d 75d3 a33e acc4 a6bd 9024 b93d
00000100: 80e8 c63c b8dd 673d beac 61be ed88 953e
00000110: 1c8a a1be 9ed9 14be 8217 433e 3c95 a1be
00000120: 9451 80be 90f2 933d c0c4 f2bc cc84 f43d
00000130: 0b21 9a3e 02d6 003e ba15 573e 16af 86be
00000140: 6cd9 b4bd 60f1 413c 6344 833e 4c08 a2bd
00000150: 3425 b73d cb32 6bbe 1464 a8be 44a7 93bd
00000160: cc73 ba3d f068 a9bd 2405 e53d c411 d13d
00000170: 9bf5 84be 0607 09be e8fd 113e be6b 2b3e
00000180: 43db 84be d0b7 acbc e0d7 2abe 8898 70be
00000190: 4018 a6bd fb9f 73be f77a 9bbe c648 84be
000001a0: e07d 3e3c 8c27 bf3d a5c8 883e 10d3 89bc
000001b0: dbe5 80be 158b 8a3e 7858 2dbe 50f2 f4bc
000001c0: 6dc4 993e 4374 73be b0d8 b2bd cd50 8b3e
000001d0: 1af7 473e 0df6 933e c092 38be 0b59 0bbe
000001e0: 1ad6 2d3e c6ff 3fbe fb17 80be 90a8 e93d
000001f0: 007b 2e3c c8ec 763d f057 fd3c 4653 e8bd
00000200: d834 51be ab9a 903e 30fd f83c 234c 18be
00000210: 24fe a63d 40f1 193d 604a 8d3d 1a6c 033e
00000220: facb 673e 06b9 493e 801e 9e3d 1043 dd3c
00000230: fca6 f03d a0dd 9abd 946b 923d a0ad 63be
00000240: 1ebd 31be f32c 03be 8aa4 9dbe 8c09 bc3d
00000250: e2ac 5c3e 2362 16be 6c4d bebd 480b 23bd
00000260: 6a6b 6c3e 30fb 9bbd ee11 22be 2013 2ebd
00000270: c402 c93d b46d 853d a003 273c 10db c33c
00000280: f33a 93be 2057 683c 64a6 d13d a49c e23d
00000290: e4d0 9fbd a876 17bd 343e 90bd c412 8abe
000002a0: 3a17 4e3e c8cd 1d3e da8c 053e 3746 a1be
000002b0: 2ace 2d3e f0f7 9ebc 0ebc 0a3e 2884 5dbe
000002c0: 0029 e43d 0626 343e 5a83 2b3e 1493 933d
000002d0: 8053 493c 3e06 62be 83b1 80be fe74 103e
000002e0: e005 173c 1ba6 a83e 0052 76be f653 99be
000002f0: de50 4bbe bed3 99be c263 97be 4610 fdbd
00000300: 0ed9 95be 6035 8c3d 4ca5 d33d b0e4 7fbe
00000310: eb28 963e c6b9 743e 8649 1a3e f69f 523e
00000320: e008 79be 5db5 923e 5b6f 1abe c0ce 5dbd
00000330: 087e 12bd ea9b 88be 0812 38bd 703c ff3d
00000340: c8c7 38bd 880f 223d 9649 553e 2302 823e
00000350: 080e 0c3e a0a4 95bd 1278 6f3e b0c2 82be
00000360: a05f 40be 11ee 943e 8d58 9a3e 0e60 413e
00000370: 1e01 6bbe e6b0 5f3e 949b e93d 40a7 f53d
00000380: 78fb 71be 7e7f 6abe cb91 78be 668e d9bd
00000390: d433 8e3d 2029 dabd 0373 9dbe 3ab0 86be
000003a0: 0e37 13be 3b7f 8dbe e0c2 22bd ced9 16be
000003b0: 6220 163e 9578 913e ad25 873e c5fb 8a3e
000003c0: b65d 5fbe 1039 273e f08e b73d 1091 fbbd
000003d0: 301c 8b3d 00df d0bd d879 36bd 9e9f 08be
000003e0: 26d5 7bbe daa3 5e3e 1eb1 07be b5d8 9d3e
000003f0: 8675 70be 90a7 4dbe 3194 9c3e f81e 093e
0.30027118 -0.08825752 0.01525256 -0.32782364 0.31326893 0.3192865 -0.22474858 0.26918676
-0.19728065 0.15138829 0.14509162 -0.3210581 0.1291568 0.3295314 0.26010916 0.098290086
-0.13586438 0.22436431 -0.03335595 0.13090503 -0.08865075 -0.0753485 0.26773563 -0.30903262
-0.15304339 0.20672634 -0.045380026 -0.3247924 -0.17649862 -0.2954175 0.20729414 -0.083917946
0.14892912 0.18901888 -0.16161835 0.03401795 -0.3159606 -0.074086696 0.316556 -0.11366007
-0.23434047 0.25450417 -0.07954654 0.09316006 0.26731852 0.16338205 -0.27054358 0.109190315
0.06735775 0.14266029 -0.29551587 0.2718639 0.10763624 0.24725905 0.27910903 0.29660502
-0.03771898 0.3002384 -0.25469643 -0.12907767 0.10110295 0.31997266 -0.08142981 0.09040177
0.024280787 0.05660793 -0.22038552 0.2920603 -0.31550682 -0.1453614 0.19051936 -0.3155917
-0.2506224 0.072239995 -0.029634833 0.119393915 0.30103335 0.12581638 0.21004382 -0.26305455
-0.088305324 0.011837333 0.25638112 -0.07911739 0.08942643 -0.22968595 -0.32888854 -0.07209638
0.09104118 -0.08271968 0.11182621 0.10208467 -0.25968632 -0.13381585 0.14257014 0.16740319
-0.25948533 -0.021083742 -0.16683912 -0.23495686 -0.08110094 -0.23791496 -0.30367252 -0.25836772
0.011626691 0.09333715 0.2671558 -0.016824275 -0.25175366 0.27059236 -0.1692828 -0.0299007
0.30032673 -0.23774819 -0.08732736 0.27210084 0.19527856 0.2889866 -0.1802473 -0.13608186
0.16976205 -0.18749914 -0.25018296 0.11409104 0.010649443 0.060284406 0.03092572 -0.11344008
-0.20430315 0.28243002 0.030394167 -0.14872794 0.08153942 0.03758359 0.068989515 0.12834206
0.22636405 0.19699487 0.07720661 0.027009517 0.117506 -0.07561803 0.07149425 -0.22234201
-0.17357299 -0.12810116 -0.30789596 0.091815084 0.21550325 -0.14685874 -0.09292111 -0.03980568
0.2308785 -0.076162696 -0.15827152 -0.042498708 0.098149806 0.06515065 0.010193735 0.023908168
-0.28755912 0.0141809285 0.102368146 0.11065033 -0.078035146 -0.036978394 -0.07043114 -0.26967442
0.20126048 0.1541053 0.13042012 -0.31498882 0.16973177 -0.019405335 0.135483 -0.21632445
0.11140633 0.1759263 0.16749325 0.07205787 0.012287974 -0.22072694 -0.2513543 0.14107129
0.009217709 0.32939228 -0.24054718 -0.2994687 -0.19855067 -0.3004436 -0.29568297 -0.123566195
-0.29267162 0.06846118 0.10334262 -0.24989581 0.29328093 0.23898992 0.1506711 0.20568833
-0.24319792 0.28653994 -0.15081541 -0.05415225 -0.035764724 -0.26681453 -0.04493907 0.124626994
-0.0451124 0.039565593 0.20828852 0.25392255 0.13677227 -0.0730679 0.23385647 -0.2553916
-0.18786478 0.2908788 0.30145684 0.18884298 -0.22949645 0.21844825 0.11406627 0.11994791
-0.23631084 -0.22900197 -0.24274366 -0.106228635 0.06943479 -0.10652375 -0.3075181 -0.26306325
-0.1437647 -0.27636132 -0.03973663 -0.14731523 0.1466079 0.2841231 0.26395932 0.2714521
-0.21813092 0.16330361 0.0896281 -0.12283528 0.06792486 -0.10198784 -0.044549793 -0.13342139
-0.24593028 0.21742192 -0.13251159 0.30829397 -0.23482332 -0.20083451 0.3058181 0.1339072

fc1.bias f4 [300]
00000000: 0289 703e c921 a63e 6269 6a3e 91a5 943e
00000010: ec16 90be 78bd 3cbe 0041 bd3d 8cb3 a83d
00000020: 7005 c9bc 9b23 913e 2e28 81be ae80 49be
00000030: 4650 0ebe bbb8 29be 6092 73be f32f 973e
00000040: 7ab7 573e 93e5 25be 2b6c 97be 425b 8cbe
00000050: ab29 9ebe 4050 2cbe 4689 82be 2bee 40be
00000060: 9826 023d 889d 96be a0c7 933d e016 d4bd
00000070: 4077 bcbb 134c 7abe e087 843d 94b9 90be
00000080: b628 a4be 5b89 8b3e 12f4 96be 7063 a2bc
00000090: 36b8 6cbe 289e 0abe 801a 7bbb 7813 47bd
000000a0: 2074 0c3c 50ab 95be d831 41bd c6a6 3fbe
000000b0: a8b6 16be 8784 833e 960b 6dbe 6030 6bbc
000000c0: 9ac7 0f3e b64f 20be 6443 ed3d f1d8 8e3e
000000d0: 1e3a 763e de24 353e 00d0 d63d 5c40 d0bd
000000e0: 29b6 9a3e aa2c 3d3e bf5d 95be 530b 8e3e
000000f0: ba98 1a3e 053e a23e e737 a33e 554c 813e
00000100: a8d8 40bd 2537 8a3e f684 743e ce47 1bbe
00000110: 307b f63c f054 873c 8059 cd3d b018 c63d
00000120: 5462 833d 99f2 913e a367 27be f438 9b3d
00000130: 1a2f 5c3e 1446 da3d 3e80 16be 95d9 883e
00000140: d32f 12be a36a 36be 301b fd3c d855 88be
00000150: 28e1 18bd d8c0 77be 7e02 45be e09a 4e3c
00000160: 5bed 10be b683 2e3e a458 983d f0b9 8d3c
00000170: dbbc 10be 78ab 6fbd d887 2cbe 2699 a5be
00000180: 600e a6bd ba7d 483e 81f6 853e e0b2 3abe
00000190: f47c 89be f4cc d43d 400b a5bc 60f4 14bc
000001a0: ee10 85be 40a0 90bb 4bfc 7abe 9068 52be
000001b0: 31a6 8a3e 9432 9d3d e0f8 143c c6ec 43be
000001c0: 90f6 bcbd d42b 82bd f062 d53d 0000 8d3b
000001d0: e847 193d cb6a 79be 6132 973e d24c 2b3e
000001e0: 03ab 44be 205c 6c3c 2cca 953d b65b 53be
000001f0: 20a3 7d3c 6628 2abe 7063 2fbe 58a8 2bbd
00000200: b4fa 953d 3e36 5fbe 509c 7dbe 955c 943e
00000210: d0b7 223e 17d4 84be 905a f03d e436 8cbe
00000220: fa2e 0d3e b0a3 0d3e 40e3 f1bd 30e0 b9bd
00000230: 98bf 03be 20e2 34bc 500d c6bc 2c98 fabd
00000240: d68b 793e 125b 703e 138a 01be 22f8 793e
00000250: 88f5 1d3e 7083 37be 4a96 2d3e 70af 9c3c
00000260: 2cc8 d4bd 5c3d d23d 94c1 a03d de23 573e
00000270: 4074 a4be 56b2 9dbe cf2c 8ebe 0149 933e
00000280: 7011 debc 621d 8ebe faed 98be f46b 95be
00000290: 317b 9d3e e02f c7bd 2856 9abe 10a4 dc3c
000002a0: efab a53e 3255 8dbe 9022 dabd be6b 6cbe
000002b0: 14ab de3d 5e7d 0a3e 6edb 89be bc67 ecbd
000002c0: 22fa 3d3e 604b d13d 05e6 8e3e ac2c 85bd
000002d0: e964 9c3e 5df9 9b3e 7cc8 f43d 5694 8dbe
000002e0: 6b63 a33e 06da 49be db21 3bbe 249b 88bd
000002f0: f6b6 06be 9c40 cd3d 0458 88bd 4e36 393e
00000300: aed7 5b3e 6c51 fd3d 5048 acbc 687f a2be
00000310: 4389 32be a819 19bd f9ca 8c3e f016 a3be
00000320: 1bf1 96be 2526 993e 2c1d eebd 2de1 9b3e
00000330: 0e3e 54be 80bc d43c 68c7 1ebe 6852 58bd
00000340: d788 873e 48e9 a0be e894 69bd c105 a13e
00000350: 600d 6b3d 684d 35bd fb54 913e f059 cc3c
00000360: 4040 e3bd e98e a53e d007 9abd c689 a5be
00000370: 00fe e33c fe94 283e 0a53 2e3e f8c1 29be
00000380: 97fb 80be 62f8 273e 1005 a23c 88ff 2fbd
00000390: 2850 26be ca18 353e 4a26 273e 7880 6cbe
000003a0: 1da8 883e 8830 303d a151 853e 00bf 843a
000003b0: 1ed8 92be 2241 763e 34f5 8dbe 1689 723e
000003c0: 9b49 aa3e 0650 2bbe c291 2e3e 5484 8cbe
000003d0: 1eea 5e3e d7fa a13e 3b57 22be 2315 6ebe
000003e0: 8411 96bd b892 33be 784f 053e ec42 a8bd
000003f0: 984b 94be 326e 5e3e 1f62 8fbe 1b1f 15be
0.23489764 0.3244765 0.22891763 0.29032567 -0.28142488 -0.18431652 0.092409134 0.08237371
-0.024538726 0.28347477 -0.25225967 -0.19677994 -0.1389781 -0.16574375 -0.23786306 0.2952877
0.21066085 -0.16200857 -0.29574713 -0.27413374 -0.30891165 -0.16827488 -0.25495356 -0.18840854
0.031775087 -0.29417062 0.0721581 -0.103559256 -0.0057515204 -0.24443083 0.064712286 -0.28266585
-0.3206231 0.2725323 -0.29483086 -0.019822806 -0.23117146 -0.13536894 -0.0038315356 -0.04860255
0.008572608 -0.29232264 -0.047166675 -0.18715963 -0.14718115 0.25687048 -0.23148951 -0.014354795
0.14040986 -0.15655407 0.11585119 0.27899888 0.24045607 0.17689845 0.104888916 -0.101685256
0.30217102 0.18474069 -0.29173085 0.27743015 0.15097323 0.31687942 0.31878588 0.2525355
-0.04708162 0.26995197 0.23878846 -0.1516411 0.030088037 0.016519994 0.100268364 0.096726775
0.06415239 0.285054 -0.16348128 0.07579222 0.21502343 0.106578976 -0.14697358 0.26728502
-0.14276056 -0.17814116 0.030896753 -0.26627994 -0.0373241 -0.24194658 -0.19239232 0.012610167
-0.14153044 0.17042431 0.07438782 0.017300576 -0.14134543 -0.058513135 -0.16848695 -0.32343405
-0.081082106 0.19579211 0.2616463 -0.18232298 -0.26853144 0.10390654 -0.020146966 -0.009091467
-0.2598948 -0.0044136345 -0.24510305 -0.205477 0.2707992 0.07675663 0.00909254 -0.1913329
-0.092267156 -0.06356016 0.104192615 0.0043029785 0.03742209 -0.24357145 0.29530624 0.16728523
-0.19205861 0.014426261 0.07313952 -0.20640454 0.015480787 -0.16616973 -0.17127776 -0.041908592
0.073232085 -0.21798036 -0.2476666 0.28976884 0.15890431 -0.25943062 0.117360234 -0.27385628
0.13787451 0.13831973 -0.118109226 -0.090759635 -0.12866056 -0.0110402405 -0.02417627 -0.12236056
0.2436975 0.2347224 -0.12650327 0.24411061 0.15425694 -0.17921233 0.16951862 0.019126624
-0.10389742 0.102656096 0.07849422 0.21009776 -0.32119942 -0.30800122 -0.2776856 0.28766635
-0.027107924 -0.27756792 -0.29869062 -0.29183924 0.3075805 -0.09725928 -0.30143857 0.0269337
0.32357737 -0.2760406 -0.106511235 -0.23087975 0.10872474 0.13524386 -0.26925224 -0.11543223
0.1855245 0.10219455 0.27909866 -0.06502661 0.30545738 0.30463687 0.11952302 -0.27652234
0.31911787 -0.19712076 -0.18274634 -0.06670216 -0.13155732 0.10022089 -0.06657413 0.18087122
0.21468994 0.123690456 -0.021030575 -0.31737828 -0.17435174 -0.037377983 0.27498606 -0.31853437
-0.29480824 0.29911914 -0.11626658 0.30445233 -0.20726797 0.02596879 -0.15505755 -0.052812964
0.26471588 -0.3142798 -0.057026774 0.31449702 0.057385802 -0.044263273 0.28385147 0.02494523
-0.11096239 0.32335594 -0.07521021 -0.32331675 0.027831078 0.16463086 0.17023864 -0.165779
-0.25191948 0.16403344 0.019777805 -0.042968303 -0.16241515 0.17685238 0.163232 -0.23095882
0.2669076 0.043015033 0.2603884 0.0010127723 -0.2868051 0.24048284 -0.27726138 0.23685107
0.33259282 -0.16729745 0.1704779 -0.27444708 0.21768996 0.31636688 -0.15853588 -0.2325025
-0.073275596 -0.17536438 0.13018596 -0.08215889 -0.28963923 0.21721724 -0.28004548 -0.14562647
