model_save/params_20240806_163025.pth (torch, 68211 bytes, 18 tensors)

fc1.weight f4 [300, 9]
000000 37 ee 67 bf a2 42 96 3f eb e5 c8 3e 6a 22 24 bf
       -0.9059786 1.1739085 0.39237913 -0.6411501
000010 ee d1 c8 3e 0b e3 75 bf ef a8 50 bf 0b e3 59 3f
       0.39222664 -0.96049565 -0.8150777 0.85112065
000020 66 11 7b be 3d e6 d5 3d 9d d7 8e be 24 16 03 3f
       -0.24518356 0.10444305 -0.27898875 0.5120566
000030 4f 7f 07 bf 82 29 ee 3e a9 1b 69 3e ec 6b b1 be
       -0.5292863 0.46516043 0.22764458 -0.3465265
000040 e3 c2 d7 3e 08 4e 43 bd 8d cb 0f be c9 9b 74 3e
       0.42140874 -0.04768184 -0.14042492 0.23887552
000050 34 5c 62 bc a3 c9 43 be ef 23 93 3d ad 19 87 3e
       -0.013815928 -0.19119887 0.07184588 0.26386777
000060 39 27 85 3e 00 0a 5a be 36 f8 fc bd fd 87 8a be
       0.26006487 -0.21292877 -0.1235203 -0.27056876
000070 ea c6 ce bd 75 77 a8 3e 65 7f 8e be f6 82 11 bf
       -0.100965336 0.32903638 -0.2783157 -0.56840456
000080 77 78 7b 3e c6 48 6a bf 61 5d c6 3e e0 39 24 3d
       0.24557672 -0.91517293 0.38743117 0.040094256
000090 e5 4e 10 bf 45 12 a8 3e ed e6 06 3d b3 88 6c 3d
       -0.56370384 0.3282644 0.03293507 0.057747554
0000a0 18 f8 a9 3e ee 5e fd bc 5f 9f 47 3e d0 04 a9 3d
       0.33197093 -0.030929055 0.19494389 0.08252871
0000b0 5e 0e 07 be 0c 44 3e 3e 90 57 46 be a1 d2 a7 bc
       -0.13189074 0.18580645 -0.1936934 -0.020486178
0000c0 81 6a 3f be 2d 28 16 be 01 d6 99 3e 31 ce 7c 3e
       -0.18692972 -0.14663763 0.30046085 0.24688031
0000d0 75 3d 42 3e ce 68 a3 be 3b 9d c2 3d a5 a9 12 3e
       0.18968756 -0.31915897 0.095026456 0.14322527
0000e0 86 bb d3 3c 45 59 20 3e 86 6e af 3d b8 24 74 3e
       0.025846254 0.15659054 0.085660025 0.23842132
0000f0 05 14 9b bc f4 95 b3 3e c2 32 51 3e c2 f0 ff 3d
       -0.018930444 0.35075343 0.20429519 0.12497093
000100 75 02 5d be c1 f1 53 3e c4 80 9d be dd 3a 81 3e
       -0.21582969 0.2069769 -0.30762303 0.25240222
000110 19 fb 94 bd ff d3 9d bd c3 4e dc 3c 9c 39 d6 3d
       -0.072744556 -0.07706451 0.026893025 0.10460207
000120 f2 c5 94 3b 62 7a 22 3d 2e 57 98 be 50 4f 85 3e
       0.0045401985 0.039667495 -0.29754013 0.26037073
000130 2a 59 00 bd 36 f2 7f 3e b3 db 3f be 1b bd 63 3e
       -0.031335033 0.2499474 -0.18736152 0.22240107
000140 6b 88 76 be 40 b1 99 be 11 b8 c2 3d 00 70 6c 3d
       -0.24075477 -0.30018044 0.09507764 0.057724
000150 72 bf 19 3e 82 d2 a8 3e c1 ed ab 3e d1 08 33 3d
       0.15014437 0.32973105 0.3357983 0.04370958
000160 8e 00 13 3e 7e 76 6b 3e 10 38 89 3e a2 64 a8 be
       0.1435568 0.2299442 0.26800585 -0.32889277
000170 e8 7a af be 67 b8 04 3e ef ae 12 be d2 f2 e4 3d
       -0.34273458 0.12960969 -0.14324544 0.11179127
000180 3f 30 e4 3e d9 e7 97 bd 06 73 9f be 36 40 e7 bd
       0.4456806 -0.07417268 -0.31142443 -0.11291544
000190 06 44 02 be 53 5f 10 be c0 cc 1f bd 83 c5 0d be
       -0.12721261 -0.14098863 -0.039013624 -0.13844876
0001a0 00 05 f2 3d ca b3 47 3e a1 61 97 3e ea fd 00 3e
       0.1181736 0.19502178 0.29566672 0.1259686
0001b0 98 e5 28 bd 50 99 b1 bd b0 7c b4 3d d2 7d 88 be
       -0.041234583 -0.0867182 0.08812845 -0.26658493
0001c0 25 28 a2 3e 98 99 6b bd b0 3d 6f be 73 88 89 3e
       0.31671253 -0.057519525 -0.23363376 0.26861915
0001d0 f0 c0 c8 bd 1b bc 11 be 14 a6 ad be 77 f9 11 3e
       -0.09802425 -0.14231913 -0.3391577 0.1425532
0001e0 5a 09 b5 3d aa 3b ad be 8a 9b e9 3c f6 26 ed 3b
       0.08839674 -0.33834583 0.02851655 0.0072373105
0001f0 ef 87 15 be 5a f8 71 3e 30 b5 c3 bd 00 83 41 3d
       -0.14602636 0.23629895 -0.09556043 0.047244072
000200 46 17 4c be 0e 7f 0f 3e 70 1a 1f 3e e2 02 23 3e
       -0.19930753 0.14013311 0.15537429 0.15919068
000210 eb 7b 97 3e 00 1b 1a bc c4 21 83 3d 39 0f 9a 3d
       0.2958673 -0.009405851 0.06402925 0.07522435
000220 cc 99 19 bf da 1f 3c 3f fa ae 3c bf c9 c9 03 3f
       -0.600003 0.734861 -0.73704493 0.51479775
000230 35 36 3a be cf 6b e3 be 48 d6 93 3e 4e bc 6a be
       -0.18184741 -0.4441819 0.2887442 -0.22923395
000240 98 c6 3f 3e a8 5a 63 bd f4 63 40 3a 9b cb 2f be
       0.18728101 -0.05550638 0.0007339113 -0.17167513
000250 0f d8 b0 3c 7d ee 4b be e3 81 8b be 69 27 1a 3d
       0.0215874 -0.19915195 -0.27247533 0.03763524
000260 b0 0f ca 3c e9 68 9f be 72 8b c0 bd 94 00 46 3e
       0.024665684 -0.31134728 -0.09401597 0.19336158
000270 66 b9 24 3e 19 21 ba bd 21 25 9d 3e d7 5d c3 bd
       0.16086349 -0.09088344 0.3069239 -0.09539383
000280 06 9f 2a 3e 38 9e 00 3e bb 17 19 3e 54 88 da be
       0.16662225 0.12560356 0.14950459 -0.42682135
000290 b2 1e f8 bc b8 9f d0 3d de 2e 7a bf f3 6e 84 3c
       -0.030288074 0.10186714 -0.97727764 0.016166186
0002a0 80 f6 bf bf d1 c2 fd 3b ba 71 5c 3e 2a 10 a0 be
       -1.4997101 0.007744171 0.21527758 -0.31262332
0002b0 ac c5 c2 bd e0 17 2c 3c 79 96 99 3e 70 7f eb 3d
       -0.09510359 0.010503739 0.29997614 0.11498916
0002c0 6c 98 f5 bd 28 13 03 3d f6 a3 27 3e 2e bb 94 be
       -0.11991963 0.03200069 0.1637114 -0.29049057
0002d0 57 7a 13 bd 39 f9 01 bd 13 6a 1f bf 1d 04 ed 3e
       -0.036005344 -0.031731818 -0.6227123 0.462922
0002e0 18 95 f3 be 1b 32 90 3e b8 b4 28 be 04 b1 d5 be
       -0.47574687 0.28163227 -0.16475189 -0.41736615
0002f0 35 c1 9c 3e 98 81 6e bd 1d 0a f9 bd ed bf 21 bc
       0.30616155 -0.05822906 -0.12160132 -0.009872419
000300 e9 37 b7 3d 36 87 4f 3e 9c 83 d2 3b 44 35 84 3a
       0.08946211 0.20266423 0.0064243805 0.0010086675
000310 03 a0 44 be f4 41 ef 3d 42 8b 09 3e 2c 44 8f bd
       -0.19201665 0.116825014 0.13432029 -0.06995425
000320 40 7e 2b 3d d4 ff 9d be 80 5f 58 bb 80 1d 66 be
       0.04186845 -0.30859244 -0.0033015907 -0.22472191
000330 36 45 07 be 9a 85 4c 3e 36 ed 17 3e 50 0a 60 3e
       -0.13209996 0.1997284 0.14836583 0.21878934
000340 1b 7c aa bd a9 22 19 3f cb 60 c5 3d d0 61 9e 3e
       -0.083244525 0.5981851 0.096376024 0.30934
000350 70 c6 98 3e 01 76 11 bf 33 fb 0d bf d6 d9 3b be
       0.29838896 -0.56820685 -0.55461425 -0.18344817
000360 34 e0 27 bf 46 f6 e4 3e ed 42 d1 3d 5a d1 26 3e
       -0.6557648 0.44719142 0.10217843 0.16290799
000370 69 00 20 3f cf fc 20 3e 9d 49 5b 3e 74 de cb 3e
       0.62500626 0.15721439 0.214148 0.39818156
000380 48 53 1b 3d b6 4f 4d 3e 98 bd 20 bd 86 38 72 be
       0.03792122 0.20049939 -0.03924331 -0.23654374
000390 5c cc f8 bd a0 12 84 3d 9e e5 39 3e 03 b7 82 be
       -0.121483535 0.06448865 0.18153998 -0.25530252
0003a0 3a e8 36 3e de 1a 9b be b5 13 c7 be 06 4a d9 3e
       0.17862025 -0.30293936 -0.38882223 0.42439288
0003b0 95 29 f6 bd 76 d4 b1 bd ba 27 cd 3e 28 d3 ea 3e
       -0.1201965 -0.08683102 0.4006937 0.45864224
0003c0 4d 64 9a bd 6d 58 0c 3f bb 30 42 be 0b b7 97 3e
       -0.07538662 0.5482243 -0.18963902 0.29631838
0003d0 be 00 6a be 46 e1 8d be e0 f2 1f bc e2 ff 6a 3e
       -0.22851846 -0.27710932 -0.009762496 0.22949174
0003e0 3e b8 54 be e3 fd 87 3e 4f ce 9f be 40 da 98 bd
       -0.20773408 0.26560888 -0.31212088 -0.07463503
0003f0 85 09 bd bc ab 27 59 3e b0 a3 95 be a1 8d 9a be
       -0.023075828 0.21206538 -0.29226446 -0.3018618

fc1.bias f4 [300]
000000 a5 42 25 be 7d 96 23 bd 30 76 d7 3d 6b a7 13 bf
       -0.16138704 -0.03993844 0.10520589 -0.57677335
000010 79 0b f4 3d fb 4f 95 3d 00 e1 7c be 10 30 14 3b
       0.11916251 0.07290646 -0.24695206 0.0022611655
000020 a8 fe 4d be db c9 a8 3d 34 c0 f8 3d 6f 78 98 be
       -0.20116675 0.08241626 0.12146035 -0.29779384
000030 02 d8 41 3e 52 05 9b be 73 93 7f be e5 24 6b bc
       0.18930057 -0.30277497 -0.24958591 -0.014352058
000040 d6 18 90 be 1b b5 c9 3c 7d d8 1d bf 00 bd 44 3c
       -0.28143948 0.02462249 -0.6165846 0.012007952
000050 70 22 e0 be 9a 3e 72 bb a0 59 9d be 7b 7c f0 be
       -0.43776274 -0.0036963583 -0.3073244 -0.4696997
000060 a1 91 15 3e 78 69 2f be 74 d4 98 3e b0 50 97 bd
       0.14606334 -0.17130077 0.2984959 -0.07388437
000070 5e b0 82 3e e8 ad 83 be 4a 0b a8 be 00 16 5c bd
       0.25525182 -0.25718617 -0.32821113 -0.05373192
000080 18 53 a8 be 72 62 07 3e 0e 9b 6d 3d 95 5d b0 be
       -0.32875896 0.13221148 0.0580092 -0.34446397
000090 9f 71 91 3e 2f 66 9f be b0 6e d6 bd f5 64 cf be
       0.28407 -0.31132647 -0.10470331 -0.40506712
0000a0 83 12 90 bd 51 56 4c 3e a5 37 aa 3e d6 ab 93 be
       -0.07034781 0.19954802 0.33245578 -0.28842038
0000b0 7d 4a 98 3e b5 20 55 be 9f b0 1f bf 48 22 29 bf
       0.2974433 -0.20813258 -0.6237888 -0.66067934
0000c0 70 e9 32 be ef b1 86 be 09 0e 9f 3e c8 9f 57 bd
       -0.17471862 -0.26307628 0.31065395 -0.052642614
0000d0 98 bb 51 bc 20 90 a8 be 5c 85 c0 bd c5 2c a3 3e
       -0.0128010735 -0.3292246 -0.09400436 0.31870094
0000e0 6f d5 25 3e bb 4e 58 be 7e 4f 0e be dc 4a 02 bd
       0.161947 -0.21123783 -0.13897511 -0.031809673
0000f0 80 ab e8 bd fc fc d0 be 4a fc 1d 3e 70 e7 b9 bc
       -0.11360836 -0.40818012 0.15428272 -0.022693366
000100 1b d3 cd 3d bb e6 9c be ff 12 5c 3e 9f 4c 7c be
       0.10050031 -0.30644783 0.21491621 -0.24638604
000110 9f 3d a9 be ec 78 1f 3e 2e d0 31 3e 20 fb 62 bc
       -0.33054826 0.15573472 0.1736457 -0.013853818
000120 5b 94 2a be de b7 0d be 64 01 99 3d 9b 60 b9 bd
       -0.16658156 -0.13839671 0.07470968 -0.09051629
000130 89 a7 92 bc b2 12 20 3d 8e 9a 36 be 77 78 a6 be
       -0.017902153 0.03908033 -0.17832395 -0.32513782
000140 21 71 ae 3d 50 b5 dd bc 16 c2 52 3e e0 c8 fc be
       0.085176714 -0.027063996 0.2058185 -0.49372005
000150 08 96 aa be 0f 55 82 be 20 d5 20 be 98 48 72 3e
       -0.3331759 -0.2545552 -0.157063 0.23660505
000160 87 a3 4c be 43 63 6a be d2 9d 83 3e bb b3 2e 3e
       -0.19984256 -0.22889428 0.25706345 0.17060749
000170 c6 11 d6 bd 16 26 28 3d 0e 26 4c 3e 87 73 77 be
       -0.10452609 0.041051947 0.19936392 -0.24165164
000180 46 68 96 bd 44 56 ba 3e 2c fc ad bd 96 ef ea be
       -0.07344107 0.3639394 -0.084953636 -0.45885915
000190 52 07 5f 3e 8c 07 0f be dc 70 b1 3b 65 0c ff bd
       0.21780136 -0.13967723 0.005415065 -0.12453536
0001a0 3d 3d cc be d0 2f 97 bc 95 61 4e be 66 b4 6d be
       -0.3989047 -0.018455416 -0.20154412 -0.23213348
0001b0 30 55 9e be 84 f9 e2 3d 86 0f 2a be f8 8d 8c be
       -0.30924368 0.110827476 -0.16607484 -0.27452064
0001c0 09 34 43 3e be ac c6 3a 6a c5 6d 3e 83 1b 58 3d
       0.19062819 0.0015157682 0.23219839 0.052760612
0001d0 80 dd 00 be e4 d0 b1 bd f4 7d b2 3e 28 19 8f be
       -0.12584496 -0.08682421 0.3486172 -0.2794888
0001e0 3e 1c 0b be 3e 48 8d 3e f3 8a 95 be 67 a5 d8 bd
       -0.13584992 0.2759418 -0.29207572 -0.10578423
0001f0 9f e8 76 3e df 50 00 3e e3 5e 85 bd f0 21 7e be
       0.24112175 0.1253085 -0.06512239 -0.24817634
000200 5c da 47 bd 95 0a 17 3e ad 92 3f be 70 75 44 be
       -0.048792228 0.1475013 -0.18708296 -0.19185424
000210 b7 1e eb bd 10 50 1a 3e 41 0f bf be 39 3c b9 be
       -0.11480468 0.15069604 -0.37316325 -0.3617876
000220 f1 fd 13 bf 8c 25 10 be cc d2 78 3e 40 d7 0a be
       -0.5780936 -0.14076823 0.24299163 -0.13558674
000230 2e 8f 82 be e6 96 b5 3e ad 7b 2b 3e 01 f3 52 3d
       -0.25499862 0.3546669 0.16746397 0.051501278
000240 38 7c da 3d 8e c7 ec 3b 1b e6 42 be 3e b5 c4 3c
       0.10668224 0.007225937 -0.19033091 0.024012204
000250 e1 90 00 be 80 c4 0f bc d0 3a db bd cc 36 8a 3e
       -0.12555267 -0.008774877 -0.10704577 0.26994932
000260 92 ad 18 be 44 77 a6 bd e3 97 66 be 40 78 b7 3b
       -0.14909962 -0.08128217 -0.22518878 0.0055990517
000270 fb 20 5f be 88 b5 3d bd d7 8b 93 3d 6e 10 8f be
       -0.21789925 -0.0463157 0.07204407 -0.27942222
000280 69 7b e4 bd 21 6b be 3e 36 e8 82 3e cc 3e aa 3d
       -0.11156351 0.37191108 0.25567788 0.08312759
000290 3d 14 8e be 7e a8 9c 3e 30 15 09 be 30 40 9c 3e
       -0.27749816 0.305973 -0.13386989 0.3051772
0002a0 80 ce 9e be 72 ba 69 3e 78 0a 81 3e fa e6 9f be
       -0.31016922 0.2282503 0.252033 -0.3123091
0002b0 20 1e fe 3d e2 19 1a be 93 7b 77 be e0 cc d8 bd
       0.1240809 -0.15048936 -0.24168234 -0.10585952
0002c0 8a 44 60 bd b4 20 80 bd 7f f2 98 be ac 8c a9 bd
       -0.054752864 -0.062562376 -0.2987251 -0.08278784
0002d0 cc 2f 80 bd 20 9c 76 3c 40 23 c1 bb ba 12 9f be
       -0.062591165 0.015051872 -0.0058940947 -0.31068975
0002e0 80 d9 00 3c af 99 33 be 86 b0 73 be 91 29 b5 bd
       0.007864356 -0.17539094 -0.23797807 -0.08845819
0002f0 43 08 15 be 35 1f a7 3e 1c b6 e7 bd aa f8 e1 3c
       -0.14553933 0.32640997 -0.113140315 0.027584393
000300 5d 0b c4 bd a8 3b 15 3e 58 f9 27 be 00 c1 80 be
       -0.0957248 0.14573538 -0.16403711 -0.25147247
000310 06 0a 70 be 48 16 a5 3d 9f ff 9d 3e e2 be c8 3d
       -0.23441324 0.080608904 0.30859086 0.09802033
000320 cc 64 e0 bd 8d ea 18 be ae e8 1a be ea 4e a1 be
       -0.109567255 -0.14933224 -0.15127823 -0.3150552
000330 23 ff a6 be e1 6f 6d 3d ea 78 4c 3e 54 21 b8 be
       -0.3261653 0.057968024 0.19968 -0.35962927
000340 02 4a c4 be bb b8 96 bd 81 d3 1b bf 53 2e 62 be
       -0.38337713 -0.07359453 -0.60869604 -0.22087984
000350 90 5d ba bc ee a6 76 be 87 37 20 bf 21 7e c4 be
       -0.022749692 -0.24087116 -0.6258473 -0.3837748
000360 ba 48 37 bd c7 0b 61 be 9d 76 a2 3e af 83 54 be
       -0.04474709 -0.21977149 0.3173112 -0.20753358
000370 84 67 85 be b1 b7 01 3d 22 40 81 3e 90 9b d9 bc
       -0.2605554 0.031669322 0.25244242 -0.026563436
000380 47 dc 1e 3e be 2d 81 be b8 c7 0f bd bd 3e a4 3e
       0.15513717 -0.2523021 -0.035102576 0.32079116
000390 83 d4 99 be 7e 0f e8 3d 3d 83 17 bc 92 d6 80 be
       -0.30044946 0.1133108 -0.009247598 -0.25163704
0003a0 2c d1 80 3d 67 9b 4a be 7e b4 92 3d 98 a4 a8 be
       0.06289896 -0.19785844 0.071633324 -0.32938075
0003b0 9a c8 89 bd 3d 36 90 be 85 ee 9c 3e 56 e6 4b be
       -0.06727715 -0.2816638 0.30650726 -0.19912085
0003c0 b6 55 dd be 84 46 4e be be 24 1e 3e 0c 0a 87 be
       -0.43229455 -0.20144087 0.15443704 -0.26374853
0003d0 40 68 96 bd 65 29 6d 3e 2c 74 47 bc fe 22 45 be
       -0.07344103 0.23160322 -0.012173694 -0.1925163
0003e0 2d 41 96 3e 7a e8 80 3e fc d2 49 3e 09 46 0e be
       0.293466 0.25177366 0.1970939 -0.13893904
0003f0 30 13 c1 3c 95 cf c3 bd 12 e8 7c 3e 4d ee 2e 3e
       0.02356872 -0.095610775 0.24697903 0.17083092

fc2.weight f4 [2, 300]
000000 eb 39 cd 3f 8f 62 93 bb 22 57 48 bc ef be 49 bf
       1.60333 -0.004497833 -0.012227805 -0.78806967
000010 c3 43 69 be c1 37 cb 3c 7d 67 b9 3c 7c 1b 6a 3d
       -0.22779755 0.024806859 0.022632355 0.057155117
000020 6b 2e 36 3c 7b 38 1c 3e c6 53 e9 3b 86 f3 25 3d
       0.011119465 0.1525592 0.0071205823 0.040515445
000030 48 06 8b bc 8c d6 b4 bd a0 7d c8 3b 37 6c f3 be
       -0.016970769 -0.08829984 0.0061184913 -0.475435
000040 fe 5e c3 3c e3 41 6d 3d 82 eb 23 bf 28 b0 62 3c
       0.023849007 0.057924163 -0.6403123 0.013835944
000050 32 3d 0c 3f b2 b7 68 bc a4 57 ea 3c 72 77 d2 3e
       0.54780877 -0.014203953 0.028606243 0.41106755
000060 cf a4 09 3e bc 88 3d 3d 8e 8f f9 bc b4 e2 5d 3d
       0.13441776 0.04627298 -0.03046396 0.05417128
000070 02 41 79 3c 3c df a0 be c4 25 15 3f 14 88 65 3d
       0.015213253 -0.31420314 0.5826075 0.056037977
000080 2c 8f 07 bd 33 f7 fb bb b8 ae 23 40 51 6b fa 3d
       -0.033095524 -0.0076893806 2.557539 0.122275
000090 2d d7 7f 3d 70 8b 43 bd ef 58 de bc a6 f5 f5 bf
       0.062461067 -0.0477404 -0.027142016 -1.9215591
0000a0 66 a5 5c 40 e0 64 7c 3d 5d 92 ce be 0c a6 51 bd
       3.4475951 0.06161964 -0.4034604 -0.051183745
0000b0 ad e5 30 3e d0 b5 e5 bc 19 26 c7 be fd e8 8c 40
       0.17275114 -0.028040797 -0.38896254 4.403441
0000c0 10 a0 de bc 44 03 80 3c 1e d1 54 3d 2c f5 93 3c
       -0.027175933 0.015626557 0.051957242 0.018061243
0000d0 36 bb 89 3d 70 10 0e bb a2 4f 43 3d 3c 08 ed 3d
       0.06725161 -0.0021677278 0.047683366 0.11573836
0000e0 e0 01 ab bb 03 ac 26 3d 32 04 c3 bc 1d c4 85 be
       -0.0052187294 0.040691387 -0.023805711 -0.26126185
0000f0 b0 35 11 3c 8b cb 1f 40 11 ca ad 3b 00 62 d3 b8
       0.008862898 2.4967983 0.005303629 -0.00010079518
000100 9d 51 bb bc f7 62 68 bd dc 45 3e 3c 51 de 80 be
       -0.022866065 -0.056735005 0.011613335 -0.25169614
000110 c8 f8 70 3c f9 3e b5 be 68 53 3d 3d 7e 12 f3 bc
       0.014707752 -0.35399607 0.04622212 -0.029671904
000120 56 69 5d 3d 4f 9e ed 3f 07 79 31 bd 43 4d 37 3e
       0.054055534 1.8563937 -0.04332831 0.17900567
000130 f1 78 db bc 7f 5f 23 3e 38 c2 2f 3c 62 60 10 bd
       -0.026791068 0.15954398 0.010727458 -0.035248168
000140 bf 57 8e 3f 18 89 f2 3c 58 f9 9c 3c 83 42 3b c0
       1.1120528 0.029606387 0.019161865 -2.9259346
000150 ac 95 5b bd bc 32 75 bc 92 38 01 3d ab fb ab 3c
       -0.053609535 -0.014965709 0.03154809 0.020994028
000160 ec ee a6 3d e0 a0 c4 3c b0 21 05 bb 60 1b a2 3c
       0.081510395 0.024002492 -0.0020314269 0.019788444
000170 1a 74 24 bd 5a 57 a8 3b 5f ce 2b bf ff 62 34 be
       -0.040149786 0.0051373662 -0.6711177 -0.17615889
000180 01 3a 12 bf 4d 22 3b 3f 2a 03 24 3d 57 a6 75 40
       -0.57119757 0.73099214 0.04004208 3.8382776
000190 40 da ed 3c a4 20 33 3d c1 00 99 bd 57 66 5a 40
       0.029034734 0.0437323 -0.07470847 3.4124963
0001a0 05 d5 17 40 60 74 57 3c b0 4c 15 3d 28 ad 2f 3c
       2.3723767 0.013150305 0.036450088 0.010722436
0001b0 40 16 de 3b af 0b 64 3d 68 55 ec 3f 30 9b d4 3c
       0.0067775548 0.055675205 1.8463564 0.025952905
0001c0 5a ed 88 3e 35 f5 a5 3c 04 01 0b 3d 51 f8 ba bc
       0.26743585 0.020258525 0.033936515 -0.022823485
0001d0 4e ef af bb 80 6f 62 be ff 3f 9b 3e f1 94 9c bd
       -0.0053691035 -0.22112846 0.30322263 -0.07645596
0001e0 a2 56 80 be 5c e1 6e bc 90 a1 48 3c 23 07 67 3c
       -0.25066096 -0.014580097 0.012245551 0.014100823
0001f0 b2 5a d4 3d b0 52 c7 bb fc 30 b4 be e8 b7 df 3c
       0.10368861 -0.006082855 -0.35193622 0.027309373
000200 bb a4 5e 3d 76 3b 5b 3d 63 6b 3b be ba 0c 52 3e
       0.054356318 0.053523503 -0.18302684 0.20512667
000210 4e 96 52 3e 98 7d 71 3c 9d 16 ef be 95 05 0f be
       0.20565149 0.014739417 -0.4669694 -0.13966973
000220 4e a2 7b 3f 69 d8 af 3d 7d f3 d2 be dc b0 7e bc
       0.9829453 0.08586199 -0.41201392 -0.015545096
000230 7f 10 af 3d 86 b6 6a 3e 9b 91 01 3d 97 6a 07 bc
       0.08548068 0.2292119 0.031633 -0.008265159
000240 2a ee 9c 3b a4 20 1b 3e d8 e1 27 3c d2 80 a3 bc
       0.0047891336 0.1514917 0.010246716 -0.019958887
000250 56 dd 44 3d b2 b6 29 3d 84 d0 e3 bc b7 fc 56 bc
       0.048062645 0.041433997 -0.027809389 -0.013121775
000260 40 63 18 bc 80 c4 8e 3c a0 6f 02 bc 80 b2 c9 39
       -0.009301007 0.017427683 -0.007961184 0.000384707
000270 e2 f5 c1 bc 68 37 4b 3d 1c 45 c2 be 7c 9b 8e 3f
       -0.023676816 0.049613386 -0.3794335 1.11412
000280 1a 47 d7 3d 5d 1b f3 3e c1 b1 a2 3d 67 a7 b0 bb
       0.105116084 0.47481814 0.0794406 -0.0053910497
000290 15 15 be bd d6 00 52 3d d3 77 50 bd c8 b2 02 bd
       -0.09281365 0.05127033 -0.050895523 -0.03190878
0002a0 42 04 3e 3d 8e d4 d2 3c 99 3e 28 bd d0 b2 98 bc
       0.04639078 0.02573612 -0.041075323 -0.018639952
0002b0 37 a7 92 3c 29 b9 36 bf 38 44 2d 3d e0 50 a2 3c
       0.017902 -0.7137628 0.042301387 0.019813955
0002c0 c3 e9 c6 3d a6 d2 46 bd f8 ca fc bb 40 8a 1c bb
       0.09712555 -0.048540734 -0.0077146254 -0.0023886114
0002d0 bc fa 03 bc c0 7f f0 ba 04 38 0f 3d 25 d0 b9 bd
       -0.008055385 -0.0018348619 0.03496553 -0.090729035
0002e0 50 05 25 bd 90 79 27 3d a8 fb 2b bd 59 24 d1 3e
       -0.04028827 0.040887415 -0.041988045 0.40848044
0002f0 04 13 1b bd c2 cb 69 bd e8 43 50 3d f8 fc c3 bc
       -0.03785993 -0.057079084 0.05084601 -0.023924336
000300 38 33 f8 bf 18 39 ec bc ec 92 27 3d 68 75 f8 bc
       -1.9390631 -0.028835818 0.0409116 -0.030329421
000310 70 1b ba bc dc 65 43 3e ca 75 28 bd 4c fe ab 3c
       -0.022718161 0.19081825 -0.041127957 0.020995282
000320 61 de 11 bd da 3f 3c bd 52 e3 00 3d fc a4 ab bc
       -0.035612468 -0.04595933 0.03146679 -0.020952694
000330 d9 e1 f6 3c 0b dd f0 3c 68 d9 dc 3c 1b 62 2e 3d
       0.03013699 0.029402277 0.026959136 0.04257403
000340 e9 a1 66 3f 83 a3 d5 3e 48 48 e2 3e 92 75 5a 3d
       0.90090805 0.41726312 0.4419577 0.05333478
000350 ca 0c 30 3d 1c 98 ad 3c 2a 51 e2 bf 08 8a 55 3f
       0.042980947 0.021190695 -1.7681019 0.83413744
000360 c3 0e c6 3d f1 8a 89 3f a8 09 40 bd 40 64 bc 3e
       0.09670784 1.0745527 -0.04688421 0.36795235
000370 51 fa 45 bd de 97 77 bc 6c a9 f0 3e 90 a6 c5 3b
       -0.048334423 -0.015111892 0.4700426 0.0060318187
000380 ec 72 16 3b 07 2b 5d 3c cc ed 12 3d 08 a2 66 bd
       0.0022956682 0.013499028 0.035871312 -0.05630687
000390 58 43 ae bb 6b 9d 08 bf 94 c7 a1 bc 44 f8 68 bd
       -0.0053180866 -0.533652 -0.019748487 -0.05687739
0003a0 00 68 78 b8 12 2c da 3e 2d ef 00 3c 38 9f 20 bd
       -5.9224665e-05 0.42611748 0.007869524 -0.039214343
0003b0 b9 fd e0 3c fb 03 02 3e 8c 1f ff 3d 10 9d 24 40
       0.027464734 0.12696831 0.12457189 2.5720863
0003c0 60 a9 7f bd d2 fe 38 bd 43 7b 81 3e e3 ba 10 3d
       -0.062417388 -0.04516489 0.25289354 0.03533448
0003d0 d4 7c 24 3d 48 f7 94 3c cc 83 28 be e0 5e 5a 3c
       0.040158108 0.01818432 -0.16456527 0.013328284
0003e0 52 f6 15 3d 98 ea 2a be 26 51 32 bc 03 db 80 be
       0.036611862 -0.16691053 -0.010883605 -0.25167093
0003f0 ee ed 64 bd 90 66 05 3d 81 a7 6a bd f8 4e 67 be
       -0.05589097 0.032568514 -0.05728865 -0.22588718

fc2.bias f4 [2]
000000 39 fd 91 bd ce 98 55 3e
       -0.071283765 0.20859072

fc1.weight f4 [300, 9]
000000 fd 19 69 bf 63 b1 95 3f 73 1a c6 3e da c7 24 bf
       -0.9105528 1.1694759 0.38692054 -0.6436745
000010 18 70 c9 3e 77 8f 74 bf 5e 44 50 bf 39 93 5a 3f
       0.39343333 -0.9553141 -0.8135432 0.85380894
000020 66 11 7b be 73 e6 d5 3d 6b d7 8e be 6e 16 03 3f
       -0.24518356 0.10444345 -0.27898726 0.512061
000030 57 7f 07 bf 65 29 ee 3e a5 1b 69 3e 29 6c b1 be
       -0.5292868 0.46515957 0.22764452 -0.34652832
000040 a0 c2 d7 3e 08 4e 43 bd 8f cb 0f be 2d 9c 74 3e
       0.42140675 -0.04768184 -0.14042495 0.23887701
000050 e9 5b 62 bc 57 c9 43 be d0 23 93 3d 63 19 87 3e
       -0.013815858 -0.19119774 0.07184565 0.26386556
000060 f3 26 85 3e 37 0a 5a be 36 f8 fc bd e7 87 8a be
       0.26006278 -0.21292959 -0.1235203 -0.2705681
000070 9f c6 ce bd 94 77 a8 3e 23 7f 8e be 03 83 11 bf
       -0.10096478 0.3290373 -0.27831373 -0.56840533
000080 6e 78 7b 3e 34 49 6a bf 1b 5d c6 3e e0 39 24 3d
       0.24557659 -0.9151795 0.3874291 0.040094256
000090 d0 4e 10 bf 68 12 a8 3e fe e6 06 3d fc 88 6c 3d
       -0.5637026 0.32826543 0.032935135 0.057747826
0000a0 f5 f7 a9 3e 25 5f fd bc 5f 9f 47 3e 99 04 a9 3d
       0.3319699 -0.030929158 0.19494389 0.0825283
0000b0 5e 0e 07 be 71 44 3e 3e 3f 57 46 be 59 d2 a7 bc
       -0.13189074 0.18580796 -0.19369219 -0.020486044
0000c0 32 6a 3f be 77 28 16 be e0 d5 99 3e 3a ce 7c 3e
       -0.18692854 -0.14663874 0.30045986 0.24688044
0000d0 3f 3d 42 3e ce 68 a3 be 56 9d c2 3d ef a9 12 3e
       0.18968676 -0.31915897 0.09502666 0.14322637
0000e0 c3 bb d3 3c 74 59 20 3e 65 6e af 3d a6 24 74 3e
       0.025846368 0.15659124 0.08565978 0.23842105
0000f0 3b 14 9b bc ae 95 b3 3e c2 32 51 3e f5 f0 ff 3d
       -0.018930545 0.35075134 0.20429519 0.12497131
000100 60 02 5d be 0f f2 53 3e 8c 80 9d be c0 3a 81 3e
       -0.21582937 0.20697807 -0.30762136 0.25240135
000110 4b fb 94 bd 23 d4 9d bd b0 4e dc 3c a8 39 d6 3d
       -0.07274493 -0.077064775 0.02689299 0.10460216
000120 2b c6 94 3b c4 7a 22 3d 10 57 98 be 92 4f 85 3e
       0.004540225 0.03966786 -0.29753923 0.2603727
000130 5b 59 00 bd 22 f2 7f 3e dd db 3f be 09 bd 63 3e
       -0.031335216 0.2499471 -0.18736215 0.2224008
000140 6b 88 76 be 28 b1 99 be 4a b8 c2 3d 60 70 6c 3d
       -0.24075477 -0.30017972 0.095078066 0.057724357
000150 9b bf 19 3e 35 d2 a8 3e 85 ed ab 3e aa 08 33 3d
       0.15014498 0.32972875 0.3357965 0.043709435
000160 44 00 13 3e 7e 76 6b 3e 5a 38 89 3e 71 64 a8 be
       0.1435557 0.2299442 0.26800805 -0.3288913
000170 e5 7a af be ca b8 04 3e 03 af 12 be cd f2 e4 3d
       -0.3427345 0.12961116 -0.14324574 0.11179123
000180 45 30 e4 3e 1f e8 97 bd 06 73 9f be 41 40 e7 bd
       0.44568077 -0.074173205 -0.31142443 -0.11291552
000190 06 44 02 be 53 5f 10 be c0 cc 1f bd 83 c5 0d be
       -0.12721261 -0.14098863 -0.039013624 -0.13844876
0001a0 00 05 f2 3d ca b3 47 3e a1 61 97 3e ea fd 00 3e
       0.1181736 0.19502178 0.29566672 0.1259686
0001b0 98 e5 28 bd 50 99 b1 bd b0 7c b4 3d d2 7d 88 be
       -0.041234583 -0.0867182 0.08812845 -0.26658493
0001c0 25 28 a2 3e 98 99 6b bd b0 3d 6f be 73 88 89 3e
       0.31671253 -0.057519525 -0.23363376 0.26861915
0001d0 f0 c0 c8 bd 0c bc 11 be c1 a5 ad be c3 f9 11 3e
       -0.09802425 -0.1423189 -0.33915523 0.14255433
0001e0 8d 09 b5 3d e4 3b ad be 61 9b e9 3c cd 26 ed 3b
       0.08839712 -0.33834755 0.028516473 0.0072372914
0001f0 4f 88 15 be 66 f8 71 3e 30 b5 c3 bd 00 83 41 3d
       -0.14602779 0.23629913 -0.09556043 0.047244072
000200 46 17 4c be 0e 7f 0f 3e 70 1a 1f 3e e2 02 23 3e
       -0.19930753 0.14013311 0.15537429 0.15919068
000210 ec 7b 97 3e 04 1b 1a bc c4 21 83 3d 4b 0f 9a 3d
       0.29586732 -0.009405855 0.06402925 0.07522448
000220 b8 99 19 bf 01 20 3c 3f fa ae 3c bf bb c9 03 3f
       -0.6000018 0.73486334 -0.73704493 0.5147969
000230 8d 36 3a be 2c 6c e3 be f0 d5 93 3e 4e bc 6a be
       -0.18184872 -0.44418466 0.2887416 -0.22923395
000240 c5 c6 3f 3e 99 5a 63 bd 32 64 40 3a 5d cb 2f be
       0.18728168 -0.055506323 0.0007339149 -0.1716742
000250 ba d7 b0 3c 7f ee 4b be e7 81 8b be 20 27 1a 3d
       0.021587241 -0.19915198 -0.27247545 0.03763497
000260 b0 0f ca 3c d4 68 9f be 43 8b c0 bd ea 00 46 3e
       0.024665684 -0.31134665 -0.09401562 0.19336286
000270 c4 b9 24 3e 75 21 ba bd 24 25 9d 3e ea 5d c3 bd
       0.16086489 -0.09088413 0.306924 -0.09539397
000280 c1 9e 2a 3e 38 9e 00 3e 60 87 19 3e 15 da d9 be
       0.16662122 0.12560356 0.14993048 -0.42549196
000290 4e e1 f8 bc ad 54 d1 3d 41 3d 7a bf 23 fe 50 3c
       -0.030380871 0.10221229 -0.97749716 0.012755903
0002a0 11 e8 bf bf a3 a4 ad 3b ba 71 5c 3e 2a 10 a0 be
       -1.4992696 0.0052991672 0.21527758 -0.31262332
0002b0 ac c5 c2 bd e0 17 2c 3c 79 96 99 3e 70 7f eb 3d
       -0.09510359 0.010503739 0.29997614 0.11498916
0002c0 6c 98 f5 bd 28 13 03 3d f6 a3 27 3e 2e bb 94 be
       -0.11991963 0.03200069 0.1637114 -0.29049057
0002d0 24 7a 13 bd e3 f8 01 bd 00 6a 1f bf 6c 04 ed 3e
       -0.036005154 -0.031731497 -0.6227112 0.46292436
0002e0 49 95 f3 be e8 31 90 3e e8 b4 28 be 53 b1 d5 be
       -0.47574833 0.28163075 -0.1647526 -0.4173685
0002f0 35 c1 9c 3e 49 81 6e bd 2a 0a f9 bd a9 bf 21 bc
       0.30616155 -0.058228765 -0.12160142 -0.0098723555
000300 25 38 b7 3d 33 87 4f 3e a8 83 d2 3b 27 35 84 3a
       0.089462556 0.20266418 0.006424386 0.0010086641
000310 2e a0 44 be f4 41 ef 3d 42 8b 09 3e 2c 44 8f bd
       -0.19201729 0.116825014 0.13432029 -0.06995425
000320 40 7e 2b 3d d4 ff 9d be 80 5f 58 bb 80 1d 66 be
       0.04186845 -0.30859244 -0.0033015907 -0.22472191
000330 36 45 07 be 9a 85 4c 3e 36 ed 17 3e 73 b0 63 3e
       -0.13209996 0.1997284 0.14836583 0.22235279
000340 68 33 a4 bd e7 be 19 3f ce 85 cf 3d 10 a4 9b 3e
       -0.080176175 0.6005692 0.10132943 0.30398607
000350 07 3d 98 3e ec 89 12 bf c8 d0 0e bf d6 d9 3b be
       0.2973406 -0.572417 -0.55787325 -0.18344817
000360 05 e0 27 bf b4 f6 e4 3e 57 43 d1 3d b4 d1 26 3e
       -0.655762 0.4471947 0.10217922 0.16290933
000370 65 00 20 3f bd fc 20 3e 5c 49 5b 3e 7b de cb 3e
       0.625006 0.15721412 0.21414703 0.39818177
000380 48 53 1b 3d b6 4f 4d 3e 98 bd 20 bd 86 38 72 be
       0.03792122 0.20049939 -0.03924331 -0.23654374
000390 5c cc f8 bd a0 12 84 3d 9e e5 39 3e 03 b7 82 be
       -0.121483535 0.06448865 0.18153998 -0.25530252
0003a0 3a e8 36 3e e0 1a 9b be 87 13 c7 be 6b 4a d9 3e
       0.17862025 -0.30293941 -0.38882086 0.4243959
0003b0 72 29 f6 bd 76 d4 b1 bd 64 27 cd 3e 19 d3 ea 3e
       -0.12019624 -0.08683102 0.40069115 0.4586418
0003c0 73 64 9a bd 5b 58 0c 3f bf 30 42 be 0b b7 97 3e
       -0.075386904 0.5482232 -0.18963908 0.29631838
0003d0 be 00 6a be 46 e1 8d be e0 f2 1f bc e2 ff 6a 3e
       -0.22851846 -0.27710932 -0.009762496 0.22949174
0003e0 3e b8 54 be e7 fd 87 3e 4f ce 9f be 40 da 98 bd
       -0.20773408 0.265609 -0.31212088 -0.07463503
0003f0 36 09 bd bc 0b 28 59 3e a8 a3 95 be 78 8d 9a be
       -0.023075681 0.21206681 -0.29226422 -0.30186057

fc1.bias f4 [300]
000000 6a 31 2a be 5d 96 23 bd 73 76 d7 3d 74 a7 13 bf
       -0.16620412 -0.03993832 0.10520639 -0.5767739
000010 a5 0b f4 3d 0f 50 95 3d fa e0 7c be 2b 30 14 3b
       0.119162835 0.072906606 -0.24695197 0.0022611718
000020 9f fe 4d be 00 ca a8 3d 55 c0 f8 3d 6f 78 98 be
       -0.20116661 0.082416534 0.121460594 -0.29779384
000030 02 d8 41 3e 00 05 9b be 73 93 7f be bd 24 6b bc
       0.18930057 -0.30277252 -0.24958591 -0.014352021
000040 84 18 90 be 5a b5 c9 3c e0 48 1d bf 00 bd 44 3c
       -0.28143704 0.024622608 -0.61439323 0.012007952
000050 61 22 e0 be 52 3e 72 bb a0 59 9d be a5 02 ef be
       -0.4377623 -0.0036963415 -0.3073244 -0.46681705
000060 af 91 15 3e 78 69 2f be d7 d4 98 3e b0 50 97 bd
       0.14606355 -0.17130077 0.29849884 -0.07388437
000070 7a b0 82 3e 9b ad 83 be fd 0a a8 be 0c 16 5c bd
       0.25525266 -0.25718388 -0.32820883 -0.053731963
000080 18 53 a8 be d2 62 07 3e 39 ff 5d 3d 76 5d b0 be
       -0.32875896 0.1322129 0.054198477 -0.34446305
000090 d3 71 91 3e 2f 66 9f be b0 6e d6 bd fb cf cd be
       0.28407153 -0.31132647 -0.10470331 -0.4019774
0000a0 44 12 90 bd 66 56 4c 3e 50 71 ab 3e d6 ab 93 be
       -0.07034734 0.19954833 0.33484888 -0.28842038
0000b0 8f 4a 98 3e 68 20 55 be 50 b0 1f bf a6 bb 2a bf
       0.29744384 -0.20813143 -0.62378407 -0.6669258
0000c0 70 e9 32 be ef b1 86 be 09 0e 9f 3e c8 9f 57 bd
       -0.17471862 -0.26307628 0.31065395 -0.052642614
0000d0 44 bb 51 bc 20 90 a8 be 67 85 c0 bd e4 2c a3 3e
       -0.012800995 -0.3292246 -0.094004445 0.31870186
0000e0 c0 d5 25 3e 78 4e 58 be 7e 4f 0e be 87 4a 02 bd
       0.1619482 -0.21123683 -0.13897511 -0.031809356
0000f0 89 ab e8 bd 08 fd d0 be 5f fc 1d 3e 70 e7 b9 bc
       -0.11360843 -0.40818048 0.15428303 -0.022693366
000100 42 d3 cd 3d bb e6 9c be 4f 13 5c 3e 8a 4c 7c be
       0.1005006 -0.30644783 0.2149174 -0.24638572
000110 a1 3d a9 be 3b 79 1f 3e 2e d0 31 3e 20 fb 62 bc
       -0.33054832 0.1557359 0.1736457 -0.013853818
000120 5b 94 2a be d8 04 1c be 64 01 99 3d 42 98 b9 bd
       -0.16658156 -0.15236223 0.07470968 -0.09062244
000130 34 a7 92 bc c0 12 20 3d 8e 9a 36 be 77 78 a6 be
       -0.017901994 0.03908038 -0.17832395 -0.32513782
000140 ab 34 a3 3d 50 b5 dd bc 16 c2 52 3e 81 12 fe be
       0.0796903 -0.027063996 0.2058185 -0.49623492
000150 08 96 aa be 13 55 82 be 20 d5 20 be dd 48 72 3e
       -0.3331759 -0.2545553 -0.157063 0.23660608
000160 5b a3 4c be 43 63 6a be fa 9d 83 3e 10 b4 2e 3e
       -0.1998419 -0.22889428 0.25706464 0.17060876
000170 d0 11 d6 bd 54 26 28 3d 5a 26 4c 3e 00 f0 75 be
       -0.10452616 0.041052178 0.19936505 -0.24017334
000180 24 68 96 bd 95 56 ba 3e 2c fc ad bd 5d 8c ee be
       -0.07344082 0.36394182 -0.084953636 -0.46591464
000190 52 07 5f 3e 77 07 0f be 3d 71 b1 3b 72 0c ff bd
       0.21780136 -0.13967691 0.0054151104 -0.12453546
0001a0 f3 4c cc be d0 2f 97 bc 73 61 4e be 66 b4 6d be
       -0.39902458 -0.018455416 -0.20154361 -0.23213348
0001b0 30 55 9e be b8 f9 e2 3d c8 0f 2a be f8 8d 8c be
       -0.30924368 0.11082786 -0.16607583 -0.27452064
0001c0 1e 34 43 3e 2e ad c6 3a 6a c5 6d 3e af 1b 58 3d
       0.1906285 0.0015157813 0.23219839 0.052760776
0001d0 64 dd 00 be 8e d0 b1 bd 61 7e b2 3e 0b 19 8f be
       -0.12584454 -0.08682357 0.34862044 -0.27948794
0001e0 f3 1b 0b be 96 48 8d 3e f3 8a 95 be 30 a5 d8 bd
       -0.1358488 0.2759444 -0.29207572 -0.10578382
0001f0 d9 e8 76 3e 27 51 00 3e cf 5e 85 bd f0 21 7e be
       0.24112262 0.12530957 -0.06512224 -0.24817634
000200 5b da 47 bd a3 0a 17 3e 6e 92 3f be 37 75 44 be
       -0.048792224 0.14750151 -0.18708202 -0.19185339
000210 7d 1e eb bd 10 50 1a 3e 2e 0f bf be 9b e7 b5 be
       -0.114804246 0.15069604 -0.3731627 -0.35528263
000220 2b fe 13 bf 47 2c 1a be 15 d3 78 3e 40 d7 0a be
       -0.57809705 -0.15055953 0.24299271 -0.13558674
000230 e3 8e 82 be 75 81 b2 3e d8 7b 2b 3e 5f f3 52 3d
       -0.2549964 0.34864393 0.16746461 0.051501628
000240 45 5d da 3d e0 c7 ec 3b 1b e6 42 be aa b5 c4 3c
       0.10662321 0.0072259754 -0.19033091 0.024012405
000250 a2 90 00 be 87 c4 0f bc d0 3a db bd 0a 37 8a 3e
       -0.12555173 -0.008774883 -0.10704577 0.26995116
000260 64 ad 18 be 44 77 a6 bd e5 97 66 be 40 78 b7 3b
       -0.14909893 -0.08128217 -0.2251888 0.0055990517
000270 fb 20 5f be 88 b5 3d bd 1b 8c 93 3d 6b 6f 8f be
       -0.21789925 -0.0463157 0.07204457 -0.28014693
000280 45 7b e4 bd 81 6b be 3e 56 e8 82 3e 0c 3f aa 3d
       -0.11156324 0.37191394 0.25567883 0.083128065
000290 1b 14 8e be ea a8 9c 3e 33 15 09 be 3b 40 9c 3e
       -0.27749714 0.3059762 -0.13386993 0.30517754
0002a0 88 ce 9e be a0 ba 69 3e b3 0a 81 3e 00 e7 9f be
       -0.31016946 0.22825098 0.25203475 -0.31230927
0002b0 8d 1e fe 3d d8 19 1a be 93 7b 77 be e0 cc d8 bd
       0.12408171 -0.15048921 -0.24168234 -0.10585952
0002c0 5d 44 60 bd b4 20 80 bd 88 f2 98 be ac 8c a9 bd
       -0.054752696 -0.062562376 -0.29872537 -0.08278784
0002d0 cc 2f 80 bd 20 9c 76 3c 40 23 c1 bb 80 12 9f be
       -0.062591165 0.015051872 -0.0058940947 -0.31068802
0002e0 80 d9 00 3c 96 99 33 be 86 b0 73 be 96 29 b5 bd
       0.007864356 -0.17539057 -0.23797807 -0.088458225
0002f0 43 08 15 be 35 1f a7 3e 1c b6 e7 bd 14 f9 e1 3c
       -0.14553933 0.32640997 -0.113140315 0.02758459
000300 f5 28 c0 bd a8 3b 15 3e 58 f9 27 be 00 c1 80 be
       -0.09382812 0.14573538 -0.16403711 -0.25147247
000310 06 0a 70 be 58 16 a5 3d e3 ff 9d 3e 42 bf c8 3d
       -0.23441324 0.08060902 0.3085929 0.098021045
000320 cc 64 e0 bd 54 ea 18 be ae e8 1a be ea 4e a1 be
       -0.109567255 -0.14933139 -0.15127823 -0.3150552
000330 05 ff a6 be 3c 70 6d 3d ea 78 4c 3e 5a 21 b8 be
       -0.3261644 0.057968363 0.19968 -0.35962945
000340 ac 7d c5 be 9c b8 96 bd 40 d3 1b bf 53 2e 62 be
       -0.38572443 -0.0735943 -0.60869217 -0.22087984
000350 90 5d ba bc ee a6 76 be 8b 1c 20 bf cf 7d c4 be
       -0.022749692 -0.24087116 -0.62543553 -0.38377234
000360 8e 48 37 bd f8 0b 61 be 9d 76 a2 3e 3e 8d 55 be
       -0.044746928 -0.21977222 0.3173112 -0.20854661
000370 84 67 85 be 0a b8 01 3d 69 40 81 3e 90 9b d9 bc
       -0.2605554 0.031669654 0.25244454 -0.026563436
000380 97 dc 1e 3e aa 2d 81 be b8 c7 0f bd bd 3e a4 3e
       0.15513836 -0.2523015 -0.035102576 0.32079116
000390 83 d4 99 be ac 0f e8 3d f4 82 17 bc 92 d6 80 be
       -0.30044946 0.11331114 -0.00924753 -0.25163704
0003a0 2c d1 80 3d 6f 9b 4a be df b4 92 3d 98 a4 a8 be
       0.06289896 -0.19785856 0.07163405 -0.32938075
0003b0 7f c8 89 bd 34 36 90 be d7 ee 9c 3e 4b e6 4b be
       -0.06727695 -0.28166354 0.3065097 -0.19912069
0003c0 94 55 dd be 7f 46 4e be ff 24 1e 3e c3 09 87 be
       -0.43229353 -0.2014408 0.154438 -0.26374635
0003d0 40 68 96 bd 88 29 6d 3e 03 74 47 bc fe 22 45 be
       -0.07344103 0.23160374 -0.012173655 -0.1925163
0003e0 2d 41 96 3e b7 e8 80 3e 0a d3 49 3e b7 45 0e be
       0.293466 0.25177547 0.19709411 -0.13893782
0003f0 33 13 c1 3c 97 cf c3 bd 12 e8 7c 3e a8 ee 2e 3e
       0.023568725 -0.09561079 0.24697903 0.17083228

fc2.weight f4 [2, 300]
000000 8f fd cb 3f b3 62 93 bb 5a 57 48 bc bb be 49 bf
       1.5936755 -0.00449785 -0.0122278575 -0.78806657
000010 e0 43 69 be 12 38 cb 3c e9 67 b9 3c 81 1b 6a 3d
       -0.22779799 0.02480701 0.022632556 0.057155136
000020 22 2e 36 3c cf 38 1c 3e e4 53 e9 3b 86 f3 25 3d
       0.011119397 0.15256046 0.0071205962 0.040515445
000030 48 06 8b bc 62 d6 b4 bd a3 7d c8 3b a8 6c f3 be
       -0.016970769 -0.08829953 0.0061184927 -0.47543836
000040 b3 5e c3 3c 24 42 6d 3d 16 ca 21 bf 28 b0 62 3c
       0.023848867 0.057924405 -0.63198984 0.013835944
000050 03 3d 0c 3f 08 b8 68 bc a9 57 ea 3c 57 86 d3 3e
       0.54780596 -0.014204033 0.028606253 0.4131343
000060 f2 a4 09 3e bc 88 3d 3d c1 8f f9 bc b4 e2 5d 3d
       0.13441828 0.04627298 -0.030464055 0.05417128
000070 da 40 79 3c 0d df a0 be 7c 25 15 3f 14 88 65 3d
       0.015213216 -0.31420174 0.5826032 0.056037977
000080 2c 8f 07 bd 61 f7 fb bb 85 03 22 40 ad 6b fa 3d
       -0.033095524 -0.007689402 2.5314648 0.12227569
000090 2e d7 7f 3d 70 8b 43 bd f4 58 de bc 18 41 f5 bf
       0.06246107 -0.0477404 -0.027142026 -1.916049
0000a0 cb a5 5c 40 25 65 7c 3d 9b b2 cf be 0c a6 51 bd
       3.4476192 0.061619896 -0.40565953 -0.051183745
0000b0 c9 e5 30 3e 1c b6 e5 bc 46 26 c7 be 3f 1d 8d 40
       0.17275156 -0.028040938 -0.38896388 4.40982
0000c0 10 a0 de bc 44 03 80 3c 1e d1 54 3d 30 f5 93 3c
       -0.027175933 0.015626557 0.051957242 0.01806125
0000d0 9a bb 89 3d 70 10 0e bb a2 4f 43 3d 54 08 ed 3d
       0.06725235 -0.0021677278 0.047683366 0.11573854
0000e0 f8 01 ab bb d1 ab 26 3d 32 04 c3 bc fb c3 85 be
       -0.0052187406 0.0406912 -0.023805711 -0.26126084
0000f0 b0 35 11 3c a7 cb 1f 40 78 ca ad 3b 00 62 d3 b8
       0.008862898 2.496805 0.005303677 -0.00010079518
000100 c1 51 bb bc f7 62 68 bd 9e 45 3e 3c 2c de 80 be
       -0.022866132 -0.056735005 0.011613278 -0.25169504
000110 c8 f8 70 3c ae 3e b5 be 6e 53 3d 3d 7e 12 f3 bc
       0.014707752 -0.35399383 0.046222143 -0.029671904
000120 56 69 5d 3d 2f a5 ec 3f 0e 79 31 bd 4e 5c 45 3e
       0.054055534 1.848791 -0.043328337 0.19273493
000130 03 79 db bc 49 5f 23 3e 38 c2 2f 3c 64 60 10 bd
       -0.026791101 0.15954317 0.010727458 -0.035248175
000140 94 8e 8c 3f 18 89 f2 3c 58 f9 9c 3c 92 cd 3a c0
       1.0981011 0.029606387 0.019161865 -2.918797
000150 ac 95 5b bd bc 32 75 bc 92 38 01 3d f8 fb ab 3c
       -0.053609535 -0.014965709 0.03154809 0.020994172
000160 00 ef a6 3d e0 a0 c4 3c 7b 21 05 bb 11 1b a2 3c
       0.081510544 0.024002492 -0.0020314145 0.019788297
000170 1a 74 24 bd 29 57 a8 3b a8 ce 2b bf 9b 62 34 be
       -0.040149786 0.0051373434 -0.6711221 -0.1761574
000180 d4 39 12 bf 7d 22 3b 3f 2a 03 24 3d 55 83 75 40
       -0.5711949 0.730995 0.04004208 3.8361409
000190 40 da ed 3c 7e 20 33 3d 98 00 99 bd 67 66 5a 40
       0.029034734 0.04373216 -0.074708164 3.4125001
0001a0 b6 de 17 40 60 74 57 3c 8c 4c 15 3d 28 ad 2f 3c
       2.3729682 0.013150305 0.036449954 0.010722436
0001b0 40 16 de 3b 8d 0b 64 3d 6d 55 ec 3f 34 9b d4 3c
       0.0067775548 0.05567508 1.846357 0.025952913
0001c0 5b ed 88 3e 01 f5 a5 3c 04 01 0b 3d b1 f8 ba bc
       0.26743588 0.020258429 0.033936515 -0.022823663
0001d0 b0 ef af bb d4 6f 62 be 5f 40 9b 3e 9c 94 9c bd
       -0.005369149 -0.22112972 0.3032255 -0.076455325
0001e0 d1 56 80 be 61 e1 6e bc 93 a1 48 3c d5 06 67 3c
       -0.25066236 -0.014580102 0.012245554 0.01410075
0001f0 22 5b d4 3d ce 52 c7 bb c2 30 b4 be e8 b7 df 3c
       0.10368945 -0.006082869 -0.3519345 0.027309373
000200 1f a5 5e 3d af 3b 5b 3d 89 6b 3b be e7 0c 52 3e
       0.05435669 0.053523716 -0.1830274 0.20512734
000210 67 96 52 3e 98 7d 71 3c 81 16 ef be aa fe 0e be
       0.20565186 0.014739417 -0.46696857 -0.13964334
000220 9d a2 7b 3f 55 11 a5 3d c3 f3 d2 be dc b0 7e bc
       0.98295003 0.080599464 -0.412016 -0.015545096
000230 a4 10 af 3d 5e ed 66 3e 5f 91 01 3d a2 6a 07 bc
       0.08548096 0.22551486 0.031632777 -0.008265169
000240 a8 6e 9c 3b 58 20 1b 3e d8 e1 27 3c e0 80 a3 bc
       0.0047739334 0.15149057 0.010246716 -0.019958913
000250 82 dd 44 3d b9 b6 29 3d 91 d0 e3 bc f7 fc 56 bc
       0.04806281 0.041434024 -0.027809413 -0.013121835
000260 2c 63 18 bc 80 c4 8e 3c a3 6f 02 bc 80 b2 c9 39
       -0.009300988 0.017427683 -0.007961187 0.000384707
000270 e2 f5 c1 bc 68 37 4b 3d 72 45 c2 be a6 9b 8e 3f
       -0.023676816 0.049613386 -0.37943608 1.114125
000280 2f 47 d7 3d cd 1b f3 3e d8 b1 a2 3d ad a7 b0 bb
       0.10511624 0.47482148 0.07944077 -0.0053910823
000290 ca 14 be bd cc 00 52 3d d4 77 50 bd d2 b2 02 bd
       -0.09281309 0.05127029 -0.050895527 -0.031908818
0002a0 42 04 3e 3d e7 d4 d2 3c f0 3e 28 bd d0 b2 98 bc
       0.04639078 0.025736285 -0.041075647 -0.018639952
0002b0 34 a7 92 3c 95 b9 36 bf 38 44 2d 3d e0 50 a2 3c
       0.017901994 -0.71376926 0.042301387 0.019813955
0002c0 1e ea c6 3d af d2 46 bd f8 ca fc bb 40 8a 1c bb
       0.09712623 -0.048540767 -0.0077146254 -0.0023886114
0002d0 bc fa 03 bc c0 7f f0 ba 04 38 0f 3d d2 cf b9 bd
       -0.008055385 -0.0018348619 0.03496553 -0.09072842
0002e0 50 05 25 bd 49 79 27 3d a8 fb 2b bd 7b 24 d1 3e
       -0.04028827 0.04088715 -0.041988045 0.40848145
0002f0 04 13 1b bd c2 cb 69 bd e8 43 50 3d e7 fc c3 bc
       -0.03785993 -0.057079084 0.05084601 -0.023924304
000300 51 58 f8 bf 18 39 ec bc ec 92 27 3d 68 75 f8 bc
       -1.9401952 -0.028835818 0.0409116 -0.030329421
000310 70 1b ba bc bb 65 43 3e 04 76 28 bd 51 fe ab 3c
       -0.022718161 0.19081776 -0.041128173 0.020995291
000320 61 de 11 bd 09 40 3c bd 52 e3 00 3d fc a4 ab bc
       -0.035612468 -0.045959506 0.03146679 -0.020952694
000330 35 e2 f6 3c ce dc f0 3c 68 d9 dc 3c 6c 62 2e 3d
       0.03013716 0.029402163 0.026959136 0.04257433
000340 d6 24 64 3f a7 a3 d5 3e 60 48 e2 3e 92 75 5a 3d
       0.8911871 0.4172642 0.44195843 0.05333478
000350 ca 0c 30 3d 1c 98 ad 3c 9b 69 e2 bf e0 89 55 3f
       0.042980947 0.021190695 -1.7688478 0.83413506
000360 fa 0e c6 3d c7 8a 89 3f a8 09 40 bd 8e 4a c1 3e
       0.09670825 1.0745476 -0.04688421 0.37752193
000370 51 fa 45 bd 3d 98 77 bc a1 a9 f0 3e 90 a6 c5 3b
       -0.048334423 -0.01511198 0.47004417 0.0060318187
000380 13 73 16 3b 00 2b 5d 3c cc ed 12 3d 0d a2 66 bd
       0.0022956773 0.0134990215 0.035871312 -0.056306887
000390 58 43 ae bb aa 9d 08 bf 79 c7 a1 bc 44 f8 68 bd
       -0.0053180866 -0.53365576 -0.019748436 -0.05687739
0003a0 0e 68 78 b8 d0 2b da 3e f8 ee 00 3c 38 9f 20 bd
       -5.9224716e-05 0.4261155 0.007869475 -0.039214343
0003b0 e8 fd e0 3c 36 04 02 3e 96 1f ff 3d 40 9d 24 40
       0.027464822 0.12696919 0.124571964 2.5720978
0003c0 16 a9 7f bd 39 ff 38 bd 7e 7b 81 3e 03 bb 10 3d
       -0.062417112 -0.045165274 0.2528953 0.0353346
0003d0 d5 7c 24 3d 63 f7 94 3c b1 83 28 be e0 5e 5a 3c
       0.04015811 0.01818437 -0.16456486 0.013328284
0003e0 52 f6 15 3d ec ea 2a be 75 51 32 bc 3d db 80 be
       0.036611862 -0.16691178 -0.010883679 -0.25167266
0003f0 ee ed 64 bd 3b 66 05 3d 81 a7 6a bd 18 4f 67 be
       -0.05589097 0.032568198 -0.05728865 -0.22588766

fc2.bias f4 [2]
000000 99 ea 97 bd 58 73 50 3e
       -0.07417793 0.203565

fc1.weight f4 [300, 9]
000000 b9 9b 0e 3e 90 2d e1 3c 0f df 02 3e 28 a4 a7 be
       0.13926591 0.027487546 0.12780403 -0.3274243
000010 1a e9 5a 3e 5f 93 4c 3e 47 ea 1a bf 5d 91 2f 3f
       0.21377984 0.19978093 -0.6051373 0.6858118
000020 f0 ad d5 3c 58 ef e2 3d b6 13 74 bd f8 b8 d0 bd
       0.026083916 0.110808074 -0.05958911 -0.1019153
000030 44 d6 6b 3d f4 c9 7e 3e 81 85 05 bf 7a 77 aa 3e
       0.057577386 0.24881727 -0.52156836 0.33294278
000040 67 f6 6e bf 82 6b 82 be 40 2f 77 bd 4e 88 42 3e
       -0.9334473 -0.25472647 -0.060347795 0.18997309
000050 16 fb 91 be 98 87 15 bd a0 e3 64 3c 8a 33 0f 3e
       -0.28511876 -0.036506265 0.013970286 0.13984504
000060 80 58 8c be c3 e4 41 be 9c 66 f0 bd 0e 4a 93 bd
       -0.2741127 -0.18934922 -0.11738321 -0.07191859
000070 1f c5 d7 3d ea b3 85 3e f9 bc d4 3d ac a5 67 3b
       0.10535645 0.26113826 0.10387606 0.003534655
000080 4f fd 05 bd 9b 6a b9 be 43 4a e6 be 9b 21 a5 3e
       -0.032712277 -0.36214146 -0.44978532 0.322522
000090 fe 71 54 3d 4c 63 4c 3e 76 b4 c8 bd 2b 48 34 bd
       0.051866524 0.19959754 -0.09800045 -0.044014137
0000a0 c2 3a 1c bc bf e9 95 3e d2 99 c3 3e b2 66 da 3d
       -0.009535493 0.29279897 0.38203293 0.10664119
0000b0 00 eb 55 bd b7 e6 8f bc 3a 55 a0 be 38 00 4a 3e
       -0.052226067 -0.017566068 -0.31315023 0.19726646
0000c0 f0 43 20 be 7a 06 b2 3b e5 3b 8d 3e e9 58 17 bd
       -0.15650916 0.005432901 0.27584758 -0.036950026
0000d0 9b be 64 3e a0 90 00 3e 0b 2c aa bb a6 49 c6 3e
       0.22338335 0.1255517 -0.0051932386 0.38728064
0000e0 90 34 da 3e 6d 6b 96 be c7 0d 21 3f 01 1f 8f 3d
       0.42618227 -0.29378834 0.6291165 0.069883354
0000f0 fa 37 aa 3d 1e 3e f5 3e 1a 00 43 3e cd 3a 4c 3e
       0.08311458 0.47898954 0.19043007 0.19944306
000100 e3 1a 11 bc e4 61 19 3d f9 82 b1 be e1 d8 bb 3e
       -0.008856508 0.03744687 -0.34670237 0.36688903
000110 53 e9 a3 3e 51 dc 8e 3e f2 06 d4 3d af 09 89 3e
       0.3201395 0.27902463 0.10352887 0.267652
000120 aa 51 95 be 22 02 36 be c4 3c fc 3d 32 d0 31 be
       -0.29163867 -0.17774251 0.123162776 -0.17364576
000130 16 db 7a be a9 ae e0 3b 94 e8 a4 3e 61 f9 67 bc
       -0.24497637 0.0068567586 0.32208693 -0.014158578
000140 ab 5b 54 be 21 e9 69 be 8e 03 90 bc 8c 63 0a be
       -0.20738094 -0.22842838 -0.01757982 -0.13514537
000150 8c 90 3c 3e 71 dd df 3d f1 cd 03 3e 06 71 c1 bd
       0.18414515 0.109309085 0.12871529 -0.09445386
000160 68 4b 9e be cc b3 e9 3d ce 7c f1 be 49 5c d4 be
       -0.30916905 0.11411247 -0.4716553 -0.41476658
000170 41 40 97 be d8 8f a0 3e 97 c4 19 3e 61 f7 0b 3f
       -0.2954121 0.31359744 0.150164 0.54674345
000180 e4 c4 91 be 6f 35 14 bf 9b 1c 03 be 37 f9 a7 be
       -0.28470528 -0.57894033 -0.12803881 -0.32807323
000190 6f 2a 95 be 72 a0 48 3e 06 27 96 be 73 20 92 3e
       -0.29133937 0.19592455 -0.29326648 0.28540382
0001a0 94 bc 82 3d 00 73 95 bd 37 4a 9c be 64 2a 88 3d
       0.06383625 -0.07297325 -0.3052537 0.0664871
0001b0 1c 71 98 3d 7c de 87 be d0 0d 1f 3e 9c 41 a2 3e
       0.07443449 -0.2653693 0.15532613 0.3169068
0001c0 45 bd df be 64 d7 0d bf 8b f1 f7 be 37 55 f3 be
       -0.4369909 -0.55406785 -0.4842647 -0.4752595
0001d0 e6 28 ec bd b9 15 3f be 19 17 62 be 3c 95 cb 3e
       -0.11531238 -0.1866063 -0.22079124 0.39762294
0001e0 33 95 97 3d a2 41 e5 3e f8 1d f5 3d e8 c3 13 3e
       0.07401504 0.44776636 0.11968607 0.14430201
0001f0 87 05 ec 3e a0 0d f8 bd ec 1a b5 3d 9e 1d 04 3c
       0.46097967 -0.12111974 0.088430256 0.008063702
000200 e3 c3 fe be cb c2 a6 be 93 21 94 3e c2 98 bd 3d
       -0.49758825 -0.3257049 0.28931865 0.09257652
000210 46 e8 c1 3c 70 e4 46 3f 7a fc 02 3e 96 36 42 bd
       0.023670327 0.7769232 0.12791625 -0.04741534
000220 af 8c 17 be bf 9f 18 3e 8b e8 ad be f8 c4 0e 3e
       -0.1479976 0.14904688 -0.3396648 0.13942325
000230 d0 c0 43 bd a6 4c 8e 3c b6 88 3e 3d fe 31 2c be
       -0.047791302 0.017370533 0.046517096 -0.16815946
000240 19 14 56 be be 71 99 3c 58 91 2a be 86 f5 24 3d
       -0.20906104 0.018730994 -0.16657007 0.040273212
000250 6b 4d 7a be 2d d7 e2 be 89 7e 21 bf 7a f2 5c be
       -0.24443595 -0.4430479 -0.630837 -0.21576872
000260 32 3e 46 3e 0b 6f 76 be 44 a6 76 be e5 2a a8 3d
       0.19359663 -0.24065797 -0.24086863 0.082113065
000270 c1 16 0d 3e 84 d9 58 bd 35 1f a4 be b9 a8 90 bd
       0.13778211 -0.052941814 -0.3205506 -0.07063431
000280 98 ac b4 be 02 38 27 3e 16 c5 cc 3d a7 1a 99 be
       -0.3528793 0.16329959 0.09998529 -0.29903147
000290 99 cf fb be 0a 22 7a be 3c bf bc be 71 b7 ba be
       -0.49181822 -0.24427047 -0.3686465 -0.3646808
0002a0 21 05 95 3e 66 73 5c be 60 c5 43 3d c0 a3 93 bb
       0.29105476 -0.21528396 0.047795653 -0.0045056045
0002b0 dc 3c b7 bd e0 2f 11 3d b2 46 a9 be 6a 37 47 3e
       -0.08947155 0.035446048 -0.3306175 0.19454733
0002c0 00 10 4f ba e4 28 93 be 80 24 6a bb 3e 95 60 be
       -0.00078988075 -0.28742135 -0.0035727322 -0.21931931
0002d0 d8 79 37 3d cd 4a 41 be 1d 22 58 3e 04 58 9e be
       0.044793934 -0.1887619 0.21106763 -0.30926526
0002e0 b7 c5 3e 3e ac 4a 84 be 06 89 70 be 77 24 0e 3e
       0.1863011 -0.2583822 -0.2348977 0.13881098
0002f0 3e d7 01 3e 99 93 69 3d c4 47 c2 bc a8 09 b2 be
       0.12679765 0.057025526 -0.023715861 -0.34772992
000300 b5 41 08 3d 37 be 6f be e3 fa f9 3e 87 f3 a5 3e
       0.033265788 -0.23412405 0.48824224 0.3241236
000310 25 b1 0a 3e 68 a7 76 bd 91 47 94 3d 2c 1d ea bc
       0.13544138 -0.060218245 0.07240213 -0.028578363
000320 a6 e9 8f 3e 2b de 95 3e 34 da e4 bd 97 0c 18 bf
       0.28107947 0.29271063 -0.111744314 -0.5939421
000330 2c 36 ef be b4 d2 3e bf ee 2d 9d be a0 cf cf be
       -0.46721017 -0.7454026 -0.30699104 -0.40588093
000340 5f 8e 24 3e 12 35 12 be be 08 2d be c2 44 09 3f
       0.16069935 -0.14278057 -0.16897866 0.5362054
000350 bd b9 9d 3e 3b 93 a1 bd 62 e3 02 3e 28 29 8d be
       0.3080577 -0.0788941 0.12782052 -0.27570462
000360 54 73 13 be 84 fc ad be 1a 60 12 3d 3c 36 a0 be
       -0.14399463 -0.33981717 0.03573618 -0.31291378
000370 a9 f2 27 3e f3 e6 67 be ab 3d 05 3e 75 50 90 3e
       0.16401161 -0.22646694 0.13011806 0.28186384
000380 14 99 ae 3d 4b 39 83 be 9d a2 b2 3c bf 28 c8 be
       0.08525291 -0.2562965 0.021806056 -0.39093587
000390 5f a2 1f be ad 42 ad be f0 fe e7 3d 05 0a 82 3d
       -0.15589283 -0.33839932 0.11327922 0.06349567
0003a0 8b b3 a3 be 00 e0 97 39 cf f9 de bd 74 cf 42 3e
       -0.31972918 0.00028967857 -0.10887491 0.1902445
0003b0 ef 2d a1 be 3c 56 18 bf bf e3 f1 3d b4 26 e5 3d
       -0.31480357 -0.59506583 0.11811017 0.11189023
0003c0 1a 4b ef be 7b 46 a8 3e 20 80 45 bc 50 4b 9e bc
       -0.46736985 0.32866272 -0.012054473 -0.019323021
0003d0 14 04 fa 3d 96 eb 1b be 50 a9 86 be 61 a6 a9 3e
       0.12207809 -0.15226588 -0.2630105 0.3313475
0003e0 b8 8c 49 3d b0 04 8f bc 94 9e a7 be 83 72 a2 3e
       0.049206465 -0.01745829 -0.32738173 0.3172799
0003f0 2b be 7a 3e 65 39 32 be b2 f0 a0 be df 0c a6 be
       0.24486606 -0.17404707 -0.31433636 -0.32431695
