model_save/params_20240808_104914.pth (torch, 68403 bytes, 18 tensors)

fc1.weight f4 [300, 9]
-0.3606026 -0.24182832 -0.0070340023 -0.18963948 0.03774266 -0.5899845 0.047918934 -0.65139943
-0.12996489 0.2539122 0.6859309 0.7822597 0.018462334 -0.6728142 0.5565962 -3.9442737
6.8603115 -1.218506 -0.33375666 0.14706324 -0.1917506 -0.4971775 -0.15786603 0.913006
-0.22949769 1.437476 -0.3597271 1.1701459 -0.8709492 0.49525595 -0.16976875 -1.7642211
-0.9054021 -0.2345508 -6.4683623 -1.8978082 -0.16119921 0.051193237 -0.23777625 0.033263646
0.16974013 -0.24897397 -0.14907686 -0.21477863 0.14180362 0.79468584 0.11122376 0.54344845
-0.65434265 0.65030384 1.7856314 1.4803696 5.3099833 -1.5069447 -0.30921182 -0.2873334
-0.044316508 0.2088249 -0.29663232 -0.7037319 -0.34362456 -1.6996255 -0.195409 -0.50444716
0.30743355 -0.7676382 -0.2811472 -2.87042 -1.5489264 -3.5284972 0.6600256 -0.96697533
-0.52449715 -0.13162258 -0.03608297 -0.5071989 -0.31643426 0.63704795 0.122167304 1.3852714
-0.08364888 0.0743578 -0.36604974 0.049682062 -0.09685744 -0.12759948 -0.54040474 0.18692864
-0.29908633 -0.36031437 -0.27732974 -0.066261135 0.18484557 -0.03126073 -0.060255766 0.008396864
-0.25131744 -0.062566124 0.10681479 -0.32910904 0.10271438 -0.093273886 -0.20801856 -0.50371444
-0.46457398 -0.43531382 -1.7196457 -0.21708114 -0.29697075 -0.08376997 -0.085241385 -0.1377563
0.0763854 -0.5031221 -0.18254898 -0.79202163 -0.34475163 0.12046003 -0.31519854 0.2937206
-0.2790485 0.07241746 0.07476401 -0.043806277 -0.21830893 -0.2198666 -0.4004751 0.15332995
0.094892524 -0.19859713 0.23312475 -0.2695907 -0.34042752 -0.51767856 -0.17441496 -0.20508462
0.10082212 -0.20317706 0.033741854 0.028285347 -0.14039019 -0.02563391 0.24735303 0.29183525
-0.061641335 -0.08449213 0.006056349 -0.1966177 0.18768112 0.26430732 -0.33166552 -0.06485033
0.0067786775 -0.20459402 -0.13262722 -0.21644454 0.14468126 0.01889658 0.28009993 0.28570756
-0.13253212 -0.08952455 -0.21294765 -0.20953552 -0.30900717 -0.2392103 -0.3132312 -0.25461388
-0.11143013 -0.16718829 0.3260182 -1.05554 0.24290293 -0.79664594 -0.8091033 -2.5448472
-0.075174645 -2.6779213 2.30973 -1.202687 -0.33047715 0.6424118 -0.0856554 -0.7397533
3.247309 -1.7498398 2.8401022 5.724563 -0.8194055 -0.003677249 -0.2052254 0.2224571
0.00028399628 0.28117007 0.1928548 -0.32140625 0.20566046 -0.10433241 0.1937066 -0.30053812
0.23600696 -0.17293414 -0.019067602 0.26501527 0.24421608 -0.050811518 -0.28470415 0.13875842
-0.048870724 -0.28756797 -0.040493965 -0.030612707 0.16320388 -0.13838956 -0.27413556 -0.059140526
-0.096095406 -0.17021956 -0.09639111 -0.46156058 -1.1380312 0.030598447 -1.0872974 0.76155734
-0.46732396 -0.22429314 -0.009880553 -0.15937518 -0.28985366 0.2808534 -0.06782306 0.05869304
-0.282294 0.22429681 -0.256631 -0.12766054 0.101587124 0.26411346 -0.32178798 -0.06544197
0.07579117 0.09816913 0.13808759 -0.31212324 -0.12808129 0.2408128 -0.043608975 0.07303582
-0.13015072 -0.17870976 0.050662693 -0.24998654 -0.32899615 -0.07248672 -0.092149936 0.0062368317
00000000: e7a0 b8be d8a1 77be 7d7d e6bb da30 42be
00000010: 0c98 1a3d 3909 17bf a546 443d 1dc2 26bf
00000020: 8415 05be c800 823e 2b99 2f3f 2c42 483f
00000030: 523e 973c 8d3d 2cbf 177d 0e3f fb6e 7cc0
00000040: ac87 db40 01f8 9bbf 27e2 aabe bf97 163e
00000050: 455a 44be 0d8e febe a2a7 21be c3ba 693f
00000060: 7101 6bbe 37ff b73f 272e b8be 57c7 953f
00000070: 87f6 5ebf 3092 fd3e dcd7 2dbe ffd1 e1bf
00000080: 6fc8 67bf 162e 70be d3fc cec0 61eb f2bf
00000090: 6811 25be 00b0 513d 9e7b 73be 763f 083d
000000a0: 5bd0 2d3e 08f3 7ebe 9ba7 18be eeee 5bbe
000000b0: f834 113e 8870 4b3f 48c9 e33d 701f 0b3f
000000c0: 0083 27bf 507a 263f 928f e43f c07c bd3f
000000d0: 62eb a940 90e3 c0bf 0351 9ebe 5d1d 93be
000000e0: 3a85 35bd 32d6 553e 31e0 97be c627 34bf
000000f0: 8fef afbe 548d d9bf 4c19 48be 7323 01bf
00000100: ee67 9d3e f083 44bf 87f2 8fbe f6b4 37c0
00000110: 3843 c6bf e6d2 61c0 70f7 283f b28b 77bf
00000120: 7245 06bf 12c8 06be bdcb 13bd cad7 01bf
00000130: ac03 a2be 9315 233f da32 fa3d 9350 b13f
00000140: 1b50 abbd e748 983d df6a bbbe 6b7f 4b3d
00000150: 325d c6bd 70a9 02be f757 0abf 396a 3f3e
00000160: d821 99be 207b b8be 2afe 8dbe ebb3 87bd
00000170: 2848 3d3e 400b 00bd c0ce 76bd 0093 093c
00000180: aeac 80be ab22 80bd b6c1 da3d fb80 a8be
00000190: eb5b d23d 6106 bfbd d102 55be 6ef3 00bf
000001a0: a4dc edbe 74e1 debe 5a1d dcbf 854a 5ebe
000001b0: 8d0c 98be 978f abbd 0993 aebd fd0f 0dbe
000001c0: f36f 9c3d 9ccc 00bf 1fee 3abe eec1 4abf
000001d0: 4983 b0be c0b3 f63d b461 a1be 8c62 963e
000001e0: 72df 8ebe 9b4f 943d e01d 993d 366e 33bd
000001f0: 608c 5fbe b624 61be 130b cdbe 8702 1d3e
00000200: 0357 c23d 0c5d 4bbe 41b8 6e3e cb07 8abe
00000210: 844c aebe 9586 04bf d699 32be b401 52be
00000220: d47b ce3d a60d 50be e634 0a3d acb6 e73c
00000230: 72c2 0fbe 35fe d1bc 1d4a 7d3e 6e6b 953e
00000240: a07b 7cbd 360a adbd 5674 c63b 2656 49be
00000250: 7b2f 403e 4a53 873e 10d0 a9be 40d0 84bd
00000260: ab1f de3b 1881 51be 6ecf 07be a3a3 5dbe
00000270: 5327 143e 00cd 9a3c 4269 8f3e 4348 923e
00000280: 80b6 07be a658 b7bd f30e 5abe 7b90 56be
00000290: 3036 9ebe 8bf3 74be d75f a0be c05c 82be
000002a0: 7b35 e4bd 6833 2bbe dceb a63e ef1b 87bf
000002b0: 8cbb 783e fdf0 4bbf 6521 4fbf c7de 22c0
000002c0: 2af5 99bd 1063 2bc0 9ed2 1340 a6f1 99bf
000002d0: 4d34 a9be 1a75 243f 196c afbd 7960 3dbf
000002e0: e9d3 4f40 c0fa dfbf 3cc4 3540 9f2f b740
000002f0: 8fc4 51bf 00fe 70bb 9b26 52be cbcb 633e
00000300: 56e5 9439 86f5 8f3e bb7b 453e 5c8f a4be
00000310: a898 523e 3bac d5bd 065b 463e 22e0 99be
00000320: cfab 713e a615 31be a933 9cbc 15b0 873e
00000330: c813 7a3e bd1f 50bd bec4 91be b016 0e3e
00000340: ab2c 48bd 1c3c 93be 00dd 25bd 80c7 fabc
00000350: eb1e 273e feb5 0dbe 7f5b 8cbe 563d 72bd
00000360: abcd c4bd 094e 2ebe b468 c5bd ab51 ecbe
00000370: 02ab 91bf 98a9 fa3c 902c 8bbf 6cf5 423f
00000380: 1645 efbe 1aad 65be 0be2 21bc 3f33 23be
00000390: b367 94be 04cc 8f3e d1e6 8abd 1d68 703d
000003a0: d788 90be 10ae 653e 2365 83be 72b9 02be
000003b0: e90c d03d e139 873e 65c1 a4be 7106 86bd
000003c0: 6738 9b3d e60c c93d d566 0d3e 9ece 9fbe
000003d0: be27 03be a197 763e 539f 32bd ce93 953d
000003e0: 3b46 05be b1ff 36be af83 4f3d 79fc 7fbe
000003f0: 2f72 a8be eb73 94bd 1bb9 bcbd 565e cc3b

fc1.bias f4 [300]
0.26222852 -1.8686591 -0.17849737 -0.43911168 -0.2751039 0.2997496 -0.576404 -0.7395881
0.13602307 0.035051767 -0.15308547 -0.2968165 0.09247518 -0.28054667 -0.048860166 -0.16930415
-0.008501252 -0.3199838 0.12827513 0.45814103 0.042189218 -0.3284409 -0.3232551 -0.070033394
-0.13188076 0.15022643 -0.2511538 0.10664177 -0.3078727 -0.42662996 0.15784499 -0.5449975
-0.15647067 -0.313816 -1.1708875 -0.3252135 -0.016275551 -0.07156301 0.04038334 -0.08484185
-0.1055023 -0.23074405 -0.022877865 -0.18425542 -0.17641637 0.05304845 -0.04096234 -0.2847368
-0.23095755 -0.1760842 0.17213836 -0.5843145 -0.052986264 -0.3125578 -0.5234714 -0.1660294
-0.31774575 0.20820642 -0.012750149 0.06190955 -0.23828389 -0.32056743 -0.2609114 0.23957415
-0.32919812 -0.021557132 -0.3238605 -0.29865336 -0.090417385 -0.17681496 -0.101572596 0.04728222
-0.13776913 -1.2187529 -0.13220498 -0.042365186 0.024307847 -0.21550123 0.050070204 -0.08800751
-0.31744048 -0.04584853 -1.2879213 -0.26203823 -0.28791228 0.1533823 -0.13642788 0.8127683
1.2629511 -0.30374512 0.10913213 0.14041571 -0.13647954 -0.2529888 -0.18526709 -0.3554326
-0.24883848 0.16587304 -0.22421429 -0.7143813 0.0272322 0.14981534 -0.017261773 -0.07374661
-0.20413946 -0.10667937 -0.41785538 -0.4640407 -0.1384167 0.5642222 -0.06806223 -0.18842627
-0.24327378 -0.71826303 -0.2578545 -0.26020357 -0.31611007 -0.3357795 0.19471543 -0.3228175
-0.0906328 -0.4445861 1.0314298 -0.22712994 -0.17688915 0.15337715 -0.009715737 -0.53982335
0.107784726 -0.017764224 0.08030145 0.32728204 0.28303432 -0.3018702 -0.31231043 -0.29530033
-0.2865231 -0.0057097417 -0.4208353 1.451543 0.86718404 -0.004936976 -0.96435285 0.18687087
0.51738113 -0.30605626 0.062390633 0.025606077 -0.30701664 0.36160415 -0.24235943 -0.2661844
-0.12601891 0.32998636 -0.17911685 -0.22684479 -0.23450272 -0.13386513 -0.13756213 -0.833239
0.07339837 -0.081121825 -0.12096408 0.17157936 -0.29566595 -0.3272639 -0.22091521 -0.9656081
-0.24986352 0.22920935 -0.37884733 -0.12722842 0.21292682 -0.2447199 -0.05874161 -0.14277996
0.22522588 -0.039699282 -0.17952621 -0.64965034 0.76752824 0.034251504 -0.31909305 -0.32698563
-0.16471536 0.08476139 -0.3108848 0.07651943 0.116221294 0.2839166 -0.061515853 0.22933674
0.06233851 0.049600035 -0.008088396 -0.05635012 -0.092437856 -0.2751662 0.6388344 0.054713536
-0.018737853 -0.14493841 -0.3096003 -0.2504023 -0.045806445 0.08111977 -0.027757239 -0.16862397
0.14623752 -0.81804496 -0.16260788 -0.22433767 -0.26086646 -0.24576788 -0.18434897 -0.2524217
-0.21319139 -0.30796245 -1.8264126 0.08639436 0.01228869 -0.12010053 -0.36619473 -0.22547877
0.038624693 0.20049956 -1.2911328 -0.24513416 -0.28986496 -0.21870467 -0.25137663 -0.31987938
1.1164777 1.0842055 0.04173694 -0.16393733 0.35787532 0.31434125 -0.18460457 -0.31326574
1.0585027 0.107084 -0.22032504 0.049885124 -0.15300669 -0.35416427 0.007945865 -0.1736068
0.08176312 -0.16056731 -0.23698978 0.08416526 -0.36764944 0.2297512 -0.13126129 -0.16036555
00000000: d142 863e 3930 efbf 04c8 36be 3fd3 e0be
00000010: 6bda 8cbe c878 993e 368f 13bf a555 3dbf
00000020: a249 0b3e 7192 0f3d 70c2 1cbe 55f8 97be
00000030: a163 bd3d d0a3 8fbe 9921 48bd 115e 2dbe
00000040: d648 0bbc ebd4 a3be 8e5a 033e 7691 ea3e
00000050: 9ace 2c3d 6829 a8be b181 a5be ab6d 8fbd
00000060: c00b 07be f5d4 193e 3b97 80be 0067 da3d
00000070: 7ea1 9dbe 3e6f dabe 1ea2 213e f584 0bbf
00000080: d939 20be 7eac a0be a4df 95bf 6282 a6be
00000090: 4e54 85bc a18f 92bd 0069 253d 90c1 adbd
000000a0: 9711 d8bd 2b48 6cbe 5c6a bbbc 74ad 3cbe
000000b0: 7ea6 34be 5549 593d 20c8 27bd 06c9 91be
000000c0: 2380 6cbe 6b4f 34be 0a45 303e a395 15bf
000000d0: 2008 59bd 9307 a0be 3902 06bf 9c03 2abe
000000e0: 92af a2be 1034 553e 00e6 50bc de94 7d3d
000000f0: b100 74be 6a21 a4be 2e96 85be ed52 753e
00000100: a88c a8be 9598 b0bc 0bd1 a5be 18e9 98be
00000110: c02c b9bd fb0e 35be 4b05 d0bd 00ab 413d
00000120: 5a13 0dbe 1800 9cbf be60 07be 1e87 2dbd
00000130: 4021 c73c 5bac 5cbe 6a16 4d3d 483d b4bd
00000140: 8f87 a2be abcb 3bbd 9bda a4bf e029 86be
00000150: 3d69 93be 4010 1d3e c0b3 0bbe 9511 503f
00000160: 62a8 a13f 7b84 9bbe ab80 df3d 23c9 0f3e
00000170: 4bc1 0bbe bf87 81be a8b6 3dbe 43fb b5be
00000180: 84cf 7ebe 9fda 293e 6e98 65be b1e1 36bf
00000190: 1016 df3c 3169 193e 9068 8dbc 7608 97bd
000001a0: ef09 51be b77a dabd 24f1 d5be be96 edbe
000001b0: 1bbd 0dbe de70 103f 3664 8bbd d1f2 40be
000001c0: c31c 79be 16e0 37bf 8105 84be 6739 85be
000001d0: 2ed9 a1be 4aeb abbe 7b63 473e 5648 a5be
000001e0: b09d b9bd caa0 e3be e405 843f c094 68be
000001f0: 6e22 35be e60e 1d3e c12e 1fbc dd31 0abf
00000200: 3dbe dc3d 4786 91bc 1675 a43d 8391 a73e
00000210: e0e9 903e bb8e 9abe 27e7 9fbe 9b31 97be
00000220: 28b3 92be c918 bbbb b977 d7be 29cc b93f
00000230: c6ff 5d3f 5bc6 a1bb d4df 76bf 145b 3f3e
00000240: 1773 043f 68b3 9cbe 528d 7f3d d6c3 d13c
00000250: 4931 9dbe 2e24 b93e 122d 78be 5249 88be
00000260: 1a0b 01be f9f3 a83e 686a 37be 004a 68be
00000270: 7b21 70be f113 09be 16dd 0cbe 274f 55bf
00000280: e251 963d 3323 a6bd 04bc f7bd 80b2 2f3e
00000290: 8761 97be 228f a7be 9937 62be 1832 77bf
000002a0: 39dc 7fbe dbb5 6a3e 47f8 c1be 2b48 02be
000002b0: 7d09 5a3e da97 7abe 0b9b 70bd e934 12be
000002c0: 9da1 663e b79b 22bd b8d5 37be 7c4f 26bf
000002d0: bb7c 443f 4e4b 0c3d 2a60 a3be a96a a7be
000002e0: 25ab 28be 6197 ad3d 4b2c 9fbe 38b6 9c3d
000002f0: 6e05 ee3d 845d 913e 0cf8 7bbd 40d7 6a3e
00000300: aa56 7f3d 6829 4b3d 3185 04bc 62cf 66bd
00000310: 0f50 bdbd 96e2 8cbe a78a 233f 4d1b 603d
00000320: 2080 99bc bc6a 14be ee83 9ebe bb34 80be
00000330: 8a9f 3bbd 1f22 a63d 2663 e3bc c3ab 2cbe
00000340: 4abf 153e 656b 51bf ae82 26be c6b8 65be
00000350: 4a90 85be 93aa 7bbe fac5 3cbe 6b3d 81be
00000360: d84e 5abe 41ad 9dbe e3c7 e9bf 87ef b03d
00000370: 8056 493c 44f7 f5bd e07d bbbe e8e3 66be
00000380: ed34 1e3d c24f 4d3e d743 a5bf 7304 7bbe
00000390: 2e69 94be 1ef4 5fbe 70b4 80be 3bc7 a3be
000003a0: bee8 8e3f 3fc7 8a3f 5bf4 2a3d 30df 27be
000003b0: 6f3b b73e 56f1 a03e fb08 3dbe 5e64 a0be
000003c0: 047d 873f db4e db3d e39c 61be 5854 4c3d
000003d0: c9ad 1cbe 0555 b5be 602f 023c fbc5 31be
000003e0: 6c73 a73d c26b 24be 73ad 72be d65e ac3d
000003f0: 8c3c bcbe e643 6b3e 5c69 06be de36 24be

fc2.weight f4 [2, 300]
0.09388887 7.523906 1.3353641 -3.301464 0.04271767 3.0857651 1.4781753 0.94427645
1.1899151 0.0011205183 -0.050744988 0.69943386 -0.07349452 0.026036471 -0.06041852 -0.017153636
0.014362336 0.056275237 -0.05609654 -1.7343892 0.6465785 0.023437662 0.00062852376 -0.02941345
0.2843858 0.02509233 -0.01903137 0.050026916 0.011612908 -0.006177991 0.01217758 -0.33593655
1.3846385 0.053395778 -4.8814464 0.008976953 -1.5180813 -3.026213 -0.0128239 0.19846511
0.043777723 -0.0006269316 0.092605874 0.13035102 -0.017157238 0.008337119 1.0641636 0.012012309
0.02467535 0.029400794 -0.010540922 -1.1676933 0.32770368 0.034310855 3.0763202 -0.10720222
0.0033351637 -0.032080483 -0.052020937 0.001912661 0.18411344 0.43089926 0.006470101 0.013333071
0.0834023 0.009100286 0.14853784 -0.017847564 0.02033942 1.677473 0.022882693 0.057655305
0.06511691 -1.1415005 -0.00925986 0.058397647 0.024367377 -0.035156686 0.037135296 0.037914775
0.023509977 -0.008032254 -4.8955407 0.032609303 -0.06068911 0.018423194 1.0555245 1.3857507
8.727295 -0.15762535 0.5004019 0.04479075 -0.054085147 -0.040021725 0.009228765 0.62384653
0.04243143 0.011684352 0.042563137 -7.2720814 0.08012182 0.025899833 0.0058971727 -0.014132081
0.0013051336 0.73516136 0.0013294594 0.045383107 0.013701033 -7.245708 -0.0018798932 0.047692187
0.024654655 0.9356133 1.9196256 0.082681425 -0.05267406 -0.2114862 0.0422296 -0.02088578
-0.017632566 0.35701522 -4.32507 -0.03304894 0.28855005 0.0778095 -0.0079162745 0.026255645
-1.2752641 -0.00055343634 0.012503077 0.9842455 -0.0057296483 -0.010817117 0.012685767 -0.019915434
-0.009063804 -1.3070222 2.40376 -7.35031 -9.676876 -0.01611626 -4.1301875 0.087458596
1.4611548 -0.036537338 0.020200687 -0.051314734 0.035538826 -6.3005548 1.0574358 0.008225805
-0.030839406 -9.065322 -0.008029708 -0.020187335 0.040019147 -0.5187911 -0.045553934 -4.1378694
-0.15765464 0.07308883 0.484593 0.030457465 -0.009723862 0.06149024 0.08249069 -3.2863204
-0.036815803 -2.814392 0.29680845 -0.045485675 0.37465817 -0.022223897 -0.043332618 -1.4843329
0.06681569 0.023130039 -0.045036003 0.27852806 -5.392505 -0.05237742 -0.034848977 -0.17014052
0.042532455 1.0095931 0.014598566 0.011560153 -0.03130496 -0.03903252 -0.011045669 -0.013867419
-0.041080207 0.0689031 -0.002727724 -0.7904455 -0.051485997 -0.012416433 -0.75919294 0.25084427
0.076576 -3.3170078 0.04138989 0.030164715 -0.019466512 0.017526109 -3.2389023 0.044341844
0.060388386 5.5602455 -0.018374933 -0.038436674 -0.0065466687 0.024743564 0.018982014 -0.01682799
-0.045460373 -0.039368346 7.53359 -0.38129112 0.01073411 0.9498206 -0.06617741 0.2973101
-0.012966142 1.9399792 5.863393 0.03283187 -0.05719037 -0.03387296 -3.6081994 0.064089
6.975542 2.4043849 0.06516944 -0.04549304 0.17553212 9.99551 -0.008687046 -0.039108183
6.551182 1.5827614 -0.04817667 1.0348445 -1.1427675 0.055668104 0.013634548 -0.53409785
0.08099805 -0.038520724 -1.5613331 -0.050773352 -0.055184208 0.017965008 -0.707431 -0.051395398
00000000: cf48 c03d d7c3 f040 36ed aa3f 304b 53c0
00000010: b9f8 2e3d 2d7d 4540 d934 bd3f 1abc 713f
00000020: 234f 983f 5bde 923a fad9 4fbd 190e 333f
00000030: 4b84 96bd 704a d53c 6979 77bd c885 8cbc
00000040: 0150 6b3c dd80 663d 7cc5 65bd 7700 debf
00000050: 2b86 253f 5700 c03c 84c3 243a 7af4 f0bc
00000060: 049b 913e 6e8e cd3c ade7 9bbc 06e9 4c3d
00000070: 1144 3e3c bf70 cabb 7984 473c e0ff abbe
00000080: d63b b13f 88b5 5a3d cf34 9cc0 1214 133c
00000090: 7d50 c2bf 79ad 41c0 561b 52bc 703a 4b3e
000000a0: 4550 333d ab58 24ba 26a8 bd3d bd7a 053e
000000b0: 568d 8cbc 6998 083c 8336 883f 47cf 443c
000000c0: f623 ca3c efd9 f03c d5b3 2cbc f976 95bf
000000d0: c7c8 a73e 8a89 0c3d 6ee2 4440 d68c dbbd
000000e0: c392 5a3b d366 03bd e813 55bd 41b2 fa3a
000000f0: 3c88 3c3e d49e dc3e 2403 d43b f472 5a3c
00000100: d3ce aa3d 5e19 153c 4e1a 183e 0e35 92bc
00000110: db9e a63c 6fb7 d63f 7c74 bb3c f827 6c3d
00000120: 045c 853d b01c 92bf abb6 17bc 5f32 6f3d
00000130: 189e c73c 7500 10bd 2e1b 183d 864c 1b3d
00000140: ff97 c03c b799 03bc 45a8 9cc0 5591 053d
00000150: 2595 78bd 3dec 963c 6d1b 873f 4760 b13f
00000160: 00a3 0b41 8a68 21be 571a 003f 8176 373d
00000170: 6388 5dbd d2ed 23bd 3f34 173c 68b4 1f3f
00000180: 94cc 2d3d b96f 3f3c af56 2e3d e4b4 e8c0
00000190: e916 a43d e32b d43c 123d c13b 3e8a 67bc
000001a0: 0411 ab3a 8933 3c3f 4141 ae3a a3e3 393d
000001b0: 4c7a 603c d7dc e7c0 c066 f6ba e258 433d
000001c0: 8ff8 c93c 5a84 6f3f 4bb6 f53f e154 a93d
000001d0: c1c0 57bd d78f 58be f2f8 2c3d a818 abbc
000001e0: 2c72 90bc b3ca b63e f966 8ac0 535e 07bd
000001f0: d5bc 933e 965a 9f3d 43b3 01bc 1416 d73c
00000200: db3b a3bf 7c14 11ba b5d9 4c3c 83f7 7b3f
00000210: c6bf bbbb 473a 31bc f7d7 4f3c b125 a3bc
00000220: 5980 14bc 814c a7bf 34d7 1940 bd35 ebc0
00000230: 7cd4 1ac1 3f06 84bc 7f2a 84c0 7e1d b33d
00000240: 1f07 bb3f 2da8 15bd e97b a53c 662f 52bd
00000250: 2991 113d 259e c9c0 0e5a 873f 87c5 063c
00000260: eca2 fcbc 8f0b 11c1 098f 03bc e95f a5bc
00000270: 1eeb 233d 7ecf 04bf c396 3abd 6d69 84c0
00000280: 3870 21be 99af 953d 931c f83e ef81 f93c
00000290: d550 1fbc 31dd 7b3d e1f0 a83d 1353 52c0
000002a0: 2bcc 16bd 001f 34c0 47f7 973e 304f 3abd
000002b0: 32d3 bf3e e40e b6bc 8b7d 31bd 9ffe bdbf
000002c0: aad6 883d 357b bd3c ac77 38bd 3b9b 8e3e
000002d0: 678f acc0 b589 56bd cdbd 0ebd 5139 2ebe
000002e0: 8336 2e3d 593a 813f d32e 6f3c cc66 3d3c
000002f0: a139 00bd 90e0 1fbd e5f8 34bc 2c34 63bc
00000300: b843 28bd 121d 8d3d 9dc3 32bb a35a 4abf
00000310: fbe2 52bd 4b6e 4bbc 785a 42bf a96e 803e
00000320: e1d3 9c3d db49 54c0 7288 293d fe1b f73c
00000330: 3c78 9fbc ea92 8f3c 2d4a 4fc0 cb9f 353d
00000340: d059 773d 88ed b140 0787 96bc c66f 1dbd
00000350: 7085 d6bb 04b3 ca3c 2b80 9b3c dada 89bc
00000360: a834 3abd b440 21bd 2b13 f140 9738 c3be
00000370: 1fde 2f3c 7127 733f 0688 87bd 0839 983e
00000380: f16f 54bc 3d51 f83f eaa0 bb40 b67a 063d
00000390: 7340 6abd 5fbe 0abd bdec 66c0 1841 833d
000003a0: a437 df40 71e1 1940 8e77 853d e956 3abd
000003b0: b1be 333e 9ced 1f41 1d54 0ebc e72f 20bd
000003c0: 48a3 d140 ed97 ca3f e654 45bd c975 843f
000003d0: 3546 92bf 3d04 643d 7063 5f3c a3ba 08bf
000003e0: 4ee2 a53d e8c7 1dbd c3d9 c7bf b8f7 4fbd
000003f0: d608 62bd 5a2b 933c 331a 35bf fb83 52bd

fc2.bias f4 [2]
-0.07081615 -0.1863257
00000000: 0f08 91bd 2acc 3ebe

fc1.weight f4 [300, 9]
-0.360601 -0.24182746 -0.0070339837 -0.18963908 0.037743 -0.5899882 0.047919013 -0.65140486
-0.12996434 0.2619664 0.6933692 0.79196703 0.026896551 -0.664629 0.55604845 -3.9469466
6.854096 -1.2185167 -0.33375505 0.14706342 -0.19175057 -0.49717623 -0.1578653 0.9130099
-0.22949821 1.4374806 -0.35972482 1.1695993 -0.8713033 0.4940852 -0.16935699 -1.7573389
-0.9094083 -0.22114031 -6.484053 -1.8978078 -0.16119921 0.051193237 -0.23777625 0.033263646
0.16974013 -0.24897406 -0.14907686 -0.21477863 0.14180362 0.7949677 0.112596594 0.54514426
-0.65255505 0.6543773 1.7875423 1.4672402 5.308151 -1.5074599 -0.30920982 -0.28733194
-0.044316284 0.20882581 -0.2966332 -0.7037378 -0.34362555 -1.699634 -0.1954088 -0.5044451
0.30743656 -0.7676341 -0.28114495 -2.8704312 -1.5489177 -3.5285149 0.66002965 -0.96697605
-0.5244946 -0.13162135 -0.03608264 -0.5071973 -0.3164369 0.63705206 0.12216692 1.3852788
-0.08364887 0.07435798 -0.36604887 0.049682193 -0.09685727 -0.127601 -0.54040307 0.18693002
-0.29908597 -0.36031193 -0.27732974 -0.066261135 0.18484557 -0.03126073 -0.060255766 0.008396864
-0.25131744 -0.062566124 0.10681479 -0.32910886 0.10271492 -0.093273535 -0.20801818 -0.50371784
-0.4645754 -0.4353125 -1.7196492 -0.21708107 -0.29697 -0.08376957 -0.08524106 -0.13775615
0.07638603 -0.5031248 -0.18255056 -0.79202425 -0.34474915 0.12046003 -0.31519854 0.2937206
-0.2790485 0.07241746 0.07476404 -0.043806292 -0.21830893 -0.2198666 -0.40047356 0.15333085
0.09489329 -0.19859616 0.23312515 -0.26959354 -0.34043074 -0.5176817 -0.17441455 -0.20508415
0.10082246 -0.2031768 0.033742033 0.028285319 -0.14039066 -0.025634026 0.24735281 0.29183802
-0.061641335 -0.08449213 0.006056349 -0.1966177 0.18768112 0.26430732 -0.33166552 -0.06485033
0.0067786775 -0.20459402 -0.13262722 -0.21644454 0.14468126 0.01889658 0.28009993 0.2857077
-0.13253212 -0.08952455 -0.21294765 -0.20953552 -0.30900717 -0.2392103 -0.3132312 -0.25461388
-0.11143013 -0.16718829 0.32601836 -1.0555338 0.2429033 -0.7966437 -0.80910105 -2.5448704
-0.07517457 -2.6779318 2.3097417 -1.2026858 -0.3281312 0.6434265 -0.08371048 -0.73822725
3.2503104 -1.737354 2.8463595 5.73674 -0.8194067 -0.0036772494 -0.2052254 0.2224571
0.00028399628 0.28117007 0.1928548 -0.32140625 0.20566046 -0.10433245 0.19370708 -0.30053735
0.23600854 -0.17293337 -0.019067636 0.2650159 0.24421611 -0.050811335 -0.28470415 0.13875842
-0.048870724 -0.28756797 -0.040493965 -0.030612707 0.16320388 -0.13838956 -0.27413556 -0.059140526
-0.09609508 -0.17021836 -0.096390866 -0.46155944 -1.1380385 0.030598538 -1.0873029 0.7615603
-0.4673232 -0.22429325 -0.009880551 -0.15937479 -0.28985322 0.28085583 -0.06782381 0.05869331
-0.28229237 0.2242977 -0.25662956 -0.12766062 0.101587646 0.26411587 -0.32178938 -0.06544187
0.07579147 0.098168574 0.13808843 -0.3121215 -0.12808083 0.24081416 -0.04360885 0.07303551
-0.13015208 -0.17871054 0.05066306 -0.24998584 -0.32899615 -0.07248672 -0.09214999 0.0062368317
00000000: b2a0 b8be 9ea1 77be 557d e6bb bf30 42be
00000010: 6798 1a3d 7709 17bf ba46 443d 78c2 26bf
00000020: 5f15 05be 7620 863e a580 313f 5abe 4a3f
00000030: 2856 dc3c 2025 2abf 3159 0e3f c69a 7cc0
00000040: c154 db40 5bf8 9bbf f1e1 aabe cb97 163e
00000050: 435a 44be e28d febe 71a7 21be 04bb 693f
00000060: 9401 6bbe 5dff b73f da2d b8be 6eb5 953f
00000070: bc0d 5fbf bcf8 fc3e eb6b 2dbe 7bf0 e0bf
00000080: fbce 68bf 9b72 62be 5d7d cfc0 5eeb f2bf
00000090: 6811 25be 00b0 513d 9e7b 73be 763f 083d
000000a0: 5bd0 2d3e 0ef3 7ebe 9ba7 18be eeee 5bbe
000000b0: f834 113e 0183 4b3f 0b99 e63d 938e 0b3f
000000c0: d90d 27bf 4585 273f 30ce e43f 87ce bb3f
000000d0: 5fdc a940 72f4 c0bf c050 9ebe 2c1d 93be
000000e0: fe84 35bd 6fd6 553e 4fe0 97be 2928 34bf
000000f0: b0ef afbe 9b8d d9bf 3f19 48be 5023 01bf
00000100: 5368 9d3e ab83 44bf 3bf2 8fbe 25b5 37c0
00000110: ef42 c6bf 30d3 61c0 b4f7 283f be8b 77bf
00000120: 4745 06bf bfc7 06be 64cb 13bd afd7 01bf
00000130: 0404 a2be d815 233f a632 fa3d d150 b13f
00000140: 1950 abbd ff48 983d c26a bbbe 8e7f 4b3d
00000150: 1b5d c6bd d6a9 02be db57 0abf 956a 3f3e
00000160: cc21 99be ce7a b8be 2afe 8dbe ebb3 87bd
00000170: 2848 3d3e 400b 00bd c0ce 76bd 0093 093c
00000180: aeac 80be ab22 80bd b6c1 da3d f580 a8be
00000190: 335c d23d 3206 bfbd b802 55be a7f3 00bf
000001a0: d4dc edbe 48e1 debe 771d dcbf 804a 5ebe
000001b0: 740c 98be 618f abbd dd92 aebd f30f 0dbe
000001c0: 4770 9c3d c9cc 00bf 89ee 3abe 1ac2 4abf
000001d0: f682 b0be c0b3 f63d b461 a1be 8c62 963e
000001e0: 72df 8ebe 9b4f 943d e41d 993d 3a6e 33bd
000001f0: 608c 5fbe b624 61be df0a cdbe c302 1d3e
00000200: 6a57 c23d cb5c 4bbe 5cb8 6e3e 2a08 8abe
00000210: f04c aebe ca86 04bf ba99 32be 9401 52be
00000220: 027c ce3d 940d 50be 1635 0a3d 9db6 e73c
00000230: 92c2 0fbe 73fe d1bc 0e4a 7d3e cb6b 953e
00000240: a07b 7cbd 360a adbd 5674 c63b 2656 49be
00000250: 7b2f 403e 4a53 873e 10d0 a9be 40d0 84bd
00000260: ab1f de3b 1881 51be 6ecf 07be a3a3 5dbe
00000270: 5327 143e 00cd 9a3c 4269 8f3e 4848 923e
00000280: 80b6 07be a658 b7bd f30e 5abe 7b90 56be
00000290: 3036 9ebe 8bf3 74be d75f a0be c05c 82be
000002a0: 7b35 e4bd 6833 2bbe e1eb a63e bb1b 87bf
000002b0: a5bb 783e d7f0 4bbf 3f21 4fbf 28df 22c0
000002c0: 20f5 99bd 3c63 2bc0 cfd2 1340 9cf1 99bf
000002d0: d000 a8be 99b7 243f 6670 abbd 76fc 3cbf
000002e0: 1605 5040 9e61 debf c12a 3640 6093 b740
000002f0: a3c4 51bf 02fe 70bb 9b26 52be cbcb 633e
00000300: 56e5 9439 86f5 8f3e bb7b 453e 5c8f a4be
00000310: a898 523e 40ac d5bd 265b 463e 08e0 99be
00000320: 39ac 713e 7215 31be bb33 9cbc 2ab0 873e
00000330: ca13 7a3e 8c1f 50bd bec4 91be b016 0e3e
00000340: ab2c 48bd 1c3c 93be 00dd 25bd 80c7 fabc
00000350: eb1e 273e feb5 0dbe 7f5b 8cbe 563d 72bd
00000360: 7fcd c4bd b94d 2ebe 9368 c5bd 8551 ecbe
00000370: 3fab 91bf c9a9 fa3c be2c 8bbf 9ef5 423f
00000380: fd44 efbe 21ad 65be 09e2 21bc 2533 23be
00000390: a467 94be 56cc 8f3e 36e7 8abd 6568 703d
000003a0: a088 90be 4cae 653e f364 83be 77b9 02be
000003b0: 2f0d d03d 323a 873e 94c1 a4be 6306 86bd
000003c0: 8f38 9b3d 9b0c c93d 0e67 0d3e 64ce 9fbe
000003d0: 9f27 03be fd97 763e 329f 32bd a493 953d
000003e0: 9646 05be e5ff 36be 1284 4f3d 4afc 7fbe
000003f0: 2f72 a8be eb73 94bd 22b9 bcbd 565e cc3b

fc1.bias f4 [300]
0.26222938 -1.8610064 -0.17849746 -0.44042027 -0.27510402 0.3010496 -0.57640433 -0.7395841
0.13602462 0.035051845 -0.15308547 -0.29681504 0.09247557 -0.28054667 -0.048860025 -0.16930343
-0.008501252 -0.3199838 0.12827513 0.45814407 0.04481754 -0.3284409 -0.3232527 -0.070033394
-0.13188063 0.15022694 -0.25115263 0.10664212 -0.3078727 -0.4266281 0.15784499 -0.5449926
-0.15647055 -0.313816 -1.1685275 -0.3252137 -0.018952008 -0.0716296 0.04038334 -0.084841706
-0.10550219 -0.23074405 -0.022877868 -0.18425527 -0.17641637 0.05304874 -0.04096203 -0.2847368
-0.23095755 -0.1760842 0.17213912 -0.57729113 -0.05628546 -0.3125578 -0.5234694 -0.16602816
-0.31774524 0.20820741 -0.012750149 0.061909724 -0.23828396 -0.32056752 -0.2609114 0.23957439
-0.32919827 -0.021557067 -0.32386068 -0.29865086 -0.090417385 -0.17681512 -0.10157201 0.04728222
-0.13776807 -1.2187433 -0.13220398 -0.042364974 0.024307847 -0.21550123 0.050070368 -0.088007465
-0.31744048 -0.04584853 -1.2827628 -0.26203823 -0.2879101 0.153383 -0.13642697 0.8228568
1.2600063 -0.30374408 0.10913285 0.14041571 -0.13647954 -0.2529888 -0.18526709 -0.3554303
-0.24883845 0.16587466 -0.22421429 -0.7186165 0.027232362 0.14981566 -0.017261615 -0.07374661
-0.20413941 -0.10667938 -0.4178543 -0.464039 -0.1384167 0.57288957 -0.06806224 -0.18842612
-0.24327378 -0.7182635 -0.2547646 -0.26020285 -0.31611007 -0.32986608 0.19471543 -0.3228176
-0.0906328 -0.44458404 1.0281538 -0.22712894 -0.17034575 0.15337853 -0.009715706 -0.53981894
0.10748144 -0.017764159 0.08030145 0.32666606 0.28303444 -0.3018695 -0.31231043 -0.29530033
-0.2865231 -0.006260372 -0.41321927 1.4473234 0.86136276 -0.0049369694 -0.96979165 0.1868719
0.52869254 -0.30605626 0.06239103 0.025606088 -0.30701637 0.36406928 -0.24235943 -0.2661844
-0.12601814 0.32394361 -0.17911685 -0.22684479 -0.23450272 -0.13386397 -0.13756213 -0.8325553
0.07339909 -0.08112163 -0.1253021 0.17157936 -0.29566595 -0.3272641 -0.22091515 -0.96414655
-0.24986365 0.22921062 -0.37884602 -0.12722848 0.2129281 -0.24471977 -0.05874161 -0.1469853
0.22522753 -0.039699156 -0.17952621 -0.6496466 0.7661563 0.034251653 -0.3190923 -0.32698396
-0.16471536 0.08476198 -0.3108848 0.07652014 0.11622208 0.2839166 -0.061515592 0.22933674
0.062338877 0.049600236 -0.008088312 -0.0563501 -0.09243758 -0.2751662 0.6341677 0.05471395
-0.018737763 -0.14492892 -0.3096003 -0.2504023 -0.0458064 0.08112013 -0.02775726 -0.16862397
0.1462379 -0.81725967 -0.16260788 -0.22433767 -0.26086447 -0.24576788 -0.18434766 -0.2524217
-0.21319139 -0.3079611 -1.8203996 0.08639515 0.01228869 -0.120100126 -0.3661949 -0.22547789
0.038624775 0.19970807 -1.2851611 -0.24513403 -0.28986514 -0.21870467 -0.25870848 -0.31987908
1.1133075 1.0780905 0.04173726 -0.16393603 0.35787705 0.31091928 -0.18460457 -0.31326595
1.06335 0.107084684 -0.22032507 0.04988522 -0.15300602 -0.3541637 0.007945912 -0.1736069
0.08176386 -0.16056688 -0.2400534 0.08416526 -0.36764926 0.2297512 -0.13126074 -0.16036555
00000000: ee42 863e 7535 eebf 0ac8 36be c47e e1be
00000010: 6fda 8cbe 2c23 9a3e 3c8f 13bf 6255 3dbf
00000020: 0a4a 0b3e 8692 0f3d 70c2 1cbe 24f8 97be
00000030: d563 bd3d d0a3 8fbe 7321 48bd e15d 2dbe
00000040: d648 0bbc ebd4 a3be 8e5a 033e dc91 ea3e
00000050: 9992 373d 6829 a8be 6181 a5be ab6d 8fbd
00000060: b70b 07be 17d5 193e 1497 80be 2f67 da3d
00000070: 7ea1 9dbe 006f dabe 1ea2 213e a384 0bbf
00000080: d139 20be 7eac a0be 4f92 95bf 6982 a6be
00000090: 3e41 9bbc 8ab2 92bd 0069 253d 7dc1 adbd
000000a0: 8811 d8bd 2b48 6cbe 5e6a bbbc 6aad 3cbe
000000b0: 7ea6 34be a349 593d cdc7 27bd 06c9 91be
000000c0: 2380 6cbe 6b4f 34be 3d45 303e 5ac9 13bf
000000d0: 958b 66bd 9307 a0be 1702 06bf 4903 2abe
000000e0: 81af a2be 5334 553e 00e6 50bc 0d95 7d3d
000000f0: b600 74be 6d21 a4be 2e96 85be fd52 753e
00000100: ad8c a8be 7298 b0bc 11d1 a5be c4e8 98be
00000110: c02c b9bd 060f 35be fc04 d0bd 00ab 413d
00000120: 1313 0dbe c8ff 9bbf 7b60 07be e586 2dbd
00000130: 4021 c73c 5bac 5cbe 9616 4d3d 423d b4bd
00000140: 8f87 a2be abcb 3bbd 9231 a4bf e029 86be
00000150: f468 93be 6f10 1d3e 83b3 0bbe bea6 523f
00000160: e347 a13f 5884 9bbe 0b81 df3d 23c9 0f3e
00000170: 4bc1 0bbe bf87 81be a8b6 3dbe f6fa b5be
00000180: 82cf 7ebe 0cdb 293e 6e98 65be 40f7 37bf
00000190: 6716 df3c 4769 193e 3b68 8dbc 7608 97bd
000001a0: ec09 51be b87a dabd 00f1 d5be 8596 edbe
000001b0: 1bbd 0dbe e4a8 123f 3764 8bbd c7f2 40be
000001c0: c31c 79be 1ee0 37bf 8170 82be 4f39 85be
000001d0: 2ed9 a1be 35e4 a8be 7b63 473e 5948 a5be
000001e0: b09d b9bd 85a0 e3be 8b9a 833f 7d94 68be
000001f0: 1e6f 2ebe 430f 1d3e a02e 1fbc 9331 0abf
00000200: 3b1f dc3d 2486 91bc 1675 a43d c640 a73e
00000210: e4e9 903e a48e 9abe 27e7 9fbe 9b31 97be
00000220: 28b3 92be cf23 cdbb 7a91 d3be e541 b93f
00000230: 4582 5c3f 4dc6 a1bb 4444 78bf 595b 3f3e
00000240: 6558 073f 68b3 9cbe bd8d 7f3d dcc3 d13c
00000250: 4031 9dbe 4a67 ba3e 122d 78be 5249 88be
00000260: e60a 01be f0db a53e 686a 37be 004a 68be
00000270: 7b21 70be a313 09be 16dd 0cbe 5822 55bf
00000280: 4352 963d 1923 a6bd 324f 00be 80b2 2f3e
00000290: 8761 97be 298f a7be 9537 62be 4fd2 76bf
000002a0: 42dc 7fbe 30b6 6a3e 1bf8 c1be 2f48 02be
000002b0: d309 5a3e d297 7abe 0b9b 70bd 5183 16be
000002c0: 0ca2 663e 959b 22bd b8d5 37be 3d4f 26bf
000002d0: d222 443f 764b 0c3d 1160 a3be 716a a7be
000002e0: 25ab 28be b097 ad3d 4b2c 9fbe 97b6 9c3d
000002f0: d805 ee3d 845d 913e c6f7 7bbd 40d7 6a3e
00000300: 0d57 7f3d 9e29 4b3d d784 04bc 5dcf 66bd
00000310: ea4f bdbd 96e2 8cbe d058 223f bc1b 603d
00000320: f07f 99bc 3f68 14be ee83 9ebe bb34 80be
00000330: 7e9f 3bbd 5022 a63d 3163 e3bc c3ab 2cbe
00000340: 63bf 153e ee37 51bf ae82 26be c6b8 65be
00000350: 0790 85be 93aa 7bbe a2c5 3cbe 6b3d 81be
00000360: d84e 5abe 14ad 9dbe db02 e9bf f1ef b03d
00000370: 8056 493c 0ef7 f5bd e67d bbbe ade3 66be
00000380: 0335 1e3d 4680 4c3e 2980 a4bf 6a04 7bbe
00000390: 3469 94be 1ef4 5fbe 7075 84be 31c7 a3be
000003a0: dc80 8e3f dffe 893f b0f4 2a3d d9de 27be
000003b0: a93b b73e d030 9f3e fb08 3dbe 6564 a0be
000003c0: da1b 883f 374f db3d e59c 61be 7254 4c3d
000003d0: 9cad 1cbe f254 b5be 922f 023c 02c6 31be
000003e0: d073 a73d a56b 24be 8fd0 75be d65e ac3d
000003f0: 863c bcbe e643 6b3e 3769 06be de36 24be

fc2.weight f4 [2, 300]
0.09388896 7.5225844 1.3353658 -3.3060172 0.04271767 3.0900145 1.4781668 0.94427854
1.1899184 0.0011205276 -0.05074502 0.6994344 -0.0734952 0.026036471 -0.060418494 -0.017153766
0.014362336 0.056275237 -0.05609654 -1.7343836 0.64398986 0.023437662 0.00062852405 -0.02941345
0.28438744 0.025092183 -0.0190315 0.050026786 0.011612908 -0.0061780037 0.01217758 -0.33593953
1.384647 0.053395778 -4.882417 0.008976953 -1.5261126 -3.023368 -0.012823906 0.19846503
0.043777607 -0.0006269316 0.09260669 0.13035175 -0.017157238 0.008337161 1.0641763 0.012012309
0.02467535 0.029400794 -0.010540951 -1.1676978 0.32060763 0.034310855 3.0763297 -0.107201666
0.003335174 -0.032080185 -0.052020937 0.0019126647 0.1841137 0.4308988 0.006470101 0.013333152
0.08340299 0.00910038 0.14853716 -0.017847419 0.02033942 1.6774849 0.022882896 0.057655305
0.06511628 -1.1415075 -0.009259824 0.05839752 0.024367377 -0.035156686 0.037135404 0.037915107
0.023509977 -0.008032254 -4.904208 0.032609303 -0.06068932 0.018423162 1.0555336 1.3818754
8.718546 -0.15762687 0.5004068 0.04479075 -0.054085147 -0.040021725 0.009228765 0.6238496
0.042431653 0.011684338 0.04256316 -7.2692184 0.0801225 0.025900012 0.00589721 -0.014132081
0.0013051276 0.7351673 0.00132947 0.045383204 0.013701033 -7.2517757 -0.001879894 0.047692146
0.024654655 0.935612 1.9212872 0.08268104 -0.05267406 -0.22031292 0.0422296 -0.020885952
-0.017632566 0.35701576 -4.324333 -0.03304876 0.29276842 0.07780983 -0.007916296 0.026255777
-1.2713208 -0.0005534419 0.012503077 0.976591 -0.0057296483 -0.010817182 0.012685767 -0.019915434
-0.009063804 -1.3058293 2.408423 -7.3512807 -9.672389 -0.016116459 -4.1279554 0.087459095
1.4590843 -0.036537338 0.02020087 -0.051314734 0.035538748 -6.301556 1.057441 0.008225805
-0.030839564 -9.069975 -0.008029708 -0.020187335 0.04001916 -0.5187963 -0.045553934 -4.1483455
-0.15765518 0.07308841 0.4742185 0.030457465 -0.009723862 0.06149063 0.08249104 -3.289198
-0.036816146 -2.8143792 0.29680905 -0.045485675 0.37465578 -0.022224078 -0.043332618 -1.4776081
0.066816494 0.023130069 -0.04503601 0.27853125 -5.390288 -0.052377447 -0.03484919 -0.17013939
0.04253224 1.0095993 0.014598566 0.011560191 -0.03130486 -0.03903252 -0.011045729 -0.013867419
-0.04108012 0.0689034 -0.0027277416 -0.7904507 -0.051485986 -0.012416433 -0.7619319 0.2508427
0.07657676 -3.3156 0.04138989 0.03016473 -0.01946643 0.01752611 -3.2388837 0.044341844
0.060388688 5.5599704 -0.018374933 -0.038436674 -0.006546715 0.024743564 0.018981956 -0.016827991
-0.045460373 -0.03936835 7.532352 -0.3812898 0.01073411 0.94981587 -0.06617724 0.2973127
-0.012966211 1.935203 5.866845 0.032831576 -0.05719037 -0.03387296 -3.6081002 0.06408958
6.969815 2.399399 0.06516918 -0.04549273 0.17553361 9.992878 -0.008687046 -0.039108183
6.54285 1.582773 -0.04817667 1.0348508 -1.1427593 0.05566837 0.013634621 -0.5340969
0.08099869 -0.03852084 -1.561234 -0.050773352 -0.055184085 0.017965008 -0.7074333 -0.051395398
00000000: db48 c03d 03b9 f040 44ed aa3f c995 53c0
00000010: b9f8 2e3d ccc2 4540 9234 bd3f 3dbc 713f
00000020: 3f4f 983f abde 923a 03da 4fbd 220e 333f
00000030: a784 96bd 704a d53c 6279 77bd 0e86 8cbc
00000040: 0150 6b3c dd80 663d 7cc5 65bd 4800 debf
00000050: 85dc 243f 5700 c03c 89c3 243a 7af4 f0bc
00000060: 3b9b 913e 1f8e cd3c f3e7 9bbc e3e8 4c3d
00000070: 1144 3e3c da70 cabb 7984 473c 4400 acbe
00000080: 1d3c b13f 88b5 5a3d c33c 9cc0 1214 133c
00000090: a857 c3bf dc7e 41c0 5c1b 52bc 6b3a 4b3e
000000a0: 2650 333d ab58 24ba 94a8 bd3d ee7a 053e
000000b0: 568d 8cbc 9698 083c ee36 883f 47cf 443c
000000c0: f623 ca3c efd9 f03c f4b3 2cbc 1f77 95bf
000000d0: af26 a43e 8a89 0c3d 96e2 4440 8c8c dbbd
000000e0: ef92 5a3b 8366 03bd e813 55bd 61b2 fa3a
000000f0: 4d88 3c3e c49e dc3e 2403 d43b 4b73 5a3c
00000100: 30cf aa3d c319 153c 201a 183e c034 92bc
00000110: db9e a63c d3b7 d63f e974 bb3c f827 6c3d
00000120: af5b 853d eb1c 92bf 84b6 17bc 3d32 6f3d
00000130: 189e c73c 7500 10bd 4b1b 183d df4c 1b3d
00000140: ff97 c03c b799 03bc 46ef 9cc0 5591 053d
00000150: 5d95 78bd 2cec 963c ba1b 873f 4be1 b03f
00000160: 2a7f 0b41 f068 21be a91a 003f 8176 373d
00000170: 6388 5dbd d2ed 23bd 3f34 173c 9bb4 1f3f
00000180: d0cc 2d3d aa6f 3f3c b556 2e3d 709d e8c0
00000190: 4417 a43d 432c d43c 623d c13b 3e8a 67bc
000001a0: d110 ab3a ed33 3c3f 9c41 ae3a bde3 393d
000001b0: 4c7a 603c 8c0e e8c0 c666 f6ba d758 433d
000001c0: 8ff8 c93c 4584 6f3f bdec f53f ad54 a93d
000001d0: c1c0 57bd b699 61be f2f8 2c3d 0419 abbc
000001e0: 2c72 90bc c5ca b63e f060 8ac0 235e 07bd
000001f0: bee5 953e c35a 9f3d 5ab3 01bc 5b16 d73c
00000200: a4ba a2bf db14 11ba b5d9 4c3c de01 7a3f
00000210: c6bf bbbb 8d3a 31bc f7d7 4f3c b125 a3bc
00000220: 5980 14bc 6a25 a7bf 9a23 1a40 b13d ebc0
00000230: 1bc2 1ac1 aa06 84bc 3618 84c0 c11d b33d
00000240: 46c3 ba3f 2da8 15bd 4c7c a53c 662f 52bd
00000250: 1491 113d 59a6 c9c0 3a5a 873f 87c5 063c
00000260: 41a3 fcbc 9e1e 11c1 098f 03bc e95f a5bc
00000270: 21eb 233d d6cf 04bf c396 3abd 3fbf 84c0
00000280: 5c70 21be 60af 953d c4cc f23e ef81 f93c
00000290: d550 1fbc 99dd 7b3d 10f1 a83d 3882 52c0
000002a0: 87cc 16bd ca1e 34c0 5bf7 973e 304f 3abd
000002b0: e2d2 bf3e 450f b6bc 8b7d 31bd 4322 bdbf
000002c0: 16d7 883d 457b bd3c ae77 38bd a69b 8e3e
000002d0: 3d7d acc0 bc89 56bd 06be 0ebd 0539 2ebe
000002e0: 4936 2e3d 8d3a 813f d32e 6f3c f566 3d3c
000002f0: 8639 00bd 90e0 1fbd 25f9 34bc 2c34 63bc
00000300: a143 28bd 3a1d 8d3d e9c3 32bb fa5a 4abf
00000310: f8e2 52bd 4b6e 4bbc f80d 43bf 746e 803e
00000320: 47d4 9c3d ca32 54c0 7288 293d 061c f73c
00000330: 1078 9fbc eb92 8f3c df49 4fc0 cb9f 353d
00000340: 215a 773d 47eb b140 0787 96bc c66f 1dbd
00000350: d385 d6bb 04b3 ca3c 0c80 9b3c dbda 89bc
00000360: a834 3abd b540 21bd 0709 f140 6b38 c3be
00000370: 1fde 2f3c 2227 733f ef87 87bd 5f39 983e
00000380: 3b70 54bc bbb4 f73f 32bd bb40 677a 063d
00000390: 7340 6abd 5fbe 0abd 1deb 66c0 6641 833d
000003a0: b908 df40 c18f 1940 6b77 853d 9656 3abd
000003b0: 15bf 333e d4e2 1f41 1d54 0ebc e72f 20bd
000003c0: 075f d140 4e98 ca3f e654 45bd fe75 843f
000003d0: f045 92bf 8404 643d bf63 5f3c 93ba 08bf
000003e0: a4e2 a53d 07c8 1dbd 84d6 c7bf b8f7 4fbd
000003f0: b508 62bd 5a2b 933c 591a 35bf fb83 52bd

fc2.bias f4 [2]
-0.06806691 -0.1954038
00000000: aa66 8bbd ef17 48be

fc1.weight f4 [300, 9]
0.27447802 0.05446482 0.25686952 -0.9095528 -1.5251466 -3.3138497 -0.79999655 -0.55079293
0.29956937 0.003981036 -0.42767334 -0.1326365 -0.27631596 -0.15546001 0.30818382 -0.52994096
-0.13530895 -0.09165904 0.10697012 -0.31641158 0.49945736 -0.028510027 -1.8621635 -0.7913883
-5.182741 1.3343613 -0.64452004 0.14757483 -0.29469264 -0.17696612 -0.09498187 0.08491131
0.23647003 -0.08557391 0.2675658 -0.10583179 0.34870398 0.9352516 0.36304334 -0.30498794
-0.66476154 0.77278966 -1.9990009 4.4976635 -0.5072201 -0.42219803 -0.3086112 -0.40111357
-0.043122716 -0.045124207 -0.28992748 0.44265735 -0.1761413 -0.15227172 0.06684089 0.46123663
-0.0017074386 -0.3060289 0.35088772 0.7080188 -1.432333 6.295493 0.28300732 -0.25362706
-0.12145007 0.186349 -0.25944412 -0.09182068 -0.05344216 0.11841544 0.23259124 -0.047792476
-0.23958029 -0.18695231 -0.08236085 -0.35574177 -0.09591684 -0.20037442 0.07747442 -0.17432964
0.29726258 -0.67368203 0.24771169 -0.6514791 -1.0416723 1.0409399 0.2857865 1.6556957
4.0158734 -0.20562574 0.5551818 -0.4762764 -0.44507444 0.6105606 -2.9167821 2.9982696
0.277381 -0.17159747 -0.731575 0.46521047 0.25940037 -0.20110068 -0.5446244 -0.5381724
-2.5163212 2.0163562 5.588479 0.059581272 -0.34297964 0.21529922 -0.22817734 -0.01689543
-0.24274066 0.1290752 -0.19626713 0.06670499 -0.2125073 -0.8378505 0.010807007 -0.41479146
0.034878053 1.040219 0.5393181 0.71296644 1.4772104 -0.5423933 -0.6090918 0.02822277
0.19301648 -0.1269204 -0.20630296 -0.6221808 -2.7987764 -1.0201905 -0.21544671 -0.3285099
-0.6719665 -0.2972254 -0.5644889 -1.1128858 0.7811558 -1.0484391 -0.35498658 -0.35544795
0.15626954 -0.11729469 -0.057089437 -0.3784786 -0.4302911 -0.25067133 0.29584792 -0.68133426
-0.14694099 -0.37521166 0.06392375 -0.20245375 0.025287129 -0.22349186 -0.36734584 -1.3082577
0.52634865 -0.10094185 -0.11620643 0.23340696 -0.72463477 -0.17882808 -1.3719676 2.0306487
2.430519 3.7136521 -0.60458416 -0.25778812 -0.6767898 0.02101425 -0.9421862 -0.33654976
-0.17315188 -1.0807772 0.69699365 -0.010653576 -0.3492938 0.1237229 0.35584727 0.2706034
4.371638 3.4270353 3.6607459 5.2699428 -0.043779254 0.0075189252 0.09967353 0.049600646
0.21990827 -1.9948251 -0.9850815 -2.9032474 -2.9511678 0.11504741 0.101636216 -0.3295009
-0.028790593 -0.067126274 0.10125685 -0.23552017 -0.325727 0.24671905 -0.0014080604 -1.0514537
0.10644491 -0.76792973 0.2853766 -0.9127548 1.6695788 -0.7964406 -2.7372093 -0.359363
-0.021963121 0.12377682 -0.20446374 -0.6613323 0.63871014 -0.8403091 0.36573026 0.34610736
0.029536031 0.111506425 -0.24820988 -0.4717384 0.1225304 0.22297762 0.017711291 0.47669068
-0.3214961 -0.26950777 -0.37685263 0.18205975 -0.30155587 -0.8167074 -0.91930807 -1.8645533
-2.2115784 -0.35644847 0.022345543 -0.29362345 -0.27107152 -0.18109107 -0.095543824 -0.10117471
-0.24184501 0.06401384 -0.08112403 0.06661793 0.15899369 0.30558932 -0.14459944 0.062188778
00000000: 6288 8c3e 8116 5f3d 6784 833e 74d8 68bf
00000010: 0138 c3bf 1d16 54c0 93cc 4cbf c400 0dbf
00000020: 2861 993e 5a73 823b 00f8 dabe ddd1 07be
00000030: 4979 8dbe e930 1fbe 45ca 9d3e 36aa 07bf
00000040: 6e8e 0abe bcb7 bbbd 2613 db3d b300 a2be
00000050: e0b8 ff3e dc8d e9bc 605b eebf 6c98 4abf
00000060: 04d9 a5c0 5acc aa3f 44ff 24bf db1d 173e
00000070: f4e1 96be 9b36 35be db85 c2bd fbe5 ad3d
00000080: 3325 723e 6041 afbd 62fe 883e 56be d8bd
00000090: 5489 b23e a66c 6f3f d1e0 b93e 6127 9cbe
000000a0: d02d 2abf 8bd5 453f 43df ffbf dcec 8f40
000000b0: 2dd9 01bf 572a d8be 4a02 9ebe c25e cdbe
000000c0: 72a1 30bd 29d4 38bd 6071 94be fca3 e23e
000000d0: 635e 34be 1eed 1bbe e0e3 883d 3527 ec3e
000000e0: 22cc dfba d2af 9cbe 8ea7 b33e b840 353f
000000f0: b056 b7bf ae74 c940 56e6 903e 68db 81be
00000100: d0ba f8bd 46d2 3e3e dcd5 84be 7b0c bcbd
00000110: 2be6 5abd cb83 f23d 662c 6e3e 0bc2 43bd
00000120: 8954 75be 6d70 3fbe ceac a8bd c923 b6be
00000130: 0c70 c4bd f42e 4dbe e9aa 9e3d 7883 32be
00000140: cd32 983e 6d76 2cbf 22a8 7d3e 56c7 26bf
00000150: 8555 85bf 853d 853f 9c52 923e d6ed d33f
00000160: 0982 8040 8e8f 52be 6520 0e3f 80da f3be
00000170: cce0 e3be b34d 1c3f 8fac 3ac0 a6e3 3f40
00000180: e204 8e3e 3fb7 2fbe 8048 3bbf 1130 ee3e
00000190: 20d0 843e 56ed 4dbe 816c 0bbf abc5 09bf
000001a0: 680b 21c0 fb0b 0140 d2d4 b240 7e0b 743d
000001b0: 079b afbe 6677 5c3e 52a7 69be 4968 8abc
000001c0: 0291 78be 4a2c 043e 40fa 48be a09c 883d
000001d0: 839b 59be 5f7d 56bf df0f 313c 8c5f d4be
000001e0: 4adc 0e3d e525 853f c010 0a3f f884 363f
000001f0: 3b15 bd3f 4ada 0abf 71ed 1bbf 7033 e73c
00000200: 1da6 453e 6cf7 01be 1541 53be 3e47 1fbf
00000210: 271f 33c0 9a95 82bf 109e 5cbe 7332 a8be
00000220: ff05 2cbf ed2d 98be 5882 10bf 0b73 8ebf
00000230: d4f9 473f 4133 86bf cdc0 b5be 46fd b5be
00000240: 1f05 203e 3338 f0bd 9dd6 69bd f2c7 c1be
00000250: 1d4f dcbe fe57 80be 6179 973e ec6b 2ebf
00000260: b377 16be be1b c0be 74ea 823d 0950 4fbe
00000270: f426 cf3c 0ddb 64be c114 bcbe fd74 a7bf
00000280: c9be 063f 9aba cebd a3fd edbd 3c02 6f3e
00000290: aa81 39bf b51e 37be a29c afbf 26f6 0140
000002a0: a08d 1b40 7aac 6d40 07c6 1abf cefc 83be
000002b0: 1942 2dbf 1426 ac3c 1d33 71bf 4050 acbe
000002c0: ba4e 31be e856 8abf 2d6e 323f 568c 2ebc
000002d0: a3d6 b2be 6f62 fd3d 9d31 b63e 878c 8a3e
000002e0: 75e4 8b40 8c54 5b40 a949 6a40 5fa3 a840
000002f0: e051 33bd 5161 f63b a321 cc3d 0c2a 4b3d
00000300: a22f 613e 6e56 ffbf 4d2e 7cbf cece 39c0
00000310: efdf 3cc0 fa9d eb3d a626 d03d 58b4 a8be
00000320: 40da ebbc 8079 89bd c05f cf3d 332c 71be
00000330: b0c5 a6be eba3 7c3e ab8e b8ba 0996 86bf
00000340: caff d93d 0b97 44bf e21c 923e 4caa 69bf
00000350: c2b4 d53f 88e3 4bbf 702e 2fc0 6dfe b7be
00000360: 01ec b3bc b47e fd3d f15e 51be 134d 29bf
00000370: 8282 233f 7f1e 57bf ff40 bb3e fc34 b13e
00000380: 8cf5 f13c 7b5d e43d bb2a 7ebe b287 f1be
00000390: 38f1 fa3d 3f54 643e 4517 913c cd10 f43e
000003a0: 239b a4be ecfc 89be d4f2 c0be df6d 3a3e
000003b0: 8865 9abe bc13 51bf c657 6bbf afa9 eebf
000003c0: 808a 0dc0 6a80 b6be 000e b73c d055 96be
000003d0: e3c9 8abe f06f 39be 7bac c3bd b034 cfbd
000003e0: 38a6 77be b019 833d 5b24 a6bd fb6e 883d
000003f0: 3ecf 223e 3476 9c3e e011 14be a9b9 7e3d

fc1.bias f4 [300]
-0.2030803 0.13556242 -0.38354632 -0.0025208793 -0.64497524 0.12235989 -0.19331916 -0.15228853
-0.13941838 -0.29965606 -0.31736916 0.017362926 -0.16664559 0.025928942 -0.4110067 -0.117252715
-0.00328581 -0.1874599 -0.015154893 -0.5865817 0.13840862 -0.08325387 0.07996695 0.14500464
-0.32077605 0.06581094 -0.33817652 -0.21032572 0.2587724 -0.36600128 -0.29188085 -0.25605023
-0.07041857 -0.1880029 0.058322154 -0.097468704 -0.20153637 0.02695913 -0.4071791 0.050062492
0.06398568 -0.23275647 -0.47032523 -0.01854433 -0.17498253 -0.726898 0.16320303 0.06152618
-0.0008505177 -0.40052623 -0.3681387 -0.26135668 -0.03501405 0.15457699 -0.6213123 0.13198166
-0.50144154 -0.11532584 -0.3427431 -0.26676196 0.19057545 -0.3974748 0.062568784 0.008421321
-0.37981024 -0.47662085 -0.24323402 -0.54167736 0.36584023 -0.30384853 -0.093116194 -0.17302713
-0.09288888 -0.5287613 0.062121283 0.32611862 -0.24606429 -0.17371902 -0.101909995 -0.26805192
-0.4439659 -0.69268066 0.15884957 -0.13679673 -0.732713 0.3634159 -0.15433797 -0.2813858
0.13173911 -0.38853008 -0.338356 -0.1990764 0.21443689 -0.0599968 -0.2783999 -0.24555245
-0.13914022 -0.4547955 -0.040165637 -0.15807913 -0.0069922213 0.22785276 -0.17514162 -0.3648032
-0.36172977 -0.14104243 -0.06176045 -0.3598151 0.10165181 0.10990514 -0.3225934 -0.52845037
0.14611815 0.17967473 0.09177186 -0.5122291 -0.37707895 0.36857912 -0.25143686 -0.32207084
-0.35208344 -0.29379237 0.040984266 -0.9003506 0.2781766 -0.3238296 0.40696046 -0.07336197
-0.28964677 -0.18299182 -0.012076644 -0.25634918 -0.13730358 -0.07912854 -0.8071251 -0.027686248
-0.5712894 0.07209594 -0.468361 -0.34057432 -0.6233884 -0.24731845 -0.12843439 0.08481345
-0.4098992 -0.22257537 0.11587031 -0.53124946 -0.40411568 -0.19771895 -0.16213241 -0.6035465
-0.16178143 0.12790857 0.0004815757 -0.8804633 0.42935252 0.07232831 -0.123854876 -0.24295689
-0.34081638 -0.24108727 -0.06349209 0.35359675 0.14109276 -0.94745046 -0.2876205 0.34893903
-0.4079065 -0.13288552 -0.21198046 -0.056023676 -0.18857203 0.24208985 -0.3293697 -0.06710531
0.13068625 -0.17707583 0.053732775 0.0011247396 0.29689798 -0.54362565 -0.07648896 0.16875513
-0.24681218 -0.7288375 -0.28486586 -0.15391207 0.09365134 0.4268889 -0.10017856 -0.008978943
-0.32879606 -0.38749886 0.06629455 -0.36644685 -0.030928662 0.07684756 0.09059663 -0.15770674
-0.04275819 -0.11289058 0.37764436 -0.09921434 -0.004678978 0.17287847 -0.069647305 -0.034053385
-0.06656046 -0.3909876 -0.35126463 0.2258109 -0.5926402 0.014235131 -0.32019314 0.058587942
-0.13180368 -0.5464275 -0.38850492 -0.08820979 -0.252199 -0.1500279 -0.38413718 0.059351508
-0.14959928 -0.051453803 -0.06019684 -0.19389756 -0.34903613 -0.29153836 0.18305662 -0.023268452
-0.3739958 0.3724115 0.0020575684 0.009589258 -0.5250375 -0.047643226 0.23464836 0.44991264
-0.6106095 -0.20153934 -0.55381477 -0.07240208 -0.21183194 -0.3477361 -0.6291541 0.41247776
-0.59939075 -0.049985036 -0.32652283 -0.35344678 -0.2840377 -0.41627303 -0.2631116 -0.6055687
00000000: 48f4 4fbe e0d0 0a3e 2f60 c4be 5635 25bb
00000010: 191d 25bf d297 fa3d 75f5 45be 86f1 1bbe
00000020: b1c3 0ebe 856c 99be 367e a2be b23c 8e3c
00000030: 24a5 2abe ef68 d43c 786f d2be 3122 f0bd
00000040: be56 57bb 7df5 3fbe 3a4c 78bc 382a 16bf
00000050: fdba 0d3e 0181 aabd b6c5 a33d 197c 143e
00000060: c23c a4be e3c7 863d 7925 adbe a05f 57be
00000070: d17d 843e 8564 bbbe 6871 95be 0419 83be
00000080: 9c37 90bd d583 40be 36e3 6e3d ac9d c7bd
00000090: 8d5f 4ebe 65d9 dc3c c779 d0be 540e 4d3d
000000a0: ed0a 833d b657 6ebe 78ce f0be 47ea 97bc
000000b0: 9f2e 33be fd15 3abf b21e 273e e002 7c3d
000000c0: 47f5 5eba c611 cdbe ad7c bcbe 8bd0 85be
000000d0: e46a 0fbd 6e49 1e3e 530e 1fbf 3326 073e
000000e0: 795e 00bf f42f ecbd 067c afbe 0695 88be
000000f0: 3626 433e d181 cbbe 1024 803d 95f9 093c
00000100: 7d76 c2be a607 f4be 5712 79be 5eab 0abf
00000110: 694f bb3e 0992 9bbe b4b3 bebd 062e 31be
00000120: 863c bebd e75c 07bf e372 7e3d 05f9 a63e
00000130: 47f8 7bbe 66e3 31be 30b6 d0bd 1a3e 89be
00000140: 804f e3be 8553 31bf 76a9 223e 7114 0cbe
00000150: 1493 3bbf a611 ba3e c60a 1ebe cd11 90be
00000160: 9ee6 063e 6aed c6be ff3c adbe afda 4bbe
00000170: 5895 5b3e 34bf 75bd 6f8a 8ebe 1a72 7bbe
00000180: c67a 0ebe f5da e8be b984 24bd 7fdf 21be
00000190: 011f e5bb 3c52 693e 5358 33be 7cc7 babe
000001a0: a534 b9be 6d6d 10be 87f8 7cbd af39 b8be
000001b0: d32e d03d f215 e13d f62a a5be 8648 07bf
000001c0: ff9f 153e a7fc 373e e3f2 bb3d 7221 03bf
000001d0: 7e10 c1be 67b6 bc3e 55bc 80be 78e6 a4be
000001e0: 4844 b4be f46b 96be 1edf 273d 607d 66bf
000001f0: 2a6d 8e3e fecc a5be 1f5d d03e cd3e 96bd
00000200: 954c 94be 3562 3bbe 1edd 45bc 3340 83be
00000210: 4f99 0cbe 250e a2bd c09f 4ebf 45ce e2bc
00000220: 0640 12bf 09a7 933d 03cd efbe c25f aebe
00000230: 6296 1fbf 0c41 7dbe 4e84 03be adb2 ad3d
00000240: 4fde d1be ccea 63be 6a4d ed3d f7ff 07bf
00000250: 40e8 cebe d676 4abe 0a06 26be 0682 1abf
00000260: 08aa 25be 77fa 023e ff7b fc39 0b66 61bf
00000270: 18d4 db3e dd20 943d a0a7 fdbd b1c9 78be
00000280: 7c7f aebe 95df 76be 2408 82bd a20a b53e
00000290: 9f7a 103e 1d8c 72bf ff42 93be 23a8 b23e
000002a0: 1fd9 d0be 2413 08be 6811 59be 1579 65bd
000002b0: 0719 41be 67e6 773e 25a3 a8be 826e 89bd
000002c0: 9ed2 053e 5e53 35be e616 5c3d 006c 933a
000002d0: 0303 983e 0d2b 0bbf 3ea6 9cbd 25ce 2c3e
000002e0: 55bc 7cbe 1895 3abf f0d9 91be 209b 1dbe
000002f0: 46cc bf3d 2f91 da3e 6b2a cdbd 6b1c 13bc
00000300: f557 a8be 4066 c6be 70c5 873d ec9e bbbe
00000310: 1b5e fdbc 4162 9d3d ba8a b93d e07d 21be
00000320: 3623 2fbd 2d33 e7bd 9a5a c13e e330 cbbd
00000330: 1d52 99bb 0e07 313e 3fa3 8ebd 907b 0bbd
00000340: da50 88bd 872f c8be f5d8 b3be f93a 673e
00000350: 45b7 17bf 783a 693c 5bf0 a3be e9f9 6f3d
00000360: 8bf7 06be ace2 0bbf 1eea c6be 56a7 b4bd
00000370: 3a20 81be eaa0 19be a1ad c4be 911a 733d
00000380: 8e30 19be 39c1 52bd f690 76bd 158d 46be
00000390: ddb4 b2be 8444 95be 3273 3b3e 7b9d bebc
000003a0: 617c bfbe b8ac be3e 45d8 063b 431c 1d3c
000003b0: dc68 06bf 8b25 43bd a947 703e f35a e63e
000003c0: e750 1cbf 5460 4ebe cec6 0dbf 8b47 94bd
000003d0: 79ea 58be 770a b2be 3e10 21bf 4930 d33e
000003e0: ac71 19bf 1cbd 4cbd 002e a7be faf6 b4be
000003f0: 646d 91be bd21 d5be 90b6 86be 8d06 1bbf
