model_save/params_20240806_194424.pth (torch, 68211 bytes, 18 tensors)

fc1.weight f4 [300, 9]
0	0xbe0e0c57	-0.13871895
1	0x3e20221b	0.1563801
2	0xbe9655fe	-0.29362482
3	0x3e1ddd76	0.15416512
4	0xbe4b3fdd	-0.1984858
5	0x3dfd7504	0.123758346
6	0xbb98f41f	-0.0046677734
7	0xbe6144f0	-0.21998954
8	0xbe0b4f45	-0.13604458
9	0xbe346afa	-0.17618933
10	0xbe8f896d	-0.28034535
11	0xbe8a3e35	-0.27000585
12	0x3c430926	0.011904037
13	0x3de85bc0	0.11345625
14	0xbdc11e15	-0.09429566
15	0xbe8a44f9	-0.27005747
16	0xbfc3386a	-1.5251591
17	0xbe14625a	-0.14490643
18	0xbda874d3	-0.082254075
19	0x3ccdcf51	0.02512327
20	0xbd420a3f	-0.047373053
21	0xbc0bf353	-0.0085419
22	0x3e39a93f	0.18130969
23	0x3dd23c88	0.10265452
24	0x3e8c13e9	0.2735894
25	0xbef056e2	-0.46941286
26	0x3d3dd024	0.046341076
27	0xbe49acbb	-0.19694798
28	0xbc5afc3a	-0.0133658
29	0xbe315465	-0.1731735
30	0x3e78c67b	0.24294464
31	0xbd9fbc8f	-0.077996366
32	0x3e822d96	0.25425404
33	0xbc85f062	-0.016349975
34	0xbe932ec1	-0.28746608
35	0xbe5eef00	-0.21770859
36	0xbe09ed7a	-0.13469496
37	0x3ce11ee6	0.027480554
38	0xbe15be22	-0.14623311
39	0xbe885580	-0.2662773
40	0x3e8abb42	0.2709599
41	0xbf0005fa	-0.5000912
42	0x3f3a6094	0.72803617
43	0xbeafb94a	-0.34321052
44	0xbe8d86c7	-0.2764189
45	0x3d858d73	0.0652112
46	0xbe00d858	-0.12582529
47	0xbfa0ffb9	-1.257804
48	0x3d317793	0.043326925
49	0xc002ee20	-2.045784
50	0xbf61ae4d	-0.88156587
51	0x40118ae6	2.2741027
52	0xc05eb9a4	-3.4800806
53	0xbf5a7706	-0.85337865
54	0xba9df95a	-0.0012052462
55	0xbe8fd39c	-0.28091133
56	0x3db47966	0.088122174
57	0xbea2eb47	-0.31820127
58	0x4003e8c9	2.061083
59	0x3f5dfa9a	0.8671051
60	0x3eb0c6c0	0.34526634
61	0x40895cba	4.292569
62	0xbf961bac	-1.1727195
63	0xbe8020fc	-0.25025165
64	0x3e1810c0	0.1485014
65	0x3ef8cb95	0.4859282
66	0xbcdeeb07	-0.02721168
67	0x3ebceae2	0.3689795
68	0x3f70e3bf	0.9409751
69	0xbfbc1d62	-1.4696467
70	0x3fd3f134	1.6557984
71	0xbf2f81aa	-0.68557227
72	0xbe4de5ce	-0.20107195
73	0xbe720ab8	-0.23636901
74	0xbe386dc8	-0.18010628
75	0xbe18ed7e	-0.14934346
76	0xbe97c886	-0.29645175
77	0xbe997f53	-0.29979953
78	0x3e302e62	0.17205194
79	0xbd004d60	-0.03132379
80	0x3e493eb2	0.19652823
81	0xbd52d1c6	-0.051469587
82	0xbe4e6665	-0.20156248
83	0xbd418c65	-0.04725303
84	0xbeac7733	-0.33684692
85	0xbf37b181	-0.71755224
86	0x3fb9b4ea	1.4508336
87	0xbfe1574a	-1.7604764
88	0x3f09c3c0	0.53814316
89	0xbf5c9ee5	-0.86179954
90	0xbec1b200	-0.37831116
91	0x3e284bd9	0.16435184
92	0x3f609c6a	0.8773867
93	0xbe9a3254	-0.30116522
94	0x3fa1d9a7	1.2644547
95	0x3f5936c5	0.84849197
96	0xc09ca083	-4.8945937
97	0x403d0655	2.9535115
98	0xbf7cd7fd	-0.9876707
99	0xbce2b826	-0.0276757
100	0xbe88e4a5	-0.26736942
101	0x3d66ce63	0.05634917
102	0xbeadc36f	-0.33938166
103	0x3eada07d	0.33911505
104	0x3f3da6b2	0.7408248
105	0x3e88e7b1	0.26739267
106	0x3f42b33e	0.7605475
107	0xbf00a3b1	-0.50249773
108	0xbe1f2cc6	-0.15544423
109	0x3e8d2ca3	0.27573118
110	0xbe03d91e	-0.12875792
111	0xbe82b3d4	-0.25527823
112	0xbdba4c80	-0.090966225
113	0xbe87cee0	-0.2652502
114	0xbdd2af00	-0.10287285
115	0x3d0cc020	0.034362912
116	0x3ddc42a0	0.10754895
117	0xbe907c3e	-0.2821979
118	0x3e89319c	0.2679566
119	0x3e913f2d	0.28368512
120	0xbe99bdfa	-0.30027753
121	0x3e0c1024	0.13678032
122	0xbe469bbb	-0.19395344
123	0xbe22c8e6	-0.15896949
124	0x3cdcce3f	0.026953815
125	0x3e882ff4	0.26599085
126	0xbe65b882	-0.22433665
127	0xbe947d8e	-0.2900204
128	0xbd5b9e88	-0.053617984
129	0x3db3b39c	0.08774492
130	0x3e6097fa	0.21932974
131	0xba86a7cc	-0.0010273396
132	0x3e404cfc	0.18779367
133	0x3e274320	0.163342
134	0xbd9296d1	-0.07157672
135	0xbefae167	-0.49000093
136	0x3f1ad792	0.60485184
137	0xbd115f2d	-0.035491157
138	0x3ec068f7	0.37580082
139	0x409cc019	4.8984494
140	0xc01fca50	-2.4967232
141	0x400dce0e	2.2157016
142	0x402425b3	2.564801
143	0xbfc9eec8	-1.5775995
144	0xbda5af4d	-0.080900766
145	0x3df420aa	0.11920293
146	0x3ee44196	0.44581288
147	0xbe1b72b6	-0.15180477
148	0x4001008d	2.0156586
149	0xbf73a196	-0.95168436
150	0xbf89166a	-1.0709965
151	0xc031aeeb	-2.7763011
152	0xbe90203b	-0.2814959
153	0xbd905587	-0.07047563
154	0x3dcc16f0	0.099653125
155	0xbe6a5a00	-0.22885895
156	0x3db3ca76	0.08778851
157	0xbe0e1e98	-0.13878858
158	0x3e5863f0	0.21131873
159	0xbe58d290	-0.21174073
160	0xbcbdce6b	-0.023169717
161	0xbe844490	-0.2583356
162	0xbe6c08e6	-0.2305027
163	0xbdb4f75f	-0.08836245
164	0xbeda0238	-0.42579818
165	0xbdbb4407	-0.091438346
166	0xbf80f8a7	-1.0075883
167	0x3edc7ee9	0.43065575
168	0xbf9738a6	-1.1814163
169	0x3f805102	1.0024722
170	0xbec55c4e	-0.38546985
171	0xbd8c4906	-0.068498656
172	0xbe83b328	-0.25722623
173	0x3decafee	0.115569934
174	0x3bcd17ae	0.0062589264
175	0x3f956efa	1.1674492
176	0x3fd91098	1.6958189
177	0xbf9ada7c	-1.2097926
178	0x401535e9	2.3314154
179	0xbf12eaf1	-0.5738974
180	0xbdd65926	-0.104662225
181	0xbe933e9a	-0.287587
182	0xbe9ead57	-0.30991623
183	0xbd4a7808	-0.049430877
184	0x3e114762	0.14187387
185	0x3d1f9240	0.038957834
186	0x3d6c7768	0.057731062
187	0x3d92cfcc	0.0716854
188	0x3d0349a8	0.032052666
189	0xbd623491	-0.055225912
190	0xbe2ccd44	-0.16875178
191	0xbd39cb23	-0.045359742
192	0xbe744dd4	-0.23857814
193	0xbe95182c	-0.29120004
194	0x3e3c3004	0.18377692
195	0x3e822fb9	0.25427034
196	0xbe86668d	-0.26250115
197	0xbe97f72a	-0.2968076
198	0x3e3c607a	0.18396178
199	0xbe1e1e0e	-0.15441152
200	0xbea7edc2	-0.32798582
201	0xbe91751c	-0.2840966
202	0x3e2ddec6	0.16979513
203	0x3dfbd914	0.12297264
204	0xbe8c520f	-0.27406356
205	0x3e14c7aa	0.14529291
206	0xbe0c3930	-0.1369369
207	0xbd7a47ef	-0.061103757
208	0xbe56c644	-0.2097407
209	0xbe70e556	-0.23524985
210	0x3d5719d1	0.052514855
211	0x3e35f564	0.1776939
212	0x3dd165f3	0.102245234
213	0xbe2dd19e	-0.16974494
214	0xbe625704	-0.22103506
215	0xbe1b1566	-0.15144882
216	0xbf17421f	-0.5908527
217	0xbf804071	-1.0019666
218	0xbe76427f	-0.24048804
219	0xbf3b2be6	-0.7311386
220	0x3fb166b5	1.3859469
221	0x3fadf537	1.3590459
222	0x3ea9a6d6	0.33135098
223	0x3fd777c6	1.6833427
224	0xbf3b262e	-0.7310513
225	0xbdd024cc	-0.101632684
226	0x3e445faa	0.19177118
227	0x3dab1ab4	0.083547026
228	0xbe68b00b	-0.22723405
229	0xbc688b80	-0.014193416
230	0x3d4aecd8	0.049542278
231	0x3ddf3a94	0.10899845
232	0xbe145168	-0.14484179
233	0xbda19924	-0.078905374
234	0x3eec1065	0.46106258
235	0xbf131c69	-0.57465225
236	0x3f257a33	0.64639586
237	0xbea69f2f	-0.32543322
238	0x3f2ddadd	0.67912084
239	0x3f55b3bd	0.83477384
240	0x3ed15e4d	0.40892258
241	0xc0547243	-3.319474
242	0x3e25800f	0.16162132
243	0x3c465535	0.012105276
244	0xbe7afe57	-0.24511085
245	0x3e2fc53c	0.17165083
246	0xbe72ac3a	-0.23698512
247	0x3e2cf406	0.16889963
248	0x3d818f3d	0.06326149
249	0xbe7085e1	-0.23488571
250	0xbe5c1ff6	-0.21496567
251	0xbea48026	-0.3212902
252	0xbeb4f8db	-0.35346112
253	0xbef80690	-0.48442507
254	0xbe4e2816	-0.20132479
255	0xbcfcc559	-0.030855821

fc1.bias f4 [300]
0	0xbe79bae9	-0.24387707
1	0xbe6c2532	-0.23061064
2	0xbec6da93	-0.38838634
3	0xbe1339f4	-0.14377576
4	0x3ea07d66	0.3134567
5	0xbf5e2db9	-0.8678852
6	0x3f68c813	0.9093029
7	0x3dcb4f37	0.099272184
8	0x3e66ff52	0.22558334
9	0xbeb52954	-0.35383093
10	0xbf2dd135	-0.6789735
11	0xbf12f7d9	-0.57409436
12	0xbdf56170	-0.11981475
13	0xbeb1f3dd	-0.34756365
14	0x3dae3f4f	0.08508169
15	0x3b4351e1	0.0029803442
16	0xbe8678a6	-0.26263922
17	0xbe25646a	-0.16151586
18	0xbddaeb82	-0.10689451
19	0x3c92f549	0.017939227
20	0x3e71a4c2	0.23598006
21	0x3e54621c	0.20740551
22	0xbe097bb3	-0.13426094
23	0x3e0bfdf7	0.13671099
24	0xbe96879b	-0.29400334
25	0xbe87e694	-0.26543105
26	0xbc9c9085	-0.019111881
27	0x3dbf6bec	0.09346756
28	0x3c95412c	0.018219553
29	0x3ce0ebd0	0.027456194
30	0xbf033353	-0.5125019
31	0xbe8a8ed3	-0.2706209
32	0xbe15ee56	-0.14641699
33	0x3e31013f	0.17285632
34	0xbe49e9ab	-0.19718044
35	0xbd1c09bd	-0.038095225
36	0xbe5479c3	-0.20749573
37	0xbe9d7168	-0.30750585
38	0x3d5bd123	0.053666245
39	0x3d9b4664	0.07581785
40	0xbe94cae8	-0.29061055
41	0xbe5337b9	-0.20626725
42	0xbe6c392b	-0.23068683
43	0x3beef9ba	0.0072929533
44	0xbe144993	-0.14481191
45	0xbe9a21b9	-0.30103853
46	0x3d9209c8	0.07130772
47	0xbe674836	-0.2258614
48	0xbdc7b18c	-0.09750661
49	0xbebbdeee	-0.3669352
50	0x3ea834a4	0.32852662
51	0x3dc49a55	0.09599749
52	0xbea72214	-0.32643187
53	0x3f4a08be	0.7891959
54	0x3f9a575c	1.205791
55	0x3dccf0a7	0.10006838
56	0xbe5760a8	-0.21032965
57	0xbe6c38fb	-0.23068611
58	0xbe081298	-0.13288343
59	0x3e166856	0.14688239
60	0x3d8458c5	0.06462244
61	0x3da02c04	0.07820895
62	0xbd8ee457	-0.06977146
63	0xbe86c2a4	-0.26320374
64	0x3d8f47e8	0.06996137
65	0xbd0b8608	-0.03406337
66	0xbe7b5883	-0.24545483
67	0xbe888aad	-0.266683
68	0x3e48f121	0.19623233
69	0xbed1281e	-0.4085092
70	0xbefd572a	-0.49480563
71	0xbd3f043f	-0.04663491
72	0xbea985f3	-0.33110008
73	0xbe8a0faf	-0.2696509
74	0xbe02f17f	-0.12787436
75	0x3d485b55	0.048915226
76	0x3de26cd2	0.11055912
77	0x3e3fef80	0.18743706
78	0x3f67fa03	0.9061586
79	0xbdb8a54b	-0.09015902
80	0xbeba3f0b	-0.36376223
81	0xbea50372	-0.3222919
82	0xbd9c8dd7	-0.07644241
83	0xbd77ebd8	-0.060527653
84	0x3d959f62	0.073057905
85	0x3d7f5dcb	0.062345307
86	0x3e4a5f9a	0.19763032
87	0xbd513a03	-0.051080715
88	0xbdba7ffa	-0.09106441
89	0x3e1861c8	0.1488105
90	0x3dedffe9	0.116210766
91	0x3d649502	0.055806167
92	0xbe6fd8be	-0.23422524
93	0x3e433b9e	0.19065711
94	0xbe7d0ad7	-0.24711166
95	0x3eb7044c	0.35745466
96	0xbee54513	-0.44779262
97	0xbe8e7ca4	-0.27829468
98	0xbe89bd0e	-0.2690205
99	0xbd157e5c	-0.03649746
100	0x3c872b68	0.01650019
101	0xbcbbae40	-0.022910237
102	0xbf34b906	-0.70594823
103	0xbc3f7ad4	-0.011686999
104	0x3d0cee42	0.034406908
105	0x3eecfbfd	0.46286002
106	0x3cac4b5a	0.021032024
107	0x3dfef71c	0.12449476
108	0xbef1bbda	-0.47213632
109	0xbf150e07	-0.5822453
110	0xbd9e39f5	-0.07725898
111	0x3d94705c	0.07247993
112	0x3eacf32c	0.33779275
113	0xbeb9552e	-0.361978
114	0xbde30aeb	-0.11086067
115	0x3d969fcc	0.073546976
116	0xbe186e98	-0.14885938
117	0xbb94e2c0	-0.0045436323
118	0x3e18bf37	0.14916693
119	0xbe978bcc	-0.29598844
120	0x3e700972	0.23441103
121	0xbd8acaa4	-0.06776932
122	0x3e3a8eec	0.18218583
123	0xbe3bd089	-0.18341269
124	0x3e60bea2	0.2194772
125	0xbe3e4263	-0.18580012
126	0x3dcfba46	0.10142951
127	0x3f143cc5	0.57905227
128	0xbce11840	-0.027477384
129	0xbbdfe840	-0.0068331063
130	0x3e089d96	0.13341364
131	0x3ea728c7	0.32648298
132	0xbe90008f	-0.28125426
133	0xbe127de0	-0.1430583
134	0xbea7c5c4	-0.3276807
135	0xbe46fd0a	-0.19432464
136	0xbd42fd7c	-0.047605023
137	0x3e6ef5ae	0.23335907
138	0x3e039c47	0.12852584
139	0x3e00d98e	0.1258299
140	0xbedc56ca	-0.43034965
141	0xbc127020	-0.0089378655
142	0x3f09d0e8	0.5383439
143	0xbeeb063b	-0.4590319
144	0xbcba1ed4	-0.022719778
145	0x3e999627	0.2999737
146	0xbec183a6	-0.37795752
147	0x3ca2c00f	0.019866971
148	0x3e56aec2	0.20965102
149	0x3e20110a	0.156315
150	0xba936e42	-0.0011248069
151	0x3e3f4b8a	0.1868116
152	0xbea3c8c4	-0.3198911
153	0xbe989d3c	-0.2980746
154	0x3d8ed901	0.06974984
155	0x3e4c2e48	0.1993953
156	0xbdb6c8a9	-0.08924992
157	0xbf2d35ea	-0.6766039
158	0x3eb77d92	0.3583799
159	0x3f31cf80	0.69457245
160	0xbc011c2e	-0.007880254
161	0x3e90822a	0.28224307
162	0xbd852ae9	-0.06502325
163	0xbca7ad50	-0.020468384
164	0xbe08a051	-0.13342406
165	0xbec3087e	-0.38092417
166	0x3ea346cd	0.31889954
167	0x3e9ac4ef	0.30228373
168	0x3cd26b8a	0.025686044
169	0xbe8ed6e7	-0.27898332
170	0xbe9c8e1b	-0.30577168
171	0xbea740bb	-0.32666573
172	0xbda4a433	-0.08039131
173	0x3e52721e	0.20551345
174	0xbe4aba12	-0.19797543
175	0xbead3eb1	-0.33836892
176	0x3e176e44	0.14788157
177	0xbed45718	-0.41472697
178	0xbe0f0e28	-0.13970244
179	0x3da21490	0.07914078
180	0x3e2ab8e0	0.16672087
181	0x3db9e82d	0.09077487
182	0xbe914674	-0.28374064
183	0xbdeb55af	-0.11490952
184	0xbeddb5d0	-0.43302774
185	0xbd52400e	-0.05133062
186	0xbc50a7b7	-0.012735299
187	0x3e1137b2	0.14181402
188	0xbdd862dc	-0.10565731
189	0xbdb2a973	-0.08723726
190	0xbe8df3ec	-0.2772516
191	0xbe22b44e	-0.15889093
192	0xbe4d5649	-0.20052446
193	0xbdbf9d2c	-0.0935615
194	0xbdce1230	-0.10062063
195	0xbecca0d6	-0.39966458
196	0xbe6896b2	-0.22713736
197	0xbe24e143	-0.16101556
198	0xbe8eb744	-0.27874196
199	0x39ac9c00	0.00032922626
200	0x3d304658	0.043035835
201	0x3e9032a9	0.2816365
202	0xbe9f9898	-0.31171107
203	0x3d6984a1	0.05701125
204	0xbe97841f	-0.29592988
205	0xbed9a362	-0.42507464
206	0xbe81e052	-0.25366455
207	0xbe13ab5f	-0.14420842
208	0xbe76ac0e	-0.24089071
209	0xbe0ae600	-0.135643
210	0xbc5b0c09	-0.013369569
211	0xbdfa3e7c	-0.12218949
212	0xbe2cf946	-0.16891965
213	0xbf0b0ae4	-0.5431349
214	0xbe92b43a	-0.28653127
215	0xbe91b941	-0.2846165
216	0x3e7b695c	0.2455191
217	0xbd55842d	-0.052128006
218	0xbf163d8c	-0.58687663
219	0xbe8dec0d	-0.27719155
220	0x3db4da26	0.08830671
221	0xbd6caade	-0.05778014
222	0x3edb5bd8	0.4284351
223	0xbe544246	-0.20728406
224	0xbe54cecd	-0.20782013
225	0xbf07b0a5	-0.53003913
226	0xbe8b7958	-0.27241015
227	0xbf0103a4	-0.5039618
228	0xbe1838a9	-0.14865364
229	0xbd99e520	-0.07514405
230	0xbe864705	-0.2622606
231	0x3e39d94e	0.18149301
232	0x3e1a539c	0.15070957
233	0xbe0ae743	-0.13564782
234	0x3e5cc3de	0.21559092
235	0x3e4facea	0.20280805
236	0x3e83d773	0.25750312
237	0xbdcb2cbb	-0.09920641
238	0x3e1b1ead	0.1514842
239	0xbe207e6b	-0.15673225
240	0xbe6e38de	-0.2326388
241	0xbe1df678	-0.15426052
242	0x3d2bf22a	0.041978993
243	0xbf022a09	-0.5084539
244	0xbe9ea414	-0.30984557
245	0x3e891a33	0.267778
246	0xbd614b2e	-0.055003338
247	0xbdeaecc0	-0.11470938
248	0xbeb298b0	-0.34882116
249	0x3eb07311	0.3446279
250	0xbe8d1bef	-0.27560374
251	0x3dc4cc80	0.09609318
252	0xbe8ded1c	-0.27719963
253	0xbe5ceda3	-0.21575026
254	0xbe965f90	-0.29369783
255	0x3d877a4c	0.06615123

fc2.weight f4 [2, 300]
0	0x3dc46f99	0.09591598
1	0x3d2e91d9	0.04261956
2	0xbd7187d9	-0.058967445
3	0x3c05b4e5	0.008160804
4	0x3e9412d7	0.28920624
5	0xc0235f0a	-2.5526757
6	0x403df294	2.9679308
7	0x3fa909a9	1.3206073
8	0x3bf291d0	0.007402636
9	0xbeedc511	-0.46439412
10	0x40ccfd2d	6.4059052
11	0x3e18b339	0.14912118
12	0x3cee5ca0	0.029096901
13	0x3c6abe43	0.0143275885
14	0x3c870e4b	0.016486308
15	0xc0011c9b	-2.017371
16	0xbf8c4627	-1.0958909
17	0x3c64da3e	0.013968049
18	0xbedf3be4	-0.4360038
19	0xbffcedc6	-1.9760063
20	0xbbe587f0	-0.0070047304
21	0x3b63ee60	0.0034779534
22	0x3cb58ed4	0.022162832
23	0xbd521a8c	-0.05129485
24	0xbc58f8c9	-0.013242909
25	0xbd5d358f	-0.054006156
26	0xbf53d82a	-0.82751715
27	0x3caec690	0.021334916
28	0xbda57096	-0.08078115
29	0xbc413548	-0.011792488
30	0xbf96c76d	-1.177961
31	0xbe94171d	-0.28923884
32	0xbd9b58ef	-0.07585322
33	0xbf2286ca	-0.6348692
34	0x3d3be6ac	0.045874283
35	0xbd114e83	-0.035475265
36	0x3fcca0c2	1.5986559
37	0xbf0c866f	-0.5489263
38	0xbea2a1db	-0.3176411
39	0xba8901a0	-0.0010452755
40	0x3a98f300	0.0011669099
41	0xc02208b4	-2.5317812
42	0xbc22ab8c	-0.009928595
43	0x3df0515c	0.11734268
44	0xbd10d3ac	-0.035358116
45	0xbf8fb367	-1.1226624
46	0xbc607aec	-0.013701182
47	0x3e72bf2c	0.23705739
48	0xbd44699d	-0.047952283
49	0xbd987331	-0.07443846
50	0x3f9d8168	1.2305117
51	0x3e133b24	0.14378029
52	0xbd03425b	-0.032045703
53	0x3fdcc452	1.7247412
54	0x40d15ab1	6.5423207
55	0x3e7f58bc	0.24936193
56	0xbd05077a	-0.032477833
57	0x3b2def70	0.002654042
58	0xbda43b06	-0.0801907
59	0x3d4d80a2	0.050171502
60	0x3e40785f	0.18795918
61	0x3d1147b8	0.035468787
62	0xbd5c7965	-0.05382671
63	0xbbac1538	-0.005251553
64	0xbb8219eb	-0.003970375
65	0x3d2353e2	0.03987492
66	0xbd40cb6c	-0.047069
67	0xc00b436d	-2.1759903
68	0xbe89e2be	-0.26930803
69	0x3a91c82e	0.001112228
70	0x3f580f07	0.8439793
71	0x3f782303	0.96928424
72	0x3cbb7100	0.022881031
73	0x3d29c24e	0.04144507
74	0xbc8b8cc7	-0.017034901
75	0x3f161316	0.5862287
76	0xb96c0d47	-0.0002251166
77	0x3dca2ccc	0.098718256
78	0x411a1717	9.630637
79	0x3b8bd8f1	0.004267805
80	0xc03a151a	-2.907538
81	0xbd399ad2	-0.045313664
82	0x3f92bc06	1.146363
83	0xb9f9a280	-0.00047614053
84	0x3faed338	1.3658209
85	0xbbefe3b8	-0.0073208474
86	0x3d47a03e	0.048736803
87	0xc07db597	-3.9642084
88	0xbd28076b	-0.0410227
89	0xbc4edae8	-0.0126254335
90	0x3a314d56	0.0006763538
91	0xbe053e8e	-0.13012144
92	0xbd2667ef	-0.040626463
93	0xbd6ad7bc	-0.057334647
94	0x3930003b	0.00016784754
95	0x3f31d6df	0.6946849
96	0xbdafa2bb	-0.0857596
97	0xbcd38d20	-0.02582413
98	0x3ca63da8	0.020293072
99	0x3c098b53	0.008395034
100	0x4014d4f1	2.325497
101	0xbd095572	-0.033528753
102	0xbdcc55f3	-0.09977331
103	0xbda82410	-0.082100034
104	0xc015db7b	-2.341521
105	0xc17565b1	-15.337327
106	0x3bb14af6	0.0054105474
107	0x40171c16	2.3610892
108	0xbfbc2e6f	-1.470167
109	0x3dc251fd	0.09488294
110	0xbcd6b804	-0.026210792
111	0xbf9aec90	-1.2103443
112	0x409b9d64	4.8629627
113	0xbf20047c	-0.6250684
114	0x3d9f8b68	0.077902615
115	0x3ba905ed	0.005158177
116	0xbd28b4c9	-0.041188035
117	0x3c9df0f4	0.019279934
118	0xbfca200a	-1.5791028
119	0x3e8b96d0	0.27263498
120	0x3d13e31c	0.03610526
121	0xbcfe20cb	-0.031021496
122	0xbfe49426	-1.7857711
123	0x3e896c72	0.2684055
124	0xbd4d513f	-0.05012631
125	0xbb9ed9e8	-0.004847754
126	0xbe2a5c98	-0.16636884
127	0x401016bc	2.2513876
128	0x3d610c66	0.054943465
129	0x3a92c060	0.0011196248
130	0x3c378190	0.011200324
131	0x3c8191a8	0.015816525
132	0x3c90cc08	0.017675415
133	0xbc08539c	-0.008320715
134	0x3b63a100	0.0034733415
135	0xbdbc2ccf	-0.09188234
136	0x3c434941	0.011919321
137	0xbd4a8567	-0.04944363
138	0xbc9c3443	-0.01906789
139	0xbc9d4eac	-0.019202553
140	0x3f72c02b	0.94824475
141	0xbd0f2e63	-0.034956347
142	0x3fcc9547	1.5983056
143	0xc0146e1c	-2.3192205
144	0x3cc98982	0.024601702
145	0xbfd0b4e4	-1.6305203
146	0x3fe166ac	1.7609458
147	0xbdc9587d	-0.09831331
148	0x3b5ae3e0	0.0033399984
149	0x3d65389a	0.055962183
150	0xbf262e4c	-0.64914393
151	0x3d4b2bba	0.049602248
152	0xbd107c52	-0.03527481
153	0x3c2cbae8	0.010542609
154	0x3f49ef4a	0.7888075
155	0xbcb60f3c	-0.022224061
156	0x3d376646	0.04477527
157	0xbf88b1d8	-1.0679274
158	0xc01fb584	-2.4954538
159	0x40796d54	3.8972979
160	0xbec41024	-0.38293564
161	0x401e34b9	2.471968
162	0xbc63ef9d	-0.013912109
163	0x3ca6e204	0.020371445
164	0x3b32a05a	0.0027256222
165	0x3f86a6da	1.0519669
166	0xc0b8c9da	-5.77464
167	0x3edadfe6	0.42748946
168	0xc0bf2122	-5.9727945
169	0x3f4e0cf2	0.804885
170	0x3d86e6ec	0.065870136
171	0x3c851b6c	0.016248427
172	0x3d010d70	0.031506956
173	0xbc813dce	-0.015776541
174	0xbc06f8be	-0.008238016
175	0xbdccb70d	-0.09995852
176	0x3c71a831	0.014749573
177	0x3f94d69c	1.1627994
178	0xbf9319b4	-1.1492219
179	0xbf784af3	-0.96989363
180	0x4047f0fb	3.1240833
181	0x3e5f97a7	0.21835195
182	0xbc2a841a	-0.010407472
183	0x3d872e23	0.06600597
184	0x3f4ba0cd	0.7954224
185	0xbc832bf9	-0.016012179
186	0xbca1b2fe	-0.01973867
187	0xbf640819	-0.89074856
188	0x3d2ac2c5	0.041689653
189	0x3ef1837f	0.47170636
190	0x3d2f11dd	0.042741645
191	0xbd425978	-0.047448605
192	0x3ec569a1	0.3855715
193	0xbca79628	-0.020457342
194	0x3ab9bd0e	0.0014170723
195	0xbb390023	-0.0028228841
196	0x3d2cf260	0.042223334
197	0x3b93bb28	0.0045083947
198	0xbd1bff67	-0.038085368
199	0xbc0336f0	-0.008008704
200	0x3aaae900	0.001303941
201	0xbcc89658	-0.024485752
202	0x3b7bcf90	0.0038423277
203	0xbf19e6c8	-0.6011777
204	0xbbca9c1e	-0.0061831614
205	0xbdec0311	-0.11524022
206	0x3d4aa2f2	0.049471803
207	0xbf45c912	-0.77259934
208	0xbcbfcc86	-0.023412954
209	0xbcad78ee	-0.021175828
210	0xbf0cef73	-0.5505287
211	0x3b643f90	0.0034827925
212	0x3c9d05e1	0.019167842
213	0xbfb2de59	-1.3974105
214	0xbd0aa9ed	-0.03385346
215	0x402a3b46	2.6598678
216	0xbf940b2b	-1.1565908
217	0xbd00b3ff	-0.031421658
218	0x4005f42e	2.0930285
219	0xbccc9156	-0.024971645
220	0xbb889895	-0.00416858
221	0xbc50a27d	-0.012734053
222	0x40c7c2bd	6.242522
223	0xbcd8cdae	-0.026465263
224	0x3ee26663	0.4421874
225	0x3f2e1f4c	0.68016505
226	0x3e27c869	0.16385044
227	0xc0821ec4	-4.0662556
228	0xbcc250fb	-0.023720255
229	0x3bd23800	0.006415367
230	0x3eab6a00	0.3347931
231	0xbfb477b7	-1.4099034
232	0x3f2df4fb	0.67951936
233	0x3d3e32e0	0.046435237
234	0x3fa93bb0	1.322134
235	0x3f7ad166	0.97975767
236	0x3ec779ad	0.3896002
237	0xbe80f53d	-0.25187102
238	0xbc2b3f42	-0.010452094
239	0x3d553fa0	0.05206263
240	0xbfcd106b	-1.6020635
241	0xbc710a38	-0.014711909
242	0xbf7dca43	-0.9913675
243	0x3f69b981	0.9129868
244	0x3d415146	0.04719665
245	0x3d391c96	0.045193277
246	0xbcd889b8	-0.026432857
247	0xc0a0c6ea	-5.0242815
248	0xbe4465ea	-0.19179502
249	0x3f382ae2	0.71940434
250	0xbd60d886	-0.054893993
251	0xbd7ecb39	-0.062205527
252	0x3cf7fd80	0.030272245
253	0x3f0fa4f0	0.5611105
254	0x3c8bc260	0.017060459
255	0xbd1478bc	-0.036247954

fc2.bias f4 [2]
0	0x3e99d0ee	0.30042213
1	0xbf27d6ee	-0.6556233

fc1.weight f4 [300, 9]
0	0xbe0e0c4b	-0.13871877
1	0x3e202260	0.15638113
2	0xbe9655c8	-0.2936232
3	0x3e1ddd83	0.15416531
4	0xbe4b4046	-0.19848737
5	0x3dfd7506	0.12375836
6	0xbb98f47b	-0.004667816
7	0xbe614500	-0.21998978
8	0xbe0b4f1f	-0.13604401
9	0xbe346af6	-0.17618927
10	0xbe8f8927	-0.28034326
11	0xbe8a3e13	-0.27000484
12	0x3c43098a	0.01190413
13	0x3de85bd8	0.11345643
14	0xbdc11e22	-0.094295755
15	0xbe8a44b7	-0.2700555
16	0xbfc338ce	-1.525171
17	0xbe14622c	-0.14490575
18	0xbda874d9	-0.08225412
19	0x3ccdcfbe	0.025123473
20	0xbd420a13	-0.04737289
21	0xbc0bf32f	-0.008541866
22	0x3e39a989	0.18131079
23	0x3dd23c90	0.10265458
24	0x3e8c13fe	0.27359003
25	0xbef05735	-0.46941534
26	0x3d3dd06d	0.04634135
27	0xbe49acc3	-0.1969481
28	0xbc5afc04	-0.013365749
29	0xbe315456	-0.17317328
30	0x3e78c695	0.24294503
31	0xbd9fbc6c	-0.077996105
32	0x3e822d3c	0.25425136
33	0xbc85f082	-0.016350035
34	0xbe932f23	-0.287469
35	0xbe5eef00	-0.21770859
36	0xbe0b9346	-0.13630399
37	0x3cd28453	0.025697863
38	0xbe1561fb	-0.14588158
39	0xbe88f43b	-0.26748833
40	0x3e88e283	0.26735315
41	0xbf00ee5c	-0.5036371
42	0x3f389fe9	0.72119004
43	0xbeb200a4	-0.34766114
44	0xbe8d86b3	-0.2764183
45	0x3d85a20d	0.06525049
46	0xbe00cd9d	-0.12578435
47	0xbfa0fe71	-1.2577649
48	0x3d31a32e	0.04336851
49	0xc002ed86	-2.0457473
50	0xbf61b0f5	-0.8816064
51	0x40118ba6	2.2741485
52	0xc05eba4b	-3.4801204
53	0xbf5a76d0	-0.85337543
54	0xb832c348	-4.2620377e-05
55	0xbe8e52fb	-0.27797684
56	0x3db7cf4a	0.08975084
57	0xbea265bc	-0.31718242
58	0x40032eaa	2.0497231
59	0x3f5ad887	0.85486645
60	0x3eaa4f85	0.33263794
61	0x40893a56	4.288371
62	0xbf9612d7	-1.17245
63	0xbe808f45	-0.25109306
64	0x3e1820bc	0.14856237
65	0x3ef8c91a	0.48590928
66	0xbce6a8cd	-0.028156662
67	0x3ebbdccd	0.36691895
68	0x3f6f31a5	0.93435127
69	0xbfbd649d	-1.479633
70	0x3fd3a0a9	1.6533405
71	0xbf2d6034	-0.6772492
72	0xbe4de5ce	-0.20107195
73	0xbe720ac2	-0.23636916
74	0xbe386dc8	-0.18010628
75	0xbe18ed7e	-0.14934346
76	0xbe97c886	-0.29645175
77	0xbe997f53	-0.29979953
78	0x3e302e62	0.17205194
79	0xbd004d60	-0.03132379
80	0x3e493eb2	0.19652823
81	0xbd52d1c8	-0.051469594
82	0xbe4e6623	-0.2015615
83	0xbd418c4b	-0.047252934
84	0xbeac7705	-0.33684555
85	0xbf37b1a1	-0.71755415
86	0x3fb9b541	1.4508439
87	0xbfe1575c	-1.7604785
88	0x3f09c3ce	0.538144
89	0xbf5c9ec4	-0.8617976
90	0xbec008e6	-0.3750679
91	0x3e2b7717	0.16744648
92	0x3f615a47	0.8802838
93	0xbe992fc1	-0.29919246
94	0x3fa0f14e	1.257364
95	0x3f57b168	0.84255075
96	0xc09cc50f	-4.899055
97	0x403ce0a8	2.951212
98	0xbf7cd7fe	-0.9876708
99	0xbce2b819	-0.027675675
100	0xbe88e45f	-0.26736733
101	0x3d66ce94	0.056349352
102	0xbeadc371	-0.33938172
103	0x3eada0ac	0.33911645
104	0x3f3da705	0.74082977
105	0x3e88e7e2	0.26739413
106	0x3f42b39a	0.760553
107	0xbf00a394	-0.502496
108	0xbe1f2cc6	-0.15544423
109	0x3e8d2ca3	0.27573118
110	0xbe03d91e	-0.12875792
111	0xbe82b3d4	-0.25527823
112	0xbdba4c80	-0.090966225
113	0xbe87cee0	-0.2652502
114	0xbdd2af04	-0.10287288
115	0x3d0cc020	0.034362912
116	0x3ddc42a0	0.10754895
117	0xbe907c20	-0.282197
118	0x3e8931b6	0.2679574
119	0x3e913f6f	0.28368708
120	0xbe99bda8	-0.3002751
121	0x3e0c107a	0.1367816
122	0xbe469bfe	-0.19395444
123	0xbe22c8e5	-0.15896948
124	0x3cdcce6b	0.026953897
125	0x3e88304a	0.26599342
126	0xbe65b875	-0.22433646
127	0xbe947d84	-0.2900201
128	0xbd5b9e84	-0.05361797
129	0x3db3b3c1	0.0877452
130	0x3e609858	0.21933115
131	0xba86a7b7	-0.0010273372
132	0x3e404d26	0.1877943
133	0x3e274360	0.16334295
134	0xbd9296cc	-0.071576685
135	0xbefd4116	-0.4946372
136	0x3f19eb3a	0.6012455
137	0xbd1fca9d	-0.039011586
138	0x3ebf02c7	0.37306806
139	0x409cc820	4.8994293
140	0xc01f0b0e	-2.4850497
141	0x400d12ed	2.2042801
142	0x4024f978	2.5777264
143	0xbfc9eec7	-1.5775994
144	0xbd9d1747	-0.076704554
145	0x3df5b3ca	0.11997183
146	0x3ee65daf	0.4499335
147	0xbe17f745	-0.1484042
148	0x40014a7a	2.0201707
149	0xbf704352	-0.9385272
150	0xbf886a31	-1.0657407
151	0xc031bf58	-2.7773037
152	0xbe91640a	-0.28396636
153	0xbd905574	-0.07047549
154	0x3dcc171e	0.09965347
155	0xbe6a5a01	-0.22885896
156	0x3db3cacd	0.087789156
157	0xbe0e1ea6	-0.13878879
158	0x3e5863f4	0.21131879
159	0xbe58d2e3	-0.21174197
160	0xbcbdce79	-0.023169743
161	0xbe844490	-0.2583356
162	0xbe6c08dd	-0.23050256
163	0xbdb4f732	-0.08836211
164	0xbeda0204	-0.42579663
165	0xbdbb43b2	-0.09143771
166	0xbf80f8ed	-1.0075966
167	0x3edc7ebc	0.4306544
168	0xbf9738bb	-1.1814188
169	0x3f8050c4	1.0024648
170	0xbec55c13	-0.3854681
171	0xbd8ba65a	-0.068188384
172	0xbe84583b	-0.25848565
173	0x3deb9450	0.11502898
174	0x3b8aa52d	0.0042311163
175	0x3f955ce8	1.1668978
176	0x3fd87db3	1.691336
177	0xbf99cf3d	-1.2016369
178	0x40151279	2.3292525
179	0xbf12eac8	-0.573895
180	0xbdd65926	-0.104662225
181	0xbe933e9a	-0.287587
182	0xbe9ead57	-0.30991623
183	0xbd4a7808	-0.049430877
184	0x3e114762	0.14187387
185	0x3d1f9240	0.038957834
186	0x3d6c7769	0.057731066
187	0x3d92cfd4	0.07168546
188	0x3d0349a8	0.032052666
189	0xbd623475	-0.05522581
190	0xbe2cccf5	-0.1687506
191	0xbd39cb22	-0.04535974
192	0xbe744daa	-0.23857751
193	0xbe951834	-0.29120028
194	0x3e3c3006	0.18377694
195	0x3e822ff6	0.25427216
196	0xbe8666de	-0.26250356
197	0xbe97f72a	-0.2968076
198	0x3e3c607a	0.18396178
199	0xbe1e1e0e	-0.15441152
200	0xbea7edc2	-0.32798582
201	0xbe91751c	-0.2840966
202	0x3e2ddec9	0.16979517
203	0x3dfbd914	0.12297264
204	0xbe8c520f	-0.27406356
205	0x3e14c7aa	0.14529291
206	0xbe0c3930	-0.1369369
207	0xbd7a47be	-0.061103575
208	0xbe56c648	-0.20974076
209	0xbe70e502	-0.2352486
210	0x3d5719df	0.052514907
211	0x3e35f57d	0.17769428
212	0x3dd165b8	0.102244794
213	0xbe2dd181	-0.1697445
214	0xbe625738	-0.22103584
215	0xbe1b1568	-0.15144885
216	0xbf17421c	-0.5908525
217	0xbf80405c	-1.0019641
218	0xbe764272	-0.24048784
219	0xbf3b2bde	-0.7311381
220	0x3fb16715	1.3859583
221	0x3fadf570	1.3590527
222	0x3ea9a718	0.33135295
223	0x3fd77803	1.68335
224	0xbf3b2602	-0.7310487
225	0xbdd024cc	-0.101632684
226	0x3e445faa	0.19177118
227	0x3dab1ab4	0.083547026
228	0xbe68b00b	-0.22723405
229	0xbc688b81	-0.014193417
230	0x3d4aecd8	0.049542278
231	0x3ddf3a94	0.10899845
232	0xbe145168	-0.14484179
233	0xbda19924	-0.078905374
234	0x3eebda3e	0.46064943
235	0xbf136c32	-0.5758697
236	0x3f2579f7	0.6463923
237	0xbea6c1a7	-0.3256962
238	0x3f2d5c86	0.67719305
239	0x3f56d301	0.83915716
240	0x3eca82b9	0.39552858
241	0xc054eefd	-3.3270867
242	0x3e258098	0.16162336
243	0x3c46554a	0.012105295
244	0xbe7afe2a	-0.24511018
245	0x3e2fc580	0.17165184
246	0xbe72ac16	-0.23698458
247	0x3e2cf405	0.16889961
248	0x3d818f07	0.063261084
249	0xbe708615	-0.23488648
250	0xbe5c2033	-0.21496658
251	0xbea48026	-0.3212902
252	0xbeb4f42a	-0.35342532
253	0xbef80116	-0.48438329
254	0xbe4e1ea0	-0.2012887
255	0xbcfc60ba	-0.030807842

fc1.bias f4 [300]
0	0xbe79baba	-0.24387637
1	0xbe6c24fd	-0.23060985
2	0xbec6da7f	-0.38838574
3	0xbe1339b0	-0.14377475
4	0x3e9e8b67	0.3096573
5	0xbf5e2b1f	-0.8678455
6	0x3f69cb57	0.91325897
7	0x3dcf24b2	0.10114421
8	0x3e66ff52	0.22558334
9	0xbeb52932	-0.35382992
10	0xbf2cf9b6	-0.6756853
11	0xbf12f7ac	-0.5740917
12	0xbdf56172	-0.11981477
13	0xbeb1f3b6	-0.3475625
14	0x3dae3fa8	0.08508235
15	0xbaae9e69	-0.0013322356
16	0xbe84a927	-0.25910303
17	0xbe256415	-0.1615146
18	0xbddaeb38	-0.10689396
19	0x3c7df5e5	0.01550052
20	0x3e71a4ce	0.23598024
21	0x3e54622b	0.20740573
22	0xbe097bb3	-0.13426094
23	0x3e0bfe1e	0.13671157
24	0xbe968764	-0.2940017
25	0xbe87e694	-0.26543105
26	0xbca7a757	-0.020465536
27	0x3dbf6c25	0.09346799
28	0x3c95a057	0.018264933
29	0x3ce0ebd0	0.027456194
30	0xbf033357	-0.51250213
31	0xbe893dbb	-0.2680491
32	0xbe15ee44	-0.14641672
33	0x3e301086	0.17193803
34	0xbe49e9b3	-0.19718055
35	0xbd1c098c	-0.038095042
36	0xbe548486	-0.20753679
37	0xbe9e0e0e	-0.30870098
38	0x3d70677b	0.058692437
39	0x3d9b4664	0.07581785
40	0xbe94cae8	-0.29061055
41	0xbe5337bc	-0.2062673
42	0xbe6c38e9	-0.23068585
43	0x3beef9fc	0.007292984
44	0xbe144993	-0.14481191
45	0xbe9a21a8	-0.30103803
46	0x3d920a2b	0.07130846
47	0xbe674811	-0.22586085
48	0xbdc7b18c	-0.09750661
49	0xbebbdec6	-0.366934
50	0x3ea8cb93	0.32967815
51	0x3dc49ab6	0.09599821
52	0xbea721c9	-0.32642964
53	0x3f4ababa	0.7919117
54	0x3f9aab61	1.2083551
55	0x3dccf116	0.10006921
56	0xbe5760a8	-0.21032965
57	0xbe6c38fb	-0.23068611
58	0xbe08129b	-0.13288347
59	0x3e166856	0.14688239
60	0x3d845916	0.06462304
61	0x3da02c24	0.07820919
62	0xbd8ee44f	-0.0697714
63	0xbe86c2ab	-0.26320395
64	0x3d8f484e	0.06996213
65	0xbd0b8608	-0.03406337
66	0xbe7b5883	-0.24545483
67	0xbe888a87	-0.26668188
68	0x3e49acf2	0.1969488
69	0xbed12800	-0.4085083
70	0xbefd56f2	-0.49480397
71	0xbd3a7c0f	-0.045528468
72	0xbea985f3	-0.33110008
73	0xbe8a0faf	-0.2696509
74	0xbe02f153	-0.1278737
75	0x3d4b28f6	0.04959961
76	0x3de26d18	0.11055964
77	0x3e3fefc9	0.18743815
78	0x3f68bbdc	0.9091165
79	0xbdb8a4fe	-0.09015845
80	0xbeba3ec2	-0.36376005
81	0xbea50372	-0.3222919
82	0xbd9aa890	-0.07551682
83	0xbd77ebd8	-0.060527653
84	0x3d974405	0.073860206
85	0x3d7f5e15	0.062345583
86	0x3e4a5f9a	0.19763032
87	0xbd5139f8	-0.051080674
88	0xbdba7ffe	-0.09106444
89	0x3e1861c8	0.1488105
90	0x3dedfffc	0.11621091
91	0x3d649570	0.055806577
92	0xbe6fd8be	-0.23422524
93	0x3e433b9e	0.19065711
94	0xbe7d0b29	-0.24711289
95	0x3eb7967c	0.35856998
96	0xbee544d5	-0.44779077
97	0xbe8e7ca4	-0.27829468
98	0xbe89bd0e	-0.2690205
99	0xbd157e28	-0.036497265
100	0x3c74d9e8	0.014944531
101	0xbcbbae40	-0.022910237
102	0xbf34b8b2	-0.7059432
103	0xbc3f7a9a	-0.011686945
104	0x3d00fbf9	0.0314903
105	0x3ee8cfcd	0.4547104
106	0x3cac4ba8	0.02103217
107	0x3e024dc4	0.12724978
108	0xbef1bbda	-0.47213632
109	0xbf13eaec	-0.5778034
110	0xbd9e39b4	-0.0772585
111	0x3d916016	0.07098405
112	0x3eaf9ea0	0.3430071
113	0xbeb9552a	-0.36197788
114	0xbde30ae9	-0.11086065
115	0x3d969fff	0.073547356
116	0xbe186e80	-0.14885902
117	0xbb94e2c0	-0.0045436323
118	0x3e20a297	0.15687023
119	0xbe978b8c	-0.29598653
120	0x3e70097a	0.23441115
121	0xbd8acaa4	-0.06776932
122	0x3e3b207e	0.18274114
123	0xbe40a873	-0.18814258
124	0x3e60bea2	0.2194772
125	0xbe3e4263	-0.18580012
126	0x3dcfba5e	0.101429686
127	0x3f14d1e5	0.58132774
128	0xbce11840	-0.027477384
129	0xbbdfe840	-0.0068331063
130	0x3e089d96	0.13341364
131	0x3ea728d1	0.32648328
132	0xbe90008f	-0.28125426
133	0xbe127dcc	-0.143058
134	0xbea7c5c4	-0.3276807
135	0xbe46fcdf	-0.194324
136	0xbd42fd6f	-0.047604974
137	0x3e6ef5b1	0.23335911
138	0x3e039c6a	0.12852636
139	0x3e00d98e	0.1258299
140	0xbedc5680	-0.43034744
141	0xbc127020	-0.0089378655
142	0x3f0a54ea	0.5403582
143	0xbeeb0645	-0.4590322
144	0xbcba1eba	-0.02271973
145	0x3e991a18	0.2990272
146	0xbebe4d4c	-0.37168348
147	0x3ca2c04c	0.019867085
148	0x3e56aec2	0.20965102
149	0x3e201130	0.15631557
150	0xbb9d19d4	-0.0047943387
151	0x3e3f4b8a	0.1868116
152	0xbea3c8c4	-0.3198911
153	0xbe989d3c	-0.2980746
154	0x3d8e52ff	0.06949424
155	0x3e4c2e8e	0.19939634
156	0xbdb6c86e	-0.08924948
157	0xbf2e7965	-0.68153983
158	0x3eb755c4	0.3580762
159	0x3f31ae9d	0.69407064
160	0xbbea1a68	-0.007144261
161	0x3e90af53	0.28258762
162	0xbd852adb	-0.06502315
163	0xbca7ad50	-0.020468384
164	0xbe08a003	-0.1334229
165	0xbebf87a9	-0.37408188
166	0x3ea21c66	0.3166229
167	0x3e9c0f91	0.30480626
168	0x3cc02a0d	0.023457551
169	0xbe8f3c35	-0.27975622
170	0xbe9c8df8	-0.30577064
171	0xbea740bb	-0.32666573
172	0xbda4a3e5	-0.08039073
173	0x3e527277	0.20551477
174	0xbe4ab9e7	-0.19797479
175	0xbead3ea1	-0.33836845
176	0x3e176ea3	0.14788298
177	0xbed4ad1d	-0.41538325
178	0xbe0f0e1b	-0.13970225
179	0x3daecadf	0.08534788
180	0x3e2e0298	0.16993177
181	0x3db9aa0b	0.09065636
182	0xbe914678	-0.28374076
183	0xbded45df	-0.115855925
184	0xbeddb5ac	-0.43302667
185	0xbd524014	-0.05133064
186	0xbc50a77c	-0.012735244
187	0x3e0c272d	0.1368682
188	0xbdd862c8	-0.10565716
189	0xbdb9e00e	-0.09075938
190	0xbe8df3af	-0.27724978
191	0xbe22b44e	-0.15889093
192	0xbe4d5643	-0.20052437
193	0xbdbf9cfa	-0.09356113
194	0xbdce1227	-0.10062056
195	0xbecca09f	-0.39966294
196	0xbe689671	-0.22713639
197	0xbe24e143	-0.16101556
198	0xbe8eb6ff	-0.2787399
199	0x39ac9c00	0.00032922626
200	0x3d304658	0.043035835
201	0x3e9032b0	0.28163671
202	0xbe9f9898	-0.31171107
203	0x3d6984b8	0.057011336
204	0xbe978420	-0.2959299
205	0xbed9a318	-0.42507243
206	0xbe81e052	-0.25366455
207	0xbe1ca16d	-0.15295954
208	0xbe76ac0e	-0.24089071
209	0xbe0ae5a7	-0.13564168
210	0xbc13459d	-0.008988765
211	0xbdfa3e7c	-0.12218949
212	0xbe2cf919	-0.16891898
213	0xbf0b0ac3	-0.54313296
214	0xbe92b418	-0.28653026
215	0xbe91bdfb	-0.28465256
216	0x3e78c26b	0.24292915
217	0xbd558404	-0.052127853
218	0xbf163ca9	-0.5868631
219	0xbe8debdf	-0.27719018
220	0x3db4da49	0.08830697
221	0xbd6caa95	-0.057779867
222	0x3ee08917	0.4385459
223	0xbe544246	-0.20728406
224	0xbe562523	-0.20912604
225	0xbf07a037	-0.52978843
226	0xbe8d09e2	-0.27546602
227	0xbeff28ab	-0.49835715
228	0xbe183898	-0.14865339
229	0xbd99e520	-0.07514405
230	0xbe8646d7	-0.26225922
231	0x3e39bdd1	0.18138815
232	0x3e1a53a7	0.15070973
233	0xbe0ae743	-0.13564782
234	0x3e5a2322	0.21302465
235	0x3e4f11ef	0.20221685
236	0x3e814d99	0.25254515
237	0xbdcb2cbf	-0.09920644
238	0x3e1b1ec7	0.1514846
239	0xbe207e6b	-0.15673225
240	0xbe6b1011	-0.22955348
241	0xbe1df678	-0.15426052
242	0x3d20faf6	0.039301835
243	0xbf0229b7	-0.508449
244	0xbe9ea414	-0.30984557
245	0x3e891a46	0.26777858
246	0xbd614add	-0.055003036
247	0xbdf01454	-0.11722627
248	0xbeb2988e	-0.34882015
249	0x3eaf3a14	0.34223998
250	0xbe8d1bef	-0.27560374
251	0x3dc4ccb6	0.09609358
252	0xbe8ded0b	-0.27719912
253	0xbe5cedac	-0.2157504
254	0xbe965f90	-0.29369783
255	0x3d877a4c	0.06615123

fc2.weight f4 [2, 300]
0	0x3dc46f5b	0.09591552
1	0x3d2e91b1	0.04261941
2	0xbd718849	-0.058967862
3	0x3c05b4bf	0.008160769
4	0x3e91eb3b	0.2849978
5	0xc0235f59	-2.5526946
6	0x403df588	2.968111
7	0x3fa8ebc5	1.3196951
8	0x3bf291d0	0.007402636
9	0xbeedc564	-0.4643966
10	0x40ccfb4e	6.405677
11	0x3e18b3a3	0.14912276
12	0x3cee5ca0	0.029096901
13	0x3c6abe64	0.014327619
14	0x3c870e72	0.01648638
15	0xc0011389	-2.0168173
16	0xbf8c1125	-1.0942732
17	0x3c64da31	0.0139680365
18	0xbedf3c4b	-0.43600687
19	0xbffc1edb	-1.9696916
20	0xbbe587f0	-0.0070047304
21	0x3b63ee60	0.0034779534
22	0x3cb58ed4	0.022162832
23	0xbd521af7	-0.051295247
24	0xbc58f8c8	-0.013242908
25	0xbd5d358f	-0.054006156
26	0xbf55089e	-0.83216274
27	0x3caec66d	0.021334851
28	0xbda5765e	-0.080792174
29	0xbc413548	-0.011792488
30	0xbf96c7d7	-1.1779736
31	0xbe95250f	-0.29129836
32	0xbd9b58fb	-0.07585331
33	0xbf228eca	-0.6349913
34	0x3d3be6ac	0.045874283
35	0xbd114eab	-0.035475414
36	0x3fcc04a8	1.5938921
37	0xbf0c594e	-0.5482377
38	0xbea07a49	-0.31343296
39	0xba8901a0	-0.0010452755
40	0x3a98f300	0.0011669099
41	0xc0220918	-2.531805
42	0xbc22ab98	-0.009928606
43	0x3df051bd	0.1173434
44	0xbd10d3ac	-0.035358116
45	0xbf8fb357	-1.1226605
46	0xbc607b0c	-0.013701212
47	0x3e72bf3a	0.2370576
48	0xbd44699d	-0.047952283
49	0xbd987393	-0.07443919
50	0x3f9dbdac	1.2323508
51	0x3e133b3f	0.1437807
52	0xbd034292	-0.03204591
53	0x3fdd9e65	1.7313963
54	0x40d15d14	6.542612
55	0x3e7f5901	0.24936296
56	0xbd05077a	-0.032477833
57	0x3b2def70	0.002654042
58	0xbda43b34	-0.080191046
59	0x3d4d80a2	0.050171502
60	0x3e407882	0.1879597
61	0x3d114807	0.03546908
62	0xbd5c79a7	-0.053826954
63	0xbbac1538	-0.005251553
64	0xbb821a16	-0.003970395
65	0x3d2353e2	0.03987492
66	0xbd40cb6c	-0.047069
67	0xc00b43ca	-2.1760125
68	0xbe896254	-0.2683283
69	0x3a91c828	0.0011122273
70	0x3f580f2f	0.8439817
71	0x3f77b7e1	0.9676495
72	0x3cbb7102	0.022881035
73	0x3d29c24e	0.04144507
74	0xbc8b8c73	-0.017034745
75	0x3f15d146	0.5852245
76	0xb96c0d29	-0.00022511616
77	0x3dca2c7f	0.09871768
78	0x411a25fb	9.634273
79	0x3b8bd89f	0.0042677666
80	0xc03a14f6	-2.9075294
81	0xbd399ad2	-0.045313664
82	0x3f92663d	1.1437451
83	0xb9f9a282	-0.0004761406
84	0x3fae6f64	1.3627744
85	0xbbefe3f8	-0.007320877
86	0x3d47a03e	0.048736803
87	0xc07db5dd	-3.964225
88	0xbd280778	-0.041022748
89	0xbc4edaef	-0.01262544
90	0x3a314db1	0.0006763591
91	0xbe053ec6	-0.13012227
92	0xbd2667ef	-0.040626463
93	0xbd6ad7c9	-0.057334695
94	0x392db352	0.00016565368
95	0x3f30df6d	0.6909092
96	0xbdafa2bd	-0.08575962
97	0xbcd38d20	-0.02582413
98	0x3ca63da9	0.020293074
99	0x3c098b2b	0.008394997
100	0x4014c3b4	2.3244448
101	0xbd095572	-0.033528753
102	0xbdcc559f	-0.099772684
103	0xbda823fd	-0.08209989
104	0xc015dbb7	-2.3415353
105	0xc17572e7	-15.340552
106	0x3bb14b59	0.0054105935
107	0x40171727	2.360788
108	0xbfbc2ed9	-1.4701797
109	0x3dbe7934	0.093004614
110	0xbcd6b804	-0.026210792
111	0xbf9adab5	-1.2097994
112	0x409b5847	4.854526
113	0xbf2004b0	-0.6250715
114	0x3d9f8b97	0.077902965
115	0x3ba90628	0.0051582046
116	0xbd28b485	-0.04118778
117	0x3c9df0f4	0.019279934
118	0xbfcab06c	-1.583509
119	0x3e8b96fe	0.27263635
120	0x3d13e31c	0.03610526
121	0xbcfe20cb	-0.031021496
122	0xbfe4a28a	-1.7862103
123	0x3e8b101e	0.27160734
124	0xbd4d513f	-0.05012631
125	0xbb9ed9e8	-0.004847754
126	0xbe2a5cbc	-0.16636938
127	0x4010125d	2.2511208
128	0x3d610c66	0.054943465
129	0x3a92c060	0.0011196248
130	0x3c378196	0.011200329
131	0x3c8191a8	0.015816525
132	0x3c90cc08	0.017675415
133	0xbc0853d6	-0.008320769
134	0x3b63a100	0.0034733415
135	0xbdbc2ce5	-0.091882505
136	0x3c43499a	0.011919403
137	0xbd4a8567	-0.04944363
138	0xbc9c3483	-0.019068008
139	0xbc9d4eac	-0.019202553
140	0x3f72c002	0.9482423
141	0xbd0f2e63	-0.034956347
142	0x3fcb7610	1.5895405
143	0xc0146e47	-2.3192308
144	0x3cc98937	0.024601562
145	0xbfd04993	-1.6272453
146	0x3fe17a1e	1.7615392
147	0xbdc958c6	-0.09831385
148	0x3b5ae3e0	0.0033399984
149	0x3d65389a	0.055962183
150	0xbf271c45	-0.6527751
151	0x3d4b2bba	0.049602248
152	0xbd107c52	-0.03527481
153	0x3c2cbae8	0.010542609
154	0x3f499fd5	0.7875951
155	0xbcb60fa9	-0.022224264
156	0x3d3766a1	0.04477561
157	0xbf88cb54	-1.0687051
158	0xc02000e3	-2.5000541
159	0x40798c32	3.8991818
160	0xbec5fd7d	-0.3866996
161	0x401e3778	2.4721355
162	0xbc63efd0	-0.013912156
163	0x3ca6e204	0.020371445
164	0x3b32a0c1	0.0027256461
165	0x3f85d28f	1.0454882
166	0xc0b855b0	-5.76046
167	0x3eddc132	0.4331146
168	0xc0bf6250	-5.980751
169	0x3f4d01a5	0.80080634
170	0x3d86e6fe	0.06587027
171	0x3c851b6c	0.016248427
172	0x3d010da1	0.03150714
173	0xbc813dce	-0.015776541
174	0xbc06f8f6	-0.008238068
175	0xbdccb746	-0.09995894
176	0x3c71a851	0.014749602
177	0x3f952e10	1.1654682
178	0xbf931a0b	-1.1492323
179	0xbf78bcf3	-0.97163314
180	0x4047bf51	3.121052
181	0x3e610f26	0.21978435
182	0xbc2a8430	-0.0104074925
183	0x3d844f5f	0.06460451
184	0x3f4ba0c3	0.7954218
185	0xbc832beb	-0.016012153
186	0xbca1b2c5	-0.019738564
187	0xbf643f6e	-0.89159286
188	0x3d2ac2b1	0.04168958
189	0x3ef3861a	0.4756325
190	0x3d2f11d1	0.0427416
191	0xbd425978	-0.047448605
192	0x3ec5695b	0.38556942
193	0xbca79631	-0.020457359
194	0x3ab9bd12	0.0014170727
195	0xbb390065	-0.0028228995
196	0x3d2cf211	0.04222304
197	0x3b93bb28	0.0045083947
198	0xbd1bff64	-0.038085356
199	0xbc0336f0	-0.008008704
200	0x3aaae900	0.001303941
201	0xbcc89658	-0.024485752
202	0x3b7bcf90	0.0038423277
203	0xbf19e70f	-0.6011819
204	0xbbca9c36	-0.0061831726
205	0xbdec0364	-0.11524084
206	0x3d4aa2f2	0.049471803
207	0xbf448351	-0.7676287
208	0xbcbfcc86	-0.023412954
209	0xbcad78d5	-0.021175781
210	0xbf0d2fef	-0.55151266
211	0x3b643f90	0.0034827925
212	0x3c9d0647	0.019168032
213	0xbfb2de79	-1.3974143
214	0xbd0aaa46	-0.03385379
215	0x402a7aea	2.663752
216	0xbf92efd4	-1.147944
217	0xbd00b3ca	-0.03142146
218	0x4005f407	2.0930192
219	0xbccc9100	-0.024971485
220	0xbb8898fa	-0.004168627
221	0xbc50a2cb	-0.012734125
222	0x40c77fa5	6.2343316
223	0xbcd8cdae	-0.026465263
224	0x3ee27e23	0.4423686
225	0x3f2d3319	0.67656094
226	0x3e1eae93	0.15496282
227	0xc0824998	-4.0714836
228	0xbcc250c7	-0.023720158
229	0x3bd23800	0.006415367
230	0x3eab69e1	0.33479217
231	0xbfb42da0	-1.4076424
232	0x3f2df50c	0.67952037
233	0x3d3e32e0	0.046435237
234	0x3fa8bd0c	1.3182693
235	0x3f79d736	0.9759401
236	0x3ec515bc	0.38493145
237	0xbe80f569	-0.25187233
238	0xbc2b3fb0	-0.010452196
239	0x3d553fa8	0.05206266
240	0xbfccdfea	-1.6005833
241	0xbc710a38	-0.014711909
242	0xbf7d9f83	-0.9907152
243	0x3f69b975	0.9129861
244	0x3d41514f	0.047196683
245	0x3d391ce9	0.045193586
246	0xbcd889d7	-0.026432915
247	0xc0a09455	-5.018107
248	0xbe4465fa	-0.19179526
249	0x3f392878	0.72327375
250	0xbd60d886	-0.054893993
251	0xbd7ecb99	-0.062205885
252	0x3cf7fd80	0.030272245
253	0x3f0fa4e3	0.5611097
254	0x3c8bc260	0.017060459
255	0xbd1478bc	-0.036247954

fc2.bias f4 [2]
0	0x3e9a8d20	0.30185795
1	0xbf27d101	-0.6555329

fc1.weight f4 [300, 9]
0	0xbe1a1788	-0.15048039
1	0xbdf295e0	-0.11844993
2	0xbdd97f0c	-0.106199354
3	0xbdbbab60	-0.091635466
4	0xbe8a7c0c	-0.27047765
5	0x3e0541f6	0.13013443
6	0xbe787913	-0.24264936
7	0xbdb2e236	-0.087345526
8	0xbdb3dd10	-0.08782399
9	0xbe8a815b	-0.27051815
10	0xbe149666	-0.14510497
11	0xbe88fb06	-0.26754016
12	0xbea9d54c	-0.33170545
13	0x3e6ff2ea	0.23432508
14	0x3e7bae42	0.24578193
15	0x3e889625	0.2667705
16	0xbe1246a8	-0.14284766
17	0x3e31901e	0.17340133
18	0xbeead96b	-0.45869002
19	0xbda2b3c6	-0.07944445
20	0xbeed560e	-0.46354717
21	0xbe4f8f0a	-0.20269409
22	0xbf81f598	-1.0153074
23	0xbf7d4878	-0.98938704
24	0x402f2965	2.7369015
25	0xc05c60e6	-3.4434142
26	0x3f520c90	0.8205042
27	0xbec95b3e	-0.39327425
28	0x3d700490	0.0585981
29	0xbea92c04	-0.33041394
30	0xbe20e821	-0.1571355
31	0xbc5f10b8	-0.013614826
32	0xbed0b814	-0.4076544
33	0xbea3889e	-0.31940168
34	0x3e04f468	0.12983859
35	0x3d0431d0	0.032274067
36	0xbe7f6b2f	-0.24943231
37	0xbee98ce4	-0.45615304
38	0x3d197296	0.037462793
39	0xbdff1fae	-0.12457214
40	0xbfbb8024	-1.464848
41	0xbff030b8	-1.8764868
42	0xbfe3aa23	-1.7786297
43	0xbf785584	-0.97005486
44	0x3e64157a	0.22273818
45	0xbe3880de	-0.18017909
46	0xbebb7899	-0.36615446
47	0xbf4b73d5	-0.7947362
48	0xbee1afa0	-0.44079304
49	0x3fc75fa4	1.5576062
50	0xc02854b6	-2.6301703
51	0x40001bf5	2.0017064
52	0xbf8a0604	-1.0783086
53	0xbe3c7bbd	-0.18406577
54	0xbea06534	-0.31327212
55	0x3f42f08c	0.76148295
56	0xbd6e6877	-0.058205094
57	0x3edba0d3	0.42896137
58	0x3fcabedd	1.5839497
59	0xbfdfb0a9	-1.7475787
60	0x3f43d841	0.7650185
61	0xbea124a4	-0.31473267
62	0xbf55b539	-0.8347965
63	0xbe264472	-0.16237047
64	0x3eb3e386	0.35134524
65	0x3eb65b63	0.35616598
66	0xbd0550ee	-0.032547884
67	0xbe3baf38	-0.1832856
68	0x3e8301e2	0.25587374
69	0xc0589deb	-3.3846385
70	0x40665e72	3.5995145
71	0x3dd1b15c	0.10238907
72	0xbd4cb81d	-0.04998027
73	0x3ee4c2e0	0.44679928
74	0xbf3a4b9e	-0.7277163
75	0x3edd573d	0.4323062
76	0x3f1207de	0.57043254
77	0xbedb9cdd	-0.42893115
78	0x405c2592	3.439793
79	0xbfc88543	-1.5665668
80	0x3f316b37	0.6930422
81	0xbf0279d9	-0.50967175
82	0x3f10337b	0.5632855
83	0xbe8fb623	-0.28068647
84	0xbd788e42	-0.060682543
85	0x3f3dd01d	0.7414568
86	0xbf916c49	-1.1361171
87	0x3d90a298	0.07062262
88	0x40465120	3.0987015
89	0x3f17e25a	0.5932976
90	0xbe29d003	-0.16583256
91	0xbece3782	-0.40276724
92	0xbd156adb	-0.03647886
93	0xbf7e1e5c	-0.99265075
94	0x3eedd461	0.46451095
95	0x3f382971	0.71938235
96	0xbf43fe25	-0.7655967
97	0x3fe56a5e	1.7923086
98	0xbeba361f	-0.36369416
99	0xbe2705bb	-0.1631078
100	0xbecdef77	-0.4022176
101	0xbe16917d	-0.14703937
102	0x3cfa100c	0.03052523
103	0xbf2eee6d	-0.6833256
104	0xbf588afa	-0.8458706
105	0x3fc1cf94	1.5141473
106	0xc0b037ed	-5.506827
107	0xbf2c3f68	-0.6728425
108	0x390a94b9	0.00013216109
109	0x3df22718	0.11823863
110	0x3e9a762c	0.30168283
111	0xbe145d9c	-0.14488834
112	0x3e92a874	0.28644145
113	0xbe0c75fd	-0.13716884
114	0x3e2a8b65	0.16654737
115	0x3f12b40c	0.5730598
116	0x3ebac877	0.36481068
117	0x3e247e9f	0.16063927
118	0x3e708923	0.23489814
119	0xbe01fbb1	-0.12693669
120	0xbeccaade	-0.3997411
121	0x3f8d9361	1.1060601
122	0x3e136cca	0.14396968
123	0x3ffbdb24	1.9676251
124	0x40a58ddd	5.1735673
125	0x3f930d40	1.1488419
126	0x3c71dc6f	0.014762028
127	0x3e90ffdf	0.28320214
128	0x3e051cb3	0.12999229
129	0xbea5e765	-0.32403103
130	0x3fc1c025	1.5136763
131	0x3e9b682a	0.30352908
132	0x3f6d1abf	0.92618936
133	0x404356c6	3.0521712
134	0x3c8864bd	0.016649598
135	0x3da32a6d	0.079670765
136	0x3c0ab771	0.008466587
137	0x3daeff2d	0.08544765
138	0xbe97d99d	-0.29658213
139	0x3cbd29b8	0.023091182
140	0xbe91f055	-0.2850367
141	0x3cde3c85	0.027128467
142	0xbe6c1a47	-0.23056899
143	0x3cd8d870	0.026470393
144	0xbe95ca98	-0.2925613
145	0x3e1d21c4	0.15344912
146	0xbf09ce7e	-0.5383071
147	0x3dd49d46	0.1038156
148	0xc00b055e	-2.1722026
149	0x3fc2e9fb	1.5227655
150	0x3fa196ac	1.2624106
151	0x3fcf9675	1.6217791
152	0x3e7035a2	0.2345796
153	0x3e3cac36	0.18425068
154	0xbec12c2f	-0.37729022
155	0xbf0177cd	-0.50573426
156	0xbf11496a	-0.56752646
157	0xbfb428ba	-1.4074929
158	0x3f82624f	1.0186251
159	0xbecf1083	-0.40442285
160	0x3fdce0df	1.7256125
161	0x3d28e2fc	0.041232094
162	0xbe675164	-0.22589642
163	0xbe97888d	-0.29596367
164	0x3d8b1a47	0.067921214
165	0x3d2bb8aa	0.041924156
166	0x3cb2a9d9	0.021809505
167	0xbf2342c4	-0.6377375
168	0x3eb29c0c	0.3488468
169	0xbfa08517	-1.2540616
170	0x3e907c35	0.28219762
171	0x3d9c116e	0.07620512
172	0xbf3a8a53	-0.72867316
173	0x3eb932e2	0.36171633
174	0x3e6a3692	0.2287238
175	0x4000e82d	2.014171
176	0x3fba7eca	1.4569943
177	0x3e99a477	0.3000829
178	0xbf9ca105	-1.2236639
179	0xbf04adb5	-0.51827556
180	0x3db28c41	0.087181576
181	0xbe52289b	-0.20523302
182	0xbf2d103e	-0.6760291
183	0x3da43160	0.0801723
184	0xbfcab52c	-1.5836539
185	0xbd7b77f5	-0.061393697
186	0x3d895c8a	0.067071036
187	0xc05138c2	-3.2690892
188	0xbed99743	-0.42498216
189	0x3ec9e750	0.3943429
190	0x3f083788	0.53209734
191	0xbebef572	-0.37296635
192	0xbefd39f4	-0.49458277
193	0x3f418153	0.7558796
194	0x3fab5879	1.3386375
195	0x401e93c1	2.4777682
196	0x408b64f6	4.3560743
197	0xbd572c26	-0.052532338
198	0x3c2384e5	0.009980415
199	0x3f268959	0.65053326
200	0xbd54e6a5	-0.051977772
201	0xbeecc85a	-0.46246606
202	0x3e8abc0e	0.270966
203	0x3f440f2e	0.7658566
204	0xbfa801c8	-1.3125544
205	0x40dbf0e7	6.873157
206	0xbcca9b2e	-0.024732199
207	0xbd5f0e00	-0.05445671
208	0xbdeb9300	-0.115026474
209	0xbdcde3ac	-0.100531906
210	0x3e367b16	0.17820391
211	0x3e9a04fd	0.3008193
212	0x3d550558	0.05200705
213	0xbe6625c0	-0.22475338
214	0xbe5a5d93	-0.21324758
215	0xbd9d7f54	-0.076903015
216	0xbd3ebad3	-0.04656489
217	0x3cea8c32	0.028631303
218	0xbd8732a9	-0.066014595
219	0xbee3b3e3	-0.4447318
220	0x3f8bee49	1.0932094
221	0x3f6993ea	0.91241324
222	0xbe6cd7db	-0.23129217
223	0x40958fbe	4.6737967
224	0x3f402cb1	0.75068194
225	0xbed3c09b	-0.41357884
226	0x3d21c833	0.039497565
227	0xbe9efe25	-0.31053272
228	0xbcc81dca	-0.024428267
229	0xbd8571fb	-0.06515881
230	0xbd250d95	-0.040296156
231	0x3e741088	0.23834431
232	0x3e4f1c5b	0.2022566
233	0xbd1b9bb7	-0.037990298
234	0x3dca6a56	0.09883563
235	0xbe5ea1f6	-0.2174147
236	0xbea4a82d	-0.32159558
237	0xbea9eb22	-0.33187205
238	0xbd09b576	-0.03362032
239	0xba463c04	-0.00075620436
240	0x3e26c626	0.16286525
241	0x3a949e2e	0.0011338645
242	0x3e62598a	0.22104469
243	0xbe646c1b	-0.22306864
244	0x3df59c28	0.11992675
245	0x3eb3c0fb	0.3510817
246	0x3e6a2e3e	0.22869202
247	0xbe968f0e	-0.29406017
248	0xbea83a97	-0.328572
249	0xbd7cf608	-0.06175807
250	0x3ecc185f	0.39862344
251	0x3f0e4816	0.55578744
252	0x3e9be0b6	0.30444878
253	0xbe956468	-0.29178166
254	0x3e45efcb	0.19329755
255	0xbe356995	-0.17716058
